…
I0828 17:25:30.743202 25014 net.cpp:369] The NetState phase (1) differed from the phase (0) specified by a rule in layer data
I0828 17:25:30.744069 25014 net.cpp:98] Initializing net from parameters: 
layer {
  name: "data"
  type: "ImageData"
  top: "data"
  top: "label"
  include {
    phase: TEST
  }
  transform_param {
    mirror: false
    crop_size: 224
    mean_value: 104
    mean_value: 107
    mean_value: 123
  }
  image_data_param {
    source: "/SSD/git-tutorial/GPU-DPU-cross-check/images/image224/caffe_dump.txt"
    batch_size: 1
    shuffle: false
    root_folder: "/SSD/git-tutorial/GPU-DPU-cross-check/images/image224/"
  }
}
layer {
  name: "data_fixed"
  type: "FixedNeuron"
  bottom: "data"
  top: "data"
  param {
    lr_mult: 0
    decay_mult: 0
  }
  fixed_param {
    fixed_method: OVER_FLOW
    bit_width: 8
    follow_data_layer: true
  }
}
layer {
  name: "conv1"
  type: "ConvolutionFixed"
  bottom: "data"
  top: "conv1"
  param {
    lr_mult: 1
    decay_mult: 1
  }
  param {
    lr_mult: 1
    decay_mult: 0
  }
  convolution_param {
    num_output: 64
    bias_term: true
    pad: 3
    kernel_size: 7
    stride: 2
    weight_filler {
      type: "xavier"
    }
    bias_filler {
      type: "constant"
      value: 0.2
    }
  }
  fixed_param {
    fixed_method: DIFF_S
    bit_width: 8
  }
}
layer {
  name: "conv1_relu"
  type: "ReLU"
  bottom: "conv1"
  top: "conv1"
  relu_param {
  }
}
layer {
  name: "pool1"
  type: "Pooling"
  bottom: "conv1"
  top: "pool1"
  pooling_param {
    pool: MAX
    kernel_size: 3
    stride: 2
  }
}
layer {
  name: "pool1_fixed"
  type: "FixedNeuron"
  bottom: "pool1"
  top: "pool1"
  param {
    lr_mult: 0
    decay_mult: 0
  }
  fixed_param {
    fixed_method: DIFF_S
    bit_width: 8
  }
}
layer {
  name: "res2a_branch1"
  type: "ConvolutionFixed"
  bottom: "pool1"
  top: "res2a_branch1"
  param {
    lr_mult: 1
    decay_mult: 1
  }
  param {
    lr_mult: 1
    decay_mult: 0
  }
  convolution_param {
    num_output: 256
    bias_term: true
    pad: 0
    kernel_size: 1
    stride: 1
    weight_filler {
      type: "xavier"
    }
    bias_filler {
      type: "constant"
      value: 0.2
    }
  }
  fixed_param {
    fixed_method: DIFF_S
    bit_width: 8
  }
}
layer {
  name: "res2a_branch1_fixed"
  type: "FixedNeuron"
  bottom: "res2a_branch1"
  top: "res2a_branch1"
  param {
    lr_mult: 0
    decay_mult: 0
  }
  fixed_param {
    fixed_method: DIFF_S
    bit_width: 8
  }
}
layer {
  name: "res2a_branch2a"
  type: "ConvolutionFixed"
  bottom: "pool1"
  top: "res2a_branch2a"
  param {
    lr_mult: 1
    decay_mult: 1
  }
  param {
    lr_mult: 1
    decay_mult: 0
  }
  convolution_param {
    num_output: 64
    bias_term: true
    pad: 0
    kernel_size: 1
    stride: 1
    weight_filler {
      type: "xavier"
    }
    bias_filler {
      type: "constant"
      value: 0.2
    }
  }
  fixed_param {
    fixed_method: DIFF_S
    bit_width: 8
  }
}
layer {
  name: "res2a_branch2a_relu"
  type: "ReLU"
  bottom: "res2a_branch2a"
  top: "res2a_branch2a"
  relu_param {
  }
}
layer {
  name: "res2a_branch2a_fixed"
  type: "FixedNeuron"
  bottom: "res2a_branch2a"
  top: "res2a_branch2a"
  param {
    lr_mult: 0
    decay_mult: 0
  }
  fixed_param {
    fixed_method: DIFF_S
    bit_width: 8
  }
}
layer {
  name: "res2a_branch2b"
  type: "ConvolutionFixed"
  bottom: "res2a_branch2a"
  top: "res2a_branch2b"
  param {
    lr_mult: 1
    decay_mult: 1
  }
  param {
    lr_mult: 1
    decay_mult: 0
  }
  convolution_param {
    num_output: 64
    bias_term: true
    pad: 1
    kernel_size: 3
    stride: 1
    weight_filler {
      type: "xavier"
    }
    bias_filler {
      type: "constant"
      value: 0.2
    }
  }
  fixed_param {
    fixed_method: DIFF_S
    bit_width: 8
  }
}
layer {
  name: "res2a_branch2b_relu"
  type: "ReLU"
  bottom: "res2a_branch2b"
  top: "res2a_branch2b"
  relu_param {
  }
}
layer {
  name: "res2a_branch2b_fixed"
  type: "FixedNeuron"
  bottom: "res2a_branch2b"
  top: "res2a_branch2b"
  param {
    lr_mult: 0
    decay_mult: 0
  }
  fixed_param {
    fixed_method: DIFF_S
    bit_width: 8
  }
}
layer {
  name: "res2a_branch2c"
  type: "ConvolutionFixed"
  bottom: "res2a_branch2b"
  top: "res2a_branch2c"
  param {
    lr_mult: 1
    decay_mult: 1
  }
  param {
    lr_mult: 1
    decay_mult: 0
  }
  convolution_param {
    num_output: 256
    bias_term: true
    pad: 0
    kernel_size: 1
    stride: 1
    weight_filler {
      type: "xavier"
    }
    bias_filler {
      type: "constant"
      value: 0.2
    }
  }
  fixed_param {
    fixed_method: DIFF_S
    bit_width: 8
  }
}
layer {
  name: "res2a_branch2c_fixed"
  type: "FixedNeuron"
  bottom: "res2a_branch2c"
  top: "res2a_branch2c"
  param {
    lr_mult: 0
    decay_mult: 0
  }
  fixed_param {
    fixed_method: DIFF_S
    bit_width: 8
  }
}
layer {
  name: "res2a"
  type: "Eltwise"
  bottom: "res2a_branch1"
  bottom: "res2a_branch2c"
  top: "res2a"
  eltwise_param {
  }
}
layer {
  name: "res2a_relu"
  type: "ReLU"
  bottom: "res2a"
  top: "res2a"
  relu_param {
  }
}
layer {
  name: "res2a_fixed"
  type: "FixedNeuron"
  bottom: "res2a"
  top: "res2a"
  param {
    lr_mult: 0
    decay_mult: 0
  }
  fixed_param {
    fixed_method: DIFF_S
    bit_width: 8
  }
}
layer {
  name: "res2b_branch2a"
  type: "ConvolutionFixed"
  bottom: "res2a"
  top: "res2b_branch2a"
  param {
    lr_mult: 1
    decay_mult: 1
  }
  param {
    lr_mult: 1
    decay_mult: 0
  }
  convolution_param {
    num_output: 64
    bias_term: true
    pad: 0
    kernel_size: 1
    stride: 1
    weight_filler {
      type: "xavier"
    }
    bias_filler {
      type: "constant"
      value: 0.2
    }
  }
  fixed_param {
    fixed_method: DIFF_S
    bit_width: 8
  }
}
layer {
  name: "res2b_branch2a_relu"
  type: "ReLU"
  bottom: "res2b_branch2a"
  top: "res2b_branch2a"
  relu_param {
  }
}
layer {
  name: "res2b_branch2a_fixed"
  type: "FixedNeuron"
  bottom: "res2b_branch2a"
  top: "res2b_branch2a"
  param {
    lr_mult: 0
    decay_mult: 0
  }
  fixed_param {
    fixed_method: DIFF_S
    bit_width: 8
  }
}
layer {
  name: "res2b_branch2b"
  type: "ConvolutionFixed"
  bottom: "res2b_branch2a"
  top: "res2b_branch2b"
  param {
    lr_mult: 1
    decay_mult: 1
  }
  param {
    lr_mult: 1
    decay_mult: 0
  }
  convolution_param {
    num_output: 64
    bias_term: true
    pad: 1
    kernel_size: 3
    stride: 1
    weight_filler {
      type: "xavier"
    }
    bias_filler {
      type: "constant"
      value: 0.2
    }
  }
  fixed_param {
    fixed_method: DIFF_S
    bit_width: 8
  }
}
layer {
  name: "res2b_branch2b_relu"
  type: "ReLU"
  bottom: "res2b_branch2b"
  top: "res2b_branch2b"
  relu_param {
  }
}
layer {
  name: "res2b_branch2b_fixed"
  type: "FixedNeuron"
  bottom: "res2b_branch2b"
  top: "res2b_branch2b"
  param {
    lr_mult: 0
    decay_mult: 0
  }
  fixed_param {
    fixed_method: DIFF_S
    bit_width: 8
  }
}
layer {
  name: "res2b_branch2c"
  type: "ConvolutionFixed"
  bottom: "res2b_branch2b"
  top: "res2b_branch2c"
  param {
    lr_mult: 1
    decay_mult: 1
  }
  param {
    lr_mult: 1
    decay_mult: 0
  }
  convolution_param {
    num_output: 256
    bias_term: true
    pad: 0
    kernel_size: 1
    stride: 1
    weight_filler {
      type: "xavier"
    }
    bias_filler {
      type: "constant"
      value: 0.2
    }
  }
  fixed_param {
    fixed_method: DIFF_S
    bit_width: 8
  }
}
layer {
  name: "res2b_branch2c_fixed"
  type: "FixedNeuron"
  bottom: "res2b_branch2c"
  top: "res2b_branch2c"
  param {
    lr_mult: 0
    decay_mult: 0
  }
  fixed_param {
    fixed_method: DIFF_S
    bit_width: 8
  }
}
layer {
  name: "res2b"
  type: "Eltwise"
  bottom: "res2a"
  bottom: "res2b_branch2c"
  top: "res2b"
  eltwise_param {
  }
}
layer {
  name: "res2b_relu"
  type: "ReLU"
  bottom: "res2b"
  top: "res2b"
  relu_param {
  }
}
layer {
  name: "res2b_fixed"
  type: "FixedNeuron"
  bottom: "res2b"
  top: "res2b"
  param {
    lr_mult: 0
    decay_mult: 0
  }
  fixed_param {
    fixed_method: DIFF_S
    bit_width: 8
  }
}
layer {
  name: "res2c_branch2a"
  type: "ConvolutionFixed"
  bottom: "res2b"
  top: "res2c_branch2a"
  param {
    lr_mult: 1
    decay_mult: 1
  }
  param {
    lr_mult: 1
    decay_mult: 0
  }
  convolution_param {
    num_output: 64
    bias_term: true
    pad: 0
    kernel_size: 1
    stride: 1
    weight_filler {
      type: "xavier"
    }
    bias_filler {
      type: "constant"
      value: 0.2
    }
  }
  fixed_param {
    fixed_method: DIFF_S
    bit_width: 8
  }
}
layer {
  name: "res2c_branch2a_relu"
  type: "ReLU"
  bottom: "res2c_branch2a"
  top: "res2c_branch2a"
  relu_param {
  }
}
layer {
  name: "res2c_branch2a_fixed"
  type: "FixedNeuron"
  bottom: "res2c_branch2a"
  top: "res2c_branch2a"
  param {
    lr_mult: 0
    decay_mult: 0
  }
  fixed_param {
    fixed_method: DIFF_S
    bit_width: 8
  }
}
layer {
  name: "res2c_branch2b"
  type: "ConvolutionFixed"
  bottom: "res2c_branch2a"
  top: "res2c_branch2b"
  param {
    lr_mult: 1
    decay_mult: 1
  }
  param {
    lr_mult: 1
    decay_mult: 0
  }
  convolution_param {
    num_output: 64
    bias_term: true
    pad: 1
    kernel_size: 3
    stride: 1
    weight_filler {
      type: "xavier"
    }
    bias_filler {
      type: "constant"
      value: 0.2
    }
  }
  fixed_param {
    fixed_method: DIFF_S
    bit_width: 8
  }
}
layer {
  name: "res2c_branch2b_relu"
  type: "ReLU"
  bottom: "res2c_branch2b"
  top: "res2c_branch2b"
  relu_param {
  }
}
layer {
  name: "res2c_branch2b_fixed"
  type: "FixedNeuron"
  bottom: "res2c_branch2b"
  top: "res2c_branch2b"
  param {
    lr_mult: 0
    decay_mult: 0
  }
  fixed_param {
    fixed_method: DIFF_S
    bit_width: 8
  }
}
layer {
  name: "res2c_branch2c"
  type: "ConvolutionFixed"
  bottom: "res2c_branch2b"
  top: "res2c_branch2c"
  param {
    lr_mult: 1
    decay_mult: 1
  }
  param {
    lr_mult: 1
    decay_mult: 0
  }
  convolution_param {
    num_output: 256
    bias_term: true
    pad: 0
    kernel_size: 1
    stride: 1
    weight_filler {
      type: "xavier"
    }
    bias_filler {
      type: "constant"
      value: 0.2
    }
  }
  fixed_param {
    fixed_method: DIFF_S
    bit_width: 8
  }
}
layer {
  name: "res2c_branch2c_fixed"
  type: "FixedNeuron"
  bottom: "res2c_branch2c"
  top: "res2c_branch2c"
  param {
    lr_mult: 0
    decay_mult: 0
  }
  fixed_param {
    fixed_method: DIFF_S
    bit_width: 8
  }
}
layer {
  name: "res2c"
  type: "Eltwise"
  bottom: "res2b"
  bottom: "res2c_branch2c"
  top: "res2c"
  eltwise_param {
  }
}
layer {
  name: "res2c_relu"
  type: "ReLU"
  bottom: "res2c"
  top: "res2c"
  relu_param {
  }
}
layer {
  name: "res2c_fixed"
  type: "FixedNeuron"
  bottom: "res2c"
  top: "res2c"
  param {
    lr_mult: 0
    decay_mult: 0
  }
  fixed_param {
    fixed_method: DIFF_S
    bit_width: 8
  }
}
layer {
  name: "res3a_branch1"
  type: "ConvolutionFixed"
  bottom: "res2c"
  top: "res3a_branch1"
  param {
    lr_mult: 1
    decay_mult: 1
  }
  param {
    lr_mult: 1
    decay_mult: 0
  }
  convolution_param {
    num_output: 512
    bias_term: true
    pad: 0
    kernel_size: 1
    stride: 2
    weight_filler {
      type: "xavier"
    }
    bias_filler {
      type: "constant"
      value: 0.2
    }
  }
  fixed_param {
    fixed_method: DIFF_S
    bit_width: 8
  }
}
layer {
  name: "res3a_branch1_fixed"
  type: "FixedNeuron"
  bottom: "res3a_branch1"
  top: "res3a_branch1"
  param {
    lr_mult: 0
    decay_mult: 0
  }
  fixed_param {
    fixed_method: DIFF_S
    bit_width: 8
  }
}
layer {
  name: "res3a_branch2a"
  type: "ConvolutionFixed"
  bottom: "res2c"
  top: "res3a_branch2a"
  param {
    lr_mult: 1
    decay_mult: 1
  }
  param {
    lr_mult: 1
    decay_mult: 0
  }
  convolution_param {
    num_output: 128
    bias_term: true
    pad: 0
    kernel_size: 1
    stride: 2
    weight_filler {
      type: "xavier"
    }
    bias_filler {
      type: "constant"
      value: 0.2
    }
  }
  fixed_param {
    fixed_method: DIFF_S
    bit_width: 8
  }
}
layer {
  name: "res3a_branch2a_relu"
  type: "ReLU"
  bottom: "res3a_branch2a"
  top: "res3a_branch2a"
  relu_param {
  }
}
layer {
  name: "res3a_branch2a_fixed"
  type: "FixedNeuron"
  bottom: "res3a_branch2a"
  top: "res3a_branch2a"
  param {
    lr_mult: 0
    decay_mult: 0
  }
  fixed_param {
    fixed_method: DIFF_S
    bit_width: 8
  }
}
layer {
  name: "res3a_branch2b"
  type: "ConvolutionFixed"
  bottom: "res3a_branch2a"
  top: "res3a_branch2b"
  param {
    lr_mult: 1
    decay_mult: 1
  }
  param {
    lr_mult: 1
    decay_mult: 0
  }
  convolution_param {
    num_output: 128
    bias_term: true
    pad: 1
    kernel_size: 3
    stride: 1
    weight_filler {
      type: "xavier"
    }
    bias_filler {
      type: "constant"
      value: 0.2
    }
  }
  fixed_param {
    fixed_method: DIFF_S
    bit_width: 8
  }
}
layer {
  name: "res3a_branch2b_relu"
  type: "ReLU"
  bottom: "res3a_branch2b"
  top: "res3a_branch2b"
  relu_param {
  }
}
layer {
  name: "res3a_branch2b_fixed"
  type: "FixedNeuron"
  bottom: "res3a_branch2b"
  top: "res3a_branch2b"
  param {
    lr_mult: 0
    decay_mult: 0
  }
  fixed_param {
    fixed_method: DIFF_S
    bit_width: 8
  }
}
layer {
  name: "res3a_branch2c"
  type: "ConvolutionFixed"
  bottom: "res3a_branch2b"
  top: "res3a_branch2c"
  param {
    lr_mult: 1
    decay_mult: 1
  }
  param {
    lr_mult: 1
    decay_mult: 0
  }
  convolution_param {
    num_output: 512
    bias_term: true
    pad: 0
    kernel_size: 1
    stride: 1
    weight_filler {
      type: "xavier"
    }
    bias_filler {
      type: "constant"
      value: 0.2
    }
  }
  fixed_param {
    fixed_method: DIFF_S
    bit_width: 8
  }
}
layer {
  name: "res3a_branch2c_fixed"
  type: "FixedNeuron"
  bottom: "res3a_branch2c"
  top: "res3a_branch2c"
  param {
    lr_mult: 0
    decay_mult: 0
  }
  fixed_param {
    fixed_method: DIFF_S
    bit_width: 8
  }
}
layer {
  name: "res3a"
  type: "Eltwise"
  bottom: "res3a_branch1"
  bottom: "res3a_branch2c"
  top: "res3a"
  eltwise_param {
  }
}
layer {
  name: "res3a_relu"
  type: "ReLU"
  bottom: "res3a"
  top: "res3a"
  relu_param {
  }
}
layer {
  name: "res3a_fixed"
  type: "FixedNeuron"
  bottom: "res3a"
  top: "res3a"
  param {
    lr_mult: 0
    decay_mult: 0
  }
  fixed_param {
    fixed_method: DIFF_S
    bit_width: 8
  }
}
layer {
  name: "res3b_branch2a"
  type: "ConvolutionFixed"
  bottom: "res3a"
  top: "res3b_branch2a"
  param {
    lr_mult: 1
    decay_mult: 1
  }
  param {
    lr_mult: 1
    decay_mult: 0
  }
  convolution_param {
    num_output: 128
    bias_term: true
    pad: 0
    kernel_size: 1
    stride: 1
    weight_filler {
      type: "xavier"
    }
    bias_filler {
      type: "constant"
      value: 0.2
    }
  }
  fixed_param {
    fixed_method: DIFF_S
    bit_width: 8
  }
}
layer {
  name: "res3b_branch2a_relu"
  type: "ReLU"
  bottom: "res3b_branch2a"
  top: "res3b_branch2a"
  relu_param {
  }
}
layer {
  name: "res3b_branch2a_fixed"
  type: "FixedNeuron"
  bottom: "res3b_branch2a"
  top: "res3b_branch2a"
  param {
    lr_mult: 0
    decay_mult: 0
  }
  fixed_param {
    fixed_method: DIFF_S
    bit_width: 8
  }
}
layer {
  name: "res3b_branch2b"
  type: "ConvolutionFixed"
  bottom: "res3b_branch2a"
  top: "res3b_branch2b"
  param {
    lr_mult: 1
    decay_mult: 1
  }
  param {
    lr_mult: 1
    decay_mult: 0
  }
  convolution_param {
    num_output: 128
    bias_term: true
    pad: 1
    kernel_size: 3
    stride: 1
    weight_filler {
      type: "xavier"
    }
    bias_filler {
      type: "constant"
      value: 0.2
    }
  }
  fixed_param {
    fixed_method: DIFF_S
    bit_width: 8
  }
}
layer {
  name: "res3b_branch2b_relu"
  type: "ReLU"
  bottom: "res3b_branch2b"
  top: "res3b_branch2b"
  relu_param {
  }
}
layer {
  name: "res3b_branch2b_fixed"
  type: "FixedNeuron"
  bottom: "res3b_branch2b"
  top: "res3b_branch2b"
  param {
    lr_mult: 0
    decay_mult: 0
  }
  fixed_param {
    fixed_method: DIFF_S
    bit_width: 8
  }
}
layer {
  name: "res3b_branch2c"
  type: "ConvolutionFixed"
  bottom: "res3b_branch2b"
  top: "res3b_branch2c"
  param {
    lr_mult: 1
    decay_mult: 1
  }
  param {
    lr_mult: 1
    decay_mult: 0
  }
  convolution_param {
    num_output: 512
    bias_term: true
    pad: 0
    kernel_size: 1
    stride: 1
    weight_filler {
      type: "xavier"
    }
    bias_filler {
      type: "constant"
      value: 0.2
    }
  }
  fixed_param {
    fixed_method: DIFF_S
    bit_width: 8
  }
}
layer {
  name: "res3b_branch2c_fixed"
  type: "FixedNeuron"
  bottom: "res3b_branch2c"
  top: "res3b_branch2c"
  param {
    lr_mult: 0
    decay_mult: 0
  }
  fixed_param {
    fixed_method: DIFF_S
    bit_width: 8
  }
}
layer {
  name: "res3b"
  type: "Eltwise"
  bottom: "res3a"
  bottom: "res3b_branch2c"
  top: "res3b"
  eltwise_param {
  }
}
layer {
  name: "res3b_relu"
  type: "ReLU"
  bottom: "res3b"
  top: "res3b"
  relu_param {
  }
}
layer {
  name: "res3b_fixed"
  type: "FixedNeuron"
  bottom: "res3b"
  top: "res3b"
  param {
    lr_mult: 0
    decay_mult: 0
  }
  fixed_param {
    fixed_method: DIFF_S
    bit_width: 8
  }
}
layer {
  name: "res3c_branch2a"
  type: "ConvolutionFixed"
  bottom: "res3b"
  top: "res3c_branch2a"
  param {
    lr_mult: 1
    decay_mult: 1
  }
  param {
    lr_mult: 1
    decay_mult: 0
  }
  convolution_param {
    num_output: 128
    bias_term: true
    pad: 0
    kernel_size: 1
    stride: 1
    weight_filler {
      type: "xavier"
    }
    bias_filler {
      type: "constant"
      value: 0.2
    }
  }
  fixed_param {
    fixed_method: DIFF_S
    bit_width: 8
  }
}
layer {
  name: "res3c_branch2a_relu"
  type: "ReLU"
  bottom: "res3c_branch2a"
  top: "res3c_branch2a"
  relu_param {
  }
}
layer {
  name: "res3c_branch2a_fixed"
  type: "FixedNeuron"
  bottom: "res3c_branch2a"
  top: "res3c_branch2a"
  param {
    lr_mult: 0
    decay_mult: 0
  }
  fixed_param {
    fixed_method: DIFF_S
    bit_width: 8
  }
}
layer {
  name: "res3c_branch2b"
  type: "ConvolutionFixed"
  bottom: "res3c_branch2a"
  top: "res3c_branch2b"
  param {
    lr_mult: 1
    decay_mult: 1
  }
  param {
    lr_mult: 1
    decay_mult: 0
  }
  convolution_param {
    num_output: 128
    bias_term: true
    pad: 1
    kernel_size: 3
    stride: 1
    weight_filler {
      type: "xavier"
    }
    bias_filler {
      type: "constant"
      value: 0.2
    }
  }
  fixed_param {
    fixed_method: DIFF_S
    bit_width: 8
  }
}
layer {
  name: "res3c_branch2b_relu"
  type: "ReLU"
  bottom: "res3c_branch2b"
  top: "res3c_branch2b"
  relu_param {
  }
}
layer {
  name: "res3c_branch2b_fixed"
  type: "FixedNeuron"
  bottom: "res3c_branch2b"
  top: "res3c_branch2b"
  param {
    lr_mult: 0
    decay_mult: 0
  }
  fixed_param {
    fixed_method: DIFF_S
    bit_width: 8
  }
}
layer {
  name: "res3c_branch2c"
  type: "ConvolutionFixed"
  bottom: "res3c_branch2b"
  top: "res3c_branch2c"
  param {
    lr_mult: 1
    decay_mult: 1
  }
  param {
    lr_mult: 1
    decay_mult: 0
  }
  convolution_param {
    num_output: 512
    bias_term: true
    pad: 0
    kernel_size: 1
    stride: 1
    weight_filler {
      type: "xavier"
    }
    bias_filler {
      type: "constant"
      value: 0.2
    }
  }
  fixed_param {
    fixed_method: DIFF_S
    bit_width: 8
  }
}
layer {
  name: "res3c_branch2c_fixed"
  type: "FixedNeuron"
  bottom: "res3c_branch2c"
  top: "res3c_branch2c"
  param {
    lr_mult: 0
    decay_mult: 0
  }
  fixed_param {
    fixed_method: DIFF_S
    bit_width: 8
  }
}
layer {
  name: "res3c"
  type: "Eltwise"
  bottom: "res3b"
  bottom: "res3c_branch2c"
  top: "res3c"
  eltwise_param {
  }
}
layer {
  name: "res3c_relu"
  type: "ReLU"
  bottom: "res3c"
  top: "res3c"
  relu_param {
  }
}
layer {
  name: "res3c_fixed"
  type: "FixedNeuron"
  bottom: "res3c"
  top: "res3c"
  param {
    lr_mult: 0
    decay_mult: 0
  }
  fixed_param {
    fixed_method: DIFF_S
    bit_width: 8
  }
}
layer {
  name: "res3d_branch2a"
  type: "ConvolutionFixed"
  bottom: "res3c"
  top: "res3d_branch2a"
  param {
    lr_mult: 1
    decay_mult: 1
  }
  param {
    lr_mult: 1
    decay_mult: 0
  }
  convolution_param {
    num_output: 128
    bias_term: true
    pad: 0
    kernel_size: 1
    stride: 1
    weight_filler {
      type: "xavier"
    }
    bias_filler {
      type: "constant"
      value: 0.2
    }
  }
  fixed_param {
    fixed_method: DIFF_S
    bit_width: 8
  }
}
layer {
  name: "res3d_branch2a_relu"
  type: "ReLU"
  bottom: "res3d_branch2a"
  top: "res3d_branch2a"
  relu_param {
  }
}
layer {
  name: "res3d_branch2a_fixed"
  type: "FixedNeuron"
  bottom: "res3d_branch2a"
  top: "res3d_branch2a"
  param {
    lr_mult: 0
    decay_mult: 0
  }
  fixed_param {
    fixed_method: DIFF_S
    bit_width: 8
  }
}
layer {
  name: "res3d_branch2b"
  type: "ConvolutionFixed"
  bottom: "res3d_branch2a"
  top: "res3d_branch2b"
  param {
    lr_mult: 1
    decay_mult: 1
  }
  param {
    lr_mult: 1
    decay_mult: 0
  }
  convolution_param {
    num_output: 128
    bias_term: true
    pad: 1
    kernel_size: 3
    stride: 1
    weight_filler {
      type: "xavier"
    }
    bias_filler {
      type: "constant"
      value: 0.2
    }
  }
  fixed_param {
    fixed_method: DIFF_S
    bit_width: 8
  }
}
layer {
  name: "res3d_branch2b_relu"
  type: "ReLU"
  bottom: "res3d_branch2b"
  top: "res3d_branch2b"
  relu_param {
  }
}
layer {
  name: "res3d_branch2b_fixed"
  type: "FixedNeuron"
  bottom: "res3d_branch2b"
  top: "res3d_branch2b"
  param {
    lr_mult: 0
    decay_mult: 0
  }
  fixed_param {
    fixed_method: DIFF_S
    bit_width: 8
  }
}
layer {
  name: "res3d_branch2c"
  type: "ConvolutionFixed"
  bottom: "res3d_branch2b"
  top: "res3d_branch2c"
  param {
    lr_mult: 1
    decay_mult: 1
  }
  param {
    lr_mult: 1
    decay_mult: 0
  }
  convolution_param {
    num_output: 512
    bias_term: true
    pad: 0
    kernel_size: 1
    stride: 1
    weight_filler {
      type: "xavier"
    }
    bias_filler {
      type: "constant"
      value: 0.2
    }
  }
  fixed_param {
    fixed_method: DIFF_S
    bit_width: 8
  }
}
layer {
  name: "res3d_branch2c_fixed"
  type: "FixedNeuron"
  bottom: "res3d_branch2c"
  top: "res3d_branch2c"
  param {
    lr_mult: 0
    decay_mult: 0
  }
  fixed_param {
    fixed_method: DIFF_S
    bit_width: 8
  }
}
layer {
  name: "res3d"
  type: "Eltwise"
  bottom: "res3c"
  bottom: "res3d_branch2c"
  top: "res3d"
  eltwise_param {
  }
}
layer {
  name: "res3d_relu"
  type: "ReLU"
  bottom: "res3d"
  top: "res3d"
  relu_param {
  }
}
layer {
  name: "res3d_fixed"
  type: "FixedNeuron"
  bottom: "res3d"
  top: "res3d"
  param {
    lr_mult: 0
    decay_mult: 0
  }
  fixed_param {
    fixed_method: DIFF_S
    bit_width: 8
  }
}
layer {
  name: "res4a_branch1"
  type: "ConvolutionFixed"
  bottom: "res3d"
  top: "res4a_branch1"
  param {
    lr_mult: 1
    decay_mult: 1
  }
  param {
    lr_mult: 1
    decay_mult: 0
  }
  convolution_param {
    num_output: 1024
    bias_term: true
    pad: 0
    kernel_size: 1
    stride: 2
    weight_filler {
      type: "xavier"
    }
    bias_filler {
      type: "constant"
      value: 0.2
    }
  }
  fixed_param {
    fixed_method: DIFF_S
    bit_width: 8
  }
}
layer {
  name: "res4a_branch1_fixed"
  type: "FixedNeuron"
  bottom: "res4a_branch1"
  top: "res4a_branch1"
  param {
    lr_mult: 0
    decay_mult: 0
  }
  fixed_param {
    fixed_method: DIFF_S
    bit_width: 8
  }
}
layer {
  name: "res4a_branch2a"
  type: "ConvolutionFixed"
  bottom: "res3d"
  top: "res4a_branch2a"
  param {
    lr_mult: 1
    decay_mult: 1
  }
  param {
    lr_mult: 1
    decay_mult: 0
  }
  convolution_param {
    num_output: 256
    bias_term: true
    pad: 0
    kernel_size: 1
    stride: 2
    weight_filler {
      type: "xavier"
    }
    bias_filler {
      type: "constant"
      value: 0.2
    }
  }
  fixed_param {
    fixed_method: DIFF_S
    bit_width: 8
  }
}
layer {
  name: "res4a_branch2a_relu"
  type: "ReLU"
  bottom: "res4a_branch2a"
  top: "res4a_branch2a"
  relu_param {
  }
}
layer {
  name: "res4a_branch2a_fixed"
  type: "FixedNeuron"
  bottom: "res4a_branch2a"
  top: "res4a_branch2a"
  param {
    lr_mult: 0
    decay_mult: 0
  }
  fixed_param {
    fixed_method: DIFF_S
    bit_width: 8
  }
}
layer {
  name: "res4a_branch2b"
  type: "ConvolutionFixed"
  bottom: "res4a_branch2a"
  top: "res4a_branch2b"
  param {
    lr_mult: 1
    decay_mult: 1
  }
  param {
    lr_mult: 1
    decay_mult: 0
  }
  convolution_param {
    num_output: 256
    bias_term: true
    pad: 1
    kernel_size: 3
    stride: 1
    weight_filler {
      type: "xavier"
    }
    bias_filler {
      type: "constant"
      value: 0.2
    }
  }
  fixed_param {
    fixed_method: DIFF_S
    bit_width: 8
  }
}
layer {
  name: "res4a_branch2b_relu"
  type: "ReLU"
  bottom: "res4a_branch2b"
  top: "res4a_branch2b"
  relu_param {
  }
}
layer {
  name: "res4a_branch2b_fixed"
  type: "FixedNeuron"
  bottom: "res4a_branch2b"
  top: "res4a_branch2b"
  param {
    lr_mult: 0
    decay_mult: 0
  }
  fixed_param {
    fixed_method: DIFF_S
    bit_width: 8
  }
}
layer {
  name: "res4a_branch2c"
  type: "ConvolutionFixed"
  bottom: "res4a_branch2b"
  top: "res4a_branch2c"
  param {
    lr_mult: 1
    decay_mult: 1
  }
  param {
    lr_mult: 1
    decay_mult: 0
  }
  convolution_param {
    num_output: 1024
    bias_term: true
    pad: 0
    kernel_size: 1
    stride: 1
    weight_filler {
      type: "xavier"
    }
    bias_filler {
      type: "constant"
      value: 0.2
    }
  }
  fixed_param {
    fixed_method: DIFF_S
    bit_width: 8
  }
}
layer {
  name: "res4a_branch2c_fixed"
  type: "FixedNeuron"
  bottom: "res4a_branch2c"
  top: "res4a_branch2c"
  param {
    lr_mult: 0
    decay_mult: 0
  }
  fixed_param {
    fixed_method: DIFF_S
    bit_width: 8
  }
}
layer {
  name: "res4a"
  type: "Eltwise"
  bottom: "res4a_branch1"
  bottom: "res4a_branch2c"
  top: "res4a"
  eltwise_param {
  }
}
layer {
  name: "res4a_relu"
  type: "ReLU"
  bottom: "res4a"
  top: "res4a"
  relu_param {
  }
}
layer {
  name: "res4a_fixed"
  type: "FixedNeuron"
  bottom: "res4a"
  top: "res4a"
  param {
    lr_mult: 0
    decay_mult: 0
  }
  fixed_param {
    fixed_method: DIFF_S
    bit_width: 8
  }
}
layer {
  name: "res4b_branch2a"
  type: "ConvolutionFixed"
  bottom: "res4a"
  top: "res4b_branch2a"
  param {
    lr_mult: 1
    decay_mult: 1
  }
  param {
    lr_mult: 1
    decay_mult: 0
  }
  convolution_param {
    num_output: 256
    bias_term: true
    pad: 0
    kernel_size: 1
    stride: 1
    weight_filler {
      type: "xavier"
    }
    bias_filler {
      type: "constant"
      value: 0.2
    }
  }
  fixed_param {
    fixed_method: DIFF_S
    bit_width: 8
  }
}
layer {
  name: "res4b_branch2a_relu"
  type: "ReLU"
  bottom: "res4b_branch2a"
  top: "res4b_branch2a"
  relu_param {
  }
}
layer {
  name: "res4b_branch2a_fixed"
  type: "FixedNeuron"
  bottom: "res4b_branch2a"
  top: "res4b_branch2a"
  param {
    lr_mult: 0
    decay_mult: 0
  }
  fixed_param {
    fixed_method: DIFF_S
    bit_width: 8
  }
}
layer {
  name: "res4b_branch2b"
  type: "ConvolutionFixed"
  bottom: "res4b_branch2a"
  top: "res4b_branch2b"
  param {
    lr_mult: 1
    decay_mult: 1
  }
  param {
    lr_mult: 1
    decay_mult: 0
  }
  convolution_param {
    num_output: 256
    bias_term: true
    pad: 1
    kernel_size: 3
    stride: 1
    weight_filler {
      type: "xavier"
    }
    bias_filler {
      type: "constant"
      value: 0.2
    }
  }
  fixed_param {
    fixed_method: DIFF_S
    bit_width: 8
  }
}
layer {
  name: "res4b_branch2b_relu"
  type: "ReLU"
  bottom: "res4b_branch2b"
  top: "res4b_branch2b"
  relu_param {
  }
}
layer {
  name: "res4b_branch2b_fixed"
  type: "FixedNeuron"
  bottom: "res4b_branch2b"
  top: "res4b_branch2b"
  param {
    lr_mult: 0
    decay_mult: 0
  }
  fixed_param {
    fixed_method: DIFF_S
    bit_width: 8
  }
}
layer {
  name: "res4b_branch2c"
  type: "ConvolutionFixed"
  bottom: "res4b_branch2b"
  top: "res4b_branch2c"
  param {
    lr_mult: 1
    decay_mult: 1
  }
  param {
    lr_mult: 1
    decay_mult: 0
  }
  convolution_param {
    num_output: 1024
    bias_term: true
    pad: 0
    kernel_size: 1
    stride: 1
    weight_filler {
      type: "xavier"
    }
    bias_filler {
      type: "constant"
      value: 0.2
    }
  }
  fixed_param {
    fixed_method: DIFF_S
    bit_width: 8
  }
}
layer {
  name: "res4b_branch2c_fixed"
  type: "FixedNeuron"
  bottom: "res4b_branch2c"
  top: "res4b_branch2c"
  param {
    lr_mult: 0
    decay_mult: 0
  }
  fixed_param {
    fixed_method: DIFF_S
    bit_width: 8
  }
}
layer {
  name: "res4b"
  type: "Eltwise"
  bottom: "res4a"
  bottom: "res4b_branch2c"
  top: "res4b"
  eltwise_param {
  }
}
layer {
  name: "res4b_relu"
  type: "ReLU"
  bottom: "res4b"
  top: "res4b"
  relu_param {
  }
}
layer {
  name: "res4b_fixed"
  type: "FixedNeuron"
  bottom: "res4b"
  top: "res4b"
  param {
    lr_mult: 0
    decay_mult: 0
  }
  fixed_param {
    fixed_method: DIFF_S
    bit_width: 8
  }
}
layer {
  name: "res4c_branch2a"
  type: "ConvolutionFixed"
  bottom: "res4b"
  top: "res4c_branch2a"
  param {
    lr_mult: 1
    decay_mult: 1
  }
  param {
    lr_mult: 1
    decay_mult: 0
  }
  convolution_param {
    num_output: 256
    bias_term: true
    pad: 0
    kernel_size: 1
    stride: 1
    weight_filler {
      type: "xavier"
    }
    bias_filler {
      type: "constant"
      value: 0.2
    }
  }
  fixed_param {
    fixed_method: DIFF_S
    bit_width: 8
  }
}
layer {
  name: "res4c_branch2a_relu"
  type: "ReLU"
  bottom: "res4c_branch2a"
  top: "res4c_branch2a"
  relu_param {
  }
}
layer {
  name: "res4c_branch2a_fixed"
  type: "FixedNeuron"
  bottom: "res4c_branch2a"
  top: "res4c_branch2a"
  param {
    lr_mult: 0
    decay_mult: 0
  }
  fixed_param {
    fixed_method: DIFF_S
    bit_width: 8
  }
}
layer {
  name: "res4c_branch2b"
  type: "ConvolutionFixed"
  bottom: "res4c_branch2a"
  top: "res4c_branch2b"
  param {
    lr_mult: 1
    decay_mult: 1
  }
  param {
    lr_mult: 1
    decay_mult: 0
  }
I0828 17:25:30.744513 25014 layer_factory.hpp:123] Creating layer data
I0828 17:25:30.744534 25014 net.cpp:140] Creating Layer data
I0828 17:25:30.744540 25014 net.cpp:455] data -> data
I0828 17:25:30.744547 25014 net.cpp:455] data -> label
I0828 17:25:30.744560 25014 image_data_layer.cpp:87] Opening file /SSD/git-tutorial/GPU-DPU-cross-check/images/image224/caffe_dump.txt
I0828 17:25:30.744591 25014 image_data_layer.cpp:102] A total of 1 images.
I0828 17:25:30.745885 25014 image_data_layer.cpp:130] output data size: 1,3,224,224
I0828 17:25:30.749555 25014 internal_thread.cpp:73] Starting internal thread(s) on GPU 0
I0828 17:25:30.749646 25014 net.cpp:190] Setting up data
I0828 17:25:30.749655 25014 net.cpp:197] Top shape: 1 3 224 224 (150528)
I0828 17:25:30.749657 25014 net.cpp:197] Top shape: 1 (1)
I0828 17:25:30.749660 25014 net.cpp:205] Memory required for data: 602116
I0828 17:25:30.749665 25014 layer_factory.hpp:123] Creating layer data_fixed
I0828 17:25:30.749672 25014 net.cpp:140] Creating Layer data_fixed
I0828 17:25:30.749676 25014 net.cpp:481] data_fixed <- data
I0828 17:25:30.749684 25014 net.cpp:442] data_fixed -> data (in-place)
I0828 17:25:30.749789 25014 net.cpp:190] Setting up data_fixed
I0828 17:25:30.749799 25014 net.cpp:197] Top shape: 1 3 224 224 (150528)
I0828 17:25:30.749801 25014 net.cpp:205] Memory required for data: 1204228
I0828 17:25:30.749814 25014 layer_factory.hpp:123] Creating layer conv1
I0828 17:25:30.749825 25014 net.cpp:140] Creating Layer conv1
I0828 17:25:30.749826 25014 net.cpp:481] conv1 <- data
I0828 17:25:30.749831 25014 net.cpp:455] conv1 -> conv1
I0828 17:25:30.750059 25014 layer_factory.hpp:123] Creating layer conv1
I0828 17:25:30.750306 25014 net.cpp:190] Setting up conv1
I0828 17:25:30.750313 25014 net.cpp:197] Top shape: 1 64 112 112 (802816)
I0828 17:25:30.750315 25014 net.cpp:205] Memory required for data: 4415492
I0828 17:25:30.750321 25014 layer_factory.hpp:123] Creating layer conv1_relu
I0828 17:25:30.750326 25014 net.cpp:140] Creating Layer conv1_relu
I0828 17:25:30.750329 25014 net.cpp:481] conv1_relu <- conv1
I0828 17:25:30.750332 25014 net.cpp:442] conv1_relu -> conv1 (in-place)
I0828 17:25:30.750340 25014 net.cpp:190] Setting up conv1_relu
I0828 17:25:30.750344 25014 net.cpp:197] Top shape: 1 64 112 112 (802816)
I0828 17:25:30.750346 25014 net.cpp:205] Memory required for data: 7626756
I0828 17:25:30.750349 25014 layer_factory.hpp:123] Creating layer pool1
I0828 17:25:30.750353 25014 net.cpp:140] Creating Layer pool1
I0828 17:25:30.750355 25014 net.cpp:481] pool1 <- conv1
I0828 17:25:30.750360 25014 net.cpp:455] pool1 -> pool1
I0828 17:25:30.750378 25014 net.cpp:190] Setting up pool1
I0828 17:25:30.750382 25014 net.cpp:197] Top shape: 1 64 56 56 (200704)
I0828 17:25:30.750385 25014 net.cpp:205] Memory required for data: 8429572
I0828 17:25:30.750387 25014 layer_factory.hpp:123] Creating layer pool1_fixed
I0828 17:25:30.750391 25014 net.cpp:140] Creating Layer pool1_fixed
I0828 17:25:30.750393 25014 net.cpp:481] pool1_fixed <- pool1
I0828 17:25:30.750397 25014 net.cpp:442] pool1_fixed -> pool1 (in-place)
I0828 17:25:30.750416 25014 net.cpp:190] Setting up pool1_fixed
I0828 17:25:30.750419 25014 net.cpp:197] Top shape: 1 64 56 56 (200704)
I0828 17:25:30.750422 25014 net.cpp:205] Memory required for data: 9232388
I0828 17:25:30.750425 25014 layer_factory.hpp:123] Creating layer pool1_pool1_fixed_0_split
I0828 17:25:30.750429 25014 net.cpp:140] Creating Layer pool1_pool1_fixed_0_split
I0828 17:25:30.750432 25014 net.cpp:481] pool1_pool1_fixed_0_split <- pool1
I0828 17:25:30.750435 25014 net.cpp:455] pool1_pool1_fixed_0_split -> pool1_pool1_fixed_0_split_0
I0828 17:25:30.750440 25014 net.cpp:455] pool1_pool1_fixed_0_split -> pool1_pool1_fixed_0_split_1
I0828 17:25:30.750459 25014 net.cpp:190] Setting up pool1_pool1_fixed_0_split
I0828 17:25:30.750463 25014 net.cpp:197] Top shape: 1 64 56 56 (200704)
I0828 17:25:30.750466 25014 net.cpp:197] Top shape: 1 64 56 56 (200704)
I0828 17:25:30.750468 25014 net.cpp:205] Memory required for data: 10838020
I0828 17:25:30.750471 25014 layer_factory.hpp:123] Creating layer res2a_branch1
I0828 17:25:30.750478 25014 net.cpp:140] Creating Layer res2a_branch1
I0828 17:25:30.750479 25014 net.cpp:481] res2a_branch1 <- pool1_pool1_fixed_0_split_0
I0828 17:25:30.750484 25014 net.cpp:455] res2a_branch1 -> res2a_branch1
I0828 17:25:30.750648 25014 layer_factory.hpp:123] Creating layer res2a_branch1
I0828 17:25:30.750882 25014 net.cpp:190] Setting up res2a_branch1
I0828 17:25:30.750898 25014 net.cpp:197] Top shape: 1 256 56 56 (802816)
I0828 17:25:30.750901 25014 net.cpp:205] Memory required for data: 14049284
I0828 17:25:30.750906 25014 layer_factory.hpp:123] Creating layer res2a_branch1_fixed
I0828 17:25:30.750911 25014 net.cpp:140] Creating Layer res2a_branch1_fixed
I0828 17:25:30.750914 25014 net.cpp:481] res2a_branch1_fixed <- res2a_branch1
I0828 17:25:30.750918 25014 net.cpp:442] res2a_branch1_fixed -> res2a_branch1 (in-place)
I0828 17:25:30.750952 25014 net.cpp:190] Setting up res2a_branch1_fixed
I0828 17:25:30.750970 25014 net.cpp:197] Top shape: 1 256 56 56 (802816)
I0828 17:25:30.750973 25014 net.cpp:205] Memory required for data: 17260548
I0828 17:25:30.750977 25014 layer_factory.hpp:123] Creating layer res2a_branch2a
I0828 17:25:30.750982 25014 net.cpp:140] Creating Layer res2a_branch2a
I0828 17:25:30.750985 25014 net.cpp:481] res2a_branch2a <- pool1_pool1_fixed_0_split_1
I0828 17:25:30.750989 25014 net.cpp:455] res2a_branch2a -> res2a_branch2a
I0828 17:25:30.751118 25014 layer_factory.hpp:123] Creating layer res2a_branch2a
I0828 17:25:30.751302 25014 net.cpp:190] Setting up res2a_branch2a
I0828 17:25:30.751307 25014 net.cpp:197] Top shape: 1 64 56 56 (200704)
I0828 17:25:30.751309 25014 net.cpp:205] Memory required for data: 18063364
I0828 17:25:30.751314 25014 layer_factory.hpp:123] Creating layer res2a_branch2a_relu
I0828 17:25:30.751318 25014 net.cpp:140] Creating Layer res2a_branch2a_relu
I0828 17:25:30.751322 25014 net.cpp:481] res2a_branch2a_relu <- res2a_branch2a
I0828 17:25:30.751339 25014 net.cpp:442] res2a_branch2a_relu -> res2a_branch2a (in-place)
I0828 17:25:30.751344 25014 net.cpp:190] Setting up res2a_branch2a_relu
I0828 17:25:30.751348 25014 net.cpp:197] Top shape: 1 64 56 56 (200704)
I0828 17:25:30.751350 25014 net.cpp:205] Memory required for data: 18866180
I0828 17:25:30.751353 25014 layer_factory.hpp:123] Creating layer res2a_branch2a_fixed
I0828 17:25:30.751356 25014 net.cpp:140] Creating Layer res2a_branch2a_fixed
I0828 17:25:30.751358 25014 net.cpp:481] res2a_branch2a_fixed <- res2a_branch2a
I0828 17:25:30.751363 25014 net.cpp:442] res2a_branch2a_fixed -> res2a_branch2a (in-place)
I0828 17:25:30.751394 25014 net.cpp:190] Setting up res2a_branch2a_fixed
I0828 17:25:30.751397 25014 net.cpp:197] Top shape: 1 64 56 56 (200704)
I0828 17:25:30.751400 25014 net.cpp:205] Memory required for data: 19668996
I0828 17:25:30.751404 25014 layer_factory.hpp:123] Creating layer res2a_branch2b
I0828 17:25:30.751410 25014 net.cpp:140] Creating Layer res2a_branch2b
I0828 17:25:30.751411 25014 net.cpp:481] res2a_branch2b <- res2a_branch2a
I0828 17:25:30.751416 25014 net.cpp:455] res2a_branch2b -> res2a_branch2b
I0828 17:25:30.751754 25014 layer_factory.hpp:123] Creating layer res2a_branch2b
I0828 17:25:30.752084 25014 net.cpp:190] Setting up res2a_branch2b
I0828 17:25:30.752089 25014 net.cpp:197] Top shape: 1 64 56 56 (200704)
I0828 17:25:30.752091 25014 net.cpp:205] Memory required for data: 20471812
I0828 17:25:30.752095 25014 layer_factory.hpp:123] Creating layer res2a_branch2b_relu
I0828 17:25:30.752099 25014 net.cpp:140] Creating Layer res2a_branch2b_relu
I0828 17:25:30.752102 25014 net.cpp:481] res2a_branch2b_relu <- res2a_branch2b
I0828 17:25:30.752105 25014 net.cpp:442] res2a_branch2b_relu -> res2a_branch2b (in-place)
I0828 17:25:30.752110 25014 net.cpp:190] Setting up res2a_branch2b_relu
I0828 17:25:30.752113 25014 net.cpp:197] Top shape: 1 64 56 56 (200704)
I0828 17:25:30.752115 25014 net.cpp:205] Memory required for data: 21274628
I0828 17:25:30.752118 25014 layer_factory.hpp:123] Creating layer res2a_branch2b_fixed
I0828 17:25:30.752121 25014 net.cpp:140] Creating Layer res2a_branch2b_fixed
I0828 17:25:30.752123 25014 net.cpp:481] res2a_branch2b_fixed <- res2a_branch2b
I0828 17:25:30.752126 25014 net.cpp:442] res2a_branch2b_fixed -> res2a_branch2b (in-place)
I0828 17:25:30.752146 25014 net.cpp:190] Setting up res2a_branch2b_fixed
I0828 17:25:30.752151 25014 net.cpp:197] Top shape: 1 64 56 56 (200704)
I0828 17:25:30.752153 25014 net.cpp:205] Memory required for data: 22077444
I0828 17:25:30.752156 25014 layer_factory.hpp:123] Creating layer res2a_branch2c
I0828 17:25:30.752161 25014 net.cpp:140] Creating Layer res2a_branch2c
I0828 17:25:30.752164 25014 net.cpp:481] res2a_branch2c <- res2a_branch2b
I0828 17:25:30.752167 25014 net.cpp:455] res2a_branch2c -> res2a_branch2c
I0828 17:25:30.752331 25014 layer_factory.hpp:123] Creating layer res2a_branch2c
I0828 17:25:30.752578 25014 net.cpp:190] Setting up res2a_branch2c
I0828 17:25:30.752584 25014 net.cpp:197] Top shape: 1 256 56 56 (802816)
I0828 17:25:30.752586 25014 net.cpp:205] Memory required for data: 25288708
I0828 17:25:30.752590 25014 layer_factory.hpp:123] Creating layer res2a_branch2c_fixed
I0828 17:25:30.752595 25014 net.cpp:140] Creating Layer res2a_branch2c_fixed
I0828 17:25:30.752598 25014 net.cpp:481] res2a_branch2c_fixed <- res2a_branch2c
I0828 17:25:30.752601 25014 net.cpp:442] res2a_branch2c_fixed -> res2a_branch2c (in-place)
I0828 17:25:30.752621 25014 net.cpp:190] Setting up res2a_branch2c_fixed
I0828 17:25:30.752625 25014 net.cpp:197] Top shape: 1 256 56 56 (802816)
I0828 17:25:30.752627 25014 net.cpp:205] Memory required for data: 28499972
I0828 17:25:30.752630 25014 layer_factory.hpp:123] Creating layer res2a
I0828 17:25:30.752635 25014 net.cpp:140] Creating Layer res2a
I0828 17:25:30.752638 25014 net.cpp:481] res2a <- res2a_branch1
I0828 17:25:30.752641 25014 net.cpp:481] res2a <- res2a_branch2c
I0828 17:25:30.752645 25014 net.cpp:455] res2a -> res2a
I0828 17:25:30.752658 25014 net.cpp:190] Setting up res2a
I0828 17:25:30.752661 25014 net.cpp:197] Top shape: 1 256 56 56 (802816)
I0828 17:25:30.752665 25014 net.cpp:205] Memory required for data: 31711236
I0828 17:25:30.752666 25014 layer_factory.hpp:123] Creating layer res2a_relu
I0828 17:25:30.752671 25014 net.cpp:140] Creating Layer res2a_relu
I0828 17:25:30.752672 25014 net.cpp:481] res2a_relu <- res2a
I0828 17:25:30.752676 25014 net.cpp:442] res2a_relu -> res2a (in-place)
I0828 17:25:30.752681 25014 net.cpp:190] Setting up res2a_relu
I0828 17:25:30.752683 25014 net.cpp:197] Top shape: 1 256 56 56 (802816)
I0828 17:25:30.752686 25014 net.cpp:205] Memory required for data: 34922500
I0828 17:25:30.752687 25014 layer_factory.hpp:123] Creating layer res2a_fixed
I0828 17:25:30.752691 25014 net.cpp:140] Creating Layer res2a_fixed
I0828 17:25:30.752693 25014 net.cpp:481] res2a_fixed <- res2a
I0828 17:25:30.752696 25014 net.cpp:442] res2a_fixed -> res2a (in-place)
I0828 17:25:30.752715 25014 net.cpp:190] Setting up res2a_fixed
I0828 17:25:30.752719 25014 net.cpp:197] Top shape: 1 256 56 56 (802816)
I0828 17:25:30.752737 25014 net.cpp:205] Memory required for data: 38133764
I0828 17:25:30.752741 25014 layer_factory.hpp:123] Creating layer res2a_res2a_fixed_0_split
I0828 17:25:30.752745 25014 net.cpp:140] Creating Layer res2a_res2a_fixed_0_split
I0828 17:25:30.752748 25014 net.cpp:481] res2a_res2a_fixed_0_split <- res2a
I0828 17:25:30.752751 25014 net.cpp:455] res2a_res2a_fixed_0_split -> res2a_res2a_fixed_0_split_0
I0828 17:25:30.752755 25014 net.cpp:455] res2a_res2a_fixed_0_split -> res2a_res2a_fixed_0_split_1
I0828 17:25:30.752789 25014 net.cpp:190] Setting up res2a_res2a_fixed_0_split
I0828 17:25:30.752792 25014 net.cpp:197] Top shape: 1 256 56 56 (802816)
I0828 17:25:30.752795 25014 net.cpp:197] Top shape: 1 256 56 56 (802816)
I0828 17:25:30.752797 25014 net.cpp:205] Memory required for data: 44556292
I0828 17:25:30.752799 25014 layer_factory.hpp:123] Creating layer res2b_branch2a
I0828 17:25:30.752805 25014 net.cpp:140] Creating Layer res2b_branch2a
I0828 17:25:30.752809 25014 net.cpp:481] res2b_branch2a <- res2a_res2a_fixed_0_split_0
I0828 17:25:30.752812 25014 net.cpp:455] res2b_branch2a -> res2b_branch2a
I0828 17:25:30.752986 25014 layer_factory.hpp:123] Creating layer res2b_branch2a
I0828 17:25:30.753221 25014 net.cpp:190] Setting up res2b_branch2a
I0828 17:25:30.753226 25014 net.cpp:197] Top shape: 1 64 56 56 (200704)
I0828 17:25:30.753228 25014 net.cpp:205] Memory required for data: 45359108
I0828 17:25:30.753232 25014 layer_factory.hpp:123] Creating layer res2b_branch2a_relu
I0828 17:25:30.753237 25014 net.cpp:140] Creating Layer res2b_branch2a_relu
I0828 17:25:30.753238 25014 net.cpp:481] res2b_branch2a_relu <- res2b_branch2a
I0828 17:25:30.753242 25014 net.cpp:442] res2b_branch2a_relu -> res2b_branch2a (in-place)
I0828 17:25:30.753247 25014 net.cpp:190] Setting up res2b_branch2a_relu
I0828 17:25:30.753249 25014 net.cpp:197] Top shape: 1 64 56 56 (200704)
I0828 17:25:30.753252 25014 net.cpp:205] Memory required for data: 46161924
I0828 17:25:30.753254 25014 layer_factory.hpp:123] Creating layer res2b_branch2a_fixed
I0828 17:25:30.753257 25014 net.cpp:140] Creating Layer res2b_branch2a_fixed
I0828 17:25:30.753260 25014 net.cpp:481] res2b_branch2a_fixed <- res2b_branch2a
I0828 17:25:30.753263 25014 net.cpp:442] res2b_branch2a_fixed -> res2b_branch2a (in-place)
I0828 17:25:30.753283 25014 net.cpp:190] Setting up res2b_branch2a_fixed
I0828 17:25:30.753286 25014 net.cpp:197] Top shape: 1 64 56 56 (200704)
I0828 17:25:30.753288 25014 net.cpp:205] Memory required for data: 46964740
I0828 17:25:30.753291 25014 layer_factory.hpp:123] Creating layer res2b_branch2b
I0828 17:25:30.753296 25014 net.cpp:140] Creating Layer res2b_branch2b
I0828 17:25:30.753298 25014 net.cpp:481] res2b_branch2b <- res2b_branch2a
I0828 17:25:30.753304 25014 net.cpp:455] res2b_branch2b -> res2b_branch2b
I0828 17:25:30.753577 25014 layer_factory.hpp:123] Creating layer res2b_branch2b
I0828 17:25:30.753942 25014 net.cpp:190] Setting up res2b_branch2b
I0828 17:25:30.753947 25014 net.cpp:197] Top shape: 1 64 56 56 (200704)
I0828 17:25:30.753950 25014 net.cpp:205] Memory required for data: 47767556
I0828 17:25:30.753954 25014 layer_factory.hpp:123] Creating layer res2b_branch2b_relu
I0828 17:25:30.753958 25014 net.cpp:140] Creating Layer res2b_branch2b_relu
I0828 17:25:30.753960 25014 net.cpp:481] res2b_branch2b_relu <- res2b_branch2b
I0828 17:25:30.753964 25014 net.cpp:442] res2b_branch2b_relu -> res2b_branch2b (in-place)
I0828 17:25:30.753968 25014 net.cpp:190] Setting up res2b_branch2b_relu
I0828 17:25:30.753971 25014 net.cpp:197] Top shape: 1 64 56 56 (200704)
I0828 17:25:30.753974 25014 net.cpp:205] Memory required for data: 48570372
I0828 17:25:30.753978 25014 layer_factory.hpp:123] Creating layer res2b_branch2b_fixed
I0828 17:25:30.753980 25014 net.cpp:140] Creating Layer res2b_branch2b_fixed
I0828 17:25:30.753983 25014 net.cpp:481] res2b_branch2b_fixed <- res2b_branch2b
I0828 17:25:30.753985 25014 net.cpp:442] res2b_branch2b_fixed -> res2b_branch2b (in-place)
I0828 17:25:30.754006 25014 net.cpp:190] Setting up res2b_branch2b_fixed
I0828 17:25:30.754010 25014 net.cpp:197] Top shape: 1 64 56 56 (200704)
I0828 17:25:30.754012 25014 net.cpp:205] Memory required for data: 49373188
I0828 17:25:30.754015 25014 layer_factory.hpp:123] Creating layer res2b_branch2c
I0828 17:25:30.754021 25014 net.cpp:140] Creating Layer res2b_branch2c
I0828 17:25:30.754024 25014 net.cpp:481] res2b_branch2c <- res2b_branch2b
I0828 17:25:30.754027 25014 net.cpp:455] res2b_branch2c -> res2b_branch2c
I0828 17:25:30.754221 25014 layer_factory.hpp:123] Creating layer res2b_branch2c
I0828 17:25:30.754454 25014 net.cpp:190] Setting up res2b_branch2c
I0828 17:25:30.754459 25014 net.cpp:197] Top shape: 1 256 56 56 (802816)
I0828 17:25:30.754462 25014 net.cpp:205] Memory required for data: 52584452
I0828 17:25:30.754480 25014 layer_factory.hpp:123] Creating layer res2b_branch2c_fixed
I0828 17:25:30.754484 25014 net.cpp:140] Creating Layer res2b_branch2c_fixed
I0828 17:25:30.754487 25014 net.cpp:481] res2b_branch2c_fixed <- res2b_branch2c
I0828 17:25:30.754490 25014 net.cpp:442] res2b_branch2c_fixed -> res2b_branch2c (in-place)
I0828 17:25:30.754523 25014 net.cpp:190] Setting up res2b_branch2c_fixed
I0828 17:25:30.754528 25014 net.cpp:197] Top shape: 1 256 56 56 (802816)
I0828 17:25:30.754529 25014 net.cpp:205] Memory required for data: 55795716
I0828 17:25:30.754532 25014 layer_factory.hpp:123] Creating layer res2b
I0828 17:25:30.754536 25014 net.cpp:140] Creating Layer res2b
I0828 17:25:30.754539 25014 net.cpp:481] res2b <- res2a_res2a_fixed_0_split_1
I0828 17:25:30.754542 25014 net.cpp:481] res2b <- res2b_branch2c
I0828 17:25:30.754545 25014 net.cpp:455] res2b -> res2b
I0828 17:25:30.754559 25014 net.cpp:190] Setting up res2b
I0828 17:25:30.754564 25014 net.cpp:197] Top shape: 1 256 56 56 (802816)
I0828 17:25:30.754566 25014 net.cpp:205] Memory required for data: 59006980
I0828 17:25:30.754568 25014 layer_factory.hpp:123] Creating layer res2b_relu
I0828 17:25:30.754571 25014 net.cpp:140] Creating Layer res2b_relu
I0828 17:25:30.754575 25014 net.cpp:481] res2b_relu <- res2b
I0828 17:25:30.754577 25014 net.cpp:442] res2b_relu -> res2b (in-place)
I0828 17:25:30.754581 25014 net.cpp:190] Setting up res2b_relu
I0828 17:25:30.754585 25014 net.cpp:197] Top shape: 1 256 56 56 (802816)
I0828 17:25:30.754587 25014 net.cpp:205] Memory required for data: 62218244
I0828 17:25:30.754590 25014 layer_factory.hpp:123] Creating layer res2b_fixed
I0828 17:25:30.754592 25014 net.cpp:140] Creating Layer res2b_fixed
I0828 17:25:30.754595 25014 net.cpp:481] res2b_fixed <- res2b
I0828 17:25:30.754598 25014 net.cpp:442] res2b_fixed -> res2b (in-place)
I0828 17:25:30.754629 25014 net.cpp:190] Setting up res2b_fixed
I0828 17:25:30.754633 25014 net.cpp:197] Top shape: 1 256 56 56 (802816)
I0828 17:25:30.754635 25014 net.cpp:205] Memory required for data: 65429508
I0828 17:25:30.754639 25014 layer_factory.hpp:123] Creating layer res2b_res2b_fixed_0_split
I0828 17:25:30.754643 25014 net.cpp:140] Creating Layer res2b_res2b_fixed_0_split
I0828 17:25:30.754645 25014 net.cpp:481] res2b_res2b_fixed_0_split <- res2b
I0828 17:25:30.754649 25014 net.cpp:455] res2b_res2b_fixed_0_split -> res2b_res2b_fixed_0_split_0
I0828 17:25:30.754653 25014 net.cpp:455] res2b_res2b_fixed_0_split -> res2b_res2b_fixed_0_split_1
I0828 17:25:30.754671 25014 net.cpp:190] Setting up res2b_res2b_fixed_0_split
I0828 17:25:30.754675 25014 net.cpp:197] Top shape: 1 256 56 56 (802816)
I0828 17:25:30.754678 25014 net.cpp:197] Top shape: 1 256 56 56 (802816)
I0828 17:25:30.754680 25014 net.cpp:205] Memory required for data: 71852036
I0828 17:25:30.754683 25014 layer_factory.hpp:123] Creating layer res2c_branch2a
I0828 17:25:30.754688 25014 net.cpp:140] Creating Layer res2c_branch2a
I0828 17:25:30.754691 25014 net.cpp:481] res2c_branch2a <- res2b_res2b_fixed_0_split_0
I0828 17:25:30.754695 25014 net.cpp:455] res2c_branch2a -> res2c_branch2a
I0828 17:25:30.754984 25014 layer_factory.hpp:123] Creating layer res2c_branch2a
I0828 17:25:30.755232 25014 net.cpp:190] Setting up res2c_branch2a
I0828 17:25:30.755237 25014 net.cpp:197] Top shape: 1 64 56 56 (200704)
I0828 17:25:30.755240 25014 net.cpp:205] Memory required for data: 72654852
I0828 17:25:30.755244 25014 layer_factory.hpp:123] Creating layer res2c_branch2a_relu
I0828 17:25:30.755249 25014 net.cpp:140] Creating Layer res2c_branch2a_relu
I0828 17:25:30.755250 25014 net.cpp:481] res2c_branch2a_relu <- res2c_branch2a
I0828 17:25:30.755254 25014 net.cpp:442] res2c_branch2a_relu -> res2c_branch2a (in-place)
I0828 17:25:30.755259 25014 net.cpp:190] Setting up res2c_branch2a_relu
I0828 17:25:30.755262 25014 net.cpp:197] Top shape: 1 64 56 56 (200704)
I0828 17:25:30.755264 25014 net.cpp:205] Memory required for data: 73457668
I0828 17:25:30.755266 25014 layer_factory.hpp:123] Creating layer res2c_branch2a_fixed
I0828 17:25:30.755270 25014 net.cpp:140] Creating Layer res2c_branch2a_fixed
I0828 17:25:30.755272 25014 net.cpp:481] res2c_branch2a_fixed <- res2c_branch2a
I0828 17:25:30.755275 25014 net.cpp:442] res2c_branch2a_fixed -> res2c_branch2a (in-place)
I0828 17:25:30.755295 25014 net.cpp:190] Setting up res2c_branch2a_fixed
I0828 17:25:30.755300 25014 net.cpp:197] Top shape: 1 64 56 56 (200704)
I0828 17:25:30.755301 25014 net.cpp:205] Memory required for data: 74260484
I0828 17:25:30.755304 25014 layer_factory.hpp:123] Creating layer res2c_branch2b
I0828 17:25:30.755309 25014 net.cpp:140] Creating Layer res2c_branch2b
I0828 17:25:30.755312 25014 net.cpp:481] res2c_branch2b <- res2c_branch2a
I0828 17:25:30.755316 25014 net.cpp:455] res2c_branch2b -> res2c_branch2b
I0828 17:25:30.755578 25014 layer_factory.hpp:123] Creating layer res2c_branch2b
I0828 17:25:30.756243 25014 net.cpp:190] Setting up res2c_branch2b
I0828 17:25:30.756251 25014 net.cpp:197] Top shape: 1 64 56 56 (200704)
I0828 17:25:30.756253 25014 net.cpp:205] Memory required for data: 75063300
I0828 17:25:30.756258 25014 layer_factory.hpp:123] Creating layer res2c_branch2b_relu
I0828 17:25:30.756263 25014 net.cpp:140] Creating Layer res2c_branch2b_relu
I0828 17:25:30.756265 25014 net.cpp:481] res2c_branch2b_relu <- res2c_branch2b
I0828 17:25:30.756269 25014 net.cpp:442] res2c_branch2b_relu -> res2c_branch2b (in-place)
I0828 17:25:30.756274 25014 net.cpp:190] Setting up res2c_branch2b_relu
I0828 17:25:30.756278 25014 net.cpp:197] Top shape: 1 64 56 56 (200704)
I0828 17:25:30.756279 25014 net.cpp:205] Memory required for data: 75866116
I0828 17:25:30.756281 25014 layer_factory.hpp:123] Creating layer res2c_branch2b_fixed
I0828 17:25:30.756285 25014 net.cpp:140] Creating Layer res2c_branch2b_fixed
I0828 17:25:30.756289 25014 net.cpp:481] res2c_branch2b_fixed <- res2c_branch2b
I0828 17:25:30.756290 25014 net.cpp:442] res2c_branch2b_fixed -> res2c_branch2b (in-place)
I0828 17:25:30.756311 25014 net.cpp:190] Setting up res2c_branch2b_fixed
I0828 17:25:30.756314 25014 net.cpp:197] Top shape: 1 64 56 56 (200704)
I0828 17:25:30.756317 25014 net.cpp:205] Memory required for data: 76668932
I0828 17:25:30.756322 25014 layer_factory.hpp:123] Creating layer res2c_branch2c
I0828 17:25:30.756328 25014 net.cpp:140] Creating Layer res2c_branch2c
I0828 17:25:30.756330 25014 net.cpp:481] res2c_branch2c <- res2c_branch2b
I0828 17:25:30.756335 25014 net.cpp:455] res2c_branch2c -> res2c_branch2c
I0828 17:25:30.756501 25014 layer_factory.hpp:123] Creating layer res2c_branch2c
I0828 17:25:30.756752 25014 net.cpp:190] Setting up res2c_branch2c
I0828 17:25:30.756758 25014 net.cpp:197] Top shape: 1 256 56 56 (802816)
I0828 17:25:30.756762 25014 net.cpp:205] Memory required for data: 79880196
I0828 17:25:30.756764 25014 layer_factory.hpp:123] Creating layer res2c_branch2c_fixed
I0828 17:25:30.756769 25014 net.cpp:140] Creating Layer res2c_branch2c_fixed
I0828 17:25:30.756772 25014 net.cpp:481] res2c_branch2c_fixed <- res2c_branch2c
I0828 17:25:30.756775 25014 net.cpp:442] res2c_branch2c_fixed -> res2c_branch2c (in-place)
I0828 17:25:30.756795 25014 net.cpp:190] Setting up res2c_branch2c_fixed
I0828 17:25:30.756799 25014 net.cpp:197] Top shape: 1 256 56 56 (802816)
I0828 17:25:30.756801 25014 net.cpp:205] Memory required for data: 83091460
I0828 17:25:30.756804 25014 layer_factory.hpp:123] Creating layer res2c
I0828 17:25:30.756809 25014 net.cpp:140] Creating Layer res2c
I0828 17:25:30.756811 25014 net.cpp:481] res2c <- res2b_res2b_fixed_0_split_1
I0828 17:25:30.756814 25014 net.cpp:481] res2c <- res2c_branch2c
I0828 17:25:30.756819 25014 net.cpp:455] res2c -> res2c
I0828 17:25:30.756831 25014 net.cpp:190] Setting up res2c
I0828 17:25:30.756835 25014 net.cpp:197] Top shape: 1 256 56 56 (802816)
I0828 17:25:30.756837 25014 net.cpp:205] Memory required for data: 86302724
I0828 17:25:30.756840 25014 layer_factory.hpp:123] Creating layer res2c_relu
I0828 17:25:30.756844 25014 net.cpp:140] Creating Layer res2c_relu
I0828 17:25:30.756846 25014 net.cpp:481] res2c_relu <- res2c
I0828 17:25:30.756850 25014 net.cpp:442] res2c_relu -> res2c (in-place)
I0828 17:25:30.756855 25014 net.cpp:190] Setting up res2c_relu
I0828 17:25:30.756857 25014 net.cpp:197] Top shape: 1 256 56 56 (802816)
I0828 17:25:30.756860 25014 net.cpp:205] Memory required for data: 89513988
I0828 17:25:30.756861 25014 layer_factory.hpp:123] Creating layer res2c_fixed
I0828 17:25:30.756865 25014 net.cpp:140] Creating Layer res2c_fixed
I0828 17:25:30.756866 25014 net.cpp:481] res2c_fixed <- res2c
I0828 17:25:30.756870 25014 net.cpp:442] res2c_fixed -> res2c (in-place)
I0828 17:25:30.756888 25014 net.cpp:190] Setting up res2c_fixed
I0828 17:25:30.756892 25014 net.cpp:197] Top shape: 1 256 56 56 (802816)
I0828 17:25:30.756894 25014 net.cpp:205] Memory required for data: 92725252
I0828 17:25:30.756897 25014 layer_factory.hpp:123] Creating layer res2c_res2c_fixed_0_split
I0828 17:25:30.756901 25014 net.cpp:140] Creating Layer res2c_res2c_fixed_0_split
I0828 17:25:30.756903 25014 net.cpp:481] res2c_res2c_fixed_0_split <- res2c
I0828 17:25:30.756906 25014 net.cpp:455] res2c_res2c_fixed_0_split -> res2c_res2c_fixed_0_split_0
I0828 17:25:30.756911 25014 net.cpp:455] res2c_res2c_fixed_0_split -> res2c_res2c_fixed_0_split_1
I0828 17:25:30.756944 25014 net.cpp:190] Setting up res2c_res2c_fixed_0_split
I0828 17:25:30.756948 25014 net.cpp:197] Top shape: 1 256 56 56 (802816)
I0828 17:25:30.756952 25014 net.cpp:197] Top shape: 1 256 56 56 (802816)
I0828 17:25:30.756953 25014 net.cpp:205] Memory required for data: 99147780
I0828 17:25:30.756956 25014 layer_factory.hpp:123] Creating layer res3a_branch1
I0828 17:25:30.756961 25014 net.cpp:140] Creating Layer res3a_branch1
I0828 17:25:30.756964 25014 net.cpp:481] res3a_branch1 <- res2c_res2c_fixed_0_split_0
I0828 17:25:30.756968 25014 net.cpp:455] res3a_branch1 -> res3a_branch1
I0828 17:25:30.757894 25014 layer_factory.hpp:123] Creating layer res3a_branch1
I0828 17:25:30.758916 25014 net.cpp:190] Setting up res3a_branch1
I0828 17:25:30.758939 25014 net.cpp:197] Top shape: 1 512 28 28 (401408)
I0828 17:25:30.758941 25014 net.cpp:205] Memory required for data: 100753412
I0828 17:25:30.758960 25014 layer_factory.hpp:123] Creating layer res3a_branch1_fixed
I0828 17:25:30.758965 25014 net.cpp:140] Creating Layer res3a_branch1_fixed
I0828 17:25:30.758968 25014 net.cpp:481] res3a_branch1_fixed <- res3a_branch1
I0828 17:25:30.758972 25014 net.cpp:442] res3a_branch1_fixed -> res3a_branch1 (in-place)
I0828 17:25:30.759019 25014 net.cpp:190] Setting up res3a_branch1_fixed
I0828 17:25:30.759023 25014 net.cpp:197] Top shape: 1 512 28 28 (401408)
I0828 17:25:30.759027 25014 net.cpp:205] Memory required for data: 102359044
I0828 17:25:30.759029 25014 layer_factory.hpp:123] Creating layer res3a_branch2a
I0828 17:25:30.759034 25014 net.cpp:140] Creating Layer res3a_branch2a
I0828 17:25:30.759038 25014 net.cpp:481] res3a_branch2a <- res2c_res2c_fixed_0_split_1
I0828 17:25:30.759042 25014 net.cpp:455] res3a_branch2a -> res3a_branch2a
I0828 17:25:30.759269 25014 layer_factory.hpp:123] Creating layer res3a_branch2a
I0828 17:25:30.759850 25014 net.cpp:190] Setting up res3a_branch2a
I0828 17:25:30.759857 25014 net.cpp:197] Top shape: 1 128 28 28 (100352)
I0828 17:25:30.759860 25014 net.cpp:205] Memory required for data: 102760452
I0828 17:25:30.759865 25014 layer_factory.hpp:123] Creating layer res3a_branch2a_relu
I0828 17:25:30.759869 25014 net.cpp:140] Creating Layer res3a_branch2a_relu
I0828 17:25:30.759873 25014 net.cpp:481] res3a_branch2a_relu <- res3a_branch2a
I0828 17:25:30.759876 25014 net.cpp:442] res3a_branch2a_relu -> res3a_branch2a (in-place)
I0828 17:25:30.759882 25014 net.cpp:190] Setting up res3a_branch2a_relu
I0828 17:25:30.759886 25014 net.cpp:197] Top shape: 1 128 28 28 (100352)
I0828 17:25:30.759887 25014 net.cpp:205] Memory required for data: 103161860
I0828 17:25:30.759891 25014 layer_factory.hpp:123] Creating layer res3a_branch2a_fixed
I0828 17:25:30.759893 25014 net.cpp:140] Creating Layer res3a_branch2a_fixed
I0828 17:25:30.759896 25014 net.cpp:481] res3a_branch2a_fixed <- res3a_branch2a
I0828 17:25:30.759899 25014 net.cpp:442] res3a_branch2a_fixed -> res3a_branch2a (in-place)
I0828 17:25:30.759920 25014 net.cpp:190] Setting up res3a_branch2a_fixed
I0828 17:25:30.759924 25014 net.cpp:197] Top shape: 1 128 28 28 (100352)
I0828 17:25:30.759927 25014 net.cpp:205] Memory required for data: 103563268
I0828 17:25:30.759930 25014 layer_factory.hpp:123] Creating layer res3a_branch2b
I0828 17:25:30.759937 25014 net.cpp:140] Creating Layer res3a_branch2b
I0828 17:25:30.759938 25014 net.cpp:481] res3a_branch2b <- res3a_branch2a
I0828 17:25:30.759943 25014 net.cpp:455] res3a_branch2b -> res3a_branch2b
I0828 17:25:30.761057 25014 layer_factory.hpp:123] Creating layer res3a_branch2b
I0828 17:25:30.762351 25014 net.cpp:190] Setting up res3a_branch2b
I0828 17:25:30.762363 25014 net.cpp:197] Top shape: 1 128 28 28 (100352)
I0828 17:25:30.762368 25014 net.cpp:205] Memory required for data: 103964676
I0828 17:25:30.762374 25014 layer_factory.hpp:123] Creating layer res3a_branch2b_relu
I0828 17:25:30.762379 25014 net.cpp:140] Creating Layer res3a_branch2b_relu
I0828 17:25:30.762382 25014 net.cpp:481] res3a_branch2b_relu <- res3a_branch2b
I0828 17:25:30.762387 25014 net.cpp:442] res3a_branch2b_relu -> res3a_branch2b (in-place)
I0828 17:25:30.762392 25014 net.cpp:190] Setting up res3a_branch2b_relu
I0828 17:25:30.762395 25014 net.cpp:197] Top shape: 1 128 28 28 (100352)
I0828 17:25:30.762398 25014 net.cpp:205] Memory required for data: 104366084
I0828 17:25:30.762400 25014 layer_factory.hpp:123] Creating layer res3a_branch2b_fixed
I0828 17:25:30.762405 25014 net.cpp:140] Creating Layer res3a_branch2b_fixed
I0828 17:25:30.762408 25014 net.cpp:481] res3a_branch2b_fixed <- res3a_branch2b
I0828 17:25:30.762410 25014 net.cpp:442] res3a_branch2b_fixed -> res3a_branch2b (in-place)
I0828 17:25:30.762431 25014 net.cpp:190] Setting up res3a_branch2b_fixed
I0828 17:25:30.762435 25014 net.cpp:197] Top shape: 1 128 28 28 (100352)
I0828 17:25:30.762437 25014 net.cpp:205] Memory required for data: 104767492
I0828 17:25:30.762441 25014 layer_factory.hpp:123] Creating layer res3a_branch2c
I0828 17:25:30.762447 25014 net.cpp:140] Creating Layer res3a_branch2c
I0828 17:25:30.762450 25014 net.cpp:481] res3a_branch2c <- res3a_branch2b
I0828 17:25:30.762454 25014 net.cpp:455] res3a_branch2c -> res3a_branch2c
I0828 17:25:30.762962 25014 layer_factory.hpp:123] Creating layer res3a_branch2c
I0828 17:25:30.763413 25014 net.cpp:190] Setting up res3a_branch2c
I0828 17:25:30.763419 25014 net.cpp:197] Top shape: 1 512 28 28 (401408)
I0828 17:25:30.763422 25014 net.cpp:205] Memory required for data: 106373124
I0828 17:25:30.763427 25014 layer_factory.hpp:123] Creating layer res3a_branch2c_fixed
I0828 17:25:30.763430 25014 net.cpp:140] Creating Layer res3a_branch2c_fixed
I0828 17:25:30.763433 25014 net.cpp:481] res3a_branch2c_fixed <- res3a_branch2c
I0828 17:25:30.763437 25014 net.cpp:442] res3a_branch2c_fixed -> res3a_branch2c (in-place)
I0828 17:25:30.763458 25014 net.cpp:190] Setting up res3a_branch2c_fixed
I0828 17:25:30.763463 25014 net.cpp:197] Top shape: 1 512 28 28 (401408)
I0828 17:25:30.763465 25014 net.cpp:205] Memory required for data: 107978756
I0828 17:25:30.763468 25014 layer_factory.hpp:123] Creating layer res3a
I0828 17:25:30.763473 25014 net.cpp:140] Creating Layer res3a
I0828 17:25:30.763475 25014 net.cpp:481] res3a <- res3a_branch1
I0828 17:25:30.763478 25014 net.cpp:481] res3a <- res3a_branch2c
I0828 17:25:30.763483 25014 net.cpp:455] res3a -> res3a
I0828 17:25:30.763495 25014 net.cpp:190] Setting up res3a
I0828 17:25:30.763499 25014 net.cpp:197] Top shape: 1 512 28 28 (401408)
I0828 17:25:30.763502 25014 net.cpp:205] Memory required for data: 109584388
I0828 17:25:30.763504 25014 layer_factory.hpp:123] Creating layer res3a_relu
I0828 17:25:30.763509 25014 net.cpp:140] Creating Layer res3a_relu
I0828 17:25:30.763510 25014 net.cpp:481] res3a_relu <- res3a
I0828 17:25:30.763514 25014 net.cpp:442] res3a_relu -> res3a (in-place)
I0828 17:25:30.763518 25014 net.cpp:190] Setting up res3a_relu
I0828 17:25:30.763521 25014 net.cpp:197] Top shape: 1 512 28 28 (401408)
I0828 17:25:30.763538 25014 net.cpp:205] Memory required for data: 111190020
I0828 17:25:30.763540 25014 layer_factory.hpp:123] Creating layer res3a_fixed
I0828 17:25:30.763545 25014 net.cpp:140] Creating Layer res3a_fixed
I0828 17:25:30.763546 25014 net.cpp:481] res3a_fixed <- res3a
I0828 17:25:30.763550 25014 net.cpp:442] res3a_fixed -> res3a (in-place)
I0828 17:25:30.763569 25014 net.cpp:190] Setting up res3a_fixed
I0828 17:25:30.763574 25014 net.cpp:197] Top shape: 1 512 28 28 (401408)
I0828 17:25:30.763576 25014 net.cpp:205] Memory required for data: 112795652
I0828 17:25:30.763579 25014 layer_factory.hpp:123] Creating layer res3a_res3a_fixed_0_split
I0828 17:25:30.763583 25014 net.cpp:140] Creating Layer res3a_res3a_fixed_0_split
I0828 17:25:30.763586 25014 net.cpp:481] res3a_res3a_fixed_0_split <- res3a
I0828 17:25:30.763589 25014 net.cpp:455] res3a_res3a_fixed_0_split -> res3a_res3a_fixed_0_split_0
I0828 17:25:30.763594 25014 net.cpp:455] res3a_res3a_fixed_0_split -> res3a_res3a_fixed_0_split_1
I0828 17:25:30.763614 25014 net.cpp:190] Setting up res3a_res3a_fixed_0_split
I0828 17:25:30.763618 25014 net.cpp:197] Top shape: 1 512 28 28 (401408)
I0828 17:25:30.763622 25014 net.cpp:197] Top shape: 1 512 28 28 (401408)
I0828 17:25:30.763623 25014 net.cpp:205] Memory required for data: 116006916
I0828 17:25:30.763625 25014 layer_factory.hpp:123] Creating layer res3b_branch2a
I0828 17:25:30.763631 25014 net.cpp:140] Creating Layer res3b_branch2a
I0828 17:25:30.763634 25014 net.cpp:481] res3b_branch2a <- res3a_res3a_fixed_0_split_0
I0828 17:25:30.763638 25014 net.cpp:455] res3b_branch2a -> res3b_branch2a
I0828 17:25:30.764291 25014 layer_factory.hpp:123] Creating layer res3b_branch2a
I0828 17:25:30.764739 25014 net.cpp:190] Setting up res3b_branch2a
I0828 17:25:30.764744 25014 net.cpp:197] Top shape: 1 128 28 28 (100352)
I0828 17:25:30.764747 25014 net.cpp:205] Memory required for data: 116408324
I0828 17:25:30.764752 25014 layer_factory.hpp:123] Creating layer res3b_branch2a_relu
I0828 17:25:30.764756 25014 net.cpp:140] Creating Layer res3b_branch2a_relu
I0828 17:25:30.764760 25014 net.cpp:481] res3b_branch2a_relu <- res3b_branch2a
I0828 17:25:30.764763 25014 net.cpp:442] res3b_branch2a_relu -> res3b_branch2a (in-place)
I0828 17:25:30.764770 25014 net.cpp:190] Setting up res3b_branch2a_relu
I0828 17:25:30.764772 25014 net.cpp:197] Top shape: 1 128 28 28 (100352)
I0828 17:25:30.764775 25014 net.cpp:205] Memory required for data: 116809732
I0828 17:25:30.764776 25014 layer_factory.hpp:123] Creating layer res3b_branch2a_fixed
I0828 17:25:30.764780 25014 net.cpp:140] Creating Layer res3b_branch2a_fixed
I0828 17:25:30.764783 25014 net.cpp:481] res3b_branch2a_fixed <- res3b_branch2a
I0828 17:25:30.764786 25014 net.cpp:442] res3b_branch2a_fixed -> res3b_branch2a (in-place)
I0828 17:25:30.764808 25014 net.cpp:190] Setting up res3b_branch2a_fixed
I0828 17:25:30.764812 25014 net.cpp:197] Top shape: 1 128 28 28 (100352)
I0828 17:25:30.764816 25014 net.cpp:205] Memory required for data: 117211140
I0828 17:25:30.764818 25014 layer_factory.hpp:123] Creating layer res3b_branch2b
I0828 17:25:30.764823 25014 net.cpp:140] Creating Layer res3b_branch2b
I0828 17:25:30.764827 25014 net.cpp:481] res3b_branch2b <- res3b_branch2a
I0828 17:25:30.764830 25014 net.cpp:455] res3b_branch2b -> res3b_branch2b
I0828 17:25:30.766080 25014 layer_factory.hpp:123] Creating layer res3b_branch2b
I0828 17:25:30.767441 25014 net.cpp:190] Setting up res3b_branch2b
I0828 17:25:30.767452 25014 net.cpp:197] Top shape: 1 128 28 28 (100352)
I0828 17:25:30.767455 25014 net.cpp:205] Memory required for data: 117612548
I0828 17:25:30.767460 25014 layer_factory.hpp:123] Creating layer res3b_branch2b_relu
I0828 17:25:30.767465 25014 net.cpp:140] Creating Layer res3b_branch2b_relu
I0828 17:25:30.767469 25014 net.cpp:481] res3b_branch2b_relu <- res3b_branch2b
I0828 17:25:30.767473 25014 net.cpp:442] res3b_branch2b_relu -> res3b_branch2b (in-place)
I0828 17:25:30.767479 25014 net.cpp:190] Setting up res3b_branch2b_relu
I0828 17:25:30.767482 25014 net.cpp:197] Top shape: 1 128 28 28 (100352)
I0828 17:25:30.767485 25014 net.cpp:205] Memory required for data: 118013956
I0828 17:25:30.767488 25014 layer_factory.hpp:123] Creating layer res3b_branch2b_fixed
I0828 17:25:30.767493 25014 net.cpp:140] Creating Layer res3b_branch2b_fixed
I0828 17:25:30.767496 25014 net.cpp:481] res3b_branch2b_fixed <- res3b_branch2b
I0828 17:25:30.767500 25014 net.cpp:442] res3b_branch2b_fixed -> res3b_branch2b (in-place)
I0828 17:25:30.767521 25014 net.cpp:190] Setting up res3b_branch2b_fixed
I0828 17:25:30.767525 25014 net.cpp:197] Top shape: 1 128 28 28 (100352)
I0828 17:25:30.767527 25014 net.cpp:205] Memory required for data: 118415364
I0828 17:25:30.767531 25014 layer_factory.hpp:123] Creating layer res3b_branch2c
I0828 17:25:30.767537 25014 net.cpp:140] Creating Layer res3b_branch2c
I0828 17:25:30.767540 25014 net.cpp:481] res3b_branch2c <- res3b_branch2b
I0828 17:25:30.767544 25014 net.cpp:455] res3b_branch2c -> res3b_branch2c
I0828 17:25:30.767931 25014 layer_factory.hpp:123] Creating layer res3b_branch2c
I0828 17:25:30.768393 25014 net.cpp:190] Setting up res3b_branch2c
I0828 17:25:30.768399 25014 net.cpp:197] Top shape: 1 512 28 28 (401408)
I0828 17:25:30.768401 25014 net.cpp:205] Memory required for data: 120020996
I0828 17:25:30.768406 25014 layer_factory.hpp:123] Creating layer res3b_branch2c_fixed
I0828 17:25:30.768410 25014 net.cpp:140] Creating Layer res3b_branch2c_fixed
I0828 17:25:30.768412 25014 net.cpp:481] res3b_branch2c_fixed <- res3b_branch2c
I0828 17:25:30.768416 25014 net.cpp:442] res3b_branch2c_fixed -> res3b_branch2c (in-place)
I0828 17:25:30.768450 25014 net.cpp:190] Setting up res3b_branch2c_fixed
I0828 17:25:30.768455 25014 net.cpp:197] Top shape: 1 512 28 28 (401408)
I0828 17:25:30.768456 25014 net.cpp:205] Memory required for data: 121626628
I0828 17:25:30.768460 25014 layer_factory.hpp:123] Creating layer res3b
I0828 17:25:30.768465 25014 net.cpp:140] Creating Layer res3b
I0828 17:25:30.768467 25014 net.cpp:481] res3b <- res3a_res3a_fixed_0_split_1
I0828 17:25:30.768471 25014 net.cpp:481] res3b <- res3b_branch2c
I0828 17:25:30.768474 25014 net.cpp:455] res3b -> res3b
I0828 17:25:30.768488 25014 net.cpp:190] Setting up res3b
I0828 17:25:30.768491 25014 net.cpp:197] Top shape: 1 512 28 28 (401408)
I0828 17:25:30.768494 25014 net.cpp:205] Memory required for data: 123232260
I0828 17:25:30.768496 25014 layer_factory.hpp:123] Creating layer res3b_relu
I0828 17:25:30.768501 25014 net.cpp:140] Creating Layer res3b_relu
I0828 17:25:30.768502 25014 net.cpp:481] res3b_relu <- res3b
I0828 17:25:30.768505 25014 net.cpp:442] res3b_relu -> res3b (in-place)
I0828 17:25:30.768510 25014 net.cpp:190] Setting up res3b_relu
I0828 17:25:30.768513 25014 net.cpp:197] Top shape: 1 512 28 28 (401408)
I0828 17:25:30.768517 25014 net.cpp:205] Memory required for data: 124837892
I0828 17:25:30.768518 25014 layer_factory.hpp:123] Creating layer res3b_fixed
I0828 17:25:30.768522 25014 net.cpp:140] Creating Layer res3b_fixed
I0828 17:25:30.768524 25014 net.cpp:481] res3b_fixed <- res3b
I0828 17:25:30.768527 25014 net.cpp:442] res3b_fixed -> res3b (in-place)
I0828 17:25:30.768550 25014 net.cpp:190] Setting up res3b_fixed
I0828 17:25:30.768554 25014 net.cpp:197] Top shape: 1 512 28 28 (401408)
I0828 17:25:30.768558 25014 net.cpp:205] Memory required for data: 126443524
I0828 17:25:30.768560 25014 layer_factory.hpp:123] Creating layer res3b_res3b_fixed_0_split
I0828 17:25:30.768564 25014 net.cpp:140] Creating Layer res3b_res3b_fixed_0_split
I0828 17:25:30.768566 25014 net.cpp:481] res3b_res3b_fixed_0_split <- res3b
I0828 17:25:30.768570 25014 net.cpp:455] res3b_res3b_fixed_0_split -> res3b_res3b_fixed_0_split_0
I0828 17:25:30.768575 25014 net.cpp:455] res3b_res3b_fixed_0_split -> res3b_res3b_fixed_0_split_1
I0828 17:25:30.768595 25014 net.cpp:190] Setting up res3b_res3b_fixed_0_split
I0828 17:25:30.768600 25014 net.cpp:197] Top shape: 1 512 28 28 (401408)
I0828 17:25:30.768604 25014 net.cpp:197] Top shape: 1 512 28 28 (401408)
I0828 17:25:30.768609 25014 net.cpp:205] Memory required for data: 129654788
I0828 17:25:30.768612 25014 layer_factory.hpp:123] Creating layer res3c_branch2a
I0828 17:25:30.768620 25014 net.cpp:140] Creating Layer res3c_branch2a
I0828 17:25:30.768622 25014 net.cpp:481] res3c_branch2a <- res3b_res3b_fixed_0_split_0
I0828 17:25:30.768628 25014 net.cpp:455] res3c_branch2a -> res3c_branch2a
I0828 17:25:30.769273 25014 layer_factory.hpp:123] Creating layer res3c_branch2a
I0828 17:25:30.769747 25014 net.cpp:190] Setting up res3c_branch2a
I0828 17:25:30.769753 25014 net.cpp:197] Top shape: 1 128 28 28 (100352)
I0828 17:25:30.769757 25014 net.cpp:205] Memory required for data: 130056196
I0828 17:25:30.769762 25014 layer_factory.hpp:123] Creating layer res3c_branch2a_relu
I0828 17:25:30.769767 25014 net.cpp:140] Creating Layer res3c_branch2a_relu
I0828 17:25:30.769770 25014 net.cpp:481] res3c_branch2a_relu <- res3c_branch2a
I0828 17:25:30.769774 25014 net.cpp:442] res3c_branch2a_relu -> res3c_branch2a (in-place)
I0828 17:25:30.769779 25014 net.cpp:190] Setting up res3c_branch2a_relu
I0828 17:25:30.769783 25014 net.cpp:197] Top shape: 1 128 28 28 (100352)
I0828 17:25:30.769785 25014 net.cpp:205] Memory required for data: 130457604
I0828 17:25:30.769788 25014 layer_factory.hpp:123] Creating layer res3c_branch2a_fixed
I0828 17:25:30.769791 25014 net.cpp:140] Creating Layer res3c_branch2a_fixed
I0828 17:25:30.769794 25014 net.cpp:481] res3c_branch2a_fixed <- res3c_branch2a
I0828 17:25:30.769798 25014 net.cpp:442] res3c_branch2a_fixed -> res3c_branch2a (in-place)
I0828 17:25:30.769819 25014 net.cpp:190] Setting up res3c_branch2a_fixed
I0828 17:25:30.769824 25014 net.cpp:197] Top shape: 1 128 28 28 (100352)
I0828 17:25:30.769826 25014 net.cpp:205] Memory required for data: 130859012
I0828 17:25:30.769829 25014 layer_factory.hpp:123] Creating layer res3c_branch2b
I0828 17:25:30.769835 25014 net.cpp:140] Creating Layer res3c_branch2b
I0828 17:25:30.769838 25014 net.cpp:481] res3c_branch2b <- res3c_branch2a
I0828 17:25:30.769841 25014 net.cpp:455] res3c_branch2b -> res3c_branch2b
I0828 17:25:30.771114 25014 layer_factory.hpp:123] Creating layer res3c_branch2b
I0828 17:25:30.772404 25014 net.cpp:190] Setting up res3c_branch2b
I0828 17:25:30.772413 25014 net.cpp:197] Top shape: 1 128 28 28 (100352)
I0828 17:25:30.772415 25014 net.cpp:205] Memory required for data: 131260420
I0828 17:25:30.772424 25014 layer_factory.hpp:123] Creating layer res3c_branch2b_relu
I0828 17:25:30.772429 25014 net.cpp:140] Creating Layer res3c_branch2b_relu
I0828 17:25:30.772433 25014 net.cpp:481] res3c_branch2b_relu <- res3c_branch2b
I0828 17:25:30.772436 25014 net.cpp:442] res3c_branch2b_relu -> res3c_branch2b (in-place)
I0828 17:25:30.772442 25014 net.cpp:190] Setting up res3c_branch2b_relu
I0828 17:25:30.772445 25014 net.cpp:197] Top shape: 1 128 28 28 (100352)
I0828 17:25:30.772449 25014 net.cpp:205] Memory required for data: 131661828
I0828 17:25:30.772450 25014 layer_factory.hpp:123] Creating layer res3c_branch2b_fixed
I0828 17:25:30.772454 25014 net.cpp:140] Creating Layer res3c_branch2b_fixed
I0828 17:25:30.772457 25014 net.cpp:481] res3c_branch2b_fixed <- res3c_branch2b
I0828 17:25:30.772459 25014 net.cpp:442] res3c_branch2b_fixed -> res3c_branch2b (in-place)
I0828 17:25:30.772480 25014 net.cpp:190] Setting up res3c_branch2b_fixed
I0828 17:25:30.772485 25014 net.cpp:197] Top shape: 1 128 28 28 (100352)
I0828 17:25:30.772487 25014 net.cpp:205] Memory required for data: 132063236
I0828 17:25:30.772490 25014 layer_factory.hpp:123] Creating layer res3c_branch2c
I0828 17:25:30.772496 25014 net.cpp:140] Creating Layer res3c_branch2c
I0828 17:25:30.772500 25014 net.cpp:481] res3c_branch2c <- res3c_branch2b
I0828 17:25:30.772502 25014 net.cpp:455] res3c_branch2c -> res3c_branch2c
I0828 17:25:30.772888 25014 layer_factory.hpp:123] Creating layer res3c_branch2c
I0828 17:25:30.773339 25014 net.cpp:190] Setting up res3c_branch2c
I0828 17:25:30.773345 25014 net.cpp:197] Top shape: 1 512 28 28 (401408)
I0828 17:25:30.773347 25014 net.cpp:205] Memory required for data: 133668868
I0828 17:25:30.773352 25014 layer_factory.hpp:123] Creating layer res3c_branch2c_fixed
I0828 17:25:30.773356 25014 net.cpp:140] Creating Layer res3c_branch2c_fixed
I0828 17:25:30.773360 25014 net.cpp:481] res3c_branch2c_fixed <- res3c_branch2c
I0828 17:25:30.773362 25014 net.cpp:442] res3c_branch2c_fixed -> res3c_branch2c (in-place)
I0828 17:25:30.773383 25014 net.cpp:190] Setting up res3c_branch2c_fixed
I0828 17:25:30.773387 25014 net.cpp:197] Top shape: 1 512 28 28 (401408)
I0828 17:25:30.773391 25014 net.cpp:205] Memory required for data: 135274500
I0828 17:25:30.773393 25014 layer_factory.hpp:123] Creating layer res3c
I0828 17:25:30.773398 25014 net.cpp:140] Creating Layer res3c
I0828 17:25:30.773401 25014 net.cpp:481] res3c <- res3b_res3b_fixed_0_split_1
I0828 17:25:30.773404 25014 net.cpp:481] res3c <- res3c_branch2c
I0828 17:25:30.773408 25014 net.cpp:455] res3c -> res3c
I0828 17:25:30.773422 25014 net.cpp:190] Setting up res3c
I0828 17:25:30.773425 25014 net.cpp:197] Top shape: 1 512 28 28 (401408)
I0828 17:25:30.773427 25014 net.cpp:205] Memory required for data: 136880132
I0828 17:25:30.773430 25014 layer_factory.hpp:123] Creating layer res3c_relu
I0828 17:25:30.773433 25014 net.cpp:140] Creating Layer res3c_relu
I0828 17:25:30.773437 25014 net.cpp:481] res3c_relu <- res3c
I0828 17:25:30.773439 25014 net.cpp:442] res3c_relu -> res3c (in-place)
I0828 17:25:30.773444 25014 net.cpp:190] Setting up res3c_relu
I0828 17:25:30.773447 25014 net.cpp:197] Top shape: 1 512 28 28 (401408)
I0828 17:25:30.773449 25014 net.cpp:205] Memory required for data: 138485764
I0828 17:25:30.773452 25014 layer_factory.hpp:123] Creating layer res3c_fixed
I0828 17:25:30.773455 25014 net.cpp:140] Creating Layer res3c_fixed
I0828 17:25:30.773458 25014 net.cpp:481] res3c_fixed <- res3c
I0828 17:25:30.773460 25014 net.cpp:442] res3c_fixed -> res3c (in-place)
I0828 17:25:30.773480 25014 net.cpp:190] Setting up res3c_fixed
I0828 17:25:30.773483 25014 net.cpp:197] Top shape: 1 512 28 28 (401408)
I0828 17:25:30.773486 25014 net.cpp:205] Memory required for data: 140091396
I0828 17:25:30.773489 25014 layer_factory.hpp:123] Creating layer res3c_res3c_fixed_0_split
I0828 17:25:30.773494 25014 net.cpp:140] Creating Layer res3c_res3c_fixed_0_split
I0828 17:25:30.773496 25014 net.cpp:481] res3c_res3c_fixed_0_split <- res3c
I0828 17:25:30.773499 25014 net.cpp:455] res3c_res3c_fixed_0_split -> res3c_res3c_fixed_0_split_0
I0828 17:25:30.773504 25014 net.cpp:455] res3c_res3c_fixed_0_split -> res3c_res3c_fixed_0_split_1
I0828 17:25:30.773524 25014 net.cpp:190] Setting up res3c_res3c_fixed_0_split
I0828 17:25:30.773527 25014 net.cpp:197] Top shape: 1 512 28 28 (401408)
I0828 17:25:30.773530 25014 net.cpp:197] Top shape: 1 512 28 28 (401408)
I0828 17:25:30.773532 25014 net.cpp:205] Memory required for data: 143302660
I0828 17:25:30.773535 25014 layer_factory.hpp:123] Creating layer res3d_branch2a
I0828 17:25:30.773540 25014 net.cpp:140] Creating Layer res3d_branch2a
I0828 17:25:30.773543 25014 net.cpp:481] res3d_branch2a <- res3c_res3c_fixed_0_split_0
I0828 17:25:30.773547 25014 net.cpp:455] res3d_branch2a -> res3d_branch2a
I0828 17:25:30.774176 25014 layer_factory.hpp:123] Creating layer res3d_branch2a
I0828 17:25:30.774617 25014 net.cpp:190] Setting up res3d_branch2a
I0828 17:25:30.774622 25014 net.cpp:197] Top shape: 1 128 28 28 (100352)
I0828 17:25:30.774639 25014 net.cpp:205] Memory required for data: 143704068
I0828 17:25:30.774646 25014 layer_factory.hpp:123] Creating layer res3d_branch2a_relu
I0828 17:25:30.774654 25014 net.cpp:140] Creating Layer res3d_branch2a_relu
I0828 17:25:30.774657 25014 net.cpp:481] res3d_branch2a_relu <- res3d_branch2a
I0828 17:25:30.774662 25014 net.cpp:442] res3d_branch2a_relu -> res3d_branch2a (in-place)
I0828 17:25:30.774667 25014 net.cpp:190] Setting up res3d_branch2a_relu
I0828 17:25:30.774670 25014 net.cpp:197] Top shape: 1 128 28 28 (100352)
I0828 17:25:30.774672 25014 net.cpp:205] Memory required for data: 144105476
I0828 17:25:30.774674 25014 layer_factory.hpp:123] Creating layer res3d_branch2a_fixed
I0828 17:25:30.774682 25014 net.cpp:140] Creating Layer res3d_branch2a_fixed
I0828 17:25:30.774684 25014 net.cpp:481] res3d_branch2a_fixed <- res3d_branch2a
I0828 17:25:30.774688 25014 net.cpp:442] res3d_branch2a_fixed -> res3d_branch2a (in-place)
I0828 17:25:30.774709 25014 net.cpp:190] Setting up res3d_branch2a_fixed
I0828 17:25:30.774713 25014 net.cpp:197] Top shape: 1 128 28 28 (100352)
I0828 17:25:30.774715 25014 net.cpp:205] Memory required for data: 144506884
I0828 17:25:30.774719 25014 layer_factory.hpp:123] Creating layer res3d_branch2b
I0828 17:25:30.774727 25014 net.cpp:140] Creating Layer res3d_branch2b
I0828 17:25:30.774730 25014 net.cpp:481] res3d_branch2b <- res3d_branch2a
I0828 17:25:30.774734 25014 net.cpp:455] res3d_branch2b -> res3d_branch2b
I0828 17:25:30.775928 25014 layer_factory.hpp:123] Creating layer res3d_branch2b
I0828 17:25:30.777204 25014 net.cpp:190] Setting up res3d_branch2b
I0828 17:25:30.777212 25014 net.cpp:197] Top shape: 1 128 28 28 (100352)
I0828 17:25:30.777215 25014 net.cpp:205] Memory required for data: 144908292
I0828 17:25:30.777218 25014 layer_factory.hpp:123] Creating layer res3d_branch2b_relu
I0828 17:25:30.777223 25014 net.cpp:140] Creating Layer res3d_branch2b_relu
I0828 17:25:30.777226 25014 net.cpp:481] res3d_branch2b_relu <- res3d_branch2b
I0828 17:25:30.777230 25014 net.cpp:442] res3d_branch2b_relu -> res3d_branch2b (in-place)
I0828 17:25:30.777235 25014 net.cpp:190] Setting up res3d_branch2b_relu
I0828 17:25:30.777238 25014 net.cpp:197] Top shape: 1 128 28 28 (100352)
I0828 17:25:30.777241 25014 net.cpp:205] Memory required for data: 145309700
I0828 17:25:30.777243 25014 layer_factory.hpp:123] Creating layer res3d_branch2b_fixed
I0828 17:25:30.777246 25014 net.cpp:140] Creating Layer res3d_branch2b_fixed
I0828 17:25:30.777249 25014 net.cpp:481] res3d_branch2b_fixed <- res3d_branch2b
I0828 17:25:30.777252 25014 net.cpp:442] res3d_branch2b_fixed -> res3d_branch2b (in-place)
I0828 17:25:30.777272 25014 net.cpp:190] Setting up res3d_branch2b_fixed
I0828 17:25:30.777276 25014 net.cpp:197] Top shape: 1 128 28 28 (100352)
I0828 17:25:30.777278 25014 net.cpp:205] Memory required for data: 145711108
I0828 17:25:30.777281 25014 layer_factory.hpp:123] Creating layer res3d_branch2c
I0828 17:25:30.777287 25014 net.cpp:140] Creating Layer res3d_branch2c
I0828 17:25:30.777289 25014 net.cpp:481] res3d_branch2c <- res3d_branch2b
I0828 17:25:30.777292 25014 net.cpp:455] res3d_branch2c -> res3d_branch2c
I0828 17:25:30.777662 25014 layer_factory.hpp:123] Creating layer res3d_branch2c
I0828 17:25:30.778158 25014 net.cpp:190] Setting up res3d_branch2c
I0828 17:25:30.778164 25014 net.cpp:197] Top shape: 1 512 28 28 (401408)
I0828 17:25:30.778167 25014 net.cpp:205] Memory required for data: 147316740
I0828 17:25:30.778172 25014 layer_factory.hpp:123] Creating layer res3d_branch2c_fixed
I0828 17:25:30.778175 25014 net.cpp:140] Creating Layer res3d_branch2c_fixed
I0828 17:25:30.778177 25014 net.cpp:481] res3d_branch2c_fixed <- res3d_branch2c
I0828 17:25:30.778182 25014 net.cpp:442] res3d_branch2c_fixed -> res3d_branch2c (in-place)
I0828 17:25:30.778201 25014 net.cpp:190] Setting up res3d_branch2c_fixed
I0828 17:25:30.778205 25014 net.cpp:197] Top shape: 1 512 28 28 (401408)
I0828 17:25:30.778208 25014 net.cpp:205] Memory required for data: 148922372
I0828 17:25:30.778210 25014 layer_factory.hpp:123] Creating layer res3d
I0828 17:25:30.778215 25014 net.cpp:140] Creating Layer res3d
I0828 17:25:30.778218 25014 net.cpp:481] res3d <- res3c_res3c_fixed_0_split_1
I0828 17:25:30.778221 25014 net.cpp:481] res3d <- res3d_branch2c
I0828 17:25:30.778224 25014 net.cpp:455] res3d -> res3d
I0828 17:25:30.778254 25014 net.cpp:190] Setting up res3d
I0828 17:25:30.778257 25014 net.cpp:197] Top shape: 1 512 28 28 (401408)
I0828 17:25:30.778259 25014 net.cpp:205] Memory required for data: 150528004
I0828 17:25:30.778261 25014 layer_factory.hpp:123] Creating layer res3d_relu
I0828 17:25:30.778265 25014 net.cpp:140] Creating Layer res3d_relu
I0828 17:25:30.778268 25014 net.cpp:481] res3d_relu <- res3d
I0828 17:25:30.778285 25014 net.cpp:442] res3d_relu -> res3d (in-place)
I0828 17:25:30.778288 25014 net.cpp:190] Setting up res3d_relu
I0828 17:25:30.778291 25014 net.cpp:197] Top shape: 1 512 28 28 (401408)
I0828 17:25:30.778293 25014 net.cpp:205] Memory required for data: 152133636
I0828 17:25:30.778295 25014 layer_factory.hpp:123] Creating layer res3d_fixed
I0828 17:25:30.778298 25014 net.cpp:140] Creating Layer res3d_fixed
I0828 17:25:30.778301 25014 net.cpp:481] res3d_fixed <- res3d
I0828 17:25:30.778304 25014 net.cpp:442] res3d_fixed -> res3d (in-place)
I0828 17:25:30.778322 25014 net.cpp:190] Setting up res3d_fixed
I0828 17:25:30.778326 25014 net.cpp:197] Top shape: 1 512 28 28 (401408)
I0828 17:25:30.778329 25014 net.cpp:205] Memory required for data: 153739268
I0828 17:25:30.778331 25014 layer_factory.hpp:123] Creating layer res3d_res3d_fixed_0_split
I0828 17:25:30.778336 25014 net.cpp:140] Creating Layer res3d_res3d_fixed_0_split
I0828 17:25:30.778337 25014 net.cpp:481] res3d_res3d_fixed_0_split <- res3d
I0828 17:25:30.778342 25014 net.cpp:455] res3d_res3d_fixed_0_split -> res3d_res3d_fixed_0_split_0
I0828 17:25:30.778347 25014 net.cpp:455] res3d_res3d_fixed_0_split -> res3d_res3d_fixed_0_split_1
I0828 17:25:30.778365 25014 net.cpp:190] Setting up res3d_res3d_fixed_0_split
I0828 17:25:30.778369 25014 net.cpp:197] Top shape: 1 512 28 28 (401408)
I0828 17:25:30.778373 25014 net.cpp:197] Top shape: 1 512 28 28 (401408)
I0828 17:25:30.778374 25014 net.cpp:205] Memory required for data: 156950532
I0828 17:25:30.778376 25014 layer_factory.hpp:123] Creating layer res4a_branch1
I0828 17:25:30.778383 25014 net.cpp:140] Creating Layer res4a_branch1
I0828 17:25:30.778385 25014 net.cpp:481] res4a_branch1 <- res3d_res3d_fixed_0_split_0
I0828 17:25:30.778388 25014 net.cpp:455] res4a_branch1 -> res4a_branch1
I0828 17:25:30.781678 25014 layer_factory.hpp:123] Creating layer res4a_branch1
I0828 17:25:30.785068 25014 net.cpp:190] Setting up res4a_branch1
I0828 17:25:30.785082 25014 net.cpp:197] Top shape: 1 1024 14 14 (200704)
I0828 17:25:30.785085 25014 net.cpp:205] Memory required for data: 157753348
I0828 17:25:30.785091 25014 layer_factory.hpp:123] Creating layer res4a_branch1_fixed
I0828 17:25:30.785097 25014 net.cpp:140] Creating Layer res4a_branch1_fixed
I0828 17:25:30.785101 25014 net.cpp:481] res4a_branch1_fixed <- res4a_branch1
I0828 17:25:30.785106 25014 net.cpp:442] res4a_branch1_fixed -> res4a_branch1 (in-place)
I0828 17:25:30.785141 25014 net.cpp:190] Setting up res4a_branch1_fixed
I0828 17:25:30.785145 25014 net.cpp:197] Top shape: 1 1024 14 14 (200704)
I0828 17:25:30.785148 25014 net.cpp:205] Memory required for data: 158556164
I0828 17:25:30.785151 25014 layer_factory.hpp:123] Creating layer res4a_branch2a
I0828 17:25:30.785158 25014 net.cpp:140] Creating Layer res4a_branch2a
I0828 17:25:30.785161 25014 net.cpp:481] res4a_branch2a <- res3d_res3d_fixed_0_split_1
I0828 17:25:30.785166 25014 net.cpp:455] res4a_branch2a -> res4a_branch2a
I0828 17:25:30.786051 25014 layer_factory.hpp:123] Creating layer res4a_branch2a
I0828 17:25:30.787133 25014 net.cpp:190] Setting up res4a_branch2a
I0828 17:25:30.787142 25014 net.cpp:197] Top shape: 1 256 14 14 (50176)
I0828 17:25:30.787144 25014 net.cpp:205] Memory required for data: 158756868
I0828 17:25:30.787148 25014 layer_factory.hpp:123] Creating layer res4a_branch2a_relu
I0828 17:25:30.787153 25014 net.cpp:140] Creating Layer res4a_branch2a_relu
I0828 17:25:30.787156 25014 net.cpp:481] res4a_branch2a_relu <- res4a_branch2a
I0828 17:25:30.787160 25014 net.cpp:442] res4a_branch2a_relu -> res4a_branch2a (in-place)
I0828 17:25:30.787165 25014 net.cpp:190] Setting up res4a_branch2a_relu
I0828 17:25:30.787168 25014 net.cpp:197] Top shape: 1 256 14 14 (50176)
I0828 17:25:30.787171 25014 net.cpp:205] Memory required for data: 158957572
I0828 17:25:30.787173 25014 layer_factory.hpp:123] Creating layer res4a_branch2a_fixed
I0828 17:25:30.787176 25014 net.cpp:140] Creating Layer res4a_branch2a_fixed
I0828 17:25:30.787179 25014 net.cpp:481] res4a_branch2a_fixed <- res4a_branch2a
I0828 17:25:30.787181 25014 net.cpp:442] res4a_branch2a_fixed -> res4a_branch2a (in-place)
I0828 17:25:30.787201 25014 net.cpp:190] Setting up res4a_branch2a_fixed
I0828 17:25:30.787205 25014 net.cpp:197] Top shape: 1 256 14 14 (50176)
I0828 17:25:30.787207 25014 net.cpp:205] Memory required for data: 159158276
I0828 17:25:30.787210 25014 layer_factory.hpp:123] Creating layer res4a_branch2b
I0828 17:25:30.787216 25014 net.cpp:140] Creating Layer res4a_branch2b
I0828 17:25:30.787220 25014 net.cpp:481] res4a_branch2b <- res4a_branch2a
I0828 17:25:30.787223 25014 net.cpp:455] res4a_branch2b -> res4a_branch2b
I0828 17:25:30.791010 25014 layer_factory.hpp:123] Creating layer res4a_branch2b
I0828 17:25:30.794838 25014 net.cpp:190] Setting up res4a_branch2b
I0828 17:25:30.794870 25014 net.cpp:197] Top shape: 1 256 14 14 (50176)
I0828 17:25:30.794873 25014 net.cpp:205] Memory required for data: 159358980
I0828 17:25:30.794879 25014 layer_factory.hpp:123] Creating layer res4a_branch2b_relu
I0828 17:25:30.794909 25014 net.cpp:140] Creating Layer res4a_branch2b_relu
I0828 17:25:30.794930 25014 net.cpp:481] res4a_branch2b_relu <- res4a_branch2b
I0828 17:25:30.794948 25014 net.cpp:442] res4a_branch2b_relu -> res4a_branch2b (in-place)
I0828 17:25:30.794955 25014 net.cpp:190] Setting up res4a_branch2b_relu
I0828 17:25:30.794960 25014 net.cpp:197] Top shape: 1 256 14 14 (50176)
I0828 17:25:30.794961 25014 net.cpp:205] Memory required for data: 159559684
I0828 17:25:30.794963 25014 layer_factory.hpp:123] Creating layer res4a_branch2b_fixed
I0828 17:25:30.794968 25014 net.cpp:140] Creating Layer res4a_branch2b_fixed
I0828 17:25:30.794971 25014 net.cpp:481] res4a_branch2b_fixed <- res4a_branch2b
I0828 17:25:30.794975 25014 net.cpp:442] res4a_branch2b_fixed -> res4a_branch2b (in-place)
I0828 17:25:30.794999 25014 net.cpp:190] Setting up res4a_branch2b_fixed
I0828 17:25:30.795003 25014 net.cpp:197] Top shape: 1 256 14 14 (50176)
I0828 17:25:30.795006 25014 net.cpp:205] Memory required for data: 159760388
I0828 17:25:30.795008 25014 layer_factory.hpp:123] Creating layer res4a_branch2c
I0828 17:25:30.795015 25014 net.cpp:140] Creating Layer res4a_branch2c
I0828 17:25:30.795018 25014 net.cpp:481] res4a_branch2c <- res4a_branch2b
I0828 17:25:30.795022 25014 net.cpp:455] res4a_branch2c -> res4a_branch2c
I0828 17:25:30.796887 25014 layer_factory.hpp:123] Creating layer res4a_branch2c
I0828 17:25:30.799057 25014 net.cpp:190] Setting up res4a_branch2c
I0828 17:25:30.799067 25014 net.cpp:197] Top shape: 1 1024 14 14 (200704)
I0828 17:25:30.799069 25014 net.cpp:205] Memory required for data: 160563204
I0828 17:25:30.799075 25014 layer_factory.hpp:123] Creating layer res4a_branch2c_fixed
I0828 17:25:30.799080 25014 net.cpp:140] Creating Layer res4a_branch2c_fixed
I0828 17:25:30.799083 25014 net.cpp:481] res4a_branch2c_fixed <- res4a_branch2c
I0828 17:25:30.799088 25014 net.cpp:442] res4a_branch2c_fixed -> res4a_branch2c (in-place)
I0828 17:25:30.799110 25014 net.cpp:190] Setting up res4a_branch2c_fixed
I0828 17:25:30.799114 25014 net.cpp:197] Top shape: 1 1024 14 14 (200704)
I0828 17:25:30.799116 25014 net.cpp:205] Memory required for data: 161366020
I0828 17:25:30.799119 25014 layer_factory.hpp:123] Creating layer res4a
I0828 17:25:30.799124 25014 net.cpp:140] Creating Layer res4a
I0828 17:25:30.799140 25014 net.cpp:481] res4a <- res4a_branch1
I0828 17:25:30.799144 25014 net.cpp:481] res4a <- res4a_branch2c
I0828 17:25:30.799147 25014 net.cpp:455] res4a -> res4a
I0828 17:25:30.799175 25014 net.cpp:190] Setting up res4a
I0828 17:25:30.799180 25014 net.cpp:197] Top shape: 1 1024 14 14 (200704)
I0828 17:25:30.799181 25014 net.cpp:205] Memory required for data: 162168836
I0828 17:25:30.799185 25014 layer_factory.hpp:123] Creating layer res4a_relu
I0828 17:25:30.799201 25014 net.cpp:140] Creating Layer res4a_relu
I0828 17:25:30.799203 25014 net.cpp:481] res4a_relu <- res4a
I0828 17:25:30.799207 25014 net.cpp:442] res4a_relu -> res4a (in-place)
I0828 17:25:30.799212 25014 net.cpp:190] Setting up res4a_relu
I0828 17:25:30.799216 25014 net.cpp:197] Top shape: 1 1024 14 14 (200704)
I0828 17:25:30.799217 25014 net.cpp:205] Memory required for data: 162971652
I0828 17:25:30.799219 25014 layer_factory.hpp:123] Creating layer res4a_fixed
I0828 17:25:30.799237 25014 net.cpp:140] Creating Layer res4a_fixed
I0828 17:25:30.799238 25014 net.cpp:481] res4a_fixed <- res4a
I0828 17:25:30.799242 25014 net.cpp:442] res4a_fixed -> res4a (in-place)
I0828 17:25:30.799304 25014 net.cpp:190] Setting up res4a_fixed
I0828 17:25:30.799307 25014 net.cpp:197] Top shape: 1 1024 14 14 (200704)
I0828 17:25:30.799309 25014 net.cpp:205] Memory required for data: 163774468
I0828 17:25:30.799325 25014 layer_factory.hpp:123] Creating layer res4a_res4a_fixed_0_split
I0828 17:25:30.799329 25014 net.cpp:140] Creating Layer res4a_res4a_fixed_0_split
I0828 17:25:30.799331 25014 net.cpp:481] res4a_res4a_fixed_0_split <- res4a
I0828 17:25:30.799335 25014 net.cpp:455] res4a_res4a_fixed_0_split -> res4a_res4a_fixed_0_split_0
I0828 17:25:30.799340 25014 net.cpp:455] res4a_res4a_fixed_0_split -> res4a_res4a_fixed_0_split_1
I0828 17:25:30.799358 25014 net.cpp:190] Setting up res4a_res4a_fixed_0_split
I0828 17:25:30.799362 25014 net.cpp:197] Top shape: 1 1024 14 14 (200704)
I0828 17:25:30.799365 25014 net.cpp:197] Top shape: 1 1024 14 14 (200704)
I0828 17:25:30.799367 25014 net.cpp:205] Memory required for data: 165380100
I0828 17:25:30.799371 25014 layer_factory.hpp:123] Creating layer res4b_branch2a
I0828 17:25:30.799376 25014 net.cpp:140] Creating Layer res4b_branch2a
I0828 17:25:30.799379 25014 net.cpp:481] res4b_branch2a <- res4a_res4a_fixed_0_split_0
I0828 17:25:30.799383 25014 net.cpp:455] res4b_branch2a -> res4b_branch2a
I0828 17:25:30.801162 25014 layer_factory.hpp:123] Creating layer res4b_branch2a
I0828 17:25:30.803138 25014 net.cpp:190] Setting up res4b_branch2a
I0828 17:25:30.803148 25014 net.cpp:197] Top shape: 1 256 14 14 (50176)
I0828 17:25:30.803150 25014 net.cpp:205] Memory required for data: 165580804
I0828 17:25:30.803155 25014 layer_factory.hpp:123] Creating layer res4b_branch2a_relu
I0828 17:25:30.803160 25014 net.cpp:140] Creating Layer res4b_branch2a_relu
I0828 17:25:30.803164 25014 net.cpp:481] res4b_branch2a_relu <- res4b_branch2a
I0828 17:25:30.803169 25014 net.cpp:442] res4b_branch2a_relu -> res4b_branch2a (in-place)
I0828 17:25:30.803174 25014 net.cpp:190] Setting up res4b_branch2a_relu
I0828 17:25:30.803177 25014 net.cpp:197] Top shape: 1 256 14 14 (50176)
I0828 17:25:30.803179 25014 net.cpp:205] Memory required for data: 165781508
I0828 17:25:30.803182 25014 layer_factory.hpp:123] Creating layer res4b_branch2a_fixed
I0828 17:25:30.803185 25014 net.cpp:140] Creating Layer res4b_branch2a_fixed
I0828 17:25:30.803189 25014 net.cpp:481] res4b_branch2a_fixed <- res4b_branch2a
I0828 17:25:30.803191 25014 net.cpp:442] res4b_branch2a_fixed -> res4b_branch2a (in-place)
I0828 17:25:30.803212 25014 net.cpp:190] Setting up res4b_branch2a_fixed
I0828 17:25:30.803215 25014 net.cpp:197] Top shape: 1 256 14 14 (50176)
I0828 17:25:30.803218 25014 net.cpp:205] Memory required for data: 165982212
I0828 17:25:30.803221 25014 layer_factory.hpp:123] Creating layer res4b_branch2b
I0828 17:25:30.803226 25014 net.cpp:140] Creating Layer res4b_branch2b
I0828 17:25:30.803230 25014 net.cpp:481] res4b_branch2b <- res4b_branch2a
I0828 17:25:30.803233 25014 net.cpp:455] res4b_branch2b -> res4b_branch2b
I0828 17:25:30.806999 25014 layer_factory.hpp:123] Creating layer res4b_branch2b
I0828 17:25:30.811117 25014 net.cpp:190] Setting up res4b_branch2b
I0828 17:25:30.811134 25014 net.cpp:197] Top shape: 1 256 14 14 (50176)
I0828 17:25:30.811137 25014 net.cpp:205] Memory required for data: 166182916
I0828 17:25:30.811156 25014 layer_factory.hpp:123] Creating layer res4b_branch2b_relu
I0828 17:25:30.811163 25014 net.cpp:140] Creating Layer res4b_branch2b_relu
I0828 17:25:30.811168 25014 net.cpp:481] res4b_branch2b_relu <- res4b_branch2b
I0828 17:25:30.811173 25014 net.cpp:442] res4b_branch2b_relu -> res4b_branch2b (in-place)
I0828 17:25:30.811193 25014 net.cpp:190] Setting up res4b_branch2b_relu
I0828 17:25:30.811197 25014 net.cpp:197] Top shape: 1 256 14 14 (50176)
I0828 17:25:30.811213 25014 net.cpp:205] Memory required for data: 166383620
I0828 17:25:30.811215 25014 layer_factory.hpp:123] Creating layer res4b_branch2b_fixed
I0828 17:25:30.811220 25014 net.cpp:140] Creating Layer res4b_branch2b_fixed
I0828 17:25:30.811223 25014 net.cpp:481] res4b_branch2b_fixed <- res4b_branch2b
I0828 17:25:30.811225 25014 net.cpp:442] res4b_branch2b_fixed -> res4b_branch2b (in-place)
I0828 17:25:30.811247 25014 net.cpp:190] Setting up res4b_branch2b_fixed
I0828 17:25:30.811252 25014 net.cpp:197] Top shape: 1 256 14 14 (50176)
I0828 17:25:30.811255 25014 net.cpp:205] Memory required for data: 166584324
I0828 17:25:30.811259 25014 layer_factory.hpp:123] Creating layer res4b_branch2c
I0828 17:25:30.811265 25014 net.cpp:140] Creating Layer res4b_branch2c
I0828 17:25:30.811269 25014 net.cpp:481] res4b_branch2c <- res4b_branch2b
I0828 17:25:30.811273 25014 net.cpp:455] res4b_branch2c -> res4b_branch2c
I0828 17:25:30.813009 25014 layer_factory.hpp:123] Creating layer res4b_branch2c
I0828 17:25:30.814863 25014 net.cpp:190] Setting up res4b_branch2c
I0828 17:25:30.814874 25014 net.cpp:197] Top shape: 1 1024 14 14 (200704)
I0828 17:25:30.814877 25014 net.cpp:205] Memory required for data: 167387140
I0828 17:25:30.814882 25014 layer_factory.hpp:123] Creating layer res4b_branch2c_fixed
I0828 17:25:30.814894 25014 net.cpp:140] Creating Layer res4b_branch2c_fixed
I0828 17:25:30.814898 25014 net.cpp:481] res4b_branch2c_fixed <- res4b_branch2c
I0828 17:25:30.814903 25014 net.cpp:442] res4b_branch2c_fixed -> res4b_branch2c (in-place)
I0828 17:25:30.814925 25014 net.cpp:190] Setting up res4b_branch2c_fixed
I0828 17:25:30.814929 25014 net.cpp:197] Top shape: 1 1024 14 14 (200704)
I0828 17:25:30.814931 25014 net.cpp:205] Memory required for data: 168189956
I0828 17:25:30.814934 25014 layer_factory.hpp:123] Creating layer res4b
I0828 17:25:30.814939 25014 net.cpp:140] Creating Layer res4b
I0828 17:25:30.814942 25014 net.cpp:481] res4b <- res4a_res4a_fixed_0_split_1
I0828 17:25:30.814945 25014 net.cpp:481] res4b <- res4b_branch2c
I0828 17:25:30.814949 25014 net.cpp:455] res4b -> res4b
I0828 17:25:30.814963 25014 net.cpp:190] Setting up res4b
I0828 17:25:30.814967 25014 net.cpp:197] Top shape: 1 1024 14 14 (200704)
I0828 17:25:30.814970 25014 net.cpp:205] Memory required for data: 168992772
I0828 17:25:30.814971 25014 layer_factory.hpp:123] Creating layer res4b_relu
I0828 17:25:30.814975 25014 net.cpp:140] Creating Layer res4b_relu
I0828 17:25:30.814978 25014 net.cpp:481] res4b_relu <- res4b
I0828 17:25:30.814981 25014 net.cpp:442] res4b_relu -> res4b (in-place)
I0828 17:25:30.814986 25014 net.cpp:190] Setting up res4b_relu
I0828 17:25:30.814990 25014 net.cpp:197] Top shape: 1 1024 14 14 (200704)
I0828 17:25:30.814991 25014 net.cpp:205] Memory required for data: 169795588
I0828 17:25:30.814994 25014 layer_factory.hpp:123] Creating layer res4b_fixed
I0828 17:25:30.814997 25014 net.cpp:140] Creating Layer res4b_fixed
I0828 17:25:30.814999 25014 net.cpp:481] res4b_fixed <- res4b
I0828 17:25:30.815002 25014 net.cpp:442] res4b_fixed -> res4b (in-place)
I0828 17:25:30.815022 25014 net.cpp:190] Setting up res4b_fixed
I0828 17:25:30.815026 25014 net.cpp:197] Top shape: 1 1024 14 14 (200704)
I0828 17:25:30.815028 25014 net.cpp:205] Memory required for data: 170598404
I0828 17:25:30.815032 25014 layer_factory.hpp:123] Creating layer res4b_res4b_fixed_0_split
I0828 17:25:30.815035 25014 net.cpp:140] Creating Layer res4b_res4b_fixed_0_split
I0828 17:25:30.815037 25014 net.cpp:481] res4b_res4b_fixed_0_split <- res4b
I0828 17:25:30.815042 25014 net.cpp:455] res4b_res4b_fixed_0_split -> res4b_res4b_fixed_0_split_0
I0828 17:25:30.815045 25014 net.cpp:455] res4b_res4b_fixed_0_split -> res4b_res4b_fixed_0_split_1
I0828 17:25:30.815066 25014 net.cpp:190] Setting up res4b_res4b_fixed_0_split
I0828 17:25:30.815069 25014 net.cpp:197] Top shape: 1 1024 14 14 (200704)
I0828 17:25:30.815073 25014 net.cpp:197] Top shape: 1 1024 14 14 (200704)
I0828 17:25:30.815075 25014 net.cpp:205] Memory required for data: 172204036
I0828 17:25:30.815078 25014 layer_factory.hpp:123] Creating layer res4c_branch2a
I0828 17:25:30.815083 25014 net.cpp:140] Creating Layer res4c_branch2a
I0828 17:25:30.815086 25014 net.cpp:481] res4c_branch2a <- res4b_res4b_fixed_0_split_0
I0828 17:25:30.815090 25014 net.cpp:455] res4c_branch2a -> res4c_branch2a
I0828 17:25:30.816841 25014 layer_factory.hpp:123] Creating layer res4c_branch2a
I0828 17:25:30.818684 25014 net.cpp:190] Setting up res4c_branch2a
I0828 17:25:30.818693 25014 net.cpp:197] Top shape: 1 256 14 14 (50176)
I0828 17:25:30.818696 25014 net.cpp:205] Memory required for data: 172404740
I0828 17:25:30.818717 25014 layer_factory.hpp:123] Creating layer res4c_branch2a_relu
I0828 17:25:30.818722 25014 net.cpp:140] Creating Layer res4c_branch2a_relu
I0828 17:25:30.818724 25014 net.cpp:481] res4c_branch2a_relu <- res4c_branch2a
I0828 17:25:30.818729 25014 net.cpp:442] res4c_branch2a_relu -> res4c_branch2a (in-place)
I0828 17:25:30.818735 25014 net.cpp:190] Setting up res4c_branch2a_relu
I0828 17:25:30.818738 25014 net.cpp:197] Top shape: 1 256 14 14 (50176)
I0828 17:25:30.818742 25014 net.cpp:205] Memory required for data: 172605444
I0828 17:25:30.818743 25014 layer_factory.hpp:123] Creating layer res4c_branch2a_fixed
I0828 17:25:30.818747 25014 net.cpp:140] Creating Layer res4c_branch2a_fixed
I0828 17:25:30.818750 25014 net.cpp:481] res4c_branch2a_fixed <- res4c_branch2a
I0828 17:25:30.818753 25014 net.cpp:442] res4c_branch2a_fixed -> res4c_branch2a (in-place)
I0828 17:25:30.818775 25014 net.cpp:190] Setting up res4c_branch2a_fixed
I0828 17:25:30.818779 25014 net.cpp:197] Top shape: 1 256 14 14 (50176)
I0828 17:25:30.818781 25014 net.cpp:205] Memory required for data: 172806148
I0828 17:25:30.818784 25014 layer_factory.hpp:123] Creating layer res4c_branch2b
I0828 17:25:30.818791 25014 net.cpp:140] Creating Layer res4c_branch2b
I0828 17:25:30.818794 25014 net.cpp:481] res4c_branch2b <- res4c_branch2a
I0828 17:25:30.818797 25014 net.cpp:455] res4c_branch2b -> res4c_branch2b
I0828 17:25:30.822559 25014 layer_factory.hpp:123] Creating layer res4c_branch2b
I0828 17:25:30.826370 25014 net.cpp:190] Setting up res4c_branch2b
I0828 17:25:30.826386 25014 net.cpp:197] Top shape: 1 256 14 14 (50176)
I0828 17:25:30.826390 25014 net.cpp:205] Memory required for data: 173006852
I0828 17:25:30.826395 25014 layer_factory.hpp:123] Creating layer res4c_branch2b_relu
I0828 17:25:30.826402 25014 net.cpp:140] Creating Layer res4c_branch2b_relu
I0828 17:25:30.826406 25014 net.cpp:481] res4c_branch2b_relu <- res4c_branch2b
I0828 17:25:30.826411 25014 net.cpp:442] res4c_branch2b_relu -> res4c_branch2b (in-place)
I0828 17:25:30.826416 25014 net.cpp:190] Setting up res4c_branch2b_relu
I0828 17:25:30.826421 25014 net.cpp:197] Top shape: 1 256 14 14 (50176)
I0828 17:25:30.826422 25014 net.cpp:205] Memory required for data: 173207556
I0828 17:25:30.826424 25014 layer_factory.hpp:123] Creating layer res4c_branch2b_fixed
I0828 17:25:30.826428 25014 net.cpp:140] Creating Layer res4c_branch2b_fixed
I0828 17:25:30.826431 25014 net.cpp:481] res4c_branch2b_fixed <- res4c_branch2b
I0828 17:25:30.826434 25014 net.cpp:442] res4c_branch2b_fixed -> res4c_branch2b (in-place)
I0828 17:25:30.826457 25014 net.cpp:190] Setting up res4c_branch2b_fixed
I0828 17:25:30.826460 25014 net.cpp:197] Top shape: 1 256 14 14 (50176)
I0828 17:25:30.826463 25014 net.cpp:205] Memory required for data: 173408260
I0828 17:25:30.826467 25014 layer_factory.hpp:123] Creating layer res4c_branch2c
I0828 17:25:30.826472 25014 net.cpp:140] Creating Layer res4c_branch2c
I0828 17:25:30.826475 25014 net.cpp:481] res4c_branch2c <- res4c_branch2b
I0828 17:25:30.826479 25014 net.cpp:455] res4c_branch2c -> res4c_branch2c
I0828 17:25:30.828346 25014 layer_factory.hpp:123] Creating layer res4c_branch2c
I0828 17:25:30.830282 25014 net.cpp:190] Setting up res4c_branch2c
I0828 17:25:30.830309 25014 net.cpp:197] Top shape: 1 1024 14 14 (200704)
I0828 17:25:30.830313 25014 net.cpp:205] Memory required for data: 174211076
I0828 17:25:30.830319 25014 layer_factory.hpp:123] Creating layer res4c_branch2c_fixed
I0828 17:25:30.830328 25014 net.cpp:140] Creating Layer res4c_branch2c_fixed
I0828 17:25:30.830332 25014 net.cpp:481] res4c_branch2c_fixed <- res4c_branch2c
I0828 17:25:30.830338 25014 net.cpp:442] res4c_branch2c_fixed -> res4c_branch2c (in-place)
I0828 17:25:30.830360 25014 net.cpp:190] Setting up res4c_branch2c_fixed
I0828 17:25:30.830365 25014 net.cpp:197] Top shape: 1 1024 14 14 (200704)
I0828 17:25:30.830368 25014 net.cpp:205] Memory required for data: 175013892
I0828 17:25:30.830384 25014 layer_factory.hpp:123] Creating layer res4c
I0828 17:25:30.830389 25014 net.cpp:140] Creating Layer res4c
I0828 17:25:30.830392 25014 net.cpp:481] res4c <- res4b_res4b_fixed_0_split_1
I0828 17:25:30.830395 25014 net.cpp:481] res4c <- res4c_branch2c
I0828 17:25:30.830400 25014 net.cpp:455] res4c -> res4c
I0828 17:25:30.830415 25014 net.cpp:190] Setting up res4c
I0828 17:25:30.830420 25014 net.cpp:197] Top shape: 1 1024 14 14 (200704)
I0828 17:25:30.830422 25014 net.cpp:205] Memory required for data: 175816708
I0828 17:25:30.830425 25014 layer_factory.hpp:123] Creating layer res4c_relu
I0828 17:25:30.830430 25014 net.cpp:140] Creating Layer res4c_relu
I0828 17:25:30.830432 25014 net.cpp:481] res4c_relu <- res4c
I0828 17:25:30.830436 25014 net.cpp:442] res4c_relu -> res4c (in-place)
I0828 17:25:30.830441 25014 net.cpp:190] Setting up res4c_relu
I0828 17:25:30.830444 25014 net.cpp:197] Top shape: 1 1024 14 14 (200704)
I0828 17:25:30.830447 25014 net.cpp:205] Memory required for data: 176619524
I0828 17:25:30.830449 25014 layer_factory.hpp:123] Creating layer res4c_fixed
I0828 17:25:30.830453 25014 net.cpp:140] Creating Layer res4c_fixed
I0828 17:25:30.830456 25014 net.cpp:481] res4c_fixed <- res4c
I0828 17:25:30.830458 25014 net.cpp:442] res4c_fixed -> res4c (in-place)
I0828 17:25:30.830480 25014 net.cpp:190] Setting up res4c_fixed
I0828 17:25:30.830484 25014 net.cpp:197] Top shape: 1 1024 14 14 (200704)
I0828 17:25:30.830487 25014 net.cpp:205] Memory required for data: 177422340
I0828 17:25:30.830490 25014 layer_factory.hpp:123] Creating layer res4c_res4c_fixed_0_split
I0828 17:25:30.830494 25014 net.cpp:140] Creating Layer res4c_res4c_fixed_0_split
I0828 17:25:30.830497 25014 net.cpp:481] res4c_res4c_fixed_0_split <- res4c
I0828 17:25:30.830500 25014 net.cpp:455] res4c_res4c_fixed_0_split -> res4c_res4c_fixed_0_split_0
I0828 17:25:30.830505 25014 net.cpp:455] res4c_res4c_fixed_0_split -> res4c_res4c_fixed_0_split_1
I0828 17:25:30.830525 25014 net.cpp:190] Setting up res4c_res4c_fixed_0_split
I0828 17:25:30.830530 25014 net.cpp:197] Top shape: 1 1024 14 14 (200704)
I0828 17:25:30.830533 25014 net.cpp:197] Top shape: 1 1024 14 14 (200704)
I0828 17:25:30.830535 25014 net.cpp:205] Memory required for data: 179027972
I0828 17:25:30.830538 25014 layer_factory.hpp:123] Creating layer res4d_branch2a
I0828 17:25:30.830545 25014 net.cpp:140] Creating Layer res4d_branch2a
I0828 17:25:30.830549 25014 net.cpp:481] res4d_branch2a <- res4c_res4c_fixed_0_split_0
I0828 17:25:30.830552 25014 net.cpp:455] res4d_branch2a -> res4d_branch2a
I0828 17:25:30.832262 25014 layer_factory.hpp:123] Creating layer res4d_branch2a
I0828 17:25:30.834080 25014 net.cpp:190] Setting up res4d_branch2a
I0828 17:25:30.834105 25014 net.cpp:197] Top shape: 1 256 14 14 (50176)
I0828 17:25:30.834108 25014 net.cpp:205] Memory required for data: 179228676
I0828 17:25:30.834113 25014 layer_factory.hpp:123] Creating layer res4d_branch2a_relu
I0828 17:25:30.834118 25014 net.cpp:140] Creating Layer res4d_branch2a_relu
I0828 17:25:30.834122 25014 net.cpp:481] res4d_branch2a_relu <- res4d_branch2a
I0828 17:25:30.834126 25014 net.cpp:442] res4d_branch2a_relu -> res4d_branch2a (in-place)
I0828 17:25:30.834132 25014 net.cpp:190] Setting up res4d_branch2a_relu
I0828 17:25:30.834136 25014 net.cpp:197] Top shape: 1 256 14 14 (50176)
I0828 17:25:30.834138 25014 net.cpp:205] Memory required for data: 179429380
I0828 17:25:30.834141 25014 layer_factory.hpp:123] Creating layer res4d_branch2a_fixed
I0828 17:25:30.834144 25014 net.cpp:140] Creating Layer res4d_branch2a_fixed
I0828 17:25:30.834147 25014 net.cpp:481] res4d_branch2a_fixed <- res4d_branch2a
I0828 17:25:30.834151 25014 net.cpp:442] res4d_branch2a_fixed -> res4d_branch2a (in-place)
I0828 17:25:30.834173 25014 net.cpp:190] Setting up res4d_branch2a_fixed
I0828 17:25:30.834178 25014 net.cpp:197] Top shape: 1 256 14 14 (50176)
I0828 17:25:30.834182 25014 net.cpp:205] Memory required for data: 179630084
I0828 17:25:30.834184 25014 layer_factory.hpp:123] Creating layer res4d_branch2b
I0828 17:25:30.834190 25014 net.cpp:140] Creating Layer res4d_branch2b
I0828 17:25:30.834193 25014 net.cpp:481] res4d_branch2b <- res4d_branch2a
I0828 17:25:30.834197 25014 net.cpp:455] res4d_branch2b -> res4d_branch2b
I0828 17:25:30.837829 25014 layer_factory.hpp:123] Creating layer res4d_branch2b
I0828 17:25:30.841413 25014 net.cpp:190] Setting up res4d_branch2b
I0828 17:25:30.841442 25014 net.cpp:197] Top shape: 1 256 14 14 (50176)
I0828 17:25:30.841445 25014 net.cpp:205] Memory required for data: 179830788
I0828 17:25:30.841451 25014 layer_factory.hpp:123] Creating layer res4d_branch2b_relu
I0828 17:25:30.841457 25014 net.cpp:140] Creating Layer res4d_branch2b_relu
I0828 17:25:30.841462 25014 net.cpp:481] res4d_branch2b_relu <- res4d_branch2b
I0828 17:25:30.841482 25014 net.cpp:442] res4d_branch2b_relu -> res4d_branch2b (in-place)
I0828 17:25:30.841490 25014 net.cpp:190] Setting up res4d_branch2b_relu
I0828 17:25:30.841493 25014 net.cpp:197] Top shape: 1 256 14 14 (50176)
I0828 17:25:30.841495 25014 net.cpp:205] Memory required for data: 180031492
I0828 17:25:30.841498 25014 layer_factory.hpp:123] Creating layer res4d_branch2b_fixed
I0828 17:25:30.841502 25014 net.cpp:140] Creating Layer res4d_branch2b_fixed
I0828 17:25:30.841506 25014 net.cpp:481] res4d_branch2b_fixed <- res4d_branch2b
I0828 17:25:30.841508 25014 net.cpp:442] res4d_branch2b_fixed -> res4d_branch2b (in-place)
I0828 17:25:30.841532 25014 net.cpp:190] Setting up res4d_branch2b_fixed
I0828 17:25:30.841537 25014 net.cpp:197] Top shape: 1 256 14 14 (50176)
I0828 17:25:30.841540 25014 net.cpp:205] Memory required for data: 180232196
I0828 17:25:30.841543 25014 layer_factory.hpp:123] Creating layer res4d_branch2c
I0828 17:25:30.841550 25014 net.cpp:140] Creating Layer res4d_branch2c
I0828 17:25:30.841553 25014 net.cpp:481] res4d_branch2c <- res4d_branch2b
I0828 17:25:30.841557 25014 net.cpp:455] res4d_branch2c -> res4d_branch2c
I0828 17:25:30.843286 25014 layer_factory.hpp:123] Creating layer res4d_branch2c
I0828 17:25:30.845111 25014 net.cpp:190] Setting up res4d_branch2c
I0828 17:25:30.845121 25014 net.cpp:197] Top shape: 1 1024 14 14 (200704)
I0828 17:25:30.845124 25014 net.cpp:205] Memory required for data: 181035012
I0828 17:25:30.845129 25014 layer_factory.hpp:123] Creating layer res4d_branch2c_fixed
I0828 17:25:30.845134 25014 net.cpp:140] Creating Layer res4d_branch2c_fixed
I0828 17:25:30.845137 25014 net.cpp:481] res4d_branch2c_fixed <- res4d_branch2c
I0828 17:25:30.845142 25014 net.cpp:442] res4d_branch2c_fixed -> res4d_branch2c (in-place)
I0828 17:25:30.845178 25014 net.cpp:190] Setting up res4d_branch2c_fixed
I0828 17:25:30.845197 25014 net.cpp:197] Top shape: 1 1024 14 14 (200704)
I0828 17:25:30.845202 25014 net.cpp:205] Memory required for data: 181837828
I0828 17:25:30.845206 25014 layer_factory.hpp:123] Creating layer res4d
I0828 17:25:30.845211 25014 net.cpp:140] Creating Layer res4d
I0828 17:25:30.845216 25014 net.cpp:481] res4d <- res4c_res4c_fixed_0_split_1
I0828 17:25:30.845218 25014 net.cpp:481] res4d <- res4d_branch2c
I0828 17:25:30.845222 25014 net.cpp:455] res4d -> res4d
I0828 17:25:30.845237 25014 net.cpp:190] Setting up res4d
I0828 17:25:30.845242 25014 net.cpp:197] Top shape: 1 1024 14 14 (200704)
I0828 17:25:30.845245 25014 net.cpp:205] Memory required for data: 182640644
I0828 17:25:30.845247 25014 layer_factory.hpp:123] Creating layer res4d_relu
I0828 17:25:30.845252 25014 net.cpp:140] Creating Layer res4d_relu
I0828 17:25:30.845254 25014 net.cpp:481] res4d_relu <- res4d
I0828 17:25:30.845258 25014 net.cpp:442] res4d_relu -> res4d (in-place)
I0828 17:25:30.845263 25014 net.cpp:190] Setting up res4d_relu
I0828 17:25:30.845266 25014 net.cpp:197] Top shape: 1 1024 14 14 (200704)
I0828 17:25:30.845269 25014 net.cpp:205] Memory required for data: 183443460
I0828 17:25:30.845271 25014 layer_factory.hpp:123] Creating layer res4d_fixed
I0828 17:25:30.845274 25014 net.cpp:140] Creating Layer res4d_fixed
I0828 17:25:30.845278 25014 net.cpp:481] res4d_fixed <- res4d
I0828 17:25:30.845280 25014 net.cpp:442] res4d_fixed -> res4d (in-place)
I0828 17:25:30.845302 25014 net.cpp:190] Setting up res4d_fixed
I0828 17:25:30.845307 25014 net.cpp:197] Top shape: 1 1024 14 14 (200704)
I0828 17:25:30.845309 25014 net.cpp:205] Memory required for data: 184246276
I0828 17:25:30.845314 25014 layer_factory.hpp:123] Creating layer res4d_res4d_fixed_0_split
I0828 17:25:30.845317 25014 net.cpp:140] Creating Layer res4d_res4d_fixed_0_split
I0828 17:25:30.845319 25014 net.cpp:481] res4d_res4d_fixed_0_split <- res4d
I0828 17:25:30.845324 25014 net.cpp:455] res4d_res4d_fixed_0_split -> res4d_res4d_fixed_0_split_0
I0828 17:25:30.845329 25014 net.cpp:455] res4d_res4d_fixed_0_split -> res4d_res4d_fixed_0_split_1
I0828 17:25:30.845352 25014 net.cpp:190] Setting up res4d_res4d_fixed_0_split
I0828 17:25:30.845356 25014 net.cpp:197] Top shape: 1 1024 14 14 (200704)
I0828 17:25:30.845360 25014 net.cpp:197] Top shape: 1 1024 14 14 (200704)
I0828 17:25:30.845362 25014 net.cpp:205] Memory required for data: 185851908
I0828 17:25:30.845365 25014 layer_factory.hpp:123] Creating layer res4e_branch2a
I0828 17:25:30.845371 25014 net.cpp:140] Creating Layer res4e_branch2a
I0828 17:25:30.845374 25014 net.cpp:481] res4e_branch2a <- res4d_res4d_fixed_0_split_0
I0828 17:25:30.845379 25014 net.cpp:455] res4e_branch2a -> res4e_branch2a
I0828 17:25:30.847120 25014 layer_factory.hpp:123] Creating layer res4e_branch2a
I0828 17:25:30.849058 25014 net.cpp:190] Setting up res4e_branch2a
I0828 17:25:30.849068 25014 net.cpp:197] Top shape: 1 256 14 14 (50176)
I0828 17:25:30.849071 25014 net.cpp:205] Memory required for data: 186052612
I0828 17:25:30.849092 25014 layer_factory.hpp:123] Creating layer res4e_branch2a_relu
I0828 17:25:30.849097 25014 net.cpp:140] Creating Layer res4e_branch2a_relu
I0828 17:25:30.849117 25014 net.cpp:481] res4e_branch2a_relu <- res4e_branch2a
I0828 17:25:30.849122 25014 net.cpp:442] res4e_branch2a_relu -> res4e_branch2a (in-place)
I0828 17:25:30.849128 25014 net.cpp:190] Setting up res4e_branch2a_relu
I0828 17:25:30.849131 25014 net.cpp:197] Top shape: 1 256 14 14 (50176)
I0828 17:25:30.849133 25014 net.cpp:205] Memory required for data: 186253316
I0828 17:25:30.849136 25014 layer_factory.hpp:123] Creating layer res4e_branch2a_fixed
I0828 17:25:30.849140 25014 net.cpp:140] Creating Layer res4e_branch2a_fixed
I0828 17:25:30.849143 25014 net.cpp:481] res4e_branch2a_fixed <- res4e_branch2a
I0828 17:25:30.849159 25014 net.cpp:442] res4e_branch2a_fixed -> res4e_branch2a (in-place)
I0828 17:25:30.849196 25014 net.cpp:190] Setting up res4e_branch2a_fixed
I0828 17:25:30.849201 25014 net.cpp:197] Top shape: 1 256 14 14 (50176)
I0828 17:25:30.849205 25014 net.cpp:205] Memory required for data: 186454020
I0828 17:25:30.849207 25014 layer_factory.hpp:123] Creating layer res4e_branch2b
I0828 17:25:30.849227 25014 net.cpp:140] Creating Layer res4e_branch2b
I0828 17:25:30.849231 25014 net.cpp:481] res4e_branch2b <- res4e_branch2a
I0828 17:25:30.849249 25014 net.cpp:455] res4e_branch2b -> res4e_branch2b
I0828 17:25:30.852849 25014 layer_factory.hpp:123] Creating layer res4e_branch2b
I0828 17:25:30.856458 25014 net.cpp:190] Setting up res4e_branch2b
I0828 17:25:30.856475 25014 net.cpp:197] Top shape: 1 256 14 14 (50176)
I0828 17:25:30.856477 25014 net.cpp:205] Memory required for data: 186654724
I0828 17:25:30.856498 25014 layer_factory.hpp:123] Creating layer res4e_branch2b_relu
I0828 17:25:30.856506 25014 net.cpp:140] Creating Layer res4e_branch2b_relu
I0828 17:25:30.856526 25014 net.cpp:481] res4e_branch2b_relu <- res4e_branch2b
I0828 17:25:30.856532 25014 net.cpp:442] res4e_branch2b_relu -> res4e_branch2b (in-place)
I0828 17:25:30.856539 25014 net.cpp:190] Setting up res4e_branch2b_relu
I0828 17:25:30.856542 25014 net.cpp:197] Top shape: 1 256 14 14 (50176)
I0828 17:25:30.856559 25014 net.cpp:205] Memory required for data: 186855428
I0828 17:25:30.856560 25014 layer_factory.hpp:123] Creating layer res4e_branch2b_fixed
I0828 17:25:30.856565 25014 net.cpp:140] Creating Layer res4e_branch2b_fixed
I0828 17:25:30.856568 25014 net.cpp:481] res4e_branch2b_fixed <- res4e_branch2b
I0828 17:25:30.856571 25014 net.cpp:442] res4e_branch2b_fixed -> res4e_branch2b (in-place)
I0828 17:25:30.856593 25014 net.cpp:190] Setting up res4e_branch2b_fixed
I0828 17:25:30.856598 25014 net.cpp:197] Top shape: 1 256 14 14 (50176)
I0828 17:25:30.856601 25014 net.cpp:205] Memory required for data: 187056132
I0828 17:25:30.856611 25014 layer_factory.hpp:123] Creating layer res4e_branch2c
I0828 17:25:30.856618 25014 net.cpp:140] Creating Layer res4e_branch2c
I0828 17:25:30.856622 25014 net.cpp:481] res4e_branch2c <- res4e_branch2b
I0828 17:25:30.856627 25014 net.cpp:455] res4e_branch2c -> res4e_branch2c
I0828 17:25:30.858825 25014 layer_factory.hpp:123] Creating layer res4e_branch2c
I0828 17:25:30.869099 25014 net.cpp:190] Setting up res4e_branch2c
I0828 17:25:30.869134 25014 net.cpp:197] Top shape: 1 1024 14 14 (200704)
I0828 17:25:30.869139 25014 net.cpp:205] Memory required for data: 187858948
I0828 17:25:30.869149 25014 layer_factory.hpp:123] Creating layer res4e_branch2c_fixed
I0828 17:25:30.869159 25014 net.cpp:140] Creating Layer res4e_branch2c_fixed
I0828 17:25:30.869165 25014 net.cpp:481] res4e_branch2c_fixed <- res4e_branch2c
I0828 17:25:30.869172 25014 net.cpp:442] res4e_branch2c_fixed -> res4e_branch2c (in-place)
I0828 17:25:30.869206 25014 net.cpp:190] Setting up res4e_branch2c_fixed
I0828 17:25:30.869212 25014 net.cpp:197] Top shape: 1 1024 14 14 (200704)
I0828 17:25:30.869216 25014 net.cpp:205] Memory required for data: 188661764
I0828 17:25:30.869221 25014 layer_factory.hpp:123] Creating layer res4e
I0828 17:25:30.869228 25014 net.cpp:140] Creating Layer res4e
I0828 17:25:30.869232 25014 net.cpp:481] res4e <- res4d_res4d_fixed_0_split_1
I0828 17:25:30.869237 25014 net.cpp:481] res4e <- res4e_branch2c
I0828 17:25:30.869243 25014 net.cpp:455] res4e -> res4e
I0828 17:25:30.869264 25014 net.cpp:190] Setting up res4e
I0828 17:25:30.869269 25014 net.cpp:197] Top shape: 1 1024 14 14 (200704)
I0828 17:25:30.869273 25014 net.cpp:205] Memory required for data: 189464580
I0828 17:25:30.869277 25014 layer_factory.hpp:123] Creating layer res4e_relu
I0828 17:25:30.869283 25014 net.cpp:140] Creating Layer res4e_relu
I0828 17:25:30.869287 25014 net.cpp:481] res4e_relu <- res4e
I0828 17:25:30.869292 25014 net.cpp:442] res4e_relu -> res4e (in-place)
I0828 17:25:30.869299 25014 net.cpp:190] Setting up res4e_relu
I0828 17:25:30.869303 25014 net.cpp:197] Top shape: 1 1024 14 14 (200704)
I0828 17:25:30.869307 25014 net.cpp:205] Memory required for data: 190267396
I0828 17:25:30.869310 25014 layer_factory.hpp:123] Creating layer res4e_fixed
I0828 17:25:30.869316 25014 net.cpp:140] Creating Layer res4e_fixed
I0828 17:25:30.869319 25014 net.cpp:481] res4e_fixed <- res4e
I0828 17:25:30.869323 25014 net.cpp:442] res4e_fixed -> res4e (in-place)
I0828 17:25:30.869352 25014 net.cpp:190] Setting up res4e_fixed
I0828 17:25:30.869359 25014 net.cpp:197] Top shape: 1 1024 14 14 (200704)
I0828 17:25:30.869361 25014 net.cpp:205] Memory required for data: 191070212
I0828 17:25:30.869366 25014 layer_factory.hpp:123] Creating layer res4e_res4e_fixed_0_split
I0828 17:25:30.869372 25014 net.cpp:140] Creating Layer res4e_res4e_fixed_0_split
I0828 17:25:30.869376 25014 net.cpp:481] res4e_res4e_fixed_0_split <- res4e
I0828 17:25:30.869381 25014 net.cpp:455] res4e_res4e_fixed_0_split -> res4e_res4e_fixed_0_split_0
I0828 17:25:30.869387 25014 net.cpp:455] res4e_res4e_fixed_0_split -> res4e_res4e_fixed_0_split_1
I0828 17:25:30.869416 25014 net.cpp:190] Setting up res4e_res4e_fixed_0_split
I0828 17:25:30.869422 25014 net.cpp:197] Top shape: 1 1024 14 14 (200704)
I0828 17:25:30.869426 25014 net.cpp:197] Top shape: 1 1024 14 14 (200704)
I0828 17:25:30.869431 25014 net.cpp:205] Memory required for data: 192675844
I0828 17:25:30.869433 25014 layer_factory.hpp:123] Creating layer res4f_branch2a
I0828 17:25:30.869444 25014 net.cpp:140] Creating Layer res4f_branch2a
I0828 17:25:30.869448 25014 net.cpp:481] res4f_branch2a <- res4e_res4e_fixed_0_split_0
I0828 17:25:30.869454 25014 net.cpp:455] res4f_branch2a -> res4f_branch2a
I0828 17:25:30.872592 25014 layer_factory.hpp:123] Creating layer res4f_branch2a
I0828 17:25:30.875994 25014 net.cpp:190] Setting up res4f_branch2a
I0828 17:25:30.876019 25014 net.cpp:197] Top shape: 1 256 14 14 (50176)
I0828 17:25:30.876021 25014 net.cpp:205] Memory required for data: 192876548
I0828 17:25:30.876030 25014 layer_factory.hpp:123] Creating layer res4f_branch2a_relu
I0828 17:25:30.876042 25014 net.cpp:140] Creating Layer res4f_branch2a_relu
I0828 17:25:30.876049 25014 net.cpp:481] res4f_branch2a_relu <- res4f_branch2a
I0828 17:25:30.876058 25014 net.cpp:442] res4f_branch2a_relu -> res4f_branch2a (in-place)
I0828 17:25:30.876070 25014 net.cpp:190] Setting up res4f_branch2a_relu
I0828 17:25:30.876077 25014 net.cpp:197] Top shape: 1 256 14 14 (50176)
I0828 17:25:30.876081 25014 net.cpp:205] Memory required for data: 193077252
I0828 17:25:30.876086 25014 layer_factory.hpp:123] Creating layer res4f_branch2a_fixed
I0828 17:25:30.876093 25014 net.cpp:140] Creating Layer res4f_branch2a_fixed
I0828 17:25:30.876098 25014 net.cpp:481] res4f_branch2a_fixed <- res4f_branch2a
I0828 17:25:30.876104 25014 net.cpp:442] res4f_branch2a_fixed -> res4f_branch2a (in-place)
I0828 17:25:30.876147 25014 net.cpp:190] Setting up res4f_branch2a_fixed
I0828 17:25:30.876153 25014 net.cpp:197] Top shape: 1 256 14 14 (50176)
I0828 17:25:30.876158 25014 net.cpp:205] Memory required for data: 193277956
I0828 17:25:30.876164 25014 layer_factory.hpp:123] Creating layer res4f_branch2b
I0828 17:25:30.876176 25014 net.cpp:140] Creating Layer res4f_branch2b
I0828 17:25:30.876181 25014 net.cpp:481] res4f_branch2b <- res4f_branch2a
I0828 17:25:30.876190 25014 net.cpp:455] res4f_branch2b -> res4f_branch2b
I0828 17:25:30.880524 25014 layer_factory.hpp:123] Creating layer res4f_branch2b
I0828 17:25:30.884256 25014 net.cpp:190] Setting up res4f_branch2b
I0828 17:25:30.884274 25014 net.cpp:197] Top shape: 1 256 14 14 (50176)
I0828 17:25:30.884277 25014 net.cpp:205] Memory required for data: 193478660
I0828 17:25:30.884284 25014 layer_factory.hpp:123] Creating layer res4f_branch2b_relu
I0828 17:25:30.884294 25014 net.cpp:140] Creating Layer res4f_branch2b_relu
I0828 17:25:30.884300 25014 net.cpp:481] res4f_branch2b_relu <- res4f_branch2b
I0828 17:25:30.884308 25014 net.cpp:442] res4f_branch2b_relu -> res4f_branch2b (in-place)
I0828 17:25:30.884318 25014 net.cpp:190] Setting up res4f_branch2b_relu
I0828 17:25:30.884323 25014 net.cpp:197] Top shape: 1 256 14 14 (50176)
I0828 17:25:30.884328 25014 net.cpp:205] Memory required for data: 193679364
I0828 17:25:30.884332 25014 layer_factory.hpp:123] Creating layer res4f_branch2b_fixed
I0828 17:25:30.884341 25014 net.cpp:140] Creating Layer res4f_branch2b_fixed
I0828 17:25:30.884344 25014 net.cpp:481] res4f_branch2b_fixed <- res4f_branch2b
I0828 17:25:30.884351 25014 net.cpp:442] res4f_branch2b_fixed -> res4f_branch2b (in-place)
I0828 17:25:30.884387 25014 net.cpp:190] Setting up res4f_branch2b_fixed
I0828 17:25:30.884394 25014 net.cpp:197] Top shape: 1 256 14 14 (50176)
I0828 17:25:30.884399 25014 net.cpp:205] Memory required for data: 193880068
I0828 17:25:30.884404 25014 layer_factory.hpp:123] Creating layer res4f_branch2c
I0828 17:25:30.884416 25014 net.cpp:140] Creating Layer res4f_branch2c
I0828 17:25:30.884421 25014 net.cpp:481] res4f_branch2c <- res4f_branch2b
I0828 17:25:30.884428 25014 net.cpp:455] res4f_branch2c -> res4f_branch2c
I0828 17:25:30.886487 25014 layer_factory.hpp:123] Creating layer res4f_branch2c
I0828 17:25:30.888339 25014 net.cpp:190] Setting up res4f_branch2c
I0828 17:25:30.888350 25014 net.cpp:197] Top shape: 1 1024 14 14 (200704)
I0828 17:25:30.888352 25014 net.cpp:205] Memory required for data: 194682884
I0828 17:25:30.888358 25014 layer_factory.hpp:123] Creating layer res4f_branch2c_fixed
I0828 17:25:30.888367 25014 net.cpp:140] Creating Layer res4f_branch2c_fixed
I0828 17:25:30.888373 25014 net.cpp:481] res4f_branch2c_fixed <- res4f_branch2c
I0828 17:25:30.888381 25014 net.cpp:442] res4f_branch2c_fixed -> res4f_branch2c (in-place)
I0828 17:25:30.888415 25014 net.cpp:190] Setting up res4f_branch2c_fixed
I0828 17:25:30.888422 25014 net.cpp:197] Top shape: 1 1024 14 14 (200704)
I0828 17:25:30.888427 25014 net.cpp:205] Memory required for data: 195485700
I0828 17:25:30.888432 25014 layer_factory.hpp:123] Creating layer res4f
I0828 17:25:30.888440 25014 net.cpp:140] Creating Layer res4f
I0828 17:25:30.888445 25014 net.cpp:481] res4f <- res4e_res4e_fixed_0_split_1
I0828 17:25:30.888450 25014 net.cpp:481] res4f <- res4f_branch2c
I0828 17:25:30.888458 25014 net.cpp:455] res4f -> res4f
I0828 17:25:30.888479 25014 net.cpp:190] Setting up res4f
I0828 17:25:30.888486 25014 net.cpp:197] Top shape: 1 1024 14 14 (200704)
I0828 17:25:30.888491 25014 net.cpp:205] Memory required for data: 196288516
I0828 17:25:30.888495 25014 layer_factory.hpp:123] Creating layer res4f_relu
I0828 17:25:30.888501 25014 net.cpp:140] Creating Layer res4f_relu
I0828 17:25:30.888506 25014 net.cpp:481] res4f_relu <- res4f
I0828 17:25:30.888511 25014 net.cpp:442] res4f_relu -> res4f (in-place)
I0828 17:25:30.888520 25014 net.cpp:190] Setting up res4f_relu
I0828 17:25:30.888526 25014 net.cpp:197] Top shape: 1 1024 14 14 (200704)
I0828 17:25:30.888546 25014 net.cpp:205] Memory required for data: 197091332
I0828 17:25:30.888550 25014 layer_factory.hpp:123] Creating layer res4f_fixed
I0828 17:25:30.888556 25014 net.cpp:140] Creating Layer res4f_fixed
I0828 17:25:30.888561 25014 net.cpp:481] res4f_fixed <- res4f
I0828 17:25:30.888566 25014 net.cpp:442] res4f_fixed -> res4f (in-place)
I0828 17:25:30.888600 25014 net.cpp:190] Setting up res4f_fixed
I0828 17:25:30.888607 25014 net.cpp:197] Top shape: 1 1024 14 14 (200704)
I0828 17:25:30.888612 25014 net.cpp:205] Memory required for data: 197894148
I0828 17:25:30.888618 25014 layer_factory.hpp:123] Creating layer res4f_res4f_fixed_0_split
I0828 17:25:30.888625 25014 net.cpp:140] Creating Layer res4f_res4f_fixed_0_split
I0828 17:25:30.888630 25014 net.cpp:481] res4f_res4f_fixed_0_split <- res4f
I0828 17:25:30.888635 25014 net.cpp:455] res4f_res4f_fixed_0_split -> res4f_res4f_fixed_0_split_0
I0828 17:25:30.888644 25014 net.cpp:455] res4f_res4f_fixed_0_split -> res4f_res4f_fixed_0_split_1
I0828 17:25:30.888676 25014 net.cpp:190] Setting up res4f_res4f_fixed_0_split
I0828 17:25:30.888696 25014 net.cpp:197] Top shape: 1 1024 14 14 (200704)
I0828 17:25:30.888701 25014 net.cpp:197] Top shape: 1 1024 14 14 (200704)
I0828 17:25:30.888705 25014 net.cpp:205] Memory required for data: 199499780
I0828 17:25:30.888708 25014 layer_factory.hpp:123] Creating layer res5a_branch1
I0828 17:25:30.888717 25014 net.cpp:140] Creating Layer res5a_branch1
I0828 17:25:30.888722 25014 net.cpp:481] res5a_branch1 <- res4f_res4f_fixed_0_split_0
I0828 17:25:30.888729 25014 net.cpp:455] res5a_branch1 -> res5a_branch1
I0828 17:25:30.901795 25014 layer_factory.hpp:123] Creating layer res5a_branch1
I0828 17:25:30.914266 25014 net.cpp:190] Setting up res5a_branch1
I0828 17:25:30.914292 25014 net.cpp:197] Top shape: 1 2048 7 7 (100352)
I0828 17:25:30.914296 25014 net.cpp:205] Memory required for data: 199901188
I0828 17:25:30.914319 25014 layer_factory.hpp:123] Creating layer res5a_branch1_fixed
I0828 17:25:30.914328 25014 net.cpp:140] Creating Layer res5a_branch1_fixed
I0828 17:25:30.914350 25014 net.cpp:481] res5a_branch1_fixed <- res5a_branch1
I0828 17:25:30.914358 25014 net.cpp:442] res5a_branch1_fixed -> res5a_branch1 (in-place)
I0828 17:25:30.914433 25014 net.cpp:190] Setting up res5a_branch1_fixed
I0828 17:25:30.914440 25014 net.cpp:197] Top shape: 1 2048 7 7 (100352)
I0828 17:25:30.914444 25014 net.cpp:205] Memory required for data: 200302596
I0828 17:25:30.914451 25014 layer_factory.hpp:123] Creating layer res5a_branch2a
I0828 17:25:30.914474 25014 net.cpp:140] Creating Layer res5a_branch2a
I0828 17:25:30.914494 25014 net.cpp:481] res5a_branch2a <- res4f_res4f_fixed_0_split_1
I0828 17:25:30.914515 25014 net.cpp:455] res5a_branch2a -> res5a_branch2a
I0828 17:25:30.918074 25014 layer_factory.hpp:123] Creating layer res5a_branch2a
I0828 17:25:30.921427 25014 net.cpp:190] Setting up res5a_branch2a
I0828 17:25:30.921443 25014 net.cpp:197] Top shape: 1 512 7 7 (25088)
I0828 17:25:30.921447 25014 net.cpp:205] Memory required for data: 200402948
I0828 17:25:30.921452 25014 layer_factory.hpp:123] Creating layer res5a_branch2a_relu
I0828 17:25:30.921474 25014 net.cpp:140] Creating Layer res5a_branch2a_relu
I0828 17:25:30.921479 25014 net.cpp:481] res5a_branch2a_relu <- res5a_branch2a
I0828 17:25:30.921486 25014 net.cpp:442] res5a_branch2a_relu -> res5a_branch2a (in-place)
I0828 17:25:30.921495 25014 net.cpp:190] Setting up res5a_branch2a_relu
I0828 17:25:30.921501 25014 net.cpp:197] Top shape: 1 512 7 7 (25088)
I0828 17:25:30.921504 25014 net.cpp:205] Memory required for data: 200503300
I0828 17:25:30.921509 25014 layer_factory.hpp:123] Creating layer res5a_branch2a_fixed
I0828 17:25:30.921527 25014 net.cpp:140] Creating Layer res5a_branch2a_fixed
I0828 17:25:30.921533 25014 net.cpp:481] res5a_branch2a_fixed <- res5a_branch2a
I0828 17:25:30.921553 25014 net.cpp:442] res5a_branch2a_fixed -> res5a_branch2a (in-place)
I0828 17:25:30.921615 25014 net.cpp:190] Setting up res5a_branch2a_fixed
I0828 17:25:30.921623 25014 net.cpp:197] Top shape: 1 512 7 7 (25088)
I0828 17:25:30.921627 25014 net.cpp:205] Memory required for data: 200603652
I0828 17:25:30.921633 25014 layer_factory.hpp:123] Creating layer res5a_branch2b
I0828 17:25:30.921656 25014 net.cpp:140] Creating Layer res5a_branch2b
I0828 17:25:30.921675 25014 net.cpp:481] res5a_branch2b <- res5a_branch2a
I0828 17:25:30.921682 25014 net.cpp:455] res5a_branch2b -> res5a_branch2b
I0828 17:25:30.936116 25014 layer_factory.hpp:123] Creating layer res5a_branch2b
I0828 17:25:30.950317 25014 net.cpp:190] Setting up res5a_branch2b
I0828 17:25:30.950347 25014 net.cpp:197] Top shape: 1 512 7 7 (25088)
I0828 17:25:30.950350 25014 net.cpp:205] Memory required for data: 200704004
I0828 17:25:30.950373 25014 layer_factory.hpp:123] Creating layer res5a_branch2b_relu
I0828 17:25:30.950382 25014 net.cpp:140] Creating Layer res5a_branch2b_relu
I0828 17:25:30.950389 25014 net.cpp:481] res5a_branch2b_relu <- res5a_branch2b
I0828 17:25:30.950398 25014 net.cpp:442] res5a_branch2b_relu -> res5a_branch2b (in-place)
I0828 17:25:30.950407 25014 net.cpp:190] Setting up res5a_branch2b_relu
I0828 17:25:30.950412 25014 net.cpp:197] Top shape: 1 512 7 7 (25088)
I0828 17:25:30.950417 25014 net.cpp:205] Memory required for data: 200804356
I0828 17:25:30.950433 25014 layer_factory.hpp:123] Creating layer res5a_branch2b_fixed
I0828 17:25:30.950453 25014 net.cpp:140] Creating Layer res5a_branch2b_fixed
I0828 17:25:30.950459 25014 net.cpp:481] res5a_branch2b_fixed <- res5a_branch2b
I0828 17:25:30.950464 25014 net.cpp:442] res5a_branch2b_fixed -> res5a_branch2b (in-place)
I0828 17:25:30.950510 25014 net.cpp:190] Setting up res5a_branch2b_fixed
I0828 17:25:30.950517 25014 net.cpp:197] Top shape: 1 512 7 7 (25088)
I0828 17:25:30.950536 25014 net.cpp:205] Memory required for data: 200904708
I0828 17:25:30.950542 25014 layer_factory.hpp:123] Creating layer res5a_branch2c
I0828 17:25:30.950553 25014 net.cpp:140] Creating Layer res5a_branch2c
I0828 17:25:30.950558 25014 net.cpp:481] res5a_branch2c <- res5a_branch2b
I0828 17:25:30.950577 25014 net.cpp:455] res5a_branch2c -> res5a_branch2c
I0828 17:25:30.957253 25014 layer_factory.hpp:123] Creating layer res5a_branch2c
I0828 17:25:30.963517 25014 net.cpp:190] Setting up res5a_branch2c
I0828 17:25:30.963541 25014 net.cpp:197] Top shape: 1 2048 7 7 (100352)
I0828 17:25:30.963543 25014 net.cpp:205] Memory required for data: 201306116
I0828 17:25:30.963564 25014 layer_factory.hpp:123] Creating layer res5a_branch2c_fixed
I0828 17:25:30.963587 25014 net.cpp:140] Creating Layer res5a_branch2c_fixed
I0828 17:25:30.963595 25014 net.cpp:481] res5a_branch2c_fixed <- res5a_branch2c
I0828 17:25:30.963603 25014 net.cpp:442] res5a_branch2c_fixed -> res5a_branch2c (in-place)
I0828 17:25:30.963663 25014 net.cpp:190] Setting up res5a_branch2c_fixed
I0828 17:25:30.963670 25014 net.cpp:197] Top shape: 1 2048 7 7 (100352)
I0828 17:25:30.963693 25014 net.cpp:205] Memory required for data: 201707524
I0828 17:25:30.963698 25014 layer_factory.hpp:123] Creating layer res5a
I0828 17:25:30.963706 25014 net.cpp:140] Creating Layer res5a
I0828 17:25:30.963712 25014 net.cpp:481] res5a <- res5a_branch1
I0828 17:25:30.963716 25014 net.cpp:481] res5a <- res5a_branch2c
I0828 17:25:30.963723 25014 net.cpp:455] res5a -> res5a
I0828 17:25:30.963747 25014 net.cpp:190] Setting up res5a
I0828 17:25:30.963752 25014 net.cpp:197] Top shape: 1 2048 7 7 (100352)
I0828 17:25:30.963768 25014 net.cpp:205] Memory required for data: 202108932
I0828 17:25:30.963773 25014 layer_factory.hpp:123] Creating layer res5a_relu
I0828 17:25:30.963793 25014 net.cpp:140] Creating Layer res5a_relu
I0828 17:25:30.963798 25014 net.cpp:481] res5a_relu <- res5a
I0828 17:25:30.963802 25014 net.cpp:442] res5a_relu -> res5a (in-place)
I0828 17:25:30.963824 25014 net.cpp:190] Setting up res5a_relu
I0828 17:25:30.963830 25014 net.cpp:197] Top shape: 1 2048 7 7 (100352)
I0828 17:25:30.963835 25014 net.cpp:205] Memory required for data: 202510340
I0828 17:25:30.963837 25014 layer_factory.hpp:123] Creating layer res5a_fixed
I0828 17:25:30.963843 25014 net.cpp:140] Creating Layer res5a_fixed
I0828 17:25:30.963860 25014 net.cpp:481] res5a_fixed <- res5a
I0828 17:25:30.963865 25014 net.cpp:442] res5a_fixed -> res5a (in-place)
I0828 17:25:30.963925 25014 net.cpp:190] Setting up res5a_fixed
I0828 17:25:30.963932 25014 net.cpp:197] Top shape: 1 2048 7 7 (100352)
I0828 17:25:30.963950 25014 net.cpp:205] Memory required for data: 202911748
I0828 17:25:30.963956 25014 layer_factory.hpp:123] Creating layer res5a_res5a_fixed_0_split
I0828 17:25:30.963963 25014 net.cpp:140] Creating Layer res5a_res5a_fixed_0_split
I0828 17:25:30.963968 25014 net.cpp:481] res5a_res5a_fixed_0_split <- res5a
I0828 17:25:30.963974 25014 net.cpp:455] res5a_res5a_fixed_0_split -> res5a_res5a_fixed_0_split_0
I0828 17:25:30.963994 25014 net.cpp:455] res5a_res5a_fixed_0_split -> res5a_res5a_fixed_0_split_1
I0828 17:25:30.964026 25014 net.cpp:190] Setting up res5a_res5a_fixed_0_split
I0828 17:25:30.964033 25014 net.cpp:197] Top shape: 1 2048 7 7 (100352)
I0828 17:25:30.964040 25014 net.cpp:197] Top shape: 1 2048 7 7 (100352)
I0828 17:25:30.964043 25014 net.cpp:205] Memory required for data: 203714564
I0828 17:25:30.964047 25014 layer_factory.hpp:123] Creating layer res5b_branch2a
I0828 17:25:30.964058 25014 net.cpp:140] Creating Layer res5b_branch2a
I0828 17:25:30.964063 25014 net.cpp:481] res5b_branch2a <- res5a_res5a_fixed_0_split_0
I0828 17:25:30.964071 25014 net.cpp:455] res5b_branch2a -> res5b_branch2a
I0828 17:25:30.970736 25014 layer_factory.hpp:123] Creating layer res5b_branch2a
I0828 17:25:30.976912 25014 net.cpp:190] Setting up res5b_branch2a
I0828 17:25:30.976934 25014 net.cpp:197] Top shape: 1 512 7 7 (25088)
I0828 17:25:30.976936 25014 net.cpp:205] Memory required for data: 203814916
I0828 17:25:30.976958 25014 layer_factory.hpp:123] Creating layer res5b_branch2a_relu
I0828 17:25:30.976967 25014 net.cpp:140] Creating Layer res5b_branch2a_relu
I0828 17:25:30.976990 25014 net.cpp:481] res5b_branch2a_relu <- res5b_branch2a
I0828 17:25:30.976997 25014 net.cpp:442] res5b_branch2a_relu -> res5b_branch2a (in-place)
I0828 17:25:30.977008 25014 net.cpp:190] Setting up res5b_branch2a_relu
I0828 17:25:30.977026 25014 net.cpp:197] Top shape: 1 512 7 7 (25088)
I0828 17:25:30.977030 25014 net.cpp:205] Memory required for data: 203915268
I0828 17:25:30.977046 25014 layer_factory.hpp:123] Creating layer res5b_branch2a_fixed
I0828 17:25:30.977051 25014 net.cpp:140] Creating Layer res5b_branch2a_fixed
I0828 17:25:30.977056 25014 net.cpp:481] res5b_branch2a_fixed <- res5b_branch2a
I0828 17:25:30.977061 25014 net.cpp:442] res5b_branch2a_fixed -> res5b_branch2a (in-place)
I0828 17:25:30.977126 25014 net.cpp:190] Setting up res5b_branch2a_fixed
I0828 17:25:30.977133 25014 net.cpp:197] Top shape: 1 512 7 7 (25088)
I0828 17:25:30.977149 25014 net.cpp:205] Memory required for data: 204015620
I0828 17:25:30.977154 25014 layer_factory.hpp:123] Creating layer res5b_branch2b
I0828 17:25:30.977177 25014 net.cpp:140] Creating Layer res5b_branch2b
I0828 17:25:30.977196 25014 net.cpp:481] res5b_branch2b <- res5b_branch2a
I0828 17:25:30.977202 25014 net.cpp:455] res5b_branch2b -> res5b_branch2b
I0828 17:25:30.991111 25014 layer_factory.hpp:123] Creating layer res5b_branch2b
I0828 17:25:31.004675 25014 net.cpp:190] Setting up res5b_branch2b
I0828 17:25:31.004716 25014 net.cpp:197] Top shape: 1 512 7 7 (25088)
I0828 17:25:31.004719 25014 net.cpp:205] Memory required for data: 204115972
I0828 17:25:31.004727 25014 layer_factory.hpp:123] Creating layer res5b_branch2b_relu
I0828 17:25:31.004736 25014 net.cpp:140] Creating Layer res5b_branch2b_relu
I0828 17:25:31.004741 25014 net.cpp:481] res5b_branch2b_relu <- res5b_branch2b
I0828 17:25:31.004760 25014 net.cpp:442] res5b_branch2b_relu -> res5b_branch2b (in-place)
I0828 17:25:31.004770 25014 net.cpp:190] Setting up res5b_branch2b_relu
I0828 17:25:31.004773 25014 net.cpp:197] Top shape: 1 512 7 7 (25088)
I0828 17:25:31.004776 25014 net.cpp:205] Memory required for data: 204216324
I0828 17:25:31.004794 25014 layer_factory.hpp:123] Creating layer res5b_branch2b_fixed
I0828 17:25:31.004801 25014 net.cpp:140] Creating Layer res5b_branch2b_fixed
I0828 17:25:31.004806 25014 net.cpp:481] res5b_branch2b_fixed <- res5b_branch2b
I0828 17:25:31.004810 25014 net.cpp:442] res5b_branch2b_fixed -> res5b_branch2b (in-place)
I0828 17:25:31.004869 25014 net.cpp:190] Setting up res5b_branch2b_fixed
I0828 17:25:31.004891 25014 net.cpp:197] Top shape: 1 512 7 7 (25088)
I0828 17:25:31.004909 25014 net.cpp:205] Memory required for data: 204316676
I0828 17:25:31.004914 25014 layer_factory.hpp:123] Creating layer res5b_branch2c
I0828 17:25:31.004925 25014 net.cpp:140] Creating Layer res5b_branch2c
I0828 17:25:31.004943 25014 net.cpp:481] res5b_branch2c <- res5b_branch2b
I0828 17:25:31.004964 25014 net.cpp:455] res5b_branch2c -> res5b_branch2c
I0828 17:25:31.011485 25014 layer_factory.hpp:123] Creating layer res5b_branch2c
I0828 17:25:31.017621 25014 net.cpp:190] Setting up res5b_branch2c
I0828 17:25:31.017657 25014 net.cpp:197] Top shape: 1 2048 7 7 (100352)
I0828 17:25:31.017660 25014 net.cpp:205] Memory required for data: 204718084
I0828 17:25:31.017668 25014 layer_factory.hpp:123] Creating layer res5b_branch2c_fixed
I0828 17:25:31.017676 25014 net.cpp:140] Creating Layer res5b_branch2c_fixed
I0828 17:25:31.017696 25014 net.cpp:481] res5b_branch2c_fixed <- res5b_branch2c
I0828 17:25:31.017704 25014 net.cpp:442] res5b_branch2c_fixed -> res5b_branch2c (in-place)
I0828 17:25:31.017757 25014 net.cpp:190] Setting up res5b_branch2c_fixed
I0828 17:25:31.017765 25014 net.cpp:197] Top shape: 1 2048 7 7 (100352)
I0828 17:25:31.017769 25014 net.cpp:205] Memory required for data: 205119492
I0828 17:25:31.017774 25014 layer_factory.hpp:123] Creating layer res5b
I0828 17:25:31.017781 25014 net.cpp:140] Creating Layer res5b
I0828 17:25:31.017786 25014 net.cpp:481] res5b <- res5a_res5a_fixed_0_split_1
I0828 17:25:31.017791 25014 net.cpp:481] res5b <- res5b_branch2c
I0828 17:25:31.017797 25014 net.cpp:455] res5b -> res5b
I0828 17:25:31.017820 25014 net.cpp:190] Setting up res5b
I0828 17:25:31.017827 25014 net.cpp:197] Top shape: 1 2048 7 7 (100352)
I0828 17:25:31.017832 25014 net.cpp:205] Memory required for data: 205520900
I0828 17:25:31.017834 25014 layer_factory.hpp:123] Creating layer res5b_relu
I0828 17:25:31.017841 25014 net.cpp:140] Creating Layer res5b_relu
I0828 17:25:31.017845 25014 net.cpp:481] res5b_relu <- res5b
I0828 17:25:31.017850 25014 net.cpp:442] res5b_relu -> res5b (in-place)
I0828 17:25:31.017858 25014 net.cpp:190] Setting up res5b_relu
I0828 17:25:31.017863 25014 net.cpp:197] Top shape: 1 2048 7 7 (100352)
I0828 17:25:31.017868 25014 net.cpp:205] Memory required for data: 205922308
I0828 17:25:31.017871 25014 layer_factory.hpp:123] Creating layer res5b_fixed
I0828 17:25:31.017879 25014 net.cpp:140] Creating Layer res5b_fixed
I0828 17:25:31.017884 25014 net.cpp:481] res5b_fixed <- res5b
I0828 17:25:31.017889 25014 net.cpp:442] res5b_fixed -> res5b (in-place)
I0828 17:25:31.017948 25014 net.cpp:190] Setting up res5b_fixed
I0828 17:25:31.017956 25014 net.cpp:197] Top shape: 1 2048 7 7 (100352)
I0828 17:25:31.017973 25014 net.cpp:205] Memory required for data: 206323716
I0828 17:25:31.017979 25014 layer_factory.hpp:123] Creating layer res5b_res5b_fixed_0_split
I0828 17:25:31.018002 25014 net.cpp:140] Creating Layer res5b_res5b_fixed_0_split
I0828 17:25:31.018007 25014 net.cpp:481] res5b_res5b_fixed_0_split <- res5b
I0828 17:25:31.018024 25014 net.cpp:455] res5b_res5b_fixed_0_split -> res5b_res5b_fixed_0_split_0
I0828 17:25:31.018048 25014 net.cpp:455] res5b_res5b_fixed_0_split -> res5b_res5b_fixed_0_split_1
I0828 17:25:31.018107 25014 net.cpp:190] Setting up res5b_res5b_fixed_0_split
I0828 17:25:31.018115 25014 net.cpp:197] Top shape: 1 2048 7 7 (100352)
I0828 17:25:31.018132 25014 net.cpp:197] Top shape: 1 2048 7 7 (100352)
I0828 17:25:31.018137 25014 net.cpp:205] Memory required for data: 207126532
I0828 17:25:31.018155 25014 layer_factory.hpp:123] Creating layer res5c_branch2a
I0828 17:25:31.018167 25014 net.cpp:140] Creating Layer res5c_branch2a
I0828 17:25:31.018172 25014 net.cpp:481] res5c_branch2a <- res5b_res5b_fixed_0_split_0
I0828 17:25:31.018179 25014 net.cpp:455] res5c_branch2a -> res5c_branch2a
I0828 17:25:31.024616 25014 layer_factory.hpp:123] Creating layer res5c_branch2a
I0828 17:25:31.030920 25014 net.cpp:190] Setting up res5c_branch2a
I0828 17:25:31.030941 25014 net.cpp:197] Top shape: 1 512 7 7 (25088)
I0828 17:25:31.030944 25014 net.cpp:205] Memory required for data: 207226884
I0828 17:25:31.030967 25014 layer_factory.hpp:123] Creating layer res5c_branch2a_relu
I0828 17:25:31.030989 25014 net.cpp:140] Creating Layer res5c_branch2a_relu
I0828 17:25:31.030995 25014 net.cpp:481] res5c_branch2a_relu <- res5c_branch2a
I0828 17:25:31.031002 25014 net.cpp:442] res5c_branch2a_relu -> res5c_branch2a (in-place)
I0828 17:25:31.031008 25014 net.cpp:190] Setting up res5c_branch2a_relu
I0828 17:25:31.031011 25014 net.cpp:197] Top shape: 1 512 7 7 (25088)
I0828 17:25:31.031014 25014 net.cpp:205] Memory required for data: 207327236
I0828 17:25:31.031016 25014 layer_factory.hpp:123] Creating layer res5c_branch2a_fixed
I0828 17:25:31.031021 25014 net.cpp:140] Creating Layer res5c_branch2a_fixed
I0828 17:25:31.031024 25014 net.cpp:481] res5c_branch2a_fixed <- res5c_branch2a
I0828 17:25:31.031028 25014 net.cpp:442] res5c_branch2a_fixed -> res5c_branch2a (in-place)
I0828 17:25:31.031056 25014 net.cpp:190] Setting up res5c_branch2a_fixed
I0828 17:25:31.031061 25014 net.cpp:197] Top shape: 1 512 7 7 (25088)
I0828 17:25:31.031064 25014 net.cpp:205] Memory required for data: 207427588
I0828 17:25:31.031067 25014 layer_factory.hpp:123] Creating layer res5c_branch2b
I0828 17:25:31.031075 25014 net.cpp:140] Creating Layer res5c_branch2b
I0828 17:25:31.031078 25014 net.cpp:481] res5c_branch2b <- res5c_branch2a
I0828 17:25:31.031083 25014 net.cpp:455] res5c_branch2b -> res5c_branch2b
I0828 17:25:31.044581 25014 layer_factory.hpp:123] Creating layer res5c_branch2b
I0828 17:25:31.058287 25014 net.cpp:190] Setting up res5c_branch2b
I0828 17:25:31.058312 25014 net.cpp:197] Top shape: 1 512 7 7 (25088)
I0828 17:25:31.058331 25014 net.cpp:205] Memory required for data: 207527940
I0828 17:25:31.058337 25014 layer_factory.hpp:123] Creating layer res5c_branch2b_relu
I0828 17:25:31.058346 25014 net.cpp:140] Creating Layer res5c_branch2b_relu
I0828 17:25:31.058351 25014 net.cpp:481] res5c_branch2b_relu <- res5c_branch2b
I0828 17:25:31.058370 25014 net.cpp:442] res5c_branch2b_relu -> res5c_branch2b (in-place)
I0828 17:25:31.058378 25014 net.cpp:190] Setting up res5c_branch2b_relu
I0828 17:25:31.058382 25014 net.cpp:197] Top shape: 1 512 7 7 (25088)
I0828 17:25:31.058383 25014 net.cpp:205] Memory required for data: 207628292
I0828 17:25:31.058387 25014 layer_factory.hpp:123] Creating layer res5c_branch2b_fixed
I0828 17:25:31.058405 25014 net.cpp:140] Creating Layer res5c_branch2b_fixed
I0828 17:25:31.058408 25014 net.cpp:481] res5c_branch2b_fixed <- res5c_branch2b
I0828 17:25:31.058411 25014 net.cpp:442] res5c_branch2b_fixed -> res5c_branch2b (in-place)
I0828 17:25:31.058450 25014 net.cpp:190] Setting up res5c_branch2b_fixed
I0828 17:25:31.058455 25014 net.cpp:197] Top shape: 1 512 7 7 (25088)
I0828 17:25:31.058457 25014 net.cpp:205] Memory required for data: 207728644
I0828 17:25:31.058461 25014 layer_factory.hpp:123] Creating layer res5c_branch2c
I0828 17:25:31.058470 25014 net.cpp:140] Creating Layer res5c_branch2c
I0828 17:25:31.058472 25014 net.cpp:481] res5c_branch2c <- res5c_branch2b
I0828 17:25:31.058490 25014 net.cpp:455] res5c_branch2c -> res5c_branch2c
I0828 17:25:31.064656 25014 layer_factory.hpp:123] Creating layer res5c_branch2c
I0828 17:25:31.070742 25014 net.cpp:190] Setting up res5c_branch2c
I0828 17:25:31.070780 25014 net.cpp:197] Top shape: 1 2048 7 7 (100352)
I0828 17:25:31.070782 25014 net.cpp:205] Memory required for data: 208130052
I0828 17:25:31.070791 25014 layer_factory.hpp:123] Creating layer res5c_branch2c_fixed
I0828 17:25:31.070799 25014 net.cpp:140] Creating Layer res5c_branch2c_fixed
I0828 17:25:31.070819 25014 net.cpp:481] res5c_branch2c_fixed <- res5c_branch2c
I0828 17:25:31.070825 25014 net.cpp:442] res5c_branch2c_fixed -> res5c_branch2c (in-place)
I0828 17:25:31.070869 25014 net.cpp:190] Setting up res5c_branch2c_fixed
I0828 17:25:31.070875 25014 net.cpp:197] Top shape: 1 2048 7 7 (100352)
I0828 17:25:31.070896 25014 net.cpp:205] Memory required for data: 208531460
I0828 17:25:31.070902 25014 layer_factory.hpp:123] Creating layer res5c
I0828 17:25:31.070909 25014 net.cpp:140] Creating Layer res5c
I0828 17:25:31.070915 25014 net.cpp:481] res5c <- res5b_res5b_fixed_0_split_1
I0828 17:25:31.070921 25014 net.cpp:481] res5c <- res5c_branch2c
I0828 17:25:31.070926 25014 net.cpp:455] res5c -> res5c
I0828 17:25:31.070942 25014 net.cpp:190] Setting up res5c
I0828 17:25:31.070947 25014 net.cpp:197] Top shape: 1 2048 7 7 (100352)
I0828 17:25:31.070950 25014 net.cpp:205] Memory required for data: 208932868
I0828 17:25:31.070952 25014 layer_factory.hpp:123] Creating layer res5c_relu
I0828 17:25:31.070971 25014 net.cpp:140] Creating Layer res5c_relu
I0828 17:25:31.070973 25014 net.cpp:481] res5c_relu <- res5c
I0828 17:25:31.070976 25014 net.cpp:442] res5c_relu -> res5c (in-place)
I0828 17:25:31.070996 25014 net.cpp:190] Setting up res5c_relu
I0828 17:25:31.070999 25014 net.cpp:197] Top shape: 1 2048 7 7 (100352)
I0828 17:25:31.071019 25014 net.cpp:205] Memory required for data: 209334276
I0828 17:25:31.071022 25014 layer_factory.hpp:123] Creating layer res5c_fixed
I0828 17:25:31.071025 25014 net.cpp:140] Creating Layer res5c_fixed
I0828 17:25:31.071040 25014 net.cpp:481] res5c_fixed <- res5c
I0828 17:25:31.071043 25014 net.cpp:442] res5c_fixed -> res5c (in-place)
I0828 17:25:31.071080 25014 net.cpp:190] Setting up res5c_fixed
I0828 17:25:31.071085 25014 net.cpp:197] Top shape: 1 2048 7 7 (100352)
I0828 17:25:31.071087 25014 net.cpp:205] Memory required for data: 209735684
I0828 17:25:31.071103 25014 layer_factory.hpp:123] Creating layer pool5
I0828 17:25:31.071108 25014 net.cpp:140] Creating Layer pool5
I0828 17:25:31.071125 25014 net.cpp:481] pool5 <- res5c
I0828 17:25:31.071130 25014 net.cpp:455] pool5 -> pool5
I0828 17:25:31.071169 25014 net.cpp:190] Setting up pool5
I0828 17:25:31.071174 25014 net.cpp:197] Top shape: 1 2048 1 1 (2048)
I0828 17:25:31.071177 25014 net.cpp:205] Memory required for data: 209743876
I0828 17:25:31.071179 25014 layer_factory.hpp:123] Creating layer pool5_fixed
I0828 17:25:31.071197 25014 net.cpp:140] Creating Layer pool5_fixed
I0828 17:25:31.071200 25014 net.cpp:481] pool5_fixed <- pool5
I0828 17:25:31.071203 25014 net.cpp:442] pool5_fixed -> pool5 (in-place)
I0828 17:25:31.071225 25014 net.cpp:190] Setting up pool5_fixed
I0828 17:25:31.071230 25014 net.cpp:197] Top shape: 1 2048 1 1 (2048)
I0828 17:25:31.071233 25014 net.cpp:205] Memory required for data: 209752068
I0828 17:25:31.071235 25014 layer_factory.hpp:123] Creating layer fc1000
I0828 17:25:31.071241 25014 net.cpp:140] Creating Layer fc1000
I0828 17:25:31.071244 25014 net.cpp:481] fc1000 <- pool5
I0828 17:25:31.071249 25014 net.cpp:455] fc1000 -> fc1000
I0828 17:25:31.083042 25014 layer_factory.hpp:123] Creating layer fc1000
I0828 17:25:31.094576 25014 net.cpp:190] Setting up fc1000
I0828 17:25:31.094619 25014 net.cpp:197] Top shape: 1 1000 (1000)
I0828 17:25:31.094622 25014 net.cpp:205] Memory required for data: 209756068
I0828 17:25:31.094630 25014 layer_factory.hpp:123] Creating layer fc1000_fixed
I0828 17:25:31.094640 25014 net.cpp:140] Creating Layer fc1000_fixed
I0828 17:25:31.094658 25014 net.cpp:481] fc1000_fixed <- fc1000
I0828 17:25:31.094666 25014 net.cpp:442] fc1000_fixed -> fc1000 (in-place)
I0828 17:25:31.094710 25014 net.cpp:190] Setting up fc1000_fixed
I0828 17:25:31.094715 25014 net.cpp:197] Top shape: 1 1000 (1000)
I0828 17:25:31.094717 25014 net.cpp:205] Memory required for data: 209760068
I0828 17:25:31.094722 25014 layer_factory.hpp:123] Creating layer prob
I0828 17:25:31.094727 25014 net.cpp:140] Creating Layer prob
I0828 17:25:31.094728 25014 net.cpp:481] prob <- fc1000
I0828 17:25:31.094732 25014 net.cpp:455] prob -> prob
I0828 17:25:31.094775 25014 net.cpp:190] Setting up prob
I0828 17:25:31.094780 25014 net.cpp:197] Top shape: 1 1000 (1000)
I0828 17:25:31.094784 25014 net.cpp:205] Memory required for data: 209764068
I0828 17:25:31.094785 25014 net.cpp:268] prob does not need backward computation.
I0828 17:25:31.094799 25014 net.cpp:268] fc1000_fixed does not need backward computation.
I0828 17:25:31.094801 25014 net.cpp:268] fc1000 does not need backward computation.
I0828 17:25:31.094803 25014 net.cpp:268] pool5_fixed does not need backward computation.
…
