…
I0828 16:10:17.095371 22589 net.cpp:369] The NetState phase (1) differed from the phase (0) specified by a rule in layer data
I0828 16:10:17.096205 22589 net.cpp:98] Initializing net from parameters: 
layer {
  name: "data"
  type: "ImageData"
  top: "data"
  top: "label"
  include {
    phase: TEST
  }
  transform_param {
    mirror: false
    crop_size: 224
    mean_value: 104
    mean_value: 107
    mean_value: 123
  }
  image_data_param {
    source: "/SSD/git-tutorial/GPU-DPU-cross-check/images/image224/dump.txt"
    batch_size: 1
    shuffle: false
    root_folder: "/SSD/git-tutorial/GPU-DPU-cross-check/images/image224/"
  }
}
layer {
  name: "data_fixed"
  type: "FixedNeuron"
  bottom: "data"
  top: "data"
  param {
    lr_mult: 0
    decay_mult: 0
  }
  fixed_param {
    fixed_method: OVER_FLOW
    bit_width: 8
    follow_data_layer: true
  }
}
layer {
  name: "conv1"
  type: "ConvolutionFixed"
  bottom: "data"
  top: "conv1"
  param {
    lr_mult: 1
    decay_mult: 1
  }
  param {
    lr_mult: 1
    decay_mult: 0
  }
  convolution_param {
    num_output: 64
    bias_term: true
    pad: 3
    kernel_size: 7
    stride: 2
    weight_filler {
      type: "xavier"
    }
    bias_filler {
      type: "constant"
      value: 0.2
    }
  }
  fixed_param {
    fixed_method: DIFF_S
    bit_width: 8
  }
}
layer {
  name: "conv1_relu"
  type: "ReLU"
  bottom: "conv1"
  top: "conv1"
  relu_param {
  }
}
layer {
  name: "pool1"
  type: "Pooling"
  bottom: "conv1"
  top: "pool1"
  pooling_param {
    pool: MAX
    kernel_size: 3
    stride: 2
  }
}
layer {
  name: "pool1_fixed"
  type: "FixedNeuron"
  bottom: "pool1"
  top: "pool1"
  param {
    lr_mult: 0
    decay_mult: 0
  }
  fixed_param {
    fixed_method: DIFF_S
    bit_width: 8
  }
}
layer {
  name: "res2a_branch1"
  type: "ConvolutionFixed"
  bottom: "pool1"
  top: "res2a_branch1"
  param {
    lr_mult: 1
    decay_mult: 1
  }
  param {
    lr_mult: 1
    decay_mult: 0
  }
  convolution_param {
    num_output: 256
    bias_term: true
    pad: 0
    kernel_size: 1
    stride: 1
    weight_filler {
      type: "xavier"
    }
    bias_filler {
      type: "constant"
      value: 0.2
    }
  }
  fixed_param {
    fixed_method: DIFF_S
    bit_width: 8
  }
}
layer {
  name: "res2a_branch1_fixed"
  type: "FixedNeuron"
  bottom: "res2a_branch1"
  top: "res2a_branch1"
  param {
    lr_mult: 0
    decay_mult: 0
  }
  fixed_param {
    fixed_method: DIFF_S
    bit_width: 8
  }
}
layer {
  name: "res2a_branch2a"
  type: "ConvolutionFixed"
  bottom: "pool1"
  top: "res2a_branch2a"
  param {
    lr_mult: 1
    decay_mult: 1
  }
  param {
    lr_mult: 1
    decay_mult: 0
  }
  convolution_param {
    num_output: 64
    bias_term: true
    pad: 0
    kernel_size: 1
    stride: 1
    weight_filler {
      type: "xavier"
    }
    bias_filler {
      type: "constant"
      value: 0.2
    }
  }
  fixed_param {
    fixed_method: DIFF_S
    bit_width: 8
  }
}
layer {
  name: "res2a_branch2a_relu"
  type: "ReLU"
  bottom: "res2a_branch2a"
  top: "res2a_branch2a"
  relu_param {
  }
}
layer {
  name: "res2a_branch2a_fixed"
  type: "FixedNeuron"
  bottom: "res2a_branch2a"
  top: "res2a_branch2a"
  param {
    lr_mult: 0
    decay_mult: 0
  }
  fixed_param {
    fixed_method: DIFF_S
    bit_width: 8
  }
}
layer {
  name: "res2a_branch2b"
  type: "ConvolutionFixed"
  bottom: "res2a_branch2a"
  top: "res2a_branch2b"
  param {
    lr_mult: 1
    decay_mult: 1
  }
  param {
    lr_mult: 1
    decay_mult: 0
  }
  convolution_param {
    num_output: 64
    bias_term: true
    pad: 1
    kernel_size: 3
    stride: 1
    weight_filler {
      type: "xavier"
    }
    bias_filler {
      type: "constant"
      value: 0.2
    }
  }
  fixed_param {
    fixed_method: DIFF_S
    bit_width: 8
  }
}
layer {
  name: "res2a_branch2b_relu"
  type: "ReLU"
  bottom: "res2a_branch2b"
  top: "res2a_branch2b"
  relu_param {
  }
}
layer {
  name: "res2a_branch2b_fixed"
  type: "FixedNeuron"
  bottom: "res2a_branch2b"
  top: "res2a_branch2b"
  param {
    lr_mult: 0
    decay_mult: 0
  }
  fixed_param {
    fixed_method: DIFF_S
    bit_width: 8
  }
}
layer {
  name: "res2a_branch2c"
  type: "ConvolutionFixed"
  bottom: "res2a_branch2b"
  top: "res2a_branch2c"
  param {
    lr_mult: 1
    decay_mult: 1
  }
  param {
    lr_mult: 1
    decay_mult: 0
  }
  convolution_param {
    num_output: 256
    bias_term: true
    pad: 0
    kernel_size: 1
    stride: 1
    weight_filler {
      type: "xavier"
    }
    bias_filler {
      type: "constant"
      value: 0.2
    }
  }
  fixed_param {
    fixed_method: DIFF_S
    bit_width: 8
  }
}
layer {
  name: "res2a_branch2c_fixed"
  type: "FixedNeuron"
  bottom: "res2a_branch2c"
  top: "res2a_branch2c"
  param {
    lr_mult: 0
    decay_mult: 0
  }
  fixed_param {
    fixed_method: DIFF_S
    bit_width: 8
  }
}
layer {
  name: "res2a"
  type: "Eltwise"
  bottom: "res2a_branch1"
  bottom: "res2a_branch2c"
  top: "res2a"
  eltwise_param {
  }
}
layer {
  name: "res2a_relu"
  type: "ReLU"
  bottom: "res2a"
  top: "res2a"
  relu_param {
  }
}
layer {
  name: "res2a_fixed"
  type: "FixedNeuron"
  bottom: "res2a"
  top: "res2a"
  param {
    lr_mult: 0
    decay_mult: 0
  }
  fixed_param {
    fixed_method: DIFF_S
    bit_width: 8
  }
}
layer {
  name: "res2b_branch2a"
  type: "ConvolutionFixed"
  bottom: "res2a"
  top: "res2b_branch2a"
  param {
    lr_mult: 1
    decay_mult: 1
  }
  param {
    lr_mult: 1
    decay_mult: 0
  }
  convolution_param {
    num_output: 64
    bias_term: true
    pad: 0
    kernel_size: 1
    stride: 1
    weight_filler {
      type: "xavier"
    }
    bias_filler {
      type: "constant"
      value: 0.2
    }
  }
  fixed_param {
    fixed_method: DIFF_S
    bit_width: 8
  }
}
layer {
  name: "res2b_branch2a_relu"
  type: "ReLU"
  bottom: "res2b_branch2a"
  top: "res2b_branch2a"
  relu_param {
  }
}
layer {
  name: "res2b_branch2a_fixed"
  type: "FixedNeuron"
  bottom: "res2b_branch2a"
  top: "res2b_branch2a"
  param {
    lr_mult: 0
    decay_mult: 0
  }
  fixed_param {
    fixed_method: DIFF_S
    bit_width: 8
  }
}
layer {
  name: "res2b_branch2b"
  type: "ConvolutionFixed"
  bottom: "res2b_branch2a"
  top: "res2b_branch2b"
  param {
    lr_mult: 1
    decay_mult: 1
  }
  param {
    lr_mult: 1
    decay_mult: 0
  }
  convolution_param {
    num_output: 64
    bias_term: true
    pad: 1
    kernel_size: 3
    stride: 1
    weight_filler {
      type: "xavier"
    }
    bias_filler {
      type: "constant"
      value: 0.2
    }
  }
  fixed_param {
    fixed_method: DIFF_S
    bit_width: 8
  }
}
layer {
  name: "res2b_branch2b_relu"
  type: "ReLU"
  bottom: "res2b_branch2b"
  top: "res2b_branch2b"
  relu_param {
  }
}
layer {
  name: "res2b_branch2b_fixed"
  type: "FixedNeuron"
  bottom: "res2b_branch2b"
  top: "res2b_branch2b"
  param {
    lr_mult: 0
    decay_mult: 0
  }
  fixed_param {
    fixed_method: DIFF_S
    bit_width: 8
  }
}
layer {
  name: "res2b_branch2c"
  type: "ConvolutionFixed"
  bottom: "res2b_branch2b"
  top: "res2b_branch2c"
  param {
    lr_mult: 1
    decay_mult: 1
  }
  param {
    lr_mult: 1
    decay_mult: 0
  }
  convolution_param {
    num_output: 256
    bias_term: true
    pad: 0
    kernel_size: 1
    stride: 1
    weight_filler {
      type: "xavier"
    }
    bias_filler {
      type: "constant"
      value: 0.2
    }
  }
  fixed_param {
    fixed_method: DIFF_S
    bit_width: 8
  }
}
layer {
  name: "res2b_branch2c_fixed"
  type: "FixedNeuron"
  bottom: "res2b_branch2c"
  top: "res2b_branch2c"
  param {
    lr_mult: 0
    decay_mult: 0
  }
  fixed_param {
    fixed_method: DIFF_S
    bit_width: 8
  }
}
layer {
  name: "res2b"
  type: "Eltwise"
  bottom: "res2a"
  bottom: "res2b_branch2c"
  top: "res2b"
  eltwise_param {
  }
}
layer {
  name: "res2b_relu"
  type: "ReLU"
  bottom: "res2b"
  top: "res2b"
  relu_param {
  }
}
layer {
  name: "res2b_fixed"
  type: "FixedNeuron"
  bottom: "res2b"
  top: "res2b"
  param {
    lr_mult: 0
    decay_mult: 0
  }
  fixed_param {
    fixed_method: DIFF_S
    bit_width: 8
  }
}
layer {
  name: "res2c_branch2a"
  type: "ConvolutionFixed"
  bottom: "res2b"
  top: "res2c_branch2a"
  param {
    lr_mult: 1
    decay_mult: 1
  }
  param {
    lr_mult: 1
    decay_mult: 0
  }
  convolution_param {
    num_output: 64
    bias_term: true
    pad: 0
    kernel_size: 1
    stride: 1
    weight_filler {
      type: "xavier"
    }
    bias_filler {
      type: "constant"
      value: 0.2
    }
  }
  fixed_param {
    fixed_method: DIFF_S
    bit_width: 8
  }
}
layer {
  name: "res2c_branch2a_relu"
  type: "ReLU"
  bottom: "res2c_branch2a"
  top: "res2c_branch2a"
  relu_param {
  }
}
layer {
  name: "res2c_branch2a_fixed"
  type: "FixedNeuron"
  bottom: "res2c_branch2a"
  top: "res2c_branch2a"
  param {
    lr_mult: 0
    decay_mult: 0
  }
  fixed_param {
    fixed_method: DIFF_S
    bit_width: 8
  }
}
layer {
  name: "res2c_branch2b"
  type: "ConvolutionFixed"
  bottom: "res2c_branch2a"
  top: "res2c_branch2b"
  param {
    lr_mult: 1
    decay_mult: 1
  }
  param {
    lr_mult: 1
    decay_mult: 0
  }
  convolution_param {
    num_output: 64
    bias_term: true
    pad: 1
    kernel_size: 3
    stride: 1
    weight_filler {
      type: "xavier"
    }
    bias_filler {
      type: "constant"
      value: 0.2
    }
  }
  fixed_param {
    fixed_method: DIFF_S
    bit_width: 8
  }
}
layer {
  name: "res2c_branch2b_relu"
  type: "ReLU"
  bottom: "res2c_branch2b"
  top: "res2c_branch2b"
  relu_param {
  }
}
layer {
  name: "res2c_branch2b_fixed"
  type: "FixedNeuron"
  bottom: "res2c_branch2b"
  top: "res2c_branch2b"
  param {
    lr_mult: 0
    decay_mult: 0
  }
  fixed_param {
    fixed_method: DIFF_S
    bit_width: 8
  }
}
layer {
  name: "res2c_branch2c"
  type: "ConvolutionFixed"
  bottom: "res2c_branch2b"
  top: "res2c_branch2c"
  param {
    lr_mult: 1
    decay_mult: 1
  }
  param {
    lr_mult: 1
    decay_mult: 0
  }
  convolution_param {
    num_output: 256
    bias_term: true
    pad: 0
    kernel_size: 1
    stride: 1
    weight_filler {
      type: "xavier"
    }
    bias_filler {
      type: "constant"
      value: 0.2
    }
  }
  fixed_param {
    fixed_method: DIFF_S
    bit_width: 8
  }
}
layer {
  name: "res2c_branch2c_fixed"
  type: "FixedNeuron"
  bottom: "res2c_branch2c"
  top: "res2c_branch2c"
  param {
    lr_mult: 0
    decay_mult: 0
  }
  fixed_param {
    fixed_method: DIFF_S
    bit_width: 8
  }
}
layer {
  name: "res2c"
  type: "Eltwise"
  bottom: "res2b"
  bottom: "res2c_branch2c"
  top: "res2c"
  eltwise_param {
  }
}
layer {
  name: "res2c_relu"
  type: "ReLU"
  bottom: "res2c"
  top: "res2c"
  relu_param {
  }
}
layer {
  name: "res2c_fixed"
  type: "FixedNeuron"
  bottom: "res2c"
  top: "res2c"
  param {
    lr_mult: 0
    decay_mult: 0
  }
  fixed_param {
    fixed_method: DIFF_S
    bit_width: 8
  }
}
layer {
  name: "res3a_branch1"
  type: "ConvolutionFixed"
  bottom: "res2c"
  top: "res3a_branch1"
  param {
    lr_mult: 1
    decay_mult: 1
  }
  param {
    lr_mult: 1
    decay_mult: 0
  }
  convolution_param {
    num_output: 512
    bias_term: true
    pad: 0
    kernel_size: 1
    stride: 2
    weight_filler {
      type: "xavier"
    }
    bias_filler {
      type: "constant"
      value: 0.2
    }
  }
  fixed_param {
    fixed_method: DIFF_S
    bit_width: 8
  }
}
layer {
  name: "res3a_branch1_fixed"
  type: "FixedNeuron"
  bottom: "res3a_branch1"
  top: "res3a_branch1"
  param {
    lr_mult: 0
    decay_mult: 0
  }
  fixed_param {
    fixed_method: DIFF_S
    bit_width: 8
  }
}
layer {
  name: "res3a_branch2a"
  type: "ConvolutionFixed"
  bottom: "res2c"
  top: "res3a_branch2a"
  param {
    lr_mult: 1
    decay_mult: 1
  }
  param {
    lr_mult: 1
    decay_mult: 0
  }
  convolution_param {
    num_output: 128
    bias_term: true
    pad: 0
    kernel_size: 1
    stride: 2
    weight_filler {
      type: "xavier"
    }
    bias_filler {
      type: "constant"
      value: 0.2
    }
  }
  fixed_param {
    fixed_method: DIFF_S
    bit_width: 8
  }
}
layer {
  name: "res3a_branch2a_relu"
  type: "ReLU"
  bottom: "res3a_branch2a"
  top: "res3a_branch2a"
  relu_param {
  }
}
layer {
  name: "res3a_branch2a_fixed"
  type: "FixedNeuron"
  bottom: "res3a_branch2a"
  top: "res3a_branch2a"
  param {
    lr_mult: 0
    decay_mult: 0
  }
  fixed_param {
    fixed_method: DIFF_S
    bit_width: 8
  }
}
layer {
  name: "res3a_branch2b"
  type: "ConvolutionFixed"
  bottom: "res3a_branch2a"
  top: "res3a_branch2b"
  param {
    lr_mult: 1
    decay_mult: 1
  }
  param {
    lr_mult: 1
    decay_mult: 0
  }
  convolution_param {
    num_output: 128
    bias_term: true
    pad: 1
    kernel_size: 3
    stride: 1
    weight_filler {
      type: "xavier"
    }
    bias_filler {
      type: "constant"
      value: 0.2
    }
  }
  fixed_param {
    fixed_method: DIFF_S
    bit_width: 8
  }
}
layer {
  name: "res3a_branch2b_relu"
  type: "ReLU"
  bottom: "res3a_branch2b"
  top: "res3a_branch2b"
  relu_param {
  }
}
layer {
  name: "res3a_branch2b_fixed"
  type: "FixedNeuron"
  bottom: "res3a_branch2b"
  top: "res3a_branch2b"
  param {
    lr_mult: 0
    decay_mult: 0
  }
  fixed_param {
    fixed_method: DIFF_S
    bit_width: 8
  }
}
layer {
  name: "res3a_branch2c"
  type: "ConvolutionFixed"
  bottom: "res3a_branch2b"
  top: "res3a_branch2c"
  param {
    lr_mult: 1
    decay_mult: 1
  }
  param {
    lr_mult: 1
    decay_mult: 0
  }
  convolution_param {
    num_output: 512
    bias_term: true
    pad: 0
    kernel_size: 1
    stride: 1
    weight_filler {
      type: "xavier"
    }
    bias_filler {
      type: "constant"
      value: 0.2
    }
  }
  fixed_param {
    fixed_method: DIFF_S
    bit_width: 8
  }
}
layer {
  name: "res3a_branch2c_fixed"
  type: "FixedNeuron"
  bottom: "res3a_branch2c"
  top: "res3a_branch2c"
  param {
    lr_mult: 0
    decay_mult: 0
  }
  fixed_param {
    fixed_method: DIFF_S
    bit_width: 8
  }
}
layer {
  name: "res3a"
  type: "Eltwise"
  bottom: "res3a_branch1"
  bottom: "res3a_branch2c"
  top: "res3a"
  eltwise_param {
  }
}
layer {
  name: "res3a_relu"
  type: "ReLU"
  bottom: "res3a"
  top: "res3a"
  relu_param {
  }
}
layer {
  name: "res3a_fixed"
  type: "FixedNeuron"
  bottom: "res3a"
  top: "res3a"
  param {
    lr_mult: 0
    decay_mult: 0
  }
  fixed_param {
    fixed_method: DIFF_S
    bit_width: 8
  }
}
layer {
  name: "res3b_branch2a"
  type: "ConvolutionFixed"
  bottom: "res3a"
  top: "res3b_branch2a"
  param {
    lr_mult: 1
    decay_mult: 1
  }
  param {
    lr_mult: 1
    decay_mult: 0
  }
  convolution_param {
    num_output: 128
    bias_term: true
    pad: 0
    kernel_size: 1
    stride: 1
    weight_filler {
      type: "xavier"
    }
    bias_filler {
      type: "constant"
      value: 0.2
    }
  }
  fixed_param {
    fixed_method: DIFF_S
    bit_width: 8
  }
}
layer {
  name: "res3b_branch2a_relu"
  type: "ReLU"
  bottom: "res3b_branch2a"
  top: "res3b_branch2a"
  relu_param {
  }
}
layer {
  name: "res3b_branch2a_fixed"
  type: "FixedNeuron"
  bottom: "res3b_branch2a"
  top: "res3b_branch2a"
  param {
    lr_mult: 0
    decay_mult: 0
  }
  fixed_param {
    fixed_method: DIFF_S
    bit_width: 8
  }
}
layer {
  name: "res3b_branch2b"
  type: "ConvolutionFixed"
  bottom: "res3b_branch2a"
  top: "res3b_branch2b"
  param {
    lr_mult: 1
    decay_mult: 1
  }
  param {
    lr_mult: 1
    decay_mult: 0
  }
  convolution_param {
    num_output: 128
    bias_term: true
    pad: 1
    kernel_size: 3
    stride: 1
    weight_filler {
      type: "xavier"
    }
    bias_filler {
      type: "constant"
      value: 0.2
    }
  }
  fixed_param {
    fixed_method: DIFF_S
    bit_width: 8
  }
}
layer {
  name: "res3b_branch2b_relu"
  type: "ReLU"
  bottom: "res3b_branch2b"
  top: "res3b_branch2b"
  relu_param {
  }
}
layer {
  name: "res3b_branch2b_fixed"
  type: "FixedNeuron"
  bottom: "res3b_branch2b"
  top: "res3b_branch2b"
  param {
    lr_mult: 0
    decay_mult: 0
  }
  fixed_param {
    fixed_method: DIFF_S
    bit_width: 8
  }
}
layer {
  name: "res3b_branch2c"
  type: "ConvolutionFixed"
  bottom: "res3b_branch2b"
  top: "res3b_branch2c"
  param {
    lr_mult: 1
    decay_mult: 1
  }
  param {
    lr_mult: 1
    decay_mult: 0
  }
  convolution_param {
    num_output: 512
    bias_term: true
    pad: 0
    kernel_size: 1
    stride: 1
    weight_filler {
      type: "xavier"
    }
    bias_filler {
      type: "constant"
      value: 0.2
    }
  }
  fixed_param {
    fixed_method: DIFF_S
    bit_width: 8
  }
}
layer {
  name: "res3b_branch2c_fixed"
  type: "FixedNeuron"
  bottom: "res3b_branch2c"
  top: "res3b_branch2c"
  param {
    lr_mult: 0
    decay_mult: 0
  }
  fixed_param {
    fixed_method: DIFF_S
    bit_width: 8
  }
}
layer {
  name: "res3b"
  type: "Eltwise"
  bottom: "res3a"
  bottom: "res3b_branch2c"
  top: "res3b"
  eltwise_param {
  }
}
layer {
  name: "res3b_relu"
  type: "ReLU"
  bottom: "res3b"
  top: "res3b"
  relu_param {
  }
}
layer {
  name: "res3b_fixed"
  type: "FixedNeuron"
  bottom: "res3b"
  top: "res3b"
  param {
    lr_mult: 0
    decay_mult: 0
  }
  fixed_param {
    fixed_method: DIFF_S
    bit_width: 8
  }
}
layer {
  name: "res3c_branch2a"
  type: "ConvolutionFixed"
  bottom: "res3b"
  top: "res3c_branch2a"
  param {
    lr_mult: 1
    decay_mult: 1
  }
  param {
    lr_mult: 1
    decay_mult: 0
  }
  convolution_param {
    num_output: 128
    bias_term: true
    pad: 0
    kernel_size: 1
    stride: 1
    weight_filler {
      type: "xavier"
    }
    bias_filler {
      type: "constant"
      value: 0.2
    }
  }
  fixed_param {
    fixed_method: DIFF_S
    bit_width: 8
  }
}
layer {
  name: "res3c_branch2a_relu"
  type: "ReLU"
  bottom: "res3c_branch2a"
  top: "res3c_branch2a"
  relu_param {
  }
}
layer {
  name: "res3c_branch2a_fixed"
  type: "FixedNeuron"
  bottom: "res3c_branch2a"
  top: "res3c_branch2a"
  param {
    lr_mult: 0
    decay_mult: 0
  }
  fixed_param {
    fixed_method: DIFF_S
    bit_width: 8
  }
}
layer {
  name: "res3c_branch2b"
  type: "ConvolutionFixed"
  bottom: "res3c_branch2a"
  top: "res3c_branch2b"
  param {
    lr_mult: 1
    decay_mult: 1
  }
  param {
    lr_mult: 1
    decay_mult: 0
  }
  convolution_param {
    num_output: 128
    bias_term: true
    pad: 1
    kernel_size: 3
    stride: 1
    weight_filler {
      type: "xavier"
    }
    bias_filler {
      type: "constant"
      value: 0.2
    }
  }
  fixed_param {
    fixed_method: DIFF_S
    bit_width: 8
  }
}
layer {
  name: "res3c_branch2b_relu"
  type: "ReLU"
  bottom: "res3c_branch2b"
  top: "res3c_branch2b"
  relu_param {
  }
}
layer {
  name: "res3c_branch2b_fixed"
  type: "FixedNeuron"
  bottom: "res3c_branch2b"
  top: "res3c_branch2b"
  param {
    lr_mult: 0
    decay_mult: 0
  }
  fixed_param {
    fixed_method: DIFF_S
    bit_width: 8
  }
}
layer {
  name: "res3c_branch2c"
  type: "ConvolutionFixed"
  bottom: "res3c_branch2b"
  top: "res3c_branch2c"
  param {
    lr_mult: 1
    decay_mult: 1
  }
  param {
    lr_mult: 1
    decay_mult: 0
  }
  convolution_param {
    num_output: 512
    bias_term: true
    pad: 0
    kernel_size: 1
    stride: 1
    weight_filler {
      type: "xavier"
    }
    bias_filler {
      type: "constant"
      value: 0.2
    }
  }
  fixed_param {
    fixed_method: DIFF_S
    bit_width: 8
  }
}
layer {
  name: "res3c_branch2c_fixed"
  type: "FixedNeuron"
  bottom: "res3c_branch2c"
  top: "res3c_branch2c"
  param {
    lr_mult: 0
    decay_mult: 0
  }
  fixed_param {
    fixed_method: DIFF_S
    bit_width: 8
  }
}
layer {
  name: "res3c"
  type: "Eltwise"
  bottom: "res3b"
  bottom: "res3c_branch2c"
  top: "res3c"
  eltwise_param {
  }
}
layer {
  name: "res3c_relu"
  type: "ReLU"
  bottom: "res3c"
  top: "res3c"
  relu_param {
  }
}
layer {
  name: "res3c_fixed"
  type: "FixedNeuron"
  bottom: "res3c"
  top: "res3c"
  param {
    lr_mult: 0
    decay_mult: 0
  }
  fixed_param {
    fixed_method: DIFF_S
    bit_width: 8
  }
}
layer {
  name: "res3d_branch2a"
  type: "ConvolutionFixed"
  bottom: "res3c"
  top: "res3d_branch2a"
  param {
    lr_mult: 1
    decay_mult: 1
  }
  param {
    lr_mult: 1
    decay_mult: 0
  }
  convolution_param {
    num_output: 128
    bias_term: true
    pad: 0
    kernel_size: 1
    stride: 1
    weight_filler {
      type: "xavier"
    }
    bias_filler {
      type: "constant"
      value: 0.2
    }
  }
  fixed_param {
    fixed_method: DIFF_S
    bit_width: 8
  }
}
layer {
  name: "res3d_branch2a_relu"
  type: "ReLU"
  bottom: "res3d_branch2a"
  top: "res3d_branch2a"
  relu_param {
  }
}
layer {
  name: "res3d_branch2a_fixed"
  type: "FixedNeuron"
  bottom: "res3d_branch2a"
  top: "res3d_branch2a"
  param {
    lr_mult: 0
    decay_mult: 0
  }
  fixed_param {
    fixed_method: DIFF_S
    bit_width: 8
  }
}
layer {
  name: "res3d_branch2b"
  type: "ConvolutionFixed"
  bottom: "res3d_branch2a"
  top: "res3d_branch2b"
  param {
    lr_mult: 1
    decay_mult: 1
  }
  param {
    lr_mult: 1
    decay_mult: 0
  }
  convolution_param {
    num_output: 128
    bias_term: true
    pad: 1
    kernel_size: 3
    stride: 1
    weight_filler {
      type: "xavier"
    }
    bias_filler {
      type: "constant"
      value: 0.2
    }
  }
  fixed_param {
    fixed_method: DIFF_S
    bit_width: 8
  }
}
layer {
  name: "res3d_branch2b_relu"
  type: "ReLU"
  bottom: "res3d_branch2b"
  top: "res3d_branch2b"
  relu_param {
  }
}
layer {
  name: "res3d_branch2b_fixed"
  type: "FixedNeuron"
  bottom: "res3d_branch2b"
  top: "res3d_branch2b"
  param {
    lr_mult: 0
    decay_mult: 0
  }
  fixed_param {
    fixed_method: DIFF_S
    bit_width: 8
  }
}
layer {
  name: "res3d_branch2c"
  type: "ConvolutionFixed"
  bottom: "res3d_branch2b"
  top: "res3d_branch2c"
  param {
    lr_mult: 1
    decay_mult: 1
  }
  param {
    lr_mult: 1
    decay_mult: 0
  }
  convolution_param {
    num_output: 512
    bias_term: true
    pad: 0
    kernel_size: 1
    stride: 1
    weight_filler {
      type: "xavier"
    }
    bias_filler {
      type: "constant"
      value: 0.2
    }
  }
  fixed_param {
    fixed_method: DIFF_S
    bit_width: 8
  }
}
layer {
  name: "res3d_branch2c_fixed"
  type: "FixedNeuron"
  bottom: "res3d_branch2c"
  top: "res3d_branch2c"
  param {
    lr_mult: 0
    decay_mult: 0
  }
  fixed_param {
    fixed_method: DIFF_S
    bit_width: 8
  }
}
layer {
  name: "res3d"
  type: "Eltwise"
  bottom: "res3c"
  bottom: "res3d_branch2c"
  top: "res3d"
  eltwise_param {
  }
}
layer {
  name: "res3d_relu"
  type: "ReLU"
  bottom: "res3d"
  top: "res3d"
  relu_param {
  }
}
layer {
  name: "res3d_fixed"
  type: "FixedNeuron"
  bottom: "res3d"
  top: "res3d"
  param {
    lr_mult: 0
    decay_mult: 0
  }
  fixed_param {
    fixed_method: DIFF_S
    bit_width: 8
  }
}
layer {
  name: "res4a_branch1"
  type: "ConvolutionFixed"
  bottom: "res3d"
  top: "res4a_branch1"
  param {
    lr_mult: 1
    decay_mult: 1
  }
  param {
    lr_mult: 1
    decay_mult: 0
  }
  convolution_param {
    num_output: 1024
    bias_term: true
    pad: 0
    kernel_size: 1
    stride: 2
    weight_filler {
      type: "xavier"
    }
    bias_filler {
      type: "constant"
      value: 0.2
    }
  }
  fixed_param {
    fixed_method: DIFF_S
    bit_width: 8
  }
}
layer {
  name: "res4a_branch1_fixed"
  type: "FixedNeuron"
  bottom: "res4a_branch1"
  top: "res4a_branch1"
  param {
    lr_mult: 0
    decay_mult: 0
  }
  fixed_param {
    fixed_method: DIFF_S
    bit_width: 8
  }
}
layer {
  name: "res4a_branch2a"
  type: "ConvolutionFixed"
  bottom: "res3d"
  top: "res4a_branch2a"
  param {
    lr_mult: 1
    decay_mult: 1
  }
  param {
    lr_mult: 1
    decay_mult: 0
  }
  convolution_param {
    num_output: 256
    bias_term: true
    pad: 0
    kernel_size: 1
    stride: 2
    weight_filler {
      type: "xavier"
    }
    bias_filler {
      type: "constant"
      value: 0.2
    }
  }
  fixed_param {
    fixed_method: DIFF_S
    bit_width: 8
  }
}
layer {
  name: "res4a_branch2a_relu"
  type: "ReLU"
  bottom: "res4a_branch2a"
  top: "res4a_branch2a"
  relu_param {
  }
}
layer {
  name: "res4a_branch2a_fixed"
  type: "FixedNeuron"
  bottom: "res4a_branch2a"
  top: "res4a_branch2a"
  param {
    lr_mult: 0
    decay_mult: 0
  }
  fixed_param {
    fixed_method: DIFF_S
    bit_width: 8
  }
}
layer {
  name: "res4a_branch2b"
  type: "ConvolutionFixed"
  bottom: "res4a_branch2a"
  top: "res4a_branch2b"
  param {
    lr_mult: 1
    decay_mult: 1
  }
  param {
    lr_mult: 1
    decay_mult: 0
  }
  convolution_param {
    num_output: 256
    bias_term: true
    pad: 1
    kernel_size: 3
    stride: 1
    weight_filler {
      type: "xavier"
    }
    bias_filler {
      type: "constant"
      value: 0.2
    }
  }
  fixed_param {
    fixed_method: DIFF_S
    bit_width: 8
  }
}
layer {
  name: "res4a_branch2b_relu"
  type: "ReLU"
  bottom: "res4a_branch2b"
  top: "res4a_branch2b"
  relu_param {
  }
}
layer {
  name: "res4a_branch2b_fixed"
  type: "FixedNeuron"
  bottom: "res4a_branch2b"
  top: "res4a_branch2b"
  param {
    lr_mult: 0
    decay_mult: 0
  }
  fixed_param {
    fixed_method: DIFF_S
    bit_width: 8
  }
}
layer {
  name: "res4a_branch2c"
  type: "ConvolutionFixed"
  bottom: "res4a_branch2b"
  top: "res4a_branch2c"
  param {
    lr_mult: 1
    decay_mult: 1
  }
  param {
    lr_mult: 1
    decay_mult: 0
  }
  convolution_param {
    num_output: 1024
    bias_term: true
    pad: 0
    kernel_size: 1
    stride: 1
    weight_filler {
      type: "xavier"
    }
    bias_filler {
      type: "constant"
      value: 0.2
    }
  }
  fixed_param {
    fixed_method: DIFF_S
    bit_width: 8
  }
}
layer {
  name: "res4a_branch2c_fixed"
  type: "FixedNeuron"
  bottom: "res4a_branch2c"
  top: "res4a_branch2c"
  param {
    lr_mult: 0
    decay_mult: 0
  }
  fixed_param {
    fixed_method: DIFF_S
    bit_width: 8
  }
}
layer {
  name: "res4a"
  type: "Eltwise"
  bottom: "res4a_branch1"
  bottom: "res4a_branch2c"
  top: "res4a"
  eltwise_param {
  }
}
layer {
  name: "res4a_relu"
  type: "ReLU"
  bottom: "res4a"
  top: "res4a"
  relu_param {
  }
}
layer {
  name: "res4a_fixed"
  type: "FixedNeuron"
  bottom: "res4a"
  top: "res4a"
  param {
    lr_mult: 0
    decay_mult: 0
  }
  fixed_param {
    fixed_method: DIFF_S
    bit_width: 8
  }
}
layer {
  name: "res4b_branch2a"
  type: "ConvolutionFixed"
  bottom: "res4a"
  top: "res4b_branch2a"
  param {
    lr_mult: 1
    decay_mult: 1
  }
  param {
    lr_mult: 1
    decay_mult: 0
  }
  convolution_param {
    num_output: 256
    bias_term: true
    pad: 0
    kernel_size: 1
    stride: 1
    weight_filler {
      type: "xavier"
    }
    bias_filler {
      type: "constant"
      value: 0.2
    }
  }
  fixed_param {
    fixed_method: DIFF_S
    bit_width: 8
  }
}
layer {
  name: "res4b_branch2a_relu"
  type: "ReLU"
  bottom: "res4b_branch2a"
  top: "res4b_branch2a"
  relu_param {
  }
}
layer {
  name: "res4b_branch2a_fixed"
  type: "FixedNeuron"
  bottom: "res4b_branch2a"
  top: "res4b_branch2a"
  param {
    lr_mult: 0
    decay_mult: 0
  }
  fixed_param {
    fixed_method: DIFF_S
    bit_width: 8
  }
}
layer {
  name: "res4b_branch2b"
  type: "ConvolutionFixed"
  bottom: "res4b_branch2a"
  top: "res4b_branch2b"
  param {
    lr_mult: 1
    decay_mult: 1
  }
  param {
    lr_mult: 1
    decay_mult: 0
  }
  convolution_param {
    num_output: 256
    bias_term: true
    pad: 1
    kernel_size: 3
    stride: 1
    weight_filler {
      type: "xavier"
    }
    bias_filler {
      type: "constant"
      value: 0.2
    }
  }
  fixed_param {
    fixed_method: DIFF_S
    bit_width: 8
  }
}
layer {
  name: "res4b_branch2b_relu"
  type: "ReLU"
  bottom: "res4b_branch2b"
  top: "res4b_branch2b"
  relu_param {
  }
}
layer {
  name: "res4b_branch2b_fixed"
  type: "FixedNeuron"
  bottom: "res4b_branch2b"
  top: "res4b_branch2b"
  param {
    lr_mult: 0
    decay_mult: 0
  }
  fixed_param {
    fixed_method: DIFF_S
    bit_width: 8
  }
}
layer {
  name: "res4b_branch2c"
  type: "ConvolutionFixed"
  bottom: "res4b_branch2b"
  top: "res4b_branch2c"
  param {
    lr_mult: 1
    decay_mult: 1
  }
  param {
    lr_mult: 1
    decay_mult: 0
  }
  convolution_param {
    num_output: 1024
    bias_term: true
    pad: 0
    kernel_size: 1
    stride: 1
    weight_filler {
      type: "xavier"
    }
    bias_filler {
      type: "constant"
      value: 0.2
    }
  }
  fixed_param {
    fixed_method: DIFF_S
    bit_width: 8
  }
}
layer {
  name: "res4b_branch2c_fixed"
  type: "FixedNeuron"
  bottom: "res4b_branch2c"
  top: "res4b_branch2c"
  param {
    lr_mult: 0
    decay_mult: 0
  }
  fixed_param {
    fixed_method: DIFF_S
    bit_width: 8
  }
}
layer {
  name: "res4b"
  type: "Eltwise"
  bottom: "res4a"
  bottom: "res4b_branch2c"
  top: "res4b"
  eltwise_param {
  }
}
layer {
  name: "res4b_relu"
  type: "ReLU"
  bottom: "res4b"
  top: "res4b"
  relu_param {
  }
}
layer {
  name: "res4b_fixed"
  type: "FixedNeuron"
  bottom: "res4b"
  top: "res4b"
  param {
    lr_mult: 0
    decay_mult: 0
  }
  fixed_param {
    fixed_method: DIFF_S
    bit_width: 8
  }
}
layer {
  name: "res4c_branch2a"
  type: "ConvolutionFixed"
  bottom: "res4b"
  top: "res4c_branch2a"
  param {
    lr_mult: 1
    decay_mult: 1
  }
  param {
    lr_mult: 1
    decay_mult: 0
  }
  convolution_param {
    num_output: 256
    bias_term: true
    pad: 0
    kernel_size: 1
    stride: 1
    weight_filler {
      type: "xavier"
    }
    bias_filler {
      type: "constant"
      value: 0.2
    }
  }
  fixed_param {
    fixed_method: DIFF_S
    bit_width: 8
  }
}
layer {
  name: "res4c_branch2a_relu"
  type: "ReLU"
  bottom: "res4c_branch2a"
  top: "res4c_branch2a"
  relu_param {
  }
}
layer {
  name: "res4c_branch2a_fixed"
  type: "FixedNeuron"
  bottom: "res4c_branch2a"
  top: "res4c_branch2a"
  param {
    lr_mult: 0
    decay_mult: 0
  }
  fixed_param {
    fixed_method: DIFF_S
    bit_width: 8
  }
}
layer {
  name: "res4c_branch2b"
  type: "ConvolutionFixed"
  bottom: "res4c_branch2a"
  top: "res4c_branch2b"
  param {
    lr_mult: 1
    decay_mult: 1
  }
  param {
    lr_mult: 1
    decay_mult: 0
  }
  conv
I0828 16:10:17.096791 22589 layer_factory.hpp:123] Creating layer data
I0828 16:10:17.096827 22589 net.cpp:140] Creating Layer data
I0828 16:10:17.096837 22589 net.cpp:455] data -> data
I0828 16:10:17.096843 22589 net.cpp:455] data -> label
I0828 16:10:17.096868 22589 image_data_layer.cpp:87] Opening file /SSD/git-tutorial/GPU-DPU-cross-check/images/image224/dump.txt
I0828 16:10:17.096913 22589 image_data_layer.cpp:102] A total of 1 images.
I0828 16:10:17.098245 22589 image_data_layer.cpp:130] output data size: 1,3,224,224
I0828 16:10:17.102399 22589 internal_thread.cpp:73] Starting internal thread(s) on GPU 0
I0828 16:10:17.102505 22589 net.cpp:190] Setting up data
I0828 16:10:17.102528 22589 net.cpp:197] Top shape: 1 3 224 224 (150528)
I0828 16:10:17.102531 22589 net.cpp:197] Top shape: 1 (1)
I0828 16:10:17.102535 22589 net.cpp:205] Memory required for data: 602116
I0828 16:10:17.102538 22589 layer_factory.hpp:123] Creating layer data_fixed
I0828 16:10:17.102546 22589 net.cpp:140] Creating Layer data_fixed
I0828 16:10:17.102550 22589 net.cpp:481] data_fixed <- data
I0828 16:10:17.102560 22589 net.cpp:442] data_fixed -> data (in-place)
I0828 16:10:17.102603 22589 net.cpp:190] Setting up data_fixed
I0828 16:10:17.102622 22589 net.cpp:197] Top shape: 1 3 224 224 (150528)
I0828 16:10:17.102623 22589 net.cpp:205] Memory required for data: 1204228
I0828 16:10:17.102649 22589 layer_factory.hpp:123] Creating layer conv1
I0828 16:10:17.102658 22589 net.cpp:140] Creating Layer conv1
I0828 16:10:17.102660 22589 net.cpp:481] conv1 <- data
I0828 16:10:17.102664 22589 net.cpp:455] conv1 -> conv1
I0828 16:10:17.102855 22589 layer_factory.hpp:123] Creating layer conv1
I0828 16:10:17.103178 22589 net.cpp:190] Setting up conv1
I0828 16:10:17.103184 22589 net.cpp:197] Top shape: 1 64 112 112 (802816)
I0828 16:10:17.103188 22589 net.cpp:205] Memory required for data: 4415492
I0828 16:10:17.103206 22589 layer_factory.hpp:123] Creating layer conv1_relu
I0828 16:10:17.103214 22589 net.cpp:140] Creating Layer conv1_relu
I0828 16:10:17.103216 22589 net.cpp:481] conv1_relu <- conv1
I0828 16:10:17.103220 22589 net.cpp:442] conv1_relu -> conv1 (in-place)
I0828 16:10:17.103229 22589 net.cpp:190] Setting up conv1_relu
I0828 16:10:17.103231 22589 net.cpp:197] Top shape: 1 64 112 112 (802816)
I0828 16:10:17.103235 22589 net.cpp:205] Memory required for data: 7626756
I0828 16:10:17.103236 22589 layer_factory.hpp:123] Creating layer pool1
I0828 16:10:17.103242 22589 net.cpp:140] Creating Layer pool1
I0828 16:10:17.103245 22589 net.cpp:481] pool1 <- conv1
I0828 16:10:17.103248 22589 net.cpp:455] pool1 -> pool1
I0828 16:10:17.103267 22589 net.cpp:190] Setting up pool1
I0828 16:10:17.103272 22589 net.cpp:197] Top shape: 1 64 56 56 (200704)
I0828 16:10:17.103274 22589 net.cpp:205] Memory required for data: 8429572
I0828 16:10:17.103277 22589 layer_factory.hpp:123] Creating layer pool1_fixed
I0828 16:10:17.103281 22589 net.cpp:140] Creating Layer pool1_fixed
I0828 16:10:17.103283 22589 net.cpp:481] pool1_fixed <- pool1
I0828 16:10:17.103286 22589 net.cpp:442] pool1_fixed -> pool1 (in-place)
I0828 16:10:17.103318 22589 net.cpp:190] Setting up pool1_fixed
I0828 16:10:17.103322 22589 net.cpp:197] Top shape: 1 64 56 56 (200704)
I0828 16:10:17.103324 22589 net.cpp:205] Memory required for data: 9232388
I0828 16:10:17.103328 22589 layer_factory.hpp:123] Creating layer pool1_pool1_fixed_0_split
I0828 16:10:17.103332 22589 net.cpp:140] Creating Layer pool1_pool1_fixed_0_split
I0828 16:10:17.103334 22589 net.cpp:481] pool1_pool1_fixed_0_split <- pool1
I0828 16:10:17.103338 22589 net.cpp:455] pool1_pool1_fixed_0_split -> pool1_pool1_fixed_0_split_0
I0828 16:10:17.103343 22589 net.cpp:455] pool1_pool1_fixed_0_split -> pool1_pool1_fixed_0_split_1
I0828 16:10:17.103360 22589 net.cpp:190] Setting up pool1_pool1_fixed_0_split
I0828 16:10:17.103364 22589 net.cpp:197] Top shape: 1 64 56 56 (200704)
I0828 16:10:17.103368 22589 net.cpp:197] Top shape: 1 64 56 56 (200704)
I0828 16:10:17.103370 22589 net.cpp:205] Memory required for data: 10838020
I0828 16:10:17.103372 22589 layer_factory.hpp:123] Creating layer res2a_branch1
I0828 16:10:17.103379 22589 net.cpp:140] Creating Layer res2a_branch1
I0828 16:10:17.103381 22589 net.cpp:481] res2a_branch1 <- pool1_pool1_fixed_0_split_0
I0828 16:10:17.103385 22589 net.cpp:455] res2a_branch1 -> res2a_branch1
I0828 16:10:17.103560 22589 layer_factory.hpp:123] Creating layer res2a_branch1
I0828 16:10:17.103801 22589 net.cpp:190] Setting up res2a_branch1
I0828 16:10:17.103806 22589 net.cpp:197] Top shape: 1 256 56 56 (802816)
I0828 16:10:17.103808 22589 net.cpp:205] Memory required for data: 14049284
I0828 16:10:17.103813 22589 layer_factory.hpp:123] Creating layer res2a_branch1_fixed
I0828 16:10:17.103818 22589 net.cpp:140] Creating Layer res2a_branch1_fixed
I0828 16:10:17.103821 22589 net.cpp:481] res2a_branch1_fixed <- res2a_branch1
I0828 16:10:17.103824 22589 net.cpp:442] res2a_branch1_fixed -> res2a_branch1 (in-place)
I0828 16:10:17.103845 22589 net.cpp:190] Setting up res2a_branch1_fixed
I0828 16:10:17.103864 22589 net.cpp:197] Top shape: 1 256 56 56 (802816)
I0828 16:10:17.103868 22589 net.cpp:205] Memory required for data: 17260548
I0828 16:10:17.103870 22589 layer_factory.hpp:123] Creating layer res2a_branch2a
I0828 16:10:17.103876 22589 net.cpp:140] Creating Layer res2a_branch2a
I0828 16:10:17.103879 22589 net.cpp:481] res2a_branch2a <- pool1_pool1_fixed_0_split_1
I0828 16:10:17.103883 22589 net.cpp:455] res2a_branch2a -> res2a_branch2a
I0828 16:10:17.104010 22589 layer_factory.hpp:123] Creating layer res2a_branch2a
I0828 16:10:17.104223 22589 net.cpp:190] Setting up res2a_branch2a
I0828 16:10:17.104228 22589 net.cpp:197] Top shape: 1 64 56 56 (200704)
I0828 16:10:17.104230 22589 net.cpp:205] Memory required for data: 18063364
I0828 16:10:17.104236 22589 layer_factory.hpp:123] Creating layer res2a_branch2a_relu
I0828 16:10:17.104240 22589 net.cpp:140] Creating Layer res2a_branch2a_relu
I0828 16:10:17.104243 22589 net.cpp:481] res2a_branch2a_relu <- res2a_branch2a
I0828 16:10:17.104246 22589 net.cpp:442] res2a_branch2a_relu -> res2a_branch2a (in-place)
I0828 16:10:17.104251 22589 net.cpp:190] Setting up res2a_branch2a_relu
I0828 16:10:17.104254 22589 net.cpp:197] Top shape: 1 64 56 56 (200704)
I0828 16:10:17.104256 22589 net.cpp:205] Memory required for data: 18866180
I0828 16:10:17.104259 22589 layer_factory.hpp:123] Creating layer res2a_branch2a_fixed
I0828 16:10:17.104262 22589 net.cpp:140] Creating Layer res2a_branch2a_fixed
I0828 16:10:17.104277 22589 net.cpp:481] res2a_branch2a_fixed <- res2a_branch2a
I0828 16:10:17.104280 22589 net.cpp:442] res2a_branch2a_fixed -> res2a_branch2a (in-place)
I0828 16:10:17.104300 22589 net.cpp:190] Setting up res2a_branch2a_fixed
I0828 16:10:17.104302 22589 net.cpp:197] Top shape: 1 64 56 56 (200704)
I0828 16:10:17.104310 22589 net.cpp:205] Memory required for data: 19668996
I0828 16:10:17.104312 22589 layer_factory.hpp:123] Creating layer res2a_branch2b
I0828 16:10:17.104318 22589 net.cpp:140] Creating Layer res2a_branch2b
I0828 16:10:17.104321 22589 net.cpp:481] res2a_branch2b <- res2a_branch2a
I0828 16:10:17.104324 22589 net.cpp:455] res2a_branch2b -> res2a_branch2b
I0828 16:10:17.104629 22589 layer_factory.hpp:123] Creating layer res2a_branch2b
I0828 16:10:17.105020 22589 net.cpp:190] Setting up res2a_branch2b
I0828 16:10:17.105026 22589 net.cpp:197] Top shape: 1 64 56 56 (200704)
I0828 16:10:17.105028 22589 net.cpp:205] Memory required for data: 20471812
I0828 16:10:17.105031 22589 layer_factory.hpp:123] Creating layer res2a_branch2b_relu
I0828 16:10:17.105036 22589 net.cpp:140] Creating Layer res2a_branch2b_relu
I0828 16:10:17.105038 22589 net.cpp:481] res2a_branch2b_relu <- res2a_branch2b
I0828 16:10:17.105042 22589 net.cpp:442] res2a_branch2b_relu -> res2a_branch2b (in-place)
I0828 16:10:17.105062 22589 net.cpp:190] Setting up res2a_branch2b_relu
I0828 16:10:17.105064 22589 net.cpp:197] Top shape: 1 64 56 56 (200704)
I0828 16:10:17.105067 22589 net.cpp:205] Memory required for data: 21274628
I0828 16:10:17.105069 22589 layer_factory.hpp:123] Creating layer res2a_branch2b_fixed
I0828 16:10:17.105072 22589 net.cpp:140] Creating Layer res2a_branch2b_fixed
I0828 16:10:17.105075 22589 net.cpp:481] res2a_branch2b_fixed <- res2a_branch2b
I0828 16:10:17.105078 22589 net.cpp:442] res2a_branch2b_fixed -> res2a_branch2b (in-place)
I0828 16:10:17.105113 22589 net.cpp:190] Setting up res2a_branch2b_fixed
I0828 16:10:17.105118 22589 net.cpp:197] Top shape: 1 64 56 56 (200704)
I0828 16:10:17.105119 22589 net.cpp:205] Memory required for data: 22077444
I0828 16:10:17.105123 22589 layer_factory.hpp:123] Creating layer res2a_branch2c
I0828 16:10:17.105129 22589 net.cpp:140] Creating Layer res2a_branch2c
I0828 16:10:17.105130 22589 net.cpp:481] res2a_branch2c <- res2a_branch2b
I0828 16:10:17.105134 22589 net.cpp:455] res2a_branch2c -> res2a_branch2c
I0828 16:10:17.105310 22589 layer_factory.hpp:123] Creating layer res2a_branch2c
I0828 16:10:17.105562 22589 net.cpp:190] Setting up res2a_branch2c
I0828 16:10:17.105568 22589 net.cpp:197] Top shape: 1 256 56 56 (802816)
I0828 16:10:17.105571 22589 net.cpp:205] Memory required for data: 25288708
I0828 16:10:17.105574 22589 layer_factory.hpp:123] Creating layer res2a_branch2c_fixed
I0828 16:10:17.105579 22589 net.cpp:140] Creating Layer res2a_branch2c_fixed
I0828 16:10:17.105581 22589 net.cpp:481] res2a_branch2c_fixed <- res2a_branch2c
I0828 16:10:17.105585 22589 net.cpp:442] res2a_branch2c_fixed -> res2a_branch2c (in-place)
I0828 16:10:17.105607 22589 net.cpp:190] Setting up res2a_branch2c_fixed
I0828 16:10:17.105610 22589 net.cpp:197] Top shape: 1 256 56 56 (802816)
I0828 16:10:17.105612 22589 net.cpp:205] Memory required for data: 28499972
I0828 16:10:17.105615 22589 layer_factory.hpp:123] Creating layer res2a
I0828 16:10:17.105620 22589 net.cpp:140] Creating Layer res2a
I0828 16:10:17.105635 22589 net.cpp:481] res2a <- res2a_branch1
I0828 16:10:17.105638 22589 net.cpp:481] res2a <- res2a_branch2c
I0828 16:10:17.105643 22589 net.cpp:455] res2a -> res2a
I0828 16:10:17.105655 22589 net.cpp:190] Setting up res2a
I0828 16:10:17.105659 22589 net.cpp:197] Top shape: 1 256 56 56 (802816)
I0828 16:10:17.105661 22589 net.cpp:205] Memory required for data: 31711236
I0828 16:10:17.105664 22589 layer_factory.hpp:123] Creating layer res2a_relu
I0828 16:10:17.105667 22589 net.cpp:140] Creating Layer res2a_relu
I0828 16:10:17.105670 22589 net.cpp:481] res2a_relu <- res2a
I0828 16:10:17.105674 22589 net.cpp:442] res2a_relu -> res2a (in-place)
I0828 16:10:17.105677 22589 net.cpp:190] Setting up res2a_relu
I0828 16:10:17.105680 22589 net.cpp:197] Top shape: 1 256 56 56 (802816)
I0828 16:10:17.105682 22589 net.cpp:205] Memory required for data: 34922500
I0828 16:10:17.105684 22589 layer_factory.hpp:123] Creating layer res2a_fixed
I0828 16:10:17.105688 22589 net.cpp:140] Creating Layer res2a_fixed
I0828 16:10:17.105690 22589 net.cpp:481] res2a_fixed <- res2a
I0828 16:10:17.105693 22589 net.cpp:442] res2a_fixed -> res2a (in-place)
I0828 16:10:17.105711 22589 net.cpp:190] Setting up res2a_fixed
I0828 16:10:17.105715 22589 net.cpp:197] Top shape: 1 256 56 56 (802816)
I0828 16:10:17.105717 22589 net.cpp:205] Memory required for data: 38133764
I0828 16:10:17.105722 22589 layer_factory.hpp:123] Creating layer res2a_res2a_fixed_0_split
I0828 16:10:17.105726 22589 net.cpp:140] Creating Layer res2a_res2a_fixed_0_split
I0828 16:10:17.105728 22589 net.cpp:481] res2a_res2a_fixed_0_split <- res2a
I0828 16:10:17.105732 22589 net.cpp:455] res2a_res2a_fixed_0_split -> res2a_res2a_fixed_0_split_0
I0828 16:10:17.105736 22589 net.cpp:455] res2a_res2a_fixed_0_split -> res2a_res2a_fixed_0_split_1
I0828 16:10:17.105756 22589 net.cpp:190] Setting up res2a_res2a_fixed_0_split
I0828 16:10:17.105759 22589 net.cpp:197] Top shape: 1 256 56 56 (802816)
I0828 16:10:17.105762 22589 net.cpp:197] Top shape: 1 256 56 56 (802816)
I0828 16:10:17.105764 22589 net.cpp:205] Memory required for data: 44556292
I0828 16:10:17.105767 22589 layer_factory.hpp:123] Creating layer res2b_branch2a
I0828 16:10:17.105772 22589 net.cpp:140] Creating Layer res2b_branch2a
I0828 16:10:17.105774 22589 net.cpp:481] res2b_branch2a <- res2a_res2a_fixed_0_split_0
I0828 16:10:17.105778 22589 net.cpp:455] res2b_branch2a -> res2b_branch2a
I0828 16:10:17.106019 22589 layer_factory.hpp:123] Creating layer res2b_branch2a
I0828 16:10:17.106359 22589 net.cpp:190] Setting up res2b_branch2a
I0828 16:10:17.106364 22589 net.cpp:197] Top shape: 1 64 56 56 (200704)
I0828 16:10:17.106369 22589 net.cpp:205] Memory required for data: 45359108
I0828 16:10:17.106374 22589 layer_factory.hpp:123] Creating layer res2b_branch2a_relu
I0828 16:10:17.106379 22589 net.cpp:140] Creating Layer res2b_branch2a_relu
I0828 16:10:17.106382 22589 net.cpp:481] res2b_branch2a_relu <- res2b_branch2a
I0828 16:10:17.106387 22589 net.cpp:442] res2b_branch2a_relu -> res2b_branch2a (in-place)
I0828 16:10:17.106393 22589 net.cpp:190] Setting up res2b_branch2a_relu
I0828 16:10:17.106397 22589 net.cpp:197] Top shape: 1 64 56 56 (200704)
I0828 16:10:17.106400 22589 net.cpp:205] Memory required for data: 46161924
I0828 16:10:17.106402 22589 layer_factory.hpp:123] Creating layer res2b_branch2a_fixed
I0828 16:10:17.106406 22589 net.cpp:140] Creating Layer res2b_branch2a_fixed
I0828 16:10:17.106408 22589 net.cpp:481] res2b_branch2a_fixed <- res2b_branch2a
I0828 16:10:17.106412 22589 net.cpp:442] res2b_branch2a_fixed -> res2b_branch2a (in-place)
I0828 16:10:17.106433 22589 net.cpp:190] Setting up res2b_branch2a_fixed
I0828 16:10:17.106439 22589 net.cpp:197] Top shape: 1 64 56 56 (200704)
I0828 16:10:17.106443 22589 net.cpp:205] Memory required for data: 46964740
I0828 16:10:17.106448 22589 layer_factory.hpp:123] Creating layer res2b_branch2b
I0828 16:10:17.106456 22589 net.cpp:140] Creating Layer res2b_branch2b
I0828 16:10:17.106458 22589 net.cpp:481] res2b_branch2b <- res2b_branch2a
I0828 16:10:17.106465 22589 net.cpp:455] res2b_branch2b -> res2b_branch2b
I0828 16:10:17.106734 22589 layer_factory.hpp:123] Creating layer res2b_branch2b
I0828 16:10:17.107136 22589 net.cpp:190] Setting up res2b_branch2b
I0828 16:10:17.107142 22589 net.cpp:197] Top shape: 1 64 56 56 (200704)
I0828 16:10:17.107146 22589 net.cpp:205] Memory required for data: 47767556
I0828 16:10:17.107149 22589 layer_factory.hpp:123] Creating layer res2b_branch2b_relu
I0828 16:10:17.107153 22589 net.cpp:140] Creating Layer res2b_branch2b_relu
I0828 16:10:17.107156 22589 net.cpp:481] res2b_branch2b_relu <- res2b_branch2b
I0828 16:10:17.107161 22589 net.cpp:442] res2b_branch2b_relu -> res2b_branch2b (in-place)
I0828 16:10:17.107164 22589 net.cpp:190] Setting up res2b_branch2b_relu
I0828 16:10:17.107167 22589 net.cpp:197] Top shape: 1 64 56 56 (200704)
I0828 16:10:17.107170 22589 net.cpp:205] Memory required for data: 48570372
I0828 16:10:17.107172 22589 layer_factory.hpp:123] Creating layer res2b_branch2b_fixed
I0828 16:10:17.107177 22589 net.cpp:140] Creating Layer res2b_branch2b_fixed
I0828 16:10:17.107178 22589 net.cpp:481] res2b_branch2b_fixed <- res2b_branch2b
I0828 16:10:17.107182 22589 net.cpp:442] res2b_branch2b_fixed -> res2b_branch2b (in-place)
I0828 16:10:17.107201 22589 net.cpp:190] Setting up res2b_branch2b_fixed
I0828 16:10:17.107205 22589 net.cpp:197] Top shape: 1 64 56 56 (200704)
I0828 16:10:17.107208 22589 net.cpp:205] Memory required for data: 49373188
I0828 16:10:17.107210 22589 layer_factory.hpp:123] Creating layer res2b_branch2c
I0828 16:10:17.107216 22589 net.cpp:140] Creating Layer res2b_branch2c
I0828 16:10:17.107218 22589 net.cpp:481] res2b_branch2c <- res2b_branch2b
I0828 16:10:17.107223 22589 net.cpp:455] res2b_branch2c -> res2b_branch2c
I0828 16:10:17.107419 22589 layer_factory.hpp:123] Creating layer res2b_branch2c
I0828 16:10:17.107667 22589 net.cpp:190] Setting up res2b_branch2c
I0828 16:10:17.107673 22589 net.cpp:197] Top shape: 1 256 56 56 (802816)
I0828 16:10:17.107688 22589 net.cpp:205] Memory required for data: 52584452
I0828 16:10:17.107692 22589 layer_factory.hpp:123] Creating layer res2b_branch2c_fixed
I0828 16:10:17.107697 22589 net.cpp:140] Creating Layer res2b_branch2c_fixed
I0828 16:10:17.107699 22589 net.cpp:481] res2b_branch2c_fixed <- res2b_branch2c
I0828 16:10:17.107703 22589 net.cpp:442] res2b_branch2c_fixed -> res2b_branch2c (in-place)
I0828 16:10:17.107722 22589 net.cpp:190] Setting up res2b_branch2c_fixed
I0828 16:10:17.107739 22589 net.cpp:197] Top shape: 1 256 56 56 (802816)
I0828 16:10:17.107743 22589 net.cpp:205] Memory required for data: 55795716
I0828 16:10:17.107744 22589 layer_factory.hpp:123] Creating layer res2b
I0828 16:10:17.107749 22589 net.cpp:140] Creating Layer res2b
I0828 16:10:17.107753 22589 net.cpp:481] res2b <- res2a_res2a_fixed_0_split_1
I0828 16:10:17.107755 22589 net.cpp:481] res2b <- res2b_branch2c
I0828 16:10:17.107758 22589 net.cpp:455] res2b -> res2b
I0828 16:10:17.107772 22589 net.cpp:190] Setting up res2b
I0828 16:10:17.107776 22589 net.cpp:197] Top shape: 1 256 56 56 (802816)
I0828 16:10:17.107779 22589 net.cpp:205] Memory required for data: 59006980
I0828 16:10:17.107781 22589 layer_factory.hpp:123] Creating layer res2b_relu
I0828 16:10:17.107784 22589 net.cpp:140] Creating Layer res2b_relu
I0828 16:10:17.107787 22589 net.cpp:481] res2b_relu <- res2b
I0828 16:10:17.107790 22589 net.cpp:442] res2b_relu -> res2b (in-place)
I0828 16:10:17.107795 22589 net.cpp:190] Setting up res2b_relu
I0828 16:10:17.107797 22589 net.cpp:197] Top shape: 1 256 56 56 (802816)
I0828 16:10:17.107800 22589 net.cpp:205] Memory required for data: 62218244
I0828 16:10:17.107801 22589 layer_factory.hpp:123] Creating layer res2b_fixed
I0828 16:10:17.107805 22589 net.cpp:140] Creating Layer res2b_fixed
I0828 16:10:17.107807 22589 net.cpp:481] res2b_fixed <- res2b
I0828 16:10:17.107810 22589 net.cpp:442] res2b_fixed -> res2b (in-place)
I0828 16:10:17.107828 22589 net.cpp:190] Setting up res2b_fixed
I0828 16:10:17.107831 22589 net.cpp:197] Top shape: 1 256 56 56 (802816)
I0828 16:10:17.107833 22589 net.cpp:205] Memory required for data: 65429508
I0828 16:10:17.107837 22589 layer_factory.hpp:123] Creating layer res2b_res2b_fixed_0_split
I0828 16:10:17.107841 22589 net.cpp:140] Creating Layer res2b_res2b_fixed_0_split
I0828 16:10:17.107843 22589 net.cpp:481] res2b_res2b_fixed_0_split <- res2b
I0828 16:10:17.107847 22589 net.cpp:455] res2b_res2b_fixed_0_split -> res2b_res2b_fixed_0_split_0
I0828 16:10:17.107867 22589 net.cpp:455] res2b_res2b_fixed_0_split -> res2b_res2b_fixed_0_split_1
I0828 16:10:17.107885 22589 net.cpp:190] Setting up res2b_res2b_fixed_0_split
I0828 16:10:17.107888 22589 net.cpp:197] Top shape: 1 256 56 56 (802816)
I0828 16:10:17.107904 22589 net.cpp:197] Top shape: 1 256 56 56 (802816)
I0828 16:10:17.107908 22589 net.cpp:205] Memory required for data: 71852036
I0828 16:10:17.107909 22589 layer_factory.hpp:123] Creating layer res2c_branch2a
I0828 16:10:17.107915 22589 net.cpp:140] Creating Layer res2c_branch2a
I0828 16:10:17.107918 22589 net.cpp:481] res2c_branch2a <- res2b_res2b_fixed_0_split_0
I0828 16:10:17.107921 22589 net.cpp:455] res2c_branch2a -> res2c_branch2a
I0828 16:10:17.108148 22589 layer_factory.hpp:123] Creating layer res2c_branch2a
I0828 16:10:17.108392 22589 net.cpp:190] Setting up res2c_branch2a
I0828 16:10:17.108397 22589 net.cpp:197] Top shape: 1 64 56 56 (200704)
I0828 16:10:17.108398 22589 net.cpp:205] Memory required for data: 72654852
I0828 16:10:17.108402 22589 layer_factory.hpp:123] Creating layer res2c_branch2a_relu
I0828 16:10:17.108407 22589 net.cpp:140] Creating Layer res2c_branch2a_relu
I0828 16:10:17.108408 22589 net.cpp:481] res2c_branch2a_relu <- res2c_branch2a
I0828 16:10:17.108412 22589 net.cpp:442] res2c_branch2a_relu -> res2c_branch2a (in-place)
I0828 16:10:17.108417 22589 net.cpp:190] Setting up res2c_branch2a_relu
I0828 16:10:17.108419 22589 net.cpp:197] Top shape: 1 64 56 56 (200704)
I0828 16:10:17.108422 22589 net.cpp:205] Memory required for data: 73457668
I0828 16:10:17.108424 22589 layer_factory.hpp:123] Creating layer res2c_branch2a_fixed
I0828 16:10:17.108428 22589 net.cpp:140] Creating Layer res2c_branch2a_fixed
I0828 16:10:17.108430 22589 net.cpp:481] res2c_branch2a_fixed <- res2c_branch2a
I0828 16:10:17.108433 22589 net.cpp:442] res2c_branch2a_fixed -> res2c_branch2a (in-place)
I0828 16:10:17.108453 22589 net.cpp:190] Setting up res2c_branch2a_fixed
I0828 16:10:17.108456 22589 net.cpp:197] Top shape: 1 64 56 56 (200704)
I0828 16:10:17.108459 22589 net.cpp:205] Memory required for data: 74260484
I0828 16:10:17.108462 22589 layer_factory.hpp:123] Creating layer res2c_branch2b
I0828 16:10:17.108467 22589 net.cpp:140] Creating Layer res2c_branch2b
I0828 16:10:17.108469 22589 net.cpp:481] res2c_branch2b <- res2c_branch2a
I0828 16:10:17.108472 22589 net.cpp:455] res2c_branch2b -> res2c_branch2b
I0828 16:10:17.108733 22589 layer_factory.hpp:123] Creating layer res2c_branch2b
I0828 16:10:17.109417 22589 net.cpp:190] Setting up res2c_branch2b
I0828 16:10:17.109426 22589 net.cpp:197] Top shape: 1 64 56 56 (200704)
I0828 16:10:17.109428 22589 net.cpp:205] Memory required for data: 75063300
I0828 16:10:17.109432 22589 layer_factory.hpp:123] Creating layer res2c_branch2b_relu
I0828 16:10:17.109437 22589 net.cpp:140] Creating Layer res2c_branch2b_relu
I0828 16:10:17.109441 22589 net.cpp:481] res2c_branch2b_relu <- res2c_branch2b
I0828 16:10:17.109444 22589 net.cpp:442] res2c_branch2b_relu -> res2c_branch2b (in-place)
I0828 16:10:17.109449 22589 net.cpp:190] Setting up res2c_branch2b_relu
I0828 16:10:17.109453 22589 net.cpp:197] Top shape: 1 64 56 56 (200704)
I0828 16:10:17.109455 22589 net.cpp:205] Memory required for data: 75866116
I0828 16:10:17.109457 22589 layer_factory.hpp:123] Creating layer res2c_branch2b_fixed
I0828 16:10:17.109462 22589 net.cpp:140] Creating Layer res2c_branch2b_fixed
I0828 16:10:17.109464 22589 net.cpp:481] res2c_branch2b_fixed <- res2c_branch2b
I0828 16:10:17.109467 22589 net.cpp:442] res2c_branch2b_fixed -> res2c_branch2b (in-place)
I0828 16:10:17.109488 22589 net.cpp:190] Setting up res2c_branch2b_fixed
I0828 16:10:17.109505 22589 net.cpp:197] Top shape: 1 64 56 56 (200704)
I0828 16:10:17.109508 22589 net.cpp:205] Memory required for data: 76668932
I0828 16:10:17.109513 22589 layer_factory.hpp:123] Creating layer res2c_branch2c
I0828 16:10:17.109519 22589 net.cpp:140] Creating Layer res2c_branch2c
I0828 16:10:17.109521 22589 net.cpp:481] res2c_branch2c <- res2c_branch2b
I0828 16:10:17.109525 22589 net.cpp:455] res2c_branch2c -> res2c_branch2c
I0828 16:10:17.109707 22589 layer_factory.hpp:123] Creating layer res2c_branch2c
I0828 16:10:17.109985 22589 net.cpp:190] Setting up res2c_branch2c
I0828 16:10:17.109990 22589 net.cpp:197] Top shape: 1 256 56 56 (802816)
I0828 16:10:17.109993 22589 net.cpp:205] Memory required for data: 79880196
I0828 16:10:17.109997 22589 layer_factory.hpp:123] Creating layer res2c_branch2c_fixed
I0828 16:10:17.110002 22589 net.cpp:140] Creating Layer res2c_branch2c_fixed
I0828 16:10:17.110004 22589 net.cpp:481] res2c_branch2c_fixed <- res2c_branch2c
I0828 16:10:17.110008 22589 net.cpp:442] res2c_branch2c_fixed -> res2c_branch2c (in-place)
I0828 16:10:17.110045 22589 net.cpp:190] Setting up res2c_branch2c_fixed
I0828 16:10:17.110049 22589 net.cpp:197] Top shape: 1 256 56 56 (802816)
I0828 16:10:17.110052 22589 net.cpp:205] Memory required for data: 83091460
I0828 16:10:17.110069 22589 layer_factory.hpp:123] Creating layer res2c
I0828 16:10:17.110072 22589 net.cpp:140] Creating Layer res2c
I0828 16:10:17.110075 22589 net.cpp:481] res2c <- res2b_res2b_fixed_0_split_1
I0828 16:10:17.110078 22589 net.cpp:481] res2c <- res2c_branch2c
I0828 16:10:17.110082 22589 net.cpp:455] res2c -> res2c
I0828 16:10:17.110095 22589 net.cpp:190] Setting up res2c
I0828 16:10:17.110098 22589 net.cpp:197] Top shape: 1 256 56 56 (802816)
I0828 16:10:17.110101 22589 net.cpp:205] Memory required for data: 86302724
I0828 16:10:17.110103 22589 layer_factory.hpp:123] Creating layer res2c_relu
I0828 16:10:17.110107 22589 net.cpp:140] Creating Layer res2c_relu
I0828 16:10:17.110110 22589 net.cpp:481] res2c_relu <- res2c
I0828 16:10:17.110112 22589 net.cpp:442] res2c_relu -> res2c (in-place)
I0828 16:10:17.110117 22589 net.cpp:190] Setting up res2c_relu
I0828 16:10:17.110121 22589 net.cpp:197] Top shape: 1 256 56 56 (802816)
I0828 16:10:17.110122 22589 net.cpp:205] Memory required for data: 89513988
I0828 16:10:17.110124 22589 layer_factory.hpp:123] Creating layer res2c_fixed
I0828 16:10:17.110128 22589 net.cpp:140] Creating Layer res2c_fixed
I0828 16:10:17.110131 22589 net.cpp:481] res2c_fixed <- res2c
I0828 16:10:17.110133 22589 net.cpp:442] res2c_fixed -> res2c (in-place)
I0828 16:10:17.110164 22589 net.cpp:190] Setting up res2c_fixed
I0828 16:10:17.110168 22589 net.cpp:197] Top shape: 1 256 56 56 (802816)
I0828 16:10:17.110170 22589 net.cpp:205] Memory required for data: 92725252
I0828 16:10:17.110173 22589 layer_factory.hpp:123] Creating layer res2c_res2c_fixed_0_split
I0828 16:10:17.110177 22589 net.cpp:140] Creating Layer res2c_res2c_fixed_0_split
I0828 16:10:17.110179 22589 net.cpp:481] res2c_res2c_fixed_0_split <- res2c
I0828 16:10:17.110183 22589 net.cpp:455] res2c_res2c_fixed_0_split -> res2c_res2c_fixed_0_split_0
I0828 16:10:17.110186 22589 net.cpp:455] res2c_res2c_fixed_0_split -> res2c_res2c_fixed_0_split_1
I0828 16:10:17.110205 22589 net.cpp:190] Setting up res2c_res2c_fixed_0_split
I0828 16:10:17.110209 22589 net.cpp:197] Top shape: 1 256 56 56 (802816)
I0828 16:10:17.110213 22589 net.cpp:197] Top shape: 1 256 56 56 (802816)
I0828 16:10:17.110214 22589 net.cpp:205] Memory required for data: 99147780
I0828 16:10:17.110216 22589 layer_factory.hpp:123] Creating layer res3a_branch1
I0828 16:10:17.110221 22589 net.cpp:140] Creating Layer res3a_branch1
I0828 16:10:17.110224 22589 net.cpp:481] res3a_branch1 <- res2c_res2c_fixed_0_split_0
I0828 16:10:17.110229 22589 net.cpp:455] res3a_branch1 -> res3a_branch1
I0828 16:10:17.111240 22589 layer_factory.hpp:123] Creating layer res3a_branch1
I0828 16:10:17.112335 22589 net.cpp:190] Setting up res3a_branch1
I0828 16:10:17.112344 22589 net.cpp:197] Top shape: 1 512 28 28 (401408)
I0828 16:10:17.112346 22589 net.cpp:205] Memory required for data: 100753412
I0828 16:10:17.112351 22589 layer_factory.hpp:123] Creating layer res3a_branch1_fixed
I0828 16:10:17.112370 22589 net.cpp:140] Creating Layer res3a_branch1_fixed
I0828 16:10:17.112372 22589 net.cpp:481] res3a_branch1_fixed <- res3a_branch1
I0828 16:10:17.112375 22589 net.cpp:442] res3a_branch1_fixed -> res3a_branch1 (in-place)
I0828 16:10:17.112411 22589 net.cpp:190] Setting up res3a_branch1_fixed
I0828 16:10:17.112414 22589 net.cpp:197] Top shape: 1 512 28 28 (401408)
I0828 16:10:17.112417 22589 net.cpp:205] Memory required for data: 102359044
I0828 16:10:17.112433 22589 layer_factory.hpp:123] Creating layer res3a_branch2a
I0828 16:10:17.112438 22589 net.cpp:140] Creating Layer res3a_branch2a
I0828 16:10:17.112442 22589 net.cpp:481] res3a_branch2a <- res2c_res2c_fixed_0_split_1
I0828 16:10:17.112447 22589 net.cpp:455] res3a_branch2a -> res3a_branch2a
I0828 16:10:17.112674 22589 layer_factory.hpp:123] Creating layer res3a_branch2a
I0828 16:10:17.113273 22589 net.cpp:190] Setting up res3a_branch2a
I0828 16:10:17.113282 22589 net.cpp:197] Top shape: 1 128 28 28 (100352)
I0828 16:10:17.113286 22589 net.cpp:205] Memory required for data: 102760452
I0828 16:10:17.113289 22589 layer_factory.hpp:123] Creating layer res3a_branch2a_relu
I0828 16:10:17.113294 22589 net.cpp:140] Creating Layer res3a_branch2a_relu
I0828 16:10:17.113297 22589 net.cpp:481] res3a_branch2a_relu <- res3a_branch2a
I0828 16:10:17.113301 22589 net.cpp:442] res3a_branch2a_relu -> res3a_branch2a (in-place)
I0828 16:10:17.113306 22589 net.cpp:190] Setting up res3a_branch2a_relu
I0828 16:10:17.113309 22589 net.cpp:197] Top shape: 1 128 28 28 (100352)
I0828 16:10:17.113312 22589 net.cpp:205] Memory required for data: 103161860
I0828 16:10:17.113314 22589 layer_factory.hpp:123] Creating layer res3a_branch2a_fixed
I0828 16:10:17.113318 22589 net.cpp:140] Creating Layer res3a_branch2a_fixed
I0828 16:10:17.113320 22589 net.cpp:481] res3a_branch2a_fixed <- res3a_branch2a
I0828 16:10:17.113324 22589 net.cpp:442] res3a_branch2a_fixed -> res3a_branch2a (in-place)
I0828 16:10:17.113344 22589 net.cpp:190] Setting up res3a_branch2a_fixed
I0828 16:10:17.113348 22589 net.cpp:197] Top shape: 1 128 28 28 (100352)
I0828 16:10:17.113350 22589 net.cpp:205] Memory required for data: 103563268
I0828 16:10:17.113354 22589 layer_factory.hpp:123] Creating layer res3a_branch2b
I0828 16:10:17.113359 22589 net.cpp:140] Creating Layer res3a_branch2b
I0828 16:10:17.113363 22589 net.cpp:481] res3a_branch2b <- res3a_branch2a
I0828 16:10:17.113365 22589 net.cpp:455] res3a_branch2b -> res3a_branch2b
I0828 16:10:17.114490 22589 layer_factory.hpp:123] Creating layer res3a_branch2b
I0828 16:10:17.115854 22589 net.cpp:190] Setting up res3a_branch2b
I0828 16:10:17.115862 22589 net.cpp:197] Top shape: 1 128 28 28 (100352)
I0828 16:10:17.115865 22589 net.cpp:205] Memory required for data: 103964676
I0828 16:10:17.115870 22589 layer_factory.hpp:123] Creating layer res3a_branch2b_relu
I0828 16:10:17.115875 22589 net.cpp:140] Creating Layer res3a_branch2b_relu
I0828 16:10:17.115878 22589 net.cpp:481] res3a_branch2b_relu <- res3a_branch2b
I0828 16:10:17.115882 22589 net.cpp:442] res3a_branch2b_relu -> res3a_branch2b (in-place)
I0828 16:10:17.115906 22589 net.cpp:190] Setting up res3a_branch2b_relu
I0828 16:10:17.115909 22589 net.cpp:197] Top shape: 1 128 28 28 (100352)
I0828 16:10:17.115911 22589 net.cpp:205] Memory required for data: 104366084
I0828 16:10:17.115913 22589 layer_factory.hpp:123] Creating layer res3a_branch2b_fixed
I0828 16:10:17.115917 22589 net.cpp:140] Creating Layer res3a_branch2b_fixed
I0828 16:10:17.115921 22589 net.cpp:481] res3a_branch2b_fixed <- res3a_branch2b
I0828 16:10:17.115923 22589 net.cpp:442] res3a_branch2b_fixed -> res3a_branch2b (in-place)
I0828 16:10:17.115944 22589 net.cpp:190] Setting up res3a_branch2b_fixed
I0828 16:10:17.115949 22589 net.cpp:197] Top shape: 1 128 28 28 (100352)
I0828 16:10:17.115952 22589 net.cpp:205] Memory required for data: 104767492
I0828 16:10:17.115954 22589 layer_factory.hpp:123] Creating layer res3a_branch2c
I0828 16:10:17.115960 22589 net.cpp:140] Creating Layer res3a_branch2c
I0828 16:10:17.115962 22589 net.cpp:481] res3a_branch2c <- res3a_branch2b
I0828 16:10:17.115967 22589 net.cpp:455] res3a_branch2c -> res3a_branch2c
I0828 16:10:17.116396 22589 layer_factory.hpp:123] Creating layer res3a_branch2c
I0828 16:10:17.116878 22589 net.cpp:190] Setting up res3a_branch2c
I0828 16:10:17.116884 22589 net.cpp:197] Top shape: 1 512 28 28 (401408)
I0828 16:10:17.116886 22589 net.cpp:205] Memory required for data: 106373124
I0828 16:10:17.116890 22589 layer_factory.hpp:123] Creating layer res3a_branch2c_fixed
I0828 16:10:17.116894 22589 net.cpp:140] Creating Layer res3a_branch2c_fixed
I0828 16:10:17.116899 22589 net.cpp:481] res3a_branch2c_fixed <- res3a_branch2c
I0828 16:10:17.116902 22589 net.cpp:442] res3a_branch2c_fixed -> res3a_branch2c (in-place)
I0828 16:10:17.116925 22589 net.cpp:190] Setting up res3a_branch2c_fixed
I0828 16:10:17.116945 22589 net.cpp:197] Top shape: 1 512 28 28 (401408)
I0828 16:10:17.116948 22589 net.cpp:205] Memory required for data: 107978756
I0828 16:10:17.116953 22589 layer_factory.hpp:123] Creating layer res3a
I0828 16:10:17.116961 22589 net.cpp:140] Creating Layer res3a
I0828 16:10:17.116963 22589 net.cpp:481] res3a <- res3a_branch1
I0828 16:10:17.116966 22589 net.cpp:481] res3a <- res3a_branch2c
I0828 16:10:17.116971 22589 net.cpp:455] res3a -> res3a
I0828 16:10:17.116986 22589 net.cpp:190] Setting up res3a
I0828 16:10:17.116989 22589 net.cpp:197] Top shape: 1 512 28 28 (401408)
I0828 16:10:17.116993 22589 net.cpp:205] Memory required for data: 109584388
I0828 16:10:17.116997 22589 layer_factory.hpp:123] Creating layer res3a_relu
I0828 16:10:17.117002 22589 net.cpp:140] Creating Layer res3a_relu
I0828 16:10:17.117005 22589 net.cpp:481] res3a_relu <- res3a
I0828 16:10:17.117009 22589 net.cpp:442] res3a_relu -> res3a (in-place)
I0828 16:10:17.117015 22589 net.cpp:190] Setting up res3a_relu
I0828 16:10:17.117022 22589 net.cpp:197] Top shape: 1 512 28 28 (401408)
I0828 16:10:17.117025 22589 net.cpp:205] Memory required for data: 111190020
I0828 16:10:17.117028 22589 layer_factory.hpp:123] Creating layer res3a_fixed
I0828 16:10:17.117033 22589 net.cpp:140] Creating Layer res3a_fixed
I0828 16:10:17.117038 22589 net.cpp:481] res3a_fixed <- res3a
I0828 16:10:17.117041 22589 net.cpp:442] res3a_fixed -> res3a (in-place)
I0828 16:10:17.117069 22589 net.cpp:190] Setting up res3a_fixed
I0828 16:10:17.117074 22589 net.cpp:197] Top shape: 1 512 28 28 (401408)
I0828 16:10:17.117079 22589 net.cpp:205] Memory required for data: 112795652
I0828 16:10:17.117084 22589 layer_factory.hpp:123] Creating layer res3a_res3a_fixed_0_split
I0828 16:10:17.117087 22589 net.cpp:140] Creating Layer res3a_res3a_fixed_0_split
I0828 16:10:17.117090 22589 net.cpp:481] res3a_res3a_fixed_0_split <- res3a
I0828 16:10:17.117094 22589 net.cpp:455] res3a_res3a_fixed_0_split -> res3a_res3a_fixed_0_split_0
I0828 16:10:17.117099 22589 net.cpp:455] res3a_res3a_fixed_0_split -> res3a_res3a_fixed_0_split_1
I0828 16:10:17.117121 22589 net.cpp:190] Setting up res3a_res3a_fixed_0_split
I0828 16:10:17.117126 22589 net.cpp:197] Top shape: 1 512 28 28 (401408)
I0828 16:10:17.117131 22589 net.cpp:197] Top shape: 1 512 28 28 (401408)
I0828 16:10:17.117135 22589 net.cpp:205] Memory required for data: 116006916
I0828 16:10:17.117138 22589 layer_factory.hpp:123] Creating layer res3b_branch2a
I0828 16:10:17.117146 22589 net.cpp:140] Creating Layer res3b_branch2a
I0828 16:10:17.117151 22589 net.cpp:481] res3b_branch2a <- res3a_res3a_fixed_0_split_0
I0828 16:10:17.117156 22589 net.cpp:455] res3b_branch2a -> res3b_branch2a
I0828 16:10:17.117836 22589 layer_factory.hpp:123] Creating layer res3b_branch2a
I0828 16:10:17.118372 22589 net.cpp:190] Setting up res3b_branch2a
I0828 16:10:17.118379 22589 net.cpp:197] Top shape: 1 128 28 28 (100352)
I0828 16:10:17.118381 22589 net.cpp:205] Memory required for data: 116408324
I0828 16:10:17.118386 22589 layer_factory.hpp:123] Creating layer res3b_branch2a_relu
I0828 16:10:17.118391 22589 net.cpp:140] Creating Layer res3b_branch2a_relu
I0828 16:10:17.118393 22589 net.cpp:481] res3b_branch2a_relu <- res3b_branch2a
I0828 16:10:17.118397 22589 net.cpp:442] res3b_branch2a_relu -> res3b_branch2a (in-place)
I0828 16:10:17.118402 22589 net.cpp:190] Setting up res3b_branch2a_relu
I0828 16:10:17.118407 22589 net.cpp:197] Top shape: 1 128 28 28 (100352)
I0828 16:10:17.118408 22589 net.cpp:205] Memory required for data: 116809732
I0828 16:10:17.118410 22589 layer_factory.hpp:123] Creating layer res3b_branch2a_fixed
I0828 16:10:17.118414 22589 net.cpp:140] Creating Layer res3b_branch2a_fixed
I0828 16:10:17.118417 22589 net.cpp:481] res3b_branch2a_fixed <- res3b_branch2a
I0828 16:10:17.118420 22589 net.cpp:442] res3b_branch2a_fixed -> res3b_branch2a (in-place)
I0828 16:10:17.118441 22589 net.cpp:190] Setting up res3b_branch2a_fixed
I0828 16:10:17.118444 22589 net.cpp:197] Top shape: 1 128 28 28 (100352)
I0828 16:10:17.118448 22589 net.cpp:205] Memory required for data: 117211140
I0828 16:10:17.118450 22589 layer_factory.hpp:123] Creating layer res3b_branch2b
I0828 16:10:17.118456 22589 net.cpp:140] Creating Layer res3b_branch2b
I0828 16:10:17.118458 22589 net.cpp:481] res3b_branch2b <- res3b_branch2a
I0828 16:10:17.118463 22589 net.cpp:455] res3b_branch2b -> res3b_branch2b
I0828 16:10:17.119858 22589 layer_factory.hpp:123] Creating layer res3b_branch2b
I0828 16:10:17.121299 22589 net.cpp:190] Setting up res3b_branch2b
I0828 16:10:17.121307 22589 net.cpp:197] Top shape: 1 128 28 28 (100352)
I0828 16:10:17.121310 22589 net.cpp:205] Memory required for data: 117612548
I0828 16:10:17.121315 22589 layer_factory.hpp:123] Creating layer res3b_branch2b_relu
I0828 16:10:17.121320 22589 net.cpp:140] Creating Layer res3b_branch2b_relu
I0828 16:10:17.121323 22589 net.cpp:481] res3b_branch2b_relu <- res3b_branch2b
I0828 16:10:17.121328 22589 net.cpp:442] res3b_branch2b_relu -> res3b_branch2b (in-place)
I0828 16:10:17.121333 22589 net.cpp:190] Setting up res3b_branch2b_relu
I0828 16:10:17.121336 22589 net.cpp:197] Top shape: 1 128 28 28 (100352)
I0828 16:10:17.121340 22589 net.cpp:205] Memory required for data: 118013956
I0828 16:10:17.121341 22589 layer_factory.hpp:123] Creating layer res3b_branch2b_fixed
I0828 16:10:17.121347 22589 net.cpp:140] Creating Layer res3b_branch2b_fixed
I0828 16:10:17.121349 22589 net.cpp:481] res3b_branch2b_fixed <- res3b_branch2b
I0828 16:10:17.121353 22589 net.cpp:442] res3b_branch2b_fixed -> res3b_branch2b (in-place)
I0828 16:10:17.121374 22589 net.cpp:190] Setting up res3b_branch2b_fixed
I0828 16:10:17.121377 22589 net.cpp:197] Top shape: 1 128 28 28 (100352)
I0828 16:10:17.121381 22589 net.cpp:205] Memory required for data: 118415364
I0828 16:10:17.121383 22589 layer_factory.hpp:123] Creating layer res3b_branch2c
I0828 16:10:17.121390 22589 net.cpp:140] Creating Layer res3b_branch2c
I0828 16:10:17.121392 22589 net.cpp:481] res3b_branch2c <- res3b_branch2b
I0828 16:10:17.121397 22589 net.cpp:455] res3b_branch2c -> res3b_branch2c
I0828 16:10:17.121834 22589 layer_factory.hpp:123] Creating layer res3b_branch2c
I0828 16:10:17.122267 22589 net.cpp:190] Setting up res3b_branch2c
I0828 16:10:17.122272 22589 net.cpp:197] Top shape: 1 512 28 28 (401408)
I0828 16:10:17.122275 22589 net.cpp:205] Memory required for data: 120020996
I0828 16:10:17.122279 22589 layer_factory.hpp:123] Creating layer res3b_branch2c_fixed
I0828 16:10:17.122283 22589 net.cpp:140] Creating Layer res3b_branch2c_fixed
I0828 16:10:17.122287 22589 net.cpp:481] res3b_branch2c_fixed <- res3b_branch2c
I0828 16:10:17.122289 22589 net.cpp:442] res3b_branch2c_fixed -> res3b_branch2c (in-place)
I0828 16:10:17.122309 22589 net.cpp:190] Setting up res3b_branch2c_fixed
I0828 16:10:17.122313 22589 net.cpp:197] Top shape: 1 512 28 28 (401408)
I0828 16:10:17.122316 22589 net.cpp:205] Memory required for data: 121626628
I0828 16:10:17.122319 22589 layer_factory.hpp:123] Creating layer res3b
I0828 16:10:17.122323 22589 net.cpp:140] Creating Layer res3b
I0828 16:10:17.122326 22589 net.cpp:481] res3b <- res3a_res3a_fixed_0_split_1
I0828 16:10:17.122329 22589 net.cpp:481] res3b <- res3b_branch2c
I0828 16:10:17.122334 22589 net.cpp:455] res3b -> res3b
I0828 16:10:17.122345 22589 net.cpp:190] Setting up res3b
I0828 16:10:17.122349 22589 net.cpp:197] Top shape: 1 512 28 28 (401408)
I0828 16:10:17.122352 22589 net.cpp:205] Memory required for data: 123232260
I0828 16:10:17.122354 22589 layer_factory.hpp:123] Creating layer res3b_relu
I0828 16:10:17.122357 22589 net.cpp:140] Creating Layer res3b_relu
I0828 16:10:17.122360 22589 net.cpp:481] res3b_relu <- res3b
I0828 16:10:17.122364 22589 net.cpp:442] res3b_relu -> res3b (in-place)
I0828 16:10:17.122367 22589 net.cpp:190] Setting up res3b_relu
I0828 16:10:17.122370 22589 net.cpp:197] Top shape: 1 512 28 28 (401408)
I0828 16:10:17.122373 22589 net.cpp:205] Memory required for data: 124837892
I0828 16:10:17.122375 22589 layer_factory.hpp:123] Creating layer res3b_fixed
I0828 16:10:17.122378 22589 net.cpp:140] Creating Layer res3b_fixed
I0828 16:10:17.122380 22589 net.cpp:481] res3b_fixed <- res3b
I0828 16:10:17.122385 22589 net.cpp:442] res3b_fixed -> res3b (in-place)
I0828 16:10:17.122402 22589 net.cpp:190] Setting up res3b_fixed
I0828 16:10:17.122406 22589 net.cpp:197] Top shape: 1 512 28 28 (401408)
I0828 16:10:17.122407 22589 net.cpp:205] Memory required for data: 126443524
I0828 16:10:17.122411 22589 layer_factory.hpp:123] Creating layer res3b_res3b_fixed_0_split
I0828 16:10:17.122414 22589 net.cpp:140] Creating Layer res3b_res3b_fixed_0_split
I0828 16:10:17.122416 22589 net.cpp:481] res3b_res3b_fixed_0_split <- res3b
I0828 16:10:17.122421 22589 net.cpp:455] res3b_res3b_fixed_0_split -> res3b_res3b_fixed_0_split_0
I0828 16:10:17.122424 22589 net.cpp:455] res3b_res3b_fixed_0_split -> res3b_res3b_fixed_0_split_1
I0828 16:10:17.122443 22589 net.cpp:190] Setting up res3b_res3b_fixed_0_split
I0828 16:10:17.122447 22589 net.cpp:197] Top shape: 1 512 28 28 (401408)
I0828 16:10:17.122450 22589 net.cpp:197] Top shape: 1 512 28 28 (401408)
I0828 16:10:17.122452 22589 net.cpp:205] Memory required for data: 129654788
I0828 16:10:17.122454 22589 layer_factory.hpp:123] Creating layer res3c_branch2a
I0828 16:10:17.122462 22589 net.cpp:140] Creating Layer res3c_branch2a
I0828 16:10:17.122464 22589 net.cpp:481] res3c_branch2a <- res3b_res3b_fixed_0_split_0
I0828 16:10:17.122468 22589 net.cpp:455] res3c_branch2a -> res3c_branch2a
I0828 16:10:17.123190 22589 layer_factory.hpp:123] Creating layer res3c_branch2a
I0828 16:10:17.123668 22589 net.cpp:190] Setting up res3c_branch2a
I0828 16:10:17.123674 22589 net.cpp:197] Top shape: 1 128 28 28 (100352)
I0828 16:10:17.123677 22589 net.cpp:205] Memory required for data: 130056196
I0828 16:10:17.123697 22589 layer_factory.hpp:123] Creating layer res3c_branch2a_relu
I0828 16:10:17.123700 22589 net.cpp:140] Creating Layer res3c_branch2a_relu
I0828 16:10:17.123703 22589 net.cpp:481] res3c_branch2a_relu <- res3c_branch2a
I0828 16:10:17.123708 22589 net.cpp:442] res3c_branch2a_relu -> res3c_branch2a (in-place)
I0828 16:10:17.123713 22589 net.cpp:190] Setting up res3c_branch2a_relu
I0828 16:10:17.123716 22589 net.cpp:197] Top shape: 1 128 28 28 (100352)
I0828 16:10:17.123718 22589 net.cpp:205] Memory required for data: 130457604
I0828 16:10:17.123721 22589 layer_factory.hpp:123] Creating layer res3c_branch2a_fixed
I0828 16:10:17.123737 22589 net.cpp:140] Creating Layer res3c_branch2a_fixed
I0828 16:10:17.123740 22589 net.cpp:481] res3c_branch2a_fixed <- res3c_branch2a
I0828 16:10:17.123744 22589 net.cpp:442] res3c_branch2a_fixed -> res3c_branch2a (in-place)
I0828 16:10:17.123764 22589 net.cpp:190] Setting up res3c_branch2a_fixed
I0828 16:10:17.123767 22589 net.cpp:197] Top shape: 1 128 28 28 (100352)
I0828 16:10:17.123770 22589 net.cpp:205] Memory required for data: 130859012
I0828 16:10:17.123773 22589 layer_factory.hpp:123] Creating layer res3c_branch2b
I0828 16:10:17.123780 22589 net.cpp:140] Creating Layer res3c_branch2b
I0828 16:10:17.123782 22589 net.cpp:481] res3c_branch2b <- res3c_branch2a
I0828 16:10:17.123785 22589 net.cpp:455] res3c_branch2b -> res3c_branch2b
I0828 16:10:17.125021 22589 layer_factory.hpp:123] Creating layer res3c_branch2b
I0828 16:10:17.126436 22589 net.cpp:190] Setting up res3c_branch2b
I0828 16:10:17.126447 22589 net.cpp:197] Top shape: 1 128 28 28 (100352)
I0828 16:10:17.126451 22589 net.cpp:205] Memory required for data: 131260420
I0828 16:10:17.126461 22589 layer_factory.hpp:123] Creating layer res3c_branch2b_relu
I0828 16:10:17.126467 22589 net.cpp:140] Creating Layer res3c_branch2b_relu
I0828 16:10:17.126471 22589 net.cpp:481] res3c_branch2b_relu <- res3c_branch2b
I0828 16:10:17.126475 22589 net.cpp:442] res3c_branch2b_relu -> res3c_branch2b (in-place)
I0828 16:10:17.126480 22589 net.cpp:190] Setting up res3c_branch2b_relu
I0828 16:10:17.126484 22589 net.cpp:197] Top shape: 1 128 28 28 (100352)
I0828 16:10:17.126487 22589 net.cpp:205] Memory required for data: 131661828
I0828 16:10:17.126489 22589 layer_factory.hpp:123] Creating layer res3c_branch2b_fixed
I0828 16:10:17.126492 22589 net.cpp:140] Creating Layer res3c_branch2b_fixed
I0828 16:10:17.126495 22589 net.cpp:481] res3c_branch2b_fixed <- res3c_branch2b
I0828 16:10:17.126498 22589 net.cpp:442] res3c_branch2b_fixed -> res3c_branch2b (in-place)
I0828 16:10:17.126523 22589 net.cpp:190] Setting up res3c_branch2b_fixed
I0828 16:10:17.126529 22589 net.cpp:197] Top shape: 1 128 28 28 (100352)
I0828 16:10:17.126531 22589 net.cpp:205] Memory required for data: 132063236
I0828 16:10:17.126536 22589 layer_factory.hpp:123] Creating layer res3c_branch2c
I0828 16:10:17.126544 22589 net.cpp:140] Creating Layer res3c_branch2c
I0828 16:10:17.126549 22589 net.cpp:481] res3c_branch2c <- res3c_branch2b
I0828 16:10:17.126554 22589 net.cpp:455] res3c_branch2c -> res3c_branch2c
I0828 16:10:17.126971 22589 layer_factory.hpp:123] Creating layer res3c_branch2c
I0828 16:10:17.127461 22589 net.cpp:190] Setting up res3c_branch2c
I0828 16:10:17.127468 22589 net.cpp:197] Top shape: 1 512 28 28 (401408)
I0828 16:10:17.127471 22589 net.cpp:205] Memory required for data: 133668868
I0828 16:10:17.127490 22589 layer_factory.hpp:123] Creating layer res3c_branch2c_fixed
I0828 16:10:17.127493 22589 net.cpp:140] Creating Layer res3c_branch2c_fixed
I0828 16:10:17.127498 22589 net.cpp:481] res3c_branch2c_fixed <- res3c_branch2c
I0828 16:10:17.127504 22589 net.cpp:442] res3c_branch2c_fixed -> res3c_branch2c (in-place)
I0828 16:10:17.127542 22589 net.cpp:190] Setting up res3c_branch2c_fixed
I0828 16:10:17.127547 22589 net.cpp:197] Top shape: 1 512 28 28 (401408)
I0828 16:10:17.127549 22589 net.cpp:205] Memory required for data: 135274500
I0828 16:10:17.127554 22589 layer_factory.hpp:123] Creating layer res3c
I0828 16:10:17.127562 22589 net.cpp:140] Creating Layer res3c
I0828 16:10:17.127565 22589 net.cpp:481] res3c <- res3b_res3b_fixed_0_split_1
I0828 16:10:17.127569 22589 net.cpp:481] res3c <- res3c_branch2c
I0828 16:10:17.127574 22589 net.cpp:455] res3c -> res3c
I0828 16:10:17.127590 22589 net.cpp:190] Setting up res3c
I0828 16:10:17.127595 22589 net.cpp:197] Top shape: 1 512 28 28 (401408)
I0828 16:10:17.127599 22589 net.cpp:205] Memory required for data: 136880132
I0828 16:10:17.127602 22589 layer_factory.hpp:123] Creating layer res3c_relu
I0828 16:10:17.127621 22589 net.cpp:140] Creating Layer res3c_relu
I0828 16:10:17.127624 22589 net.cpp:481] res3c_relu <- res3c
I0828 16:10:17.127627 22589 net.cpp:442] res3c_relu -> res3c (in-place)
I0828 16:10:17.127632 22589 net.cpp:190] Setting up res3c_relu
I0828 16:10:17.127635 22589 net.cpp:197] Top shape: 1 512 28 28 (401408)
I0828 16:10:17.127637 22589 net.cpp:205] Memory required for data: 138485764
I0828 16:10:17.127640 22589 layer_factory.hpp:123] Creating layer res3c_fixed
I0828 16:10:17.127645 22589 net.cpp:140] Creating Layer res3c_fixed
I0828 16:10:17.127646 22589 net.cpp:481] res3c_fixed <- res3c
I0828 16:10:17.127650 22589 net.cpp:442] res3c_fixed -> res3c (in-place)
I0828 16:10:17.127671 22589 net.cpp:190] Setting up res3c_fixed
I0828 16:10:17.127676 22589 net.cpp:197] Top shape: 1 512 28 28 (401408)
I0828 16:10:17.127677 22589 net.cpp:205] Memory required for data: 140091396
I0828 16:10:17.127681 22589 layer_factory.hpp:123] Creating layer res3c_res3c_fixed_0_split
I0828 16:10:17.127686 22589 net.cpp:140] Creating Layer res3c_res3c_fixed_0_split
I0828 16:10:17.127687 22589 net.cpp:481] res3c_res3c_fixed_0_split <- res3c
I0828 16:10:17.127691 22589 net.cpp:455] res3c_res3c_fixed_0_split -> res3c_res3c_fixed_0_split_0
I0828 16:10:17.127696 22589 net.cpp:455] res3c_res3c_fixed_0_split -> res3c_res3c_fixed_0_split_1
I0828 16:10:17.127717 22589 net.cpp:190] Setting up res3c_res3c_fixed_0_split
I0828 16:10:17.127722 22589 net.cpp:197] Top shape: 1 512 28 28 (401408)
I0828 16:10:17.127724 22589 net.cpp:197] Top shape: 1 512 28 28 (401408)
I0828 16:10:17.127727 22589 net.cpp:205] Memory required for data: 143302660
I0828 16:10:17.127729 22589 layer_factory.hpp:123] Creating layer res3d_branch2a
I0828 16:10:17.127735 22589 net.cpp:140] Creating Layer res3d_branch2a
I0828 16:10:17.127738 22589 net.cpp:481] res3d_branch2a <- res3c_res3c_fixed_0_split_0
I0828 16:10:17.127743 22589 net.cpp:455] res3d_branch2a -> res3d_branch2a
I0828 16:10:17.128382 22589 layer_factory.hpp:123] Creating layer res3d_branch2a
I0828 16:10:17.128841 22589 net.cpp:190] Setting up res3d_branch2a
I0828 16:10:17.128847 22589 net.cpp:197] Top shape: 1 128 28 28 (100352)
I0828 16:10:17.128850 22589 net.cpp:205] Memory required for data: 143704068
I0828 16:10:17.128854 22589 layer_factory.hpp:123] Creating layer res3d_branch2a_relu
I0828 16:10:17.128859 22589 net.cpp:140] Creating Layer res3d_branch2a_relu
I0828 16:10:17.128862 22589 net.cpp:481] res3d_branch2a_relu <- res3d_branch2a
I0828 16:10:17.128866 22589 net.cpp:442] res3d_branch2a_relu -> res3d_branch2a (in-place)
I0828 16:10:17.128871 22589 net.cpp:190] Setting up res3d_branch2a_relu
I0828 16:10:17.128875 22589 net.cpp:197] Top shape: 1 128 28 28 (100352)
I0828 16:10:17.128877 22589 net.cpp:205] Memory required for data: 144105476
I0828 16:10:17.128880 22589 layer_factory.hpp:123] Creating layer res3d_branch2a_fixed
I0828 16:10:17.128882 22589 net.cpp:140] Creating Layer res3d_branch2a_fixed
I0828 16:10:17.128885 22589 net.cpp:481] res3d_branch2a_fixed <- res3d_branch2a
I0828 16:10:17.128888 22589 net.cpp:442] res3d_branch2a_fixed -> res3d_branch2a (in-place)
I0828 16:10:17.128916 22589 net.cpp:190] Setting up res3d_branch2a_fixed
I0828 16:10:17.128919 22589 net.cpp:197] Top shape: 1 128 28 28 (100352)
I0828 16:10:17.128922 22589 net.cpp:205] Memory required for data: 144506884
I0828 16:10:17.128926 22589 layer_factory.hpp:123] Creating layer res3d_branch2b
I0828 16:10:17.128931 22589 net.cpp:140] Creating Layer res3d_branch2b
I0828 16:10:17.128934 22589 net.cpp:481] res3d_branch2b <- res3d_branch2a
I0828 16:10:17.128939 22589 net.cpp:455] res3d_branch2b -> res3d_branch2b
I0828 16:10:17.130220 22589 layer_factory.hpp:123] Creating layer res3d_branch2b
I0828 16:10:17.131661 22589 net.cpp:190] Setting up res3d_branch2b
I0828 16:10:17.131672 22589 net.cpp:197] Top shape: 1 128 28 28 (100352)
I0828 16:10:17.131675 22589 net.cpp:205] Memory required for data: 144908292
I0828 16:10:17.131693 22589 layer_factory.hpp:123] Creating layer res3d_branch2b_relu
I0828 16:10:17.131698 22589 net.cpp:140] Creating Layer res3d_branch2b_relu
I0828 16:10:17.131701 22589 net.cpp:481] res3d_branch2b_relu <- res3d_branch2b
I0828 16:10:17.131706 22589 net.cpp:442] res3d_branch2b_relu -> res3d_branch2b (in-place)
I0828 16:10:17.131711 22589 net.cpp:190] Setting up res3d_branch2b_relu
I0828 16:10:17.131716 22589 net.cpp:197] Top shape: 1 128 28 28 (100352)
I0828 16:10:17.131717 22589 net.cpp:205] Memory required for data: 145309700
I0828 16:10:17.131721 22589 layer_factory.hpp:123] Creating layer res3d_branch2b_fixed
I0828 16:10:17.131723 22589 net.cpp:140] Creating Layer res3d_branch2b_fixed
I0828 16:10:17.131726 22589 net.cpp:481] res3d_branch2b_fixed <- res3d_branch2b
I0828 16:10:17.131729 22589 net.cpp:442] res3d_branch2b_fixed -> res3d_branch2b (in-place)
I0828 16:10:17.131767 22589 net.cpp:190] Setting up res3d_branch2b_fixed
I0828 16:10:17.131772 22589 net.cpp:197] Top shape: 1 128 28 28 (100352)
I0828 16:10:17.131774 22589 net.cpp:205] Memory required for data: 145711108
I0828 16:10:17.131778 22589 layer_factory.hpp:123] Creating layer res3d_branch2c
I0828 16:10:17.131800 22589 net.cpp:140] Creating Layer res3d_branch2c
I0828 16:10:17.131805 22589 net.cpp:481] res3d_branch2c <- res3d_branch2b
I0828 16:10:17.131809 22589 net.cpp:455] res3d_branch2c -> res3d_branch2c
I0828 16:10:17.132179 22589 layer_factory.hpp:123] Creating layer res3d_branch2c
I0828 16:10:17.132635 22589 net.cpp:190] Setting up res3d_branch2c
I0828 16:10:17.132642 22589 net.cpp:197] Top shape: 1 512 28 28 (401408)
I0828 16:10:17.132644 22589 net.cpp:205] Memory required for data: 147316740
I0828 16:10:17.132648 22589 layer_factory.hpp:123] Creating layer res3d_branch2c_fixed
I0828 16:10:17.132665 22589 net.cpp:140] Creating Layer res3d_branch2c_fixed
I0828 16:10:17.132668 22589 net.cpp:481] res3d_branch2c_fixed <- res3d_branch2c
I0828 16:10:17.132673 22589 net.cpp:442] res3d_branch2c_fixed -> res3d_branch2c (in-place)
I0828 16:10:17.132707 22589 net.cpp:190] Setting up res3d_branch2c_fixed
I0828 16:10:17.132712 22589 net.cpp:197] Top shape: 1 512 28 28 (401408)
I0828 16:10:17.132733 22589 net.cpp:205] Memory required for data: 148922372
I0828 16:10:17.132736 22589 layer_factory.hpp:123] Creating layer res3d
I0828 16:10:17.132741 22589 net.cpp:140] Creating Layer res3d
I0828 16:10:17.132757 22589 net.cpp:481] res3d <- res3c_res3c_fixed_0_split_1
I0828 16:10:17.132761 22589 net.cpp:481] res3d <- res3d_branch2c
I0828 16:10:17.132777 22589 net.cpp:455] res3d -> res3d
I0828 16:10:17.132791 22589 net.cpp:190] Setting up res3d
I0828 16:10:17.132795 22589 net.cpp:197] Top shape: 1 512 28 28 (401408)
I0828 16:10:17.132797 22589 net.cpp:205] Memory required for data: 150528004
I0828 16:10:17.132800 22589 layer_factory.hpp:123] Creating layer res3d_relu
I0828 16:10:17.132803 22589 net.cpp:140] Creating Layer res3d_relu
I0828 16:10:17.132807 22589 net.cpp:481] res3d_relu <- res3d
I0828 16:10:17.132822 22589 net.cpp:442] res3d_relu -> res3d (in-place)
I0828 16:10:17.132827 22589 net.cpp:190] Setting up res3d_relu
I0828 16:10:17.132829 22589 net.cpp:197] Top shape: 1 512 28 28 (401408)
I0828 16:10:17.132831 22589 net.cpp:205] Memory required for data: 152133636
I0828 16:10:17.132833 22589 layer_factory.hpp:123] Creating layer res3d_fixed
I0828 16:10:17.132836 22589 net.cpp:140] Creating Layer res3d_fixed
I0828 16:10:17.132839 22589 net.cpp:481] res3d_fixed <- res3d
I0828 16:10:17.132843 22589 net.cpp:442] res3d_fixed -> res3d (in-place)
I0828 16:10:17.132861 22589 net.cpp:190] Setting up res3d_fixed
I0828 16:10:17.132864 22589 net.cpp:197] Top shape: 1 512 28 28 (401408)
I0828 16:10:17.132867 22589 net.cpp:205] Memory required for data: 153739268
I0828 16:10:17.132884 22589 layer_factory.hpp:123] Creating layer res3d_res3d_fixed_0_split
I0828 16:10:17.132887 22589 net.cpp:140] Creating Layer res3d_res3d_fixed_0_split
I0828 16:10:17.132889 22589 net.cpp:481] res3d_res3d_fixed_0_split <- res3d
I0828 16:10:17.132894 22589 net.cpp:455] res3d_res3d_fixed_0_split -> res3d_res3d_fixed_0_split_0
I0828 16:10:17.132912 22589 net.cpp:455] res3d_res3d_fixed_0_split -> res3d_res3d_fixed_0_split_1
I0828 16:10:17.132933 22589 net.cpp:190] Setting up res3d_res3d_fixed_0_split
I0828 16:10:17.132937 22589 net.cpp:197] Top shape: 1 512 28 28 (401408)
I0828 16:10:17.132941 22589 net.cpp:197] Top shape: 1 512 28 28 (401408)
I0828 16:10:17.132956 22589 net.cpp:205] Memory required for data: 156950532
I0828 16:10:17.132958 22589 layer_factory.hpp:123] Creating layer res4a_branch1
I0828 16:10:17.132964 22589 net.cpp:140] Creating Layer res4a_branch1
I0828 16:10:17.132966 22589 net.cpp:481] res4a_branch1 <- res3d_res3d_fixed_0_split_0
I0828 16:10:17.132970 22589 net.cpp:455] res4a_branch1 -> res4a_branch1
I0828 16:10:17.136379 22589 layer_factory.hpp:123] Creating layer res4a_branch1
I0828 16:10:17.139608 22589 net.cpp:190] Setting up res4a_branch1
I0828 16:10:17.139624 22589 net.cpp:197] Top shape: 1 1024 14 14 (200704)
I0828 16:10:17.139627 22589 net.cpp:205] Memory required for data: 157753348
I0828 16:10:17.139633 22589 layer_factory.hpp:123] Creating layer res4a_branch1_fixed
I0828 16:10:17.139638 22589 net.cpp:140] Creating Layer res4a_branch1_fixed
I0828 16:10:17.139642 22589 net.cpp:481] res4a_branch1_fixed <- res4a_branch1
I0828 16:10:17.139647 22589 net.cpp:442] res4a_branch1_fixed -> res4a_branch1 (in-place)
I0828 16:10:17.139672 22589 net.cpp:190] Setting up res4a_branch1_fixed
I0828 16:10:17.139678 22589 net.cpp:197] Top shape: 1 1024 14 14 (200704)
I0828 16:10:17.139683 22589 net.cpp:205] Memory required for data: 158556164
I0828 16:10:17.139688 22589 layer_factory.hpp:123] Creating layer res4a_branch2a
I0828 16:10:17.139696 22589 net.cpp:140] Creating Layer res4a_branch2a
I0828 16:10:17.139700 22589 net.cpp:481] res4a_branch2a <- res3d_res3d_fixed_0_split_1
I0828 16:10:17.139705 22589 net.cpp:455] res4a_branch2a -> res4a_branch2a
I0828 16:10:17.140655 22589 layer_factory.hpp:123] Creating layer res4a_branch2a
I0828 16:10:17.141665 22589 net.cpp:190] Setting up res4a_branch2a
I0828 16:10:17.141674 22589 net.cpp:197] Top shape: 1 256 14 14 (50176)
I0828 16:10:17.141677 22589 net.cpp:205] Memory required for data: 158756868
I0828 16:10:17.141682 22589 layer_factory.hpp:123] Creating layer res4a_branch2a_relu
I0828 16:10:17.141687 22589 net.cpp:140] Creating Layer res4a_branch2a_relu
I0828 16:10:17.141690 22589 net.cpp:481] res4a_branch2a_relu <- res4a_branch2a
I0828 16:10:17.141695 22589 net.cpp:442] res4a_branch2a_relu -> res4a_branch2a (in-place)
I0828 16:10:17.141700 22589 net.cpp:190] Setting up res4a_branch2a_relu
I0828 16:10:17.141703 22589 net.cpp:197] Top shape: 1 256 14 14 (50176)
I0828 16:10:17.141706 22589 net.cpp:205] Memory required for data: 158957572
I0828 16:10:17.141710 22589 layer_factory.hpp:123] Creating layer res4a_branch2a_fixed
I0828 16:10:17.141716 22589 net.cpp:140] Creating Layer res4a_branch2a_fixed
I0828 16:10:17.141719 22589 net.cpp:481] res4a_branch2a_fixed <- res4a_branch2a
I0828 16:10:17.141726 22589 net.cpp:442] res4a_branch2a_fixed -> res4a_branch2a (in-place)
I0828 16:10:17.141752 22589 net.cpp:190] Setting up res4a_branch2a_fixed
I0828 16:10:17.141757 22589 net.cpp:197] Top shape: 1 256 14 14 (50176)
I0828 16:10:17.141759 22589 net.cpp:205] Memory required for data: 159158276
I0828 16:10:17.141763 22589 layer_factory.hpp:123] Creating layer res4a_branch2b
I0828 16:10:17.141772 22589 net.cpp:140] Creating Layer res4a_branch2b
I0828 16:10:17.141777 22589 net.cpp:481] res4a_branch2b <- res4a_branch2a
I0828 16:10:17.141780 22589 net.cpp:455] res4a_branch2b -> res4a_branch2b
I0828 16:10:17.145285 22589 layer_factory.hpp:123] Creating layer res4a_branch2b
I0828 16:10:17.148867 22589 net.cpp:190] Setting up res4a_branch2b
I0828 16:10:17.148900 22589 net.cpp:197] Top shape: 1 256 14 14 (50176)
I0828 16:10:17.148903 22589 net.cpp:205] Memory required for data: 159358980
I0828 16:10:17.148911 22589 layer_factory.hpp:123] Creating layer res4a_branch2b_relu
I0828 16:10:17.148918 22589 net.cpp:140] Creating Layer res4a_branch2b_relu
I0828 16:10:17.148924 22589 net.cpp:481] res4a_branch2b_relu <- res4a_branch2b
I0828 16:10:17.148944 22589 net.cpp:442] res4a_branch2b_relu -> res4a_branch2b (in-place)
I0828 16:10:17.148953 22589 net.cpp:190] Setting up res4a_branch2b_relu
I0828 16:10:17.148959 22589 net.cpp:197] Top shape: 1 256 14 14 (50176)
I0828 16:10:17.148962 22589 net.cpp:205] Memory required for data: 159559684
I0828 16:10:17.148965 22589 layer_factory.hpp:123] Creating layer res4a_branch2b_fixed
I0828 16:10:17.148972 22589 net.cpp:140] Creating Layer res4a_branch2b_fixed
I0828 16:10:17.148977 22589 net.cpp:481] res4a_branch2b_fixed <- res4a_branch2b
I0828 16:10:17.148982 22589 net.cpp:442] res4a_branch2b_fixed -> res4a_branch2b (in-place)
I0828 16:10:17.149008 22589 net.cpp:190] Setting up res4a_branch2b_fixed
I0828 16:10:17.149014 22589 net.cpp:197] Top shape: 1 256 14 14 (50176)
I0828 16:10:17.149016 22589 net.cpp:205] Memory required for data: 159760388
I0828 16:10:17.149020 22589 layer_factory.hpp:123] Creating layer res4a_branch2c
I0828 16:10:17.149029 22589 net.cpp:140] Creating Layer res4a_branch2c
I0828 16:10:17.149034 22589 net.cpp:481] res4a_branch2c <- res4a_branch2b
I0828 16:10:17.149037 22589 net.cpp:455] res4a_branch2c -> res4a_branch2c
I0828 16:10:17.150763 22589 layer_factory.hpp:123] Creating layer res4a_branch2c
I0828 16:10:17.152539 22589 net.cpp:190] Setting up res4a_branch2c
I0828 16:10:17.152550 22589 net.cpp:197] Top shape: 1 1024 14 14 (200704)
I0828 16:10:17.152552 22589 net.cpp:205] Memory required for data: 160563204
I0828 16:10:17.152559 22589 layer_factory.hpp:123] Creating layer res4a_branch2c_fixed
I0828 16:10:17.152563 22589 net.cpp:140] Creating Layer res4a_branch2c_fixed
I0828 16:10:17.152566 22589 net.cpp:481] res4a_branch2c_fixed <- res4a_branch2c
I0828 16:10:17.152570 22589 net.cpp:442] res4a_branch2c_fixed -> res4a_branch2c (in-place)
I0828 16:10:17.152595 22589 net.cpp:190] Setting up res4a_branch2c_fixed
I0828 16:10:17.152601 22589 net.cpp:197] Top shape: 1 1024 14 14 (200704)
I0828 16:10:17.152603 22589 net.cpp:205] Memory required for data: 161366020
I0828 16:10:17.152608 22589 layer_factory.hpp:123] Creating layer res4a
I0828 16:10:17.152614 22589 net.cpp:140] Creating Layer res4a
I0828 16:10:17.152621 22589 net.cpp:481] res4a <- res4a_branch1
I0828 16:10:17.152626 22589 net.cpp:481] res4a <- res4a_branch2c
I0828 16:10:17.152631 22589 net.cpp:455] res4a -> res4a
I0828 16:10:17.152648 22589 net.cpp:190] Setting up res4a
I0828 16:10:17.152653 22589 net.cpp:197] Top shape: 1 1024 14 14 (200704)
I0828 16:10:17.152655 22589 net.cpp:205] Memory required for data: 162168836
I0828 16:10:17.152658 22589 layer_factory.hpp:123] Creating layer res4a_relu
I0828 16:10:17.152665 22589 net.cpp:140] Creating Layer res4a_relu
I0828 16:10:17.152668 22589 net.cpp:481] res4a_relu <- res4a
I0828 16:10:17.152673 22589 net.cpp:442] res4a_relu -> res4a (in-place)
I0828 16:10:17.152681 22589 net.cpp:190] Setting up res4a_relu
I0828 16:10:17.152686 22589 net.cpp:197] Top shape: 1 1024 14 14 (200704)
I0828 16:10:17.152689 22589 net.cpp:205] Memory required for data: 162971652
I0828 16:10:17.152693 22589 layer_factory.hpp:123] Creating layer res4a_fixed
I0828 16:10:17.152698 22589 net.cpp:140] Creating Layer res4a_fixed
I0828 16:10:17.152703 22589 net.cpp:481] res4a_fixed <- res4a
I0828 16:10:17.152707 22589 net.cpp:442] res4a_fixed -> res4a (in-place)
I0828 16:10:17.152729 22589 net.cpp:190] Setting up res4a_fixed
I0828 16:10:17.152734 22589 net.cpp:197] Top shape: 1 1024 14 14 (200704)
I0828 16:10:17.152737 22589 net.cpp:205] Memory required for data: 163774468
I0828 16:10:17.152741 22589 layer_factory.hpp:123] Creating layer res4a_res4a_fixed_0_split
I0828 16:10:17.152746 22589 net.cpp:140] Creating Layer res4a_res4a_fixed_0_split
I0828 16:10:17.152750 22589 net.cpp:481] res4a_res4a_fixed_0_split <- res4a
I0828 16:10:17.152755 22589 net.cpp:455] res4a_res4a_fixed_0_split -> res4a_res4a_fixed_0_split_0
I0828 16:10:17.152762 22589 net.cpp:455] res4a_res4a_fixed_0_split -> res4a_res4a_fixed_0_split_1
I0828 16:10:17.152786 22589 net.cpp:190] Setting up res4a_res4a_fixed_0_split
I0828 16:10:17.152791 22589 net.cpp:197] Top shape: 1 1024 14 14 (200704)
I0828 16:10:17.152794 22589 net.cpp:197] Top shape: 1 1024 14 14 (200704)
I0828 16:10:17.152798 22589 net.cpp:205] Memory required for data: 165380100
I0828 16:10:17.152801 22589 layer_factory.hpp:123] Creating layer res4b_branch2a
I0828 16:10:17.152809 22589 net.cpp:140] Creating Layer res4b_branch2a
I0828 16:10:17.152813 22589 net.cpp:481] res4b_branch2a <- res4a_res4a_fixed_0_split_0
I0828 16:10:17.152818 22589 net.cpp:455] res4b_branch2a -> res4b_branch2a
I0828 16:10:17.154614 22589 layer_factory.hpp:123] Creating layer res4b_branch2a
I0828 16:10:17.156349 22589 net.cpp:190] Setting up res4b_branch2a
I0828 16:10:17.156360 22589 net.cpp:197] Top shape: 1 256 14 14 (50176)
I0828 16:10:17.156363 22589 net.cpp:205] Memory required for data: 165580804
I0828 16:10:17.156368 22589 layer_factory.hpp:123] Creating layer res4b_branch2a_relu
I0828 16:10:17.156373 22589 net.cpp:140] Creating Layer res4b_branch2a_relu
I0828 16:10:17.156378 22589 net.cpp:481] res4b_branch2a_relu <- res4b_branch2a
I0828 16:10:17.156381 22589 net.cpp:442] res4b_branch2a_relu -> res4b_branch2a (in-place)
I0828 16:10:17.156388 22589 net.cpp:190] Setting up res4b_branch2a_relu
I0828 16:10:17.156390 22589 net.cpp:197] Top shape: 1 256 14 14 (50176)
I0828 16:10:17.156394 22589 net.cpp:205] Memory required for data: 165781508
I0828 16:10:17.156399 22589 layer_factory.hpp:123] Creating layer res4b_branch2a_fixed
I0828 16:10:17.156404 22589 net.cpp:140] Creating Layer res4b_branch2a_fixed
I0828 16:10:17.156409 22589 net.cpp:481] res4b_branch2a_fixed <- res4b_branch2a
I0828 16:10:17.156414 22589 net.cpp:442] res4b_branch2a_fixed -> res4b_branch2a (in-place)
I0828 16:10:17.156438 22589 net.cpp:190] Setting up res4b_branch2a_fixed
I0828 16:10:17.156443 22589 net.cpp:197] Top shape: 1 256 14 14 (50176)
I0828 16:10:17.156446 22589 net.cpp:205] Memory required for data: 165982212
I0828 16:10:17.156450 22589 layer_factory.hpp:123] Creating layer res4b_branch2b
I0828 16:10:17.156460 22589 net.cpp:140] Creating Layer res4b_branch2b
I0828 16:10:17.156463 22589 net.cpp:481] res4b_branch2b <- res4b_branch2a
I0828 16:10:17.156468 22589 net.cpp:455] res4b_branch2b -> res4b_branch2b
I0828 16:10:17.159977 22589 layer_factory.hpp:123] Creating layer res4b_branch2b
I0828 16:10:17.163576 22589 net.cpp:190] Setting up res4b_branch2b
I0828 16:10:17.163607 22589 net.cpp:197] Top shape: 1 256 14 14 (50176)
I0828 16:10:17.163610 22589 net.cpp:205] Memory required for data: 166182916
I0828 16:10:17.163619 22589 layer_factory.hpp:123] Creating layer res4b_branch2b_relu
I0828 16:10:17.163625 22589 net.cpp:140] Creating Layer res4b_branch2b_relu
I0828 16:10:17.163631 22589 net.cpp:481] res4b_branch2b_relu <- res4b_branch2b
I0828 16:10:17.163638 22589 net.cpp:442] res4b_branch2b_relu -> res4b_branch2b (in-place)
I0828 16:10:17.163647 22589 net.cpp:190] Setting up res4b_branch2b_relu
I0828 16:10:17.163652 22589 net.cpp:197] Top shape: 1 256 14 14 (50176)
I0828 16:10:17.163655 22589 net.cpp:205] Memory required for data: 166383620
I0828 16:10:17.163659 22589 layer_factory.hpp:123] Creating layer res4b_branch2b_fixed
I0828 16:10:17.163666 22589 net.cpp:140] Creating Layer res4b_branch2b_fixed
I0828 16:10:17.163671 22589 net.cpp:481] res4b_branch2b_fixed <- res4b_branch2b
I0828 16:10:17.163676 22589 net.cpp:442] res4b_branch2b_fixed -> res4b_branch2b (in-place)
I0828 16:10:17.163702 22589 net.cpp:190] Setting up res4b_branch2b_fixed
I0828 16:10:17.163707 22589 net.cpp:197] Top shape: 1 256 14 14 (50176)
I0828 16:10:17.163709 22589 net.cpp:205] Memory required for data: 166584324
I0828 16:10:17.163713 22589 layer_factory.hpp:123] Creating layer res4b_branch2c
I0828 16:10:17.163722 22589 net.cpp:140] Creating Layer res4b_branch2c
I0828 16:10:17.163727 22589 net.cpp:481] res4b_branch2c <- res4b_branch2b
I0828 16:10:17.163731 22589 net.cpp:455] res4b_branch2c -> res4b_branch2c
I0828 16:10:17.165588 22589 layer_factory.hpp:123] Creating layer res4b_branch2c
I0828 16:10:17.167418 22589 net.cpp:190] Setting up res4b_branch2c
I0828 16:10:17.167441 22589 net.cpp:197] Top shape: 1 1024 14 14 (200704)
I0828 16:10:17.167444 22589 net.cpp:205] Memory required for data: 167387140
I0828 16:10:17.167450 22589 layer_factory.hpp:123] Creating layer res4b_branch2c_fixed
I0828 16:10:17.167455 22589 net.cpp:140] Creating Layer res4b_branch2c_fixed
I0828 16:10:17.167461 22589 net.cpp:481] res4b_branch2c_fixed <- res4b_branch2c
I0828 16:10:17.167469 22589 net.cpp:442] res4b_branch2c_fixed -> res4b_branch2c (in-place)
I0828 16:10:17.167493 22589 net.cpp:190] Setting up res4b_branch2c_fixed
I0828 16:10:17.167500 22589 net.cpp:197] Top shape: 1 1024 14 14 (200704)
I0828 16:10:17.167502 22589 net.cpp:205] Memory required for data: 168189956
I0828 16:10:17.167506 22589 layer_factory.hpp:123] Creating layer res4b
I0828 16:10:17.167515 22589 net.cpp:140] Creating Layer res4b
I0828 16:10:17.167518 22589 net.cpp:481] res4b <- res4a_res4a_fixed_0_split_1
I0828 16:10:17.167523 22589 net.cpp:481] res4b <- res4b_branch2c
I0828 16:10:17.167528 22589 net.cpp:455] res4b -> res4b
I0828 16:10:17.167546 22589 net.cpp:190] Setting up res4b
I0828 16:10:17.167549 22589 net.cpp:197] Top shape: 1 1024 14 14 (200704)
I0828 16:10:17.167552 22589 net.cpp:205] Memory required for data: 168992772
I0828 16:10:17.167556 22589 layer_factory.hpp:123] Creating layer res4b_relu
I0828 16:10:17.167562 22589 net.cpp:140] Creating Layer res4b_relu
I0828 16:10:17.167564 22589 net.cpp:481] res4b_relu <- res4b
I0828 16:10:17.167569 22589 net.cpp:442] res4b_relu -> res4b (in-place)
I0828 16:10:17.167577 22589 net.cpp:190] Setting up res4b_relu
I0828 16:10:17.167580 22589 net.cpp:197] Top shape: 1 1024 14 14 (200704)
I0828 16:10:17.167582 22589 net.cpp:205] Memory required for data: 169795588
I0828 16:10:17.167585 22589 layer_factory.hpp:123] Creating layer res4b_fixed
I0828 16:10:17.167589 22589 net.cpp:140] Creating Layer res4b_fixed
I0828 16:10:17.167593 22589 net.cpp:481] res4b_fixed <- res4b
I0828 16:10:17.167598 22589 net.cpp:442] res4b_fixed -> res4b (in-place)
I0828 16:10:17.167620 22589 net.cpp:190] Setting up res4b_fixed
I0828 16:10:17.167625 22589 net.cpp:197] Top shape: 1 1024 14 14 (200704)
I0828 16:10:17.167627 22589 net.cpp:205] Memory required for data: 170598404
I0828 16:10:17.167631 22589 layer_factory.hpp:123] Creating layer res4b_res4b_fixed_0_split
I0828 16:10:17.167637 22589 net.cpp:140] Creating Layer res4b_res4b_fixed_0_split
I0828 16:10:17.167641 22589 net.cpp:481] res4b_res4b_fixed_0_split <- res4b
I0828 16:10:17.167646 22589 net.cpp:455] res4b_res4b_fixed_0_split -> res4b_res4b_fixed_0_split_0
I0828 16:10:17.167652 22589 net.cpp:455] res4b_res4b_fixed_0_split -> res4b_res4b_fixed_0_split_1
I0828 16:10:17.167676 22589 net.cpp:190] Setting up res4b_res4b_fixed_0_split
I0828 16:10:17.167681 22589 net.cpp:197] Top shape: 1 1024 14 14 (200704)
I0828 16:10:17.167685 22589 net.cpp:197] Top shape: 1 1024 14 14 (200704)
I0828 16:10:17.167687 22589 net.cpp:205] Memory required for data: 172204036
I0828 16:10:17.167691 22589 layer_factory.hpp:123] Creating layer res4c_branch2a
I0828 16:10:17.167699 22589 net.cpp:140] Creating Layer res4c_branch2a
I0828 16:10:17.167703 22589 net.cpp:481] res4c_branch2a <- res4b_res4b_fixed_0_split_0
I0828 16:10:17.167708 22589 net.cpp:455] res4c_branch2a -> res4c_branch2a
I0828 16:10:17.169458 22589 layer_factory.hpp:123] Creating layer res4c_branch2a
I0828 16:10:17.171310 22589 net.cpp:190] Setting up res4c_branch2a
I0828 16:10:17.171335 22589 net.cpp:197] Top shape: 1 256 14 14 (50176)
I0828 16:10:17.171339 22589 net.cpp:205] Memory required for data: 172404740
I0828 16:10:17.171344 22589 layer_factory.hpp:123] Creating layer res4c_branch2a_relu
I0828 16:10:17.171351 22589 net.cpp:140] Creating Layer res4c_branch2a_relu
I0828 16:10:17.171357 22589 net.cpp:481] res4c_branch2a_relu <- res4c_branch2a
I0828 16:10:17.171363 22589 net.cpp:442] res4c_branch2a_relu -> res4c_branch2a (in-place)
I0828 16:10:17.171373 22589 net.cpp:190] Setting up res4c_branch2a_relu
I0828 16:10:17.171378 22589 net.cpp:197] Top shape: 1 256 14 14 (50176)
I0828 16:10:17.171383 22589 net.cpp:205] Memory required for data: 172605444
I0828 16:10:17.171386 22589 layer_factory.hpp:123] Creating layer res4c_branch2a_fixed
I0828 16:10:17.171392 22589 net.cpp:140] Creating Layer res4c_branch2a_fixed
I0828 16:10:17.171396 22589 net.cpp:481] res4c_branch2a_fixed <- res4c_branch2a
I0828 16:10:17.171401 22589 net.cpp:442] res4c_branch2a_fixed -> res4c_branch2a (in-place)
I0828 16:10:17.171427 22589 net.cpp:190] Setting up res4c_branch2a_fixed
I0828 16:10:17.171432 22589 net.cpp:197] Top shape: 1 256 14 14 (50176)
I0828 16:10:17.171434 22589 net.cpp:205] Memory required for data: 172806148
I0828 16:10:17.171438 22589 layer_factory.hpp:123] Creating layer res4c_branch2b
I0828 16:10:17.171447 22589 net.cpp:140] Creating Layer res4c_branch2b
I0828 16:10:17.171450 22589 net.cpp:481] res4c_branch2b <- res4c_branch2a
I0828 16:10:17.171456 22589 net.cpp:455] res4c_branch2b -> res4c_branch2b
I0828 16:10:17.175001 22589 layer_factory.hpp:123] Creating layer res4c_branch2b
I0828 16:10:17.178584 22589 net.cpp:190] Setting up res4c_branch2b
I0828 16:10:17.178601 22589 net.cpp:197] Top shape: 1 256 14 14 (50176)
I0828 16:10:17.178604 22589 net.cpp:205] Memory required for data: 173006852
I0828 16:10:17.178609 22589 layer_factory.hpp:123] Creating layer res4c_branch2b_relu
I0828 16:10:17.178616 22589 net.cpp:140] Creating Layer res4c_branch2b_relu
I0828 16:10:17.178619 22589 net.cpp:481] res4c_branch2b_relu <- res4c_branch2b
I0828 16:10:17.178624 22589 net.cpp:442] res4c_branch2b_relu -> res4c_branch2b (in-place)
I0828 16:10:17.178630 22589 net.cpp:190] Setting up res4c_branch2b_relu
I0828 16:10:17.178634 22589 net.cpp:197] Top shape: 1 256 14 14 (50176)
I0828 16:10:17.178637 22589 net.cpp:205] Memory required for data: 173207556
I0828 16:10:17.178640 22589 layer_factory.hpp:123] Creating layer res4c_branch2b_fixed
I0828 16:10:17.178647 22589 net.cpp:140] Creating Layer res4c_branch2b_fixed
I0828 16:10:17.178650 22589 net.cpp:481] res4c_branch2b_fixed <- res4c_branch2b
I0828 16:10:17.178653 22589 net.cpp:442] res4c_branch2b_fixed -> res4c_branch2b (in-place)
I0828 16:10:17.178697 22589 net.cpp:190] Setting up res4c_branch2b_fixed
I0828 16:10:17.178702 22589 net.cpp:197] Top shape: 1 256 14 14 (50176)
I0828 16:10:17.178704 22589 net.cpp:205] Memory required for data: 173408260
I0828 16:10:17.178721 22589 layer_factory.hpp:123] Creating layer res4c_branch2c
I0828 16:10:17.178743 22589 net.cpp:140] Creating Layer res4c_branch2c
I0828 16:10:17.178747 22589 net.cpp:481] res4c_branch2c <- res4c_branch2b
I0828 16:10:17.178751 22589 net.cpp:455] res4c_branch2c -> res4c_branch2c
I0828 16:10:17.180553 22589 layer_factory.hpp:123] Creating layer res4c_branch2c
I0828 16:10:17.182376 22589 net.cpp:190] Setting up res4c_branch2c
I0828 16:10:17.182400 22589 net.cpp:197] Top shape: 1 1024 14 14 (200704)
I0828 16:10:17.182404 22589 net.cpp:205] Memory required for data: 174211076
I0828 16:10:17.182410 22589 layer_factory.hpp:123] Creating layer res4c_branch2c_fixed
I0828 16:10:17.182432 22589 net.cpp:140] Creating Layer res4c_branch2c_fixed
I0828 16:10:17.182437 22589 net.cpp:481] res4c_branch2c_fixed <- res4c_branch2c
I0828 16:10:17.182442 22589 net.cpp:442] res4c_branch2c_fixed -> res4c_branch2c (in-place)
I0828 16:10:17.182466 22589 net.cpp:190] Setting up res4c_branch2c_fixed
I0828 16:10:17.182471 22589 net.cpp:197] Top shape: 1 1024 14 14 (200704)
I0828 16:10:17.182473 22589 net.cpp:205] Memory required for data: 175013892
I0828 16:10:17.182477 22589 layer_factory.hpp:123] Creating layer res4c
I0828 16:10:17.182482 22589 net.cpp:140] Creating Layer res4c
I0828 16:10:17.182485 22589 net.cpp:481] res4c <- res4b_res4b_fixed_0_split_1
I0828 16:10:17.182488 22589 net.cpp:481] res4c <- res4c_branch2c
I0828 16:10:17.182492 22589 net.cpp:455] res4c -> res4c
I0828 16:10:17.182507 22589 net.cpp:190] Setting up res4c
I0828 16:10:17.182512 22589 net.cpp:197] Top shape: 1 1024 14 14 (200704)
I0828 16:10:17.182513 22589 net.cpp:205] Memory required for data: 175816708
I0828 16:10:17.182516 22589 layer_factory.hpp:123] Creating layer res4c_relu
I0828 16:10:17.182520 22589 net.cpp:140] Creating Layer res4c_relu
I0828 16:10:17.182523 22589 net.cpp:481] res4c_relu <- res4c
I0828 16:10:17.182526 22589 net.cpp:442] res4c_relu -> res4c (in-place)
I0828 16:10:17.182531 22589 net.cpp:190] Setting up res4c_relu
I0828 16:10:17.182548 22589 net.cpp:197] Top shape: 1 1024 14 14 (200704)
I0828 16:10:17.182550 22589 net.cpp:205] Memory required for data: 176619524
I0828 16:10:17.182554 22589 layer_factory.hpp:123] Creating layer res4c_fixed
I0828 16:10:17.182571 22589 net.cpp:140] Creating Layer res4c_fixed
I0828 16:10:17.182574 22589 net.cpp:481] res4c_fixed <- res4c
I0828 16:10:17.182592 22589 net.cpp:442] res4c_fixed -> res4c (in-place)
I0828 16:10:17.182613 22589 net.cpp:190] Setting up res4c_fixed
I0828 16:10:17.182617 22589 net.cpp:197] Top shape: 1 1024 14 14 (200704)
I0828 16:10:17.182621 22589 net.cpp:205] Memory required for data: 177422340
I0828 16:10:17.182624 22589 layer_factory.hpp:123] Creating layer res4c_res4c_fixed_0_split
I0828 16:10:17.182628 22589 net.cpp:140] Creating Layer res4c_res4c_fixed_0_split
I0828 16:10:17.182631 22589 net.cpp:481] res4c_res4c_fixed_0_split <- res4c
I0828 16:10:17.182634 22589 net.cpp:455] res4c_res4c_fixed_0_split -> res4c_res4c_fixed_0_split_0
I0828 16:10:17.182639 22589 net.cpp:455] res4c_res4c_fixed_0_split -> res4c_res4c_fixed_0_split_1
I0828 16:10:17.182660 22589 net.cpp:190] Setting up res4c_res4c_fixed_0_split
I0828 16:10:17.182664 22589 net.cpp:197] Top shape: 1 1024 14 14 (200704)
I0828 16:10:17.182668 22589 net.cpp:197] Top shape: 1 1024 14 14 (200704)
I0828 16:10:17.182670 22589 net.cpp:205] Memory required for data: 179027972
I0828 16:10:17.182672 22589 layer_factory.hpp:123] Creating layer res4d_branch2a
I0828 16:10:17.182679 22589 net.cpp:140] Creating Layer res4d_branch2a
I0828 16:10:17.182682 22589 net.cpp:481] res4d_branch2a <- res4c_res4c_fixed_0_split_0
I0828 16:10:17.182687 22589 net.cpp:455] res4d_branch2a -> res4d_branch2a
I0828 16:10:17.184445 22589 layer_factory.hpp:123] Creating layer res4d_branch2a
I0828 16:10:17.186250 22589 net.cpp:190] Setting up res4d_branch2a
I0828 16:10:17.186275 22589 net.cpp:197] Top shape: 1 256 14 14 (50176)
I0828 16:10:17.186278 22589 net.cpp:205] Memory required for data: 179228676
I0828 16:10:17.186285 22589 layer_factory.hpp:123] Creating layer res4d_branch2a_relu
I0828 16:10:17.186290 22589 net.cpp:140] Creating Layer res4d_branch2a_relu
I0828 16:10:17.186296 22589 net.cpp:481] res4d_branch2a_relu <- res4d_branch2a
I0828 16:10:17.186302 22589 net.cpp:442] res4d_branch2a_relu -> res4d_branch2a (in-place)
I0828 16:10:17.186311 22589 net.cpp:190] Setting up res4d_branch2a_relu
I0828 16:10:17.186316 22589 net.cpp:197] Top shape: 1 256 14 14 (50176)
I0828 16:10:17.186321 22589 net.cpp:205] Memory required for data: 179429380
I0828 16:10:17.186324 22589 layer_factory.hpp:123] Creating layer res4d_branch2a_fixed
I0828 16:10:17.186331 22589 net.cpp:140] Creating Layer res4d_branch2a_fixed
I0828 16:10:17.186333 22589 net.cpp:481] res4d_branch2a_fixed <- res4d_branch2a
I0828 16:10:17.186338 22589 net.cpp:442] res4d_branch2a_fixed -> res4d_branch2a (in-place)
I0828 16:10:17.186367 22589 net.cpp:190] Setting up res4d_branch2a_fixed
I0828 16:10:17.186372 22589 net.cpp:197] Top shape: 1 256 14 14 (50176)
I0828 16:10:17.186373 22589 net.cpp:205] Memory required for data: 179630084
I0828 16:10:17.186378 22589 layer_factory.hpp:123] Creating layer res4d_branch2b
I0828 16:10:17.186386 22589 net.cpp:140] Creating Layer res4d_branch2b
I0828 16:10:17.186390 22589 net.cpp:481] res4d_branch2b <- res4d_branch2a
I0828 16:10:17.186395 22589 net.cpp:455] res4d_branch2b -> res4d_branch2b
I0828 16:10:17.189944 22589 layer_factory.hpp:123] Creating layer res4d_branch2b
I0828 16:10:17.193543 22589 net.cpp:190] Setting up res4d_branch2b
I0828 16:10:17.193574 22589 net.cpp:197] Top shape: 1 256 14 14 (50176)
I0828 16:10:17.193576 22589 net.cpp:205] Memory required for data: 179830788
I0828 16:10:17.193584 22589 layer_factory.hpp:123] Creating layer res4d_branch2b_relu
I0828 16:10:17.193593 22589 net.cpp:140] Creating Layer res4d_branch2b_relu
I0828 16:10:17.193598 22589 net.cpp:481] res4d_branch2b_relu <- res4d_branch2b
I0828 16:10:17.193605 22589 net.cpp:442] res4d_branch2b_relu -> res4d_branch2b (in-place)
I0828 16:10:17.193616 22589 net.cpp:190] Setting up res4d_branch2b_relu
I0828 16:10:17.193622 22589 net.cpp:197] Top shape: 1 256 14 14 (50176)
I0828 16:10:17.193625 22589 net.cpp:205] Memory required for data: 180031492
I0828 16:10:17.193629 22589 layer_factory.hpp:123] Creating layer res4d_branch2b_fixed
I0828 16:10:17.193636 22589 net.cpp:140] Creating Layer res4d_branch2b_fixed
I0828 16:10:17.193640 22589 net.cpp:481] res4d_branch2b_fixed <- res4d_branch2b
I0828 16:10:17.193645 22589 net.cpp:442] res4d_branch2b_fixed -> res4d_branch2b (in-place)
I0828 16:10:17.193673 22589 net.cpp:190] Setting up res4d_branch2b_fixed
I0828 16:10:17.193678 22589 net.cpp:197] Top shape: 1 256 14 14 (50176)
I0828 16:10:17.193681 22589 net.cpp:205] Memory required for data: 180232196
I0828 16:10:17.193686 22589 layer_factory.hpp:123] Creating layer res4d_branch2c
I0828 16:10:17.193693 22589 net.cpp:140] Creating Layer res4d_branch2c
I0828 16:10:17.193698 22589 net.cpp:481] res4d_branch2c <- res4d_branch2b
I0828 16:10:17.193703 22589 net.cpp:455] res4d_branch2c -> res4d_branch2c
I0828 16:10:17.195504 22589 layer_factory.hpp:123] Creating layer res4d_branch2c
I0828 16:10:17.197343 22589 net.cpp:190] Setting up res4d_branch2c
I0828 16:10:17.197368 22589 net.cpp:197] Top shape: 1 1024 14 14 (200704)
I0828 16:10:17.197371 22589 net.cpp:205] Memory required for data: 181035012
I0828 16:10:17.197377 22589 layer_factory.hpp:123] Creating layer res4d_branch2c_fixed
I0828 16:10:17.197384 22589 net.cpp:140] Creating Layer res4d_branch2c_fixed
I0828 16:10:17.197391 22589 net.cpp:481] res4d_branch2c_fixed <- res4d_branch2c
I0828 16:10:17.197396 22589 net.cpp:442] res4d_branch2c_fixed -> res4d_branch2c (in-place)
I0828 16:10:17.197422 22589 net.cpp:190] Setting up res4d_branch2c_fixed
I0828 16:10:17.197427 22589 net.cpp:197] Top shape: 1 1024 14 14 (200704)
I0828 16:10:17.197430 22589 net.cpp:205] Memory required for data: 181837828
I0828 16:10:17.197434 22589 layer_factory.hpp:123] Creating layer res4d
I0828 16:10:17.197443 22589 net.cpp:140] Creating Layer res4d
I0828 16:10:17.197448 22589 net.cpp:481] res4d <- res4c_res4c_fixed_0_split_1
I0828 16:10:17.197451 22589 net.cpp:481] res4d <- res4d_branch2c
I0828 16:10:17.197458 22589 net.cpp:455] res4d -> res4d
I0828 16:10:17.197475 22589 net.cpp:190] Setting up res4d
I0828 16:10:17.197480 22589 net.cpp:197] Top shape: 1 1024 14 14 (200704)
I0828 16:10:17.197482 22589 net.cpp:205] Memory required for data: 182640644
I0828 16:10:17.197486 22589 layer_factory.hpp:123] Creating layer res4d_relu
I0828 16:10:17.197491 22589 net.cpp:140] Creating Layer res4d_relu
I0828 16:10:17.197495 22589 net.cpp:481] res4d_relu <- res4d
I0828 16:10:17.197500 22589 net.cpp:442] res4d_relu -> res4d (in-place)
I0828 16:10:17.197507 22589 net.cpp:190] Setting up res4d_relu
I0828 16:10:17.197511 22589 net.cpp:197] Top shape: 1 1024 14 14 (200704)
I0828 16:10:17.197515 22589 net.cpp:205] Memory required for data: 183443460
I0828 16:10:17.197517 22589 layer_factory.hpp:123] Creating layer res4d_fixed
I0828 16:10:17.197522 22589 net.cpp:140] Creating Layer res4d_fixed
I0828 16:10:17.197525 22589 net.cpp:481] res4d_fixed <- res4d
I0828 16:10:17.197530 22589 net.cpp:442] res4d_fixed -> res4d (in-place)
I0828 16:10:17.197556 22589 net.cpp:190] Setting up res4d_fixed
I0828 16:10:17.197561 22589 net.cpp:197] Top shape: 1 1024 14 14 (200704)
I0828 16:10:17.197562 22589 net.cpp:205] Memory required for data: 184246276
I0828 16:10:17.197567 22589 layer_factory.hpp:123] Creating layer res4d_res4d_fixed_0_split
I0828 16:10:17.197572 22589 net.cpp:140] Creating Layer res4d_res4d_fixed_0_split
I0828 16:10:17.197578 22589 net.cpp:481] res4d_res4d_fixed_0_split <- res4d
I0828 16:10:17.197582 22589 net.cpp:455] res4d_res4d_fixed_0_split -> res4d_res4d_fixed_0_split_0
I0828 16:10:17.197588 22589 net.cpp:455] res4d_res4d_fixed_0_split -> res4d_res4d_fixed_0_split_1
I0828 16:10:17.197614 22589 net.cpp:190] Setting up res4d_res4d_fixed_0_split
I0828 16:10:17.197619 22589 net.cpp:197] Top shape: 1 1024 14 14 (200704)
I0828 16:10:17.197623 22589 net.cpp:197] Top shape: 1 1024 14 14 (200704)
I0828 16:10:17.197626 22589 net.cpp:205] Memory required for data: 185851908
I0828 16:10:17.197630 22589 layer_factory.hpp:123] Creating layer res4e_branch2a
I0828 16:10:17.197639 22589 net.cpp:140] Creating Layer res4e_branch2a
I0828 16:10:17.197644 22589 net.cpp:481] res4e_branch2a <- res4d_res4d_fixed_0_split_0
I0828 16:10:17.197649 22589 net.cpp:455] res4e_branch2a -> res4e_branch2a
I0828 16:10:17.199395 22589 layer_factory.hpp:123] Creating layer res4e_branch2a
I0828 16:10:17.201215 22589 net.cpp:190] Setting up res4e_branch2a
I0828 16:10:17.201241 22589 net.cpp:197] Top shape: 1 256 14 14 (50176)
I0828 16:10:17.201243 22589 net.cpp:205] Memory required for data: 186052612
I0828 16:10:17.201251 22589 layer_factory.hpp:123] Creating layer res4e_branch2a_relu
I0828 16:10:17.201258 22589 net.cpp:140] Creating Layer res4e_branch2a_relu
I0828 16:10:17.201264 22589 net.cpp:481] res4e_branch2a_relu <- res4e_branch2a
I0828 16:10:17.201272 22589 net.cpp:442] res4e_branch2a_relu -> res4e_branch2a (in-place)
I0828 16:10:17.201279 22589 net.cpp:190] Setting up res4e_branch2a_relu
I0828 16:10:17.201285 22589 net.cpp:197] Top shape: 1 256 14 14 (50176)
I0828 16:10:17.201289 22589 net.cpp:205] Memory required for data: 186253316
I0828 16:10:17.201292 22589 layer_factory.hpp:123] Creating layer res4e_branch2a_fixed
I0828 16:10:17.201299 22589 net.cpp:140] Creating Layer res4e_branch2a_fixed
I0828 16:10:17.201303 22589 net.cpp:481] res4e_branch2a_fixed <- res4e_branch2a
I0828 16:10:17.201306 22589 net.cpp:442] res4e_branch2a_fixed -> res4e_branch2a (in-place)
I0828 16:10:17.201333 22589 net.cpp:190] Setting up res4e_branch2a_fixed
I0828 16:10:17.201339 22589 net.cpp:197] Top shape: 1 256 14 14 (50176)
I0828 16:10:17.201340 22589 net.cpp:205] Memory required for data: 186454020
I0828 16:10:17.201344 22589 layer_factory.hpp:123] Creating layer res4e_branch2b
I0828 16:10:17.201352 22589 net.cpp:140] Creating Layer res4e_branch2b
I0828 16:10:17.201357 22589 net.cpp:481] res4e_branch2b <- res4e_branch2a
I0828 16:10:17.201362 22589 net.cpp:455] res4e_branch2b -> res4e_branch2b
I0828 16:10:17.204972 22589 layer_factory.hpp:123] Creating layer res4e_branch2b
I0828 16:10:17.208612 22589 net.cpp:190] Setting up res4e_branch2b
I0828 16:10:17.208642 22589 net.cpp:197] Top shape: 1 256 14 14 (50176)
I0828 16:10:17.208645 22589 net.cpp:205] Memory required for data: 186654724
I0828 16:10:17.208652 22589 layer_factory.hpp:123] Creating layer res4e_branch2b_relu
I0828 16:10:17.208660 22589 net.cpp:140] Creating Layer res4e_branch2b_relu
I0828 16:10:17.208667 22589 net.cpp:481] res4e_branch2b_relu <- res4e_branch2b
I0828 16:10:17.208674 22589 net.cpp:442] res4e_branch2b_relu -> res4e_branch2b (in-place)
I0828 16:10:17.208685 22589 net.cpp:190] Setting up res4e_branch2b_relu
I0828 16:10:17.208691 22589 net.cpp:197] Top shape: 1 256 14 14 (50176)
I0828 16:10:17.208694 22589 net.cpp:205] Memory required for data: 186855428
I0828 16:10:17.208698 22589 layer_factory.hpp:123] Creating layer res4e_branch2b_fixed
I0828 16:10:17.208705 22589 net.cpp:140] Creating Layer res4e_branch2b_fixed
I0828 16:10:17.208709 22589 net.cpp:481] res4e_branch2b_fixed <- res4e_branch2b
I0828 16:10:17.208715 22589 net.cpp:442] res4e_branch2b_fixed -> res4e_branch2b (in-place)
I0828 16:10:17.208745 22589 net.cpp:190] Setting up res4e_branch2b_fixed
I0828 16:10:17.208750 22589 net.cpp:197] Top shape: 1 256 14 14 (50176)
I0828 16:10:17.208752 22589 net.cpp:205] Memory required for data: 187056132
I0828 16:10:17.208762 22589 layer_factory.hpp:123] Creating layer res4e_branch2c
I0828 16:10:17.208770 22589 net.cpp:140] Creating Layer res4e_branch2c
I0828 16:10:17.208775 22589 net.cpp:481] res4e_branch2c <- res4e_branch2b
I0828 16:10:17.208781 22589 net.cpp:455] res4e_branch2c -> res4e_branch2c
I0828 16:10:17.210656 22589 layer_factory.hpp:123] Creating layer res4e_branch2c
I0828 16:10:17.212494 22589 net.cpp:190] Setting up res4e_branch2c
I0828 16:10:17.212519 22589 net.cpp:197] Top shape: 1 1024 14 14 (200704)
I0828 16:10:17.212522 22589 net.cpp:205] Memory required for data: 187858948
I0828 16:10:17.212528 22589 layer_factory.hpp:123] Creating layer res4e_branch2c_fixed
I0828 16:10:17.212533 22589 net.cpp:140] Creating Layer res4e_branch2c_fixed
I0828 16:10:17.212539 22589 net.cpp:481] res4e_branch2c_fixed <- res4e_branch2c
I0828 16:10:17.212545 22589 net.cpp:442] res4e_branch2c_fixed -> res4e_branch2c (in-place)
I0828 16:10:17.212575 22589 net.cpp:190] Setting up res4e_branch2c_fixed
I0828 16:10:17.212580 22589 net.cpp:197] Top shape: 1 1024 14 14 (200704)
I0828 16:10:17.212584 22589 net.cpp:205] Memory required for data: 188661764
I0828 16:10:17.212587 22589 layer_factory.hpp:123] Creating layer res4e
I0828 16:10:17.212594 22589 net.cpp:140] Creating Layer res4e
I0828 16:10:17.212599 22589 net.cpp:481] res4e <- res4d_res4d_fixed_0_split_1
I0828 16:10:17.212604 22589 net.cpp:481] res4e <- res4e_branch2c
I0828 16:10:17.212608 22589 net.cpp:455] res4e -> res4e
I0828 16:10:17.212627 22589 net.cpp:190] Setting up res4e
I0828 16:10:17.212632 22589 net.cpp:197] Top shape: 1 1024 14 14 (200704)
I0828 16:10:17.212635 22589 net.cpp:205] Memory required for data: 189464580
I0828 16:10:17.212637 22589 layer_factory.hpp:123] Creating layer res4e_relu
I0828 16:10:17.212643 22589 net.cpp:140] Creating Layer res4e_relu
I0828 16:10:17.212647 22589 net.cpp:481] res4e_relu <- res4e
I0828 16:10:17.212651 22589 net.cpp:442] res4e_relu -> res4e (in-place)
I0828 16:10:17.212658 22589 net.cpp:190] Setting up res4e_relu
I0828 16:10:17.212662 22589 net.cpp:197] Top shape: 1 1024 14 14 (200704)
I0828 16:10:17.212664 22589 net.cpp:205] Memory required for data: 190267396
I0828 16:10:17.212667 22589 layer_factory.hpp:123] Creating layer res4e_fixed
I0828 16:10:17.212672 22589 net.cpp:140] Creating Layer res4e_fixed
I0828 16:10:17.212677 22589 net.cpp:481] res4e_fixed <- res4e
I0828 16:10:17.212682 22589 net.cpp:442] res4e_fixed -> res4e (in-place)
I0828 16:10:17.212707 22589 net.cpp:190] Setting up res4e_fixed
I0828 16:10:17.212710 22589 net.cpp:197] Top shape: 1 1024 14 14 (200704)
I0828 16:10:17.212713 22589 net.cpp:205] Memory required for data: 191070212
I0828 16:10:17.212718 22589 layer_factory.hpp:123] Creating layer res4e_res4e_fixed_0_split
I0828 16:10:17.212723 22589 net.cpp:140] Creating Layer res4e_res4e_fixed_0_split
I0828 16:10:17.212728 22589 net.cpp:481] res4e_res4e_fixed_0_split <- res4e
I0828 16:10:17.212733 22589 net.cpp:455] res4e_res4e_fixed_0_split -> res4e_res4e_fixed_0_split_0
I0828 16:10:17.212739 22589 net.cpp:455] res4e_res4e_fixed_0_split -> res4e_res4e_fixed_0_split_1
I0828 16:10:17.212762 22589 net.cpp:190] Setting up res4e_res4e_fixed_0_split
I0828 16:10:17.212767 22589 net.cpp:197] Top shape: 1 1024 14 14 (200704)
I0828 16:10:17.212771 22589 net.cpp:197] Top shape: 1 1024 14 14 (200704)
I0828 16:10:17.212775 22589 net.cpp:205] Memory required for data: 192675844
I0828 16:10:17.212779 22589 layer_factory.hpp:123] Creating layer res4f_branch2a
I0828 16:10:17.212786 22589 net.cpp:140] Creating Layer res4f_branch2a
I0828 16:10:17.212791 22589 net.cpp:481] res4f_branch2a <- res4e_res4e_fixed_0_split_0
I0828 16:10:17.212797 22589 net.cpp:455] res4f_branch2a -> res4f_branch2a
I0828 16:10:17.214566 22589 layer_factory.hpp:123] Creating layer res4f_branch2a
I0828 16:10:17.216351 22589 net.cpp:190] Setting up res4f_branch2a
I0828 16:10:17.216377 22589 net.cpp:197] Top shape: 1 256 14 14 (50176)
I0828 16:10:17.216380 22589 net.cpp:205] Memory required for data: 192876548
I0828 16:10:17.216387 22589 layer_factory.hpp:123] Creating layer res4f_branch2a_relu
I0828 16:10:17.216392 22589 net.cpp:140] Creating Layer res4f_branch2a_relu
I0828 16:10:17.216398 22589 net.cpp:481] res4f_branch2a_relu <- res4f_branch2a
I0828 16:10:17.216404 22589 net.cpp:442] res4f_branch2a_relu -> res4f_branch2a (in-place)
I0828 16:10:17.216413 22589 net.cpp:190] Setting up res4f_branch2a_relu
I0828 16:10:17.216419 22589 net.cpp:197] Top shape: 1 256 14 14 (50176)
I0828 16:10:17.216423 22589 net.cpp:205] Memory required for data: 193077252
I0828 16:10:17.216425 22589 layer_factory.hpp:123] Creating layer res4f_branch2a_fixed
I0828 16:10:17.216431 22589 net.cpp:140] Creating Layer res4f_branch2a_fixed
I0828 16:10:17.216436 22589 net.cpp:481] res4f_branch2a_fixed <- res4f_branch2a
I0828 16:10:17.216440 22589 net.cpp:442] res4f_branch2a_fixed -> res4f_branch2a (in-place)
I0828 16:10:17.216467 22589 net.cpp:190] Setting up res4f_branch2a_fixed
I0828 16:10:17.216472 22589 net.cpp:197] Top shape: 1 256 14 14 (50176)
I0828 16:10:17.216475 22589 net.cpp:205] Memory required for data: 193277956
I0828 16:10:17.216480 22589 layer_factory.hpp:123] Creating layer res4f_branch2b
I0828 16:10:17.216487 22589 net.cpp:140] Creating Layer res4f_branch2b
I0828 16:10:17.216491 22589 net.cpp:481] res4f_branch2b <- res4f_branch2a
I0828 16:10:17.216496 22589 net.cpp:455] res4f_branch2b -> res4f_branch2b
I0828 16:10:17.220101 22589 layer_factory.hpp:123] Creating layer res4f_branch2b
I0828 16:10:17.223762 22589 net.cpp:190] Setting up res4f_branch2b
I0828 16:10:17.223793 22589 net.cpp:197] Top shape: 1 256 14 14 (50176)
I0828 16:10:17.223796 22589 net.cpp:205] Memory required for data: 193478660
I0828 16:10:17.223803 22589 layer_factory.hpp:123] Creating layer res4f_branch2b_relu
I0828 16:10:17.223810 22589 net.cpp:140] Creating Layer res4f_branch2b_relu
I0828 16:10:17.223819 22589 net.cpp:481] res4f_branch2b_relu <- res4f_branch2b
I0828 16:10:17.223825 22589 net.cpp:442] res4f_branch2b_relu -> res4f_branch2b (in-place)
I0828 16:10:17.223834 22589 net.cpp:190] Setting up res4f_branch2b_relu
I0828 16:10:17.223839 22589 net.cpp:197] Top shape: 1 256 14 14 (50176)
I0828 16:10:17.223841 22589 net.cpp:205] Memory required for data: 193679364
I0828 16:10:17.223845 22589 layer_factory.hpp:123] Creating layer res4f_branch2b_fixed
I0828 16:10:17.223852 22589 net.cpp:140] Creating Layer res4f_branch2b_fixed
I0828 16:10:17.223860 22589 net.cpp:481] res4f_branch2b_fixed <- res4f_branch2b
I0828 16:10:17.223862 22589 net.cpp:442] res4f_branch2b_fixed -> res4f_branch2b (in-place)
I0828 16:10:17.223889 22589 net.cpp:190] Setting up res4f_branch2b_fixed
I0828 16:10:17.223894 22589 net.cpp:197] Top shape: 1 256 14 14 (50176)
I0828 16:10:17.223897 22589 net.cpp:205] Memory required for data: 193880068
I0828 16:10:17.223901 22589 layer_factory.hpp:123] Creating layer res4f_branch2c
I0828 16:10:17.223911 22589 net.cpp:140] Creating Layer res4f_branch2c
I0828 16:10:17.223914 22589 net.cpp:481] res4f_branch2c <- res4f_branch2b
I0828 16:10:17.223918 22589 net.cpp:455] res4f_branch2c -> res4f_branch2c
I0828 16:10:17.225745 22589 layer_factory.hpp:123] Creating layer res4f_branch2c
I0828 16:10:17.227622 22589 net.cpp:190] Setting up res4f_branch2c
I0828 16:10:17.227648 22589 net.cpp:197] Top shape: 1 1024 14 14 (200704)
I0828 16:10:17.227650 22589 net.cpp:205] Memory required for data: 194682884
I0828 16:10:17.227655 22589 layer_factory.hpp:123] Creating layer res4f_branch2c_fixed
I0828 16:10:17.227661 22589 net.cpp:140] Creating Layer res4f_branch2c_fixed
I0828 16:10:17.227666 22589 net.cpp:481] res4f_branch2c_fixed <- res4f_branch2c
I0828 16:10:17.227674 22589 net.cpp:442] res4f_branch2c_fixed -> res4f_branch2c (in-place)
I0828 16:10:17.227702 22589 net.cpp:190] Setting up res4f_branch2c_fixed
I0828 16:10:17.227708 22589 net.cpp:197] Top shape: 1 1024 14 14 (200704)
I0828 16:10:17.227710 22589 net.cpp:205] Memory required for data: 195485700
I0828 16:10:17.227715 22589 layer_factory.hpp:123] Creating layer res4f
I0828 16:10:17.227721 22589 net.cpp:140] Creating Layer res4f
I0828 16:10:17.227726 22589 net.cpp:481] res4f <- res4e_res4e_fixed_0_split_1
I0828 16:10:17.227731 22589 net.cpp:481] res4f <- res4f_branch2c
I0828 16:10:17.227737 22589 net.cpp:455] res4f -> res4f
I0828 16:10:17.227754 22589 net.cpp:190] Setting up res4f
I0828 16:10:17.227759 22589 net.cpp:197] Top shape: 1 1024 14 14 (200704)
I0828 16:10:17.227762 22589 net.cpp:205] Memory required for data: 196288516
I0828 16:10:17.227766 22589 layer_factory.hpp:123] Creating layer res4f_relu
I0828 16:10:17.227771 22589 net.cpp:140] Creating Layer res4f_relu
I0828 16:10:17.227774 22589 net.cpp:481] res4f_relu <- res4f
I0828 16:10:17.227779 22589 net.cpp:442] res4f_relu -> res4f (in-place)
I0828 16:10:17.227787 22589 net.cpp:190] Setting up res4f_relu
I0828 16:10:17.227792 22589 net.cpp:197] Top shape: 1 1024 14 14 (200704)
I0828 16:10:17.227793 22589 net.cpp:205] Memory required for data: 197091332
I0828 16:10:17.227797 22589 layer_factory.hpp:123] Creating layer res4f_fixed
I0828 16:10:17.227802 22589 net.cpp:140] Creating Layer res4f_fixed
I0828 16:10:17.227805 22589 net.cpp:481] res4f_fixed <- res4f
I0828 16:10:17.227809 22589 net.cpp:442] res4f_fixed -> res4f (in-place)
I0828 16:10:17.227834 22589 net.cpp:190] Setting up res4f_fixed
I0828 16:10:17.227839 22589 net.cpp:197] Top shape: 1 1024 14 14 (200704)
I0828 16:10:17.227841 22589 net.cpp:205] Memory required for data: 197894148
I0828 16:10:17.227846 22589 layer_factory.hpp:123] Creating layer res4f_res4f_fixed_0_split
I0828 16:10:17.227851 22589 net.cpp:140] Creating Layer res4f_res4f_fixed_0_split
I0828 16:10:17.227855 22589 net.cpp:481] res4f_res4f_fixed_0_split <- res4f
I0828 16:10:17.227860 22589 net.cpp:455] res4f_res4f_fixed_0_split -> res4f_res4f_fixed_0_split_0
I0828 16:10:17.227867 22589 net.cpp:455] res4f_res4f_fixed_0_split -> res4f_res4f_fixed_0_split_1
I0828 16:10:17.227893 22589 net.cpp:190] Setting up res4f_res4f_fixed_0_split
I0828 16:10:17.227898 22589 net.cpp:197] Top shape: 1 1024 14 14 (200704)
I0828 16:10:17.227902 22589 net.cpp:197] Top shape: 1 1024 14 14 (200704)
I0828 16:10:17.227905 22589 net.cpp:205] Memory required for data: 199499780
I0828 16:10:17.227908 22589 layer_factory.hpp:123] Creating layer res5a_branch1
I0828 16:10:17.227914 22589 net.cpp:140] Creating Layer res5a_branch1
I0828 16:10:17.227918 22589 net.cpp:481] res5a_branch1 <- res4f_res4f_fixed_0_split_0
I0828 16:10:17.227923 22589 net.cpp:455] res5a_branch1 -> res5a_branch1
I0828 16:10:17.240281 22589 layer_factory.hpp:123] Creating layer res5a_branch1
I0828 16:10:17.252667 22589 net.cpp:190] Setting up res5a_branch1
I0828 16:10:17.252704 22589 net.cpp:197] Top shape: 1 2048 7 7 (100352)
I0828 16:10:17.252707 22589 net.cpp:205] Memory required for data: 199901188
I0828 16:10:17.252715 22589 layer_factory.hpp:123] Creating layer res5a_branch1_fixed
I0828 16:10:17.252722 22589 net.cpp:140] Creating Layer res5a_branch1_fixed
I0828 16:10:17.252743 22589 net.cpp:481] res5a_branch1_fixed <- res5a_branch1
I0828 16:10:17.252749 22589 net.cpp:442] res5a_branch1_fixed -> res5a_branch1 (in-place)
I0828 16:10:17.252775 22589 net.cpp:190] Setting up res5a_branch1_fixed
I0828 16:10:17.252781 22589 net.cpp:197] Top shape: 1 2048 7 7 (100352)
I0828 16:10:17.252796 22589 net.cpp:205] Memory required for data: 200302596
I0828 16:10:17.252799 22589 layer_factory.hpp:123] Creating layer res5a_branch2a
I0828 16:10:17.252822 22589 net.cpp:140] Creating Layer res5a_branch2a
I0828 16:10:17.252826 22589 net.cpp:481] res5a_branch2a <- res4f_res4f_fixed_0_split_1
I0828 16:10:17.252830 22589 net.cpp:455] res5a_branch2a -> res5a_branch2a
I0828 16:10:17.256129 22589 layer_factory.hpp:123] Creating layer res5a_branch2a
I0828 16:10:17.259407 22589 net.cpp:190] Setting up res5a_branch2a
I0828 16:10:17.259436 22589 net.cpp:197] Top shape: 1 512 7 7 (25088)
I0828 16:10:17.259439 22589 net.cpp:205] Memory required for data: 200402948
I0828 16:10:17.259447 22589 layer_factory.hpp:123] Creating layer res5a_branch2a_relu
I0828 16:10:17.259454 22589 net.cpp:140] Creating Layer res5a_branch2a_relu
I0828 16:10:17.259474 22589 net.cpp:481] res5a_branch2a_relu <- res5a_branch2a
I0828 16:10:17.259479 22589 net.cpp:442] res5a_branch2a_relu -> res5a_branch2a (in-place)
I0828 16:10:17.259487 22589 net.cpp:190] Setting up res5a_branch2a_relu
I0828 16:10:17.259495 22589 net.cpp:197] Top shape: 1 512 7 7 (25088)
I0828 16:10:17.259497 22589 net.cpp:205] Memory required for data: 200503300
I0828 16:10:17.259500 22589 layer_factory.hpp:123] Creating layer res5a_branch2a_fixed
I0828 16:10:17.259506 22589 net.cpp:140] Creating Layer res5a_branch2a_fixed
I0828 16:10:17.259511 22589 net.cpp:481] res5a_branch2a_fixed <- res5a_branch2a
I0828 16:10:17.259516 22589 net.cpp:442] res5a_branch2a_fixed -> res5a_branch2a (in-place)
I0828 16:10:17.259543 22589 net.cpp:190] Setting up res5a_branch2a_fixed
I0828 16:10:17.259548 22589 net.cpp:197] Top shape: 1 512 7 7 (25088)
I0828 16:10:17.259552 22589 net.cpp:205] Memory required for data: 200603652
I0828 16:10:17.259555 22589 layer_factory.hpp:123] Creating layer res5a_branch2b
I0828 16:10:17.259577 22589 net.cpp:140] Creating Layer res5a_branch2b
I0828 16:10:17.259580 22589 net.cpp:481] res5a_branch2b <- res5a_branch2a
I0828 16:10:17.259585 22589 net.cpp:455] res5a_branch2b -> res5a_branch2b
I0828 16:10:17.273371 22589 layer_factory.hpp:123] Creating layer res5a_branch2b
I0828 16:10:17.287259 22589 net.cpp:190] Setting up res5a_branch2b
I0828 16:10:17.287279 22589 net.cpp:197] Top shape: 1 512 7 7 (25088)
I0828 16:10:17.287297 22589 net.cpp:205] Memory required for data: 200704004
I0828 16:10:17.287303 22589 layer_factory.hpp:123] Creating layer res5a_branch2b_relu
I0828 16:10:17.287312 22589 net.cpp:140] Creating Layer res5a_branch2b_relu
I0828 16:10:17.287315 22589 net.cpp:481] res5a_branch2b_relu <- res5a_branch2b
I0828 16:10:17.287325 22589 net.cpp:442] res5a_branch2b_relu -> res5a_branch2b (in-place)
I0828 16:10:17.287334 22589 net.cpp:190] Setting up res5a_branch2b_relu
I0828 16:10:17.287340 22589 net.cpp:197] Top shape: 1 512 7 7 (25088)
I0828 16:10:17.287344 22589 net.cpp:205] Memory required for data: 200804356
I0828 16:10:17.287348 22589 layer_factory.hpp:123] Creating layer res5a_branch2b_fixed
I0828 16:10:17.287353 22589 net.cpp:140] Creating Layer res5a_branch2b_fixed
I0828 16:10:17.287356 22589 net.cpp:481] res5a_branch2b_fixed <- res5a_branch2b
I0828 16:10:17.287361 22589 net.cpp:442] res5a_branch2b_fixed -> res5a_branch2b (in-place)
I0828 16:10:17.287394 22589 net.cpp:190] Setting up res5a_branch2b_fixed
I0828 16:10:17.287398 22589 net.cpp:197] Top shape: 1 512 7 7 (25088)
I0828 16:10:17.287401 22589 net.cpp:205] Memory required for data: 200904708
I0828 16:10:17.287405 22589 layer_factory.hpp:123] Creating layer res5a_branch2c
I0828 16:10:17.287415 22589 net.cpp:140] Creating Layer res5a_branch2c
I0828 16:10:17.287420 22589 net.cpp:481] res5a_branch2c <- res5a_branch2b
I0828 16:10:17.287423 22589 net.cpp:455] res5a_branch2c -> res5a_branch2c
I0828 16:10:17.293481 22589 layer_factory.hpp:123] Creating layer res5a_branch2c
I0828 16:10:17.299546 22589 net.cpp:190] Setting up res5a_branch2c
I0828 16:10:17.299582 22589 net.cpp:197] Top shape: 1 2048 7 7 (100352)
I0828 16:10:17.299584 22589 net.cpp:205] Memory required for data: 201306116
I0828 16:10:17.299592 22589 layer_factory.hpp:123] Creating layer res5a_branch2c_fixed
I0828 16:10:17.299599 22589 net.cpp:140] Creating Layer res5a_branch2c_fixed
I0828 16:10:17.299604 22589 net.cpp:481] res5a_branch2c_fixed <- res5a_branch2c
I0828 16:10:17.299613 22589 net.cpp:442] res5a_branch2c_fixed -> res5a_branch2c (in-place)
I0828 16:10:17.299641 22589 net.cpp:190] Setting up res5a_branch2c_fixed
I0828 16:10:17.299648 22589 net.cpp:197] Top shape: 1 2048 7 7 (100352)
I0828 16:10:17.299649 22589 net.cpp:205] Memory required for data: 201707524
I0828 16:10:17.299654 22589 layer_factory.hpp:123] Creating layer res5a
I0828 16:10:17.299661 22589 net.cpp:140] Creating Layer res5a
I0828 16:10:17.299666 22589 net.cpp:481] res5a <- res5a_branch1
I0828 16:10:17.299670 22589 net.cpp:481] res5a <- res5a_branch2c
I0828 16:10:17.299677 22589 net.cpp:455] res5a -> res5a
I0828 16:10:17.299695 22589 net.cpp:190] Setting up res5a
I0828 16:10:17.299700 22589 net.cpp:197] Top shape: 1 2048 7 7 (100352)
I0828 16:10:17.299703 22589 net.cpp:205] Memory required for data: 202108932
I0828 16:10:17.299706 22589 layer_factory.hpp:123] Creating layer res5a_relu
I0828 16:10:17.299712 22589 net.cpp:140] Creating Layer res5a_relu
I0828 16:10:17.299716 22589 net.cpp:481] res5a_relu <- res5a
I0828 16:10:17.299721 22589 net.cpp:442] res5a_relu -> res5a (in-place)
I0828 16:10:17.299727 22589 net.cpp:190] Setting up res5a_relu
I0828 16:10:17.299732 22589 net.cpp:197] Top shape: 1 2048 7 7 (100352)
I0828 16:10:17.299734 22589 net.cpp:205] Memory required for data: 202510340
I0828 16:10:17.299737 22589 layer_factory.hpp:123] Creating layer res5a_fixed
I0828 16:10:17.299742 22589 net.cpp:140] Creating Layer res5a_fixed
I0828 16:10:17.299746 22589 net.cpp:481] res5a_fixed <- res5a
I0828 16:10:17.299751 22589 net.cpp:442] res5a_fixed -> res5a (in-place)
I0828 16:10:17.299777 22589 net.cpp:190] Setting up res5a_fixed
I0828 16:10:17.299782 22589 net.cpp:197] Top shape: 1 2048 7 7 (100352)
I0828 16:10:17.299783 22589 net.cpp:205] Memory required for data: 202911748
I0828 16:10:17.299787 22589 layer_factory.hpp:123] Creating layer res5a_res5a_fixed_0_split
I0828 16:10:17.299793 22589 net.cpp:140] Creating Layer res5a_res5a_fixed_0_split
I0828 16:10:17.299796 22589 net.cpp:481] res5a_res5a_fixed_0_split <- res5a
I0828 16:10:17.299801 22589 net.cpp:455] res5a_res5a_fixed_0_split -> res5a_res5a_fixed_0_split_0
I0828 16:10:17.299808 22589 net.cpp:455] res5a_res5a_fixed_0_split -> res5a_res5a_fixed_0_split_1
I0828 16:10:17.299832 22589 net.cpp:190] Setting up res5a_res5a_fixed_0_split
I0828 16:10:17.299837 22589 net.cpp:197] Top shape: 1 2048 7 7 (100352)
I0828 16:10:17.299840 22589 net.cpp:197] Top shape: 1 2048 7 7 (100352)
I0828 16:10:17.299844 22589 net.cpp:205] Memory required for data: 203714564
I0828 16:10:17.299849 22589 layer_factory.hpp:123] Creating layer res5b_branch2a
I0828 16:10:17.299857 22589 net.cpp:140] Creating Layer res5b_branch2a
I0828 16:10:17.299860 22589 net.cpp:481] res5b_branch2a <- res5a_res5a_fixed_0_split_0
I0828 16:10:17.299865 22589 net.cpp:455] res5b_branch2a -> res5b_branch2a
I0828 16:10:17.306073 22589 layer_factory.hpp:123] Creating layer res5b_branch2a
I0828 16:10:17.312249 22589 net.cpp:190] Setting up res5b_branch2a
I0828 16:10:17.312269 22589 net.cpp:197] Top shape: 1 512 7 7 (25088)
I0828 16:10:17.312273 22589 net.cpp:205] Memory required for data: 203814916
I0828 16:10:17.312283 22589 layer_factory.hpp:123] Creating layer res5b_branch2a_relu
I0828 16:10:17.312291 22589 net.cpp:140] Creating Layer res5b_branch2a_relu
I0828 16:10:17.312299 22589 net.cpp:481] res5b_branch2a_relu <- res5b_branch2a
I0828 16:10:17.312304 22589 net.cpp:442] res5b_branch2a_relu -> res5b_branch2a (in-place)
I0828 16:10:17.312314 22589 net.cpp:190] Setting up res5b_branch2a_relu
I0828 16:10:17.312319 22589 net.cpp:197] Top shape: 1 512 7 7 (25088)
I0828 16:10:17.312321 22589 net.cpp:205] Memory required for data: 203915268
I0828 16:10:17.312324 22589 layer_factory.hpp:123] Creating layer res5b_branch2a_fixed
I0828 16:10:17.312330 22589 net.cpp:140] Creating Layer res5b_branch2a_fixed
I0828 16:10:17.312335 22589 net.cpp:481] res5b_branch2a_fixed <- res5b_branch2a
I0828 16:10:17.312338 22589 net.cpp:442] res5b_branch2a_fixed -> res5b_branch2a (in-place)
I0828 16:10:17.312366 22589 net.cpp:190] Setting up res5b_branch2a_fixed
I0828 16:10:17.312371 22589 net.cpp:197] Top shape: 1 512 7 7 (25088)
I0828 16:10:17.312373 22589 net.cpp:205] Memory required for data: 204015620
I0828 16:10:17.312378 22589 layer_factory.hpp:123] Creating layer res5b_branch2b
I0828 16:10:17.312386 22589 net.cpp:140] Creating Layer res5b_branch2b
I0828 16:10:17.312391 22589 net.cpp:481] res5b_branch2b <- res5b_branch2a
I0828 16:10:17.312395 22589 net.cpp:455] res5b_branch2b -> res5b_branch2b
I0828 16:10:17.325808 22589 layer_factory.hpp:123] Creating layer res5b_branch2b
I0828 16:10:17.339337 22589 net.cpp:190] Setting up res5b_branch2b
I0828 16:10:17.339360 22589 net.cpp:197] Top shape: 1 512 7 7 (25088)
I0828 16:10:17.339377 22589 net.cpp:205] Memory required for data: 204115972
I0828 16:10:17.339385 22589 layer_factory.hpp:123] Creating layer res5b_branch2b_relu
I0828 16:10:17.339393 22589 net.cpp:140] Creating Layer res5b_branch2b_relu
I0828 16:10:17.339398 22589 net.cpp:481] res5b_branch2b_relu <- res5b_branch2b
I0828 16:10:17.339407 22589 net.cpp:442] res5b_branch2b_relu -> res5b_branch2b (in-place)
I0828 16:10:17.339416 22589 net.cpp:190] Setting up res5b_branch2b_relu
I0828 16:10:17.339421 22589 net.cpp:197] Top shape: 1 512 7 7 (25088)
I0828 16:10:17.339426 22589 net.cpp:205] Memory required for data: 204216324
I0828 16:10:17.339429 22589 layer_factory.hpp:123] Creating layer res5b_branch2b_fixed
I0828 16:10:17.339435 22589 net.cpp:140] Creating Layer res5b_branch2b_fixed
I0828 16:10:17.339442 22589 net.cpp:481] res5b_branch2b_fixed <- res5b_branch2b
I0828 16:10:17.339444 22589 net.cpp:442] res5b_branch2b_fixed -> res5b_branch2b (in-place)
I0828 16:10:17.339478 22589 net.cpp:190] Setting up res5b_branch2b_fixed
I0828 16:10:17.339483 22589 net.cpp:197] Top shape: 1 512 7 7 (25088)
I0828 16:10:17.339484 22589 net.cpp:205] Memory required for data: 204316676
I0828 16:10:17.339489 22589 layer_factory.hpp:123] Creating layer res5b_branch2c
I0828 16:10:17.339498 22589 net.cpp:140] Creating Layer res5b_branch2c
I0828 16:10:17.339502 22589 net.cpp:481] res5b_branch2c <- res5b_branch2b
I0828 16:10:17.339506 22589 net.cpp:455] res5b_branch2c -> res5b_branch2c
I0828 16:10:17.345573 22589 layer_factory.hpp:123] Creating layer res5b_branch2c
I0828 16:10:17.351660 22589 net.cpp:190] Setting up res5b_branch2c
I0828 16:10:17.351696 22589 net.cpp:197] Top shape: 1 2048 7 7 (100352)
I0828 16:10:17.351698 22589 net.cpp:205] Memory required for data: 204718084
I0828 16:10:17.351706 22589 layer_factory.hpp:123] Creating layer res5b_branch2c_fixed
I0828 16:10:17.351713 22589 net.cpp:140] Creating Layer res5b_branch2c_fixed
I0828 16:10:17.351719 22589 net.cpp:481] res5b_branch2c_fixed <- res5b_branch2c
I0828 16:10:17.351727 22589 net.cpp:442] res5b_branch2c_fixed -> res5b_branch2c (in-place)
I0828 16:10:17.351758 22589 net.cpp:190] Setting up res5b_branch2c_fixed
I0828 16:10:17.351764 22589 net.cpp:197] Top shape: 1 2048 7 7 (100352)
I0828 16:10:17.351768 22589 net.cpp:205] Memory required for data: 205119492
I0828 16:10:17.351771 22589 layer_factory.hpp:123] Creating layer res5b
I0828 16:10:17.351778 22589 net.cpp:140] Creating Layer res5b
I0828 16:10:17.351783 22589 net.cpp:481] res5b <- res5a_res5a_fixed_0_split_1
I0828 16:10:17.351788 22589 net.cpp:481] res5b <- res5b_branch2c
I0828 16:10:17.351794 22589 net.cpp:455] res5b -> res5b
I0828 16:10:17.351814 22589 net.cpp:190] Setting up res5b
I0828 16:10:17.351819 22589 net.cpp:197] Top shape: 1 2048 7 7 (100352)
I0828 16:10:17.351820 22589 net.cpp:205] Memory required for data: 205520900
I0828 16:10:17.351824 22589 layer_factory.hpp:123] Creating layer res5b_relu
I0828 16:10:17.351830 22589 net.cpp:140] Creating Layer res5b_relu
I0828 16:10:17.351833 22589 net.cpp:481] res5b_relu <- res5b
I0828 16:10:17.351838 22589 net.cpp:442] res5b_relu -> res5b (in-place)
I0828 16:10:17.351845 22589 net.cpp:190] Setting up res5b_relu
I0828 16:10:17.351850 22589 net.cpp:197] Top shape: 1 2048 7 7 (100352)
I0828 16:10:17.351852 22589 net.cpp:205] Memory required for data: 205922308
I0828 16:10:17.351855 22589 layer_factory.hpp:123] Creating layer res5b_fixed
I0828 16:10:17.351861 22589 net.cpp:140] Creating Layer res5b_fixed
I0828 16:10:17.351863 22589 net.cpp:481] res5b_fixed <- res5b
I0828 16:10:17.351868 22589 net.cpp:442] res5b_fixed -> res5b (in-place)
I0828 16:10:17.351894 22589 net.cpp:190] Setting up res5b_fixed
I0828 16:10:17.351899 22589 net.cpp:197] Top shape: 1 2048 7 7 (100352)
I0828 16:10:17.351902 22589 net.cpp:205] Memory required for data: 206323716
I0828 16:10:17.351907 22589 layer_factory.hpp:123] Creating layer res5b_res5b_fixed_0_split
I0828 16:10:17.351912 22589 net.cpp:140] Creating Layer res5b_res5b_fixed_0_split
I0828 16:10:17.351915 22589 net.cpp:481] res5b_res5b_fixed_0_split <- res5b
I0828 16:10:17.351920 22589 net.cpp:455] res5b_res5b_fixed_0_split -> res5b_res5b_fixed_0_split_0
I0828 16:10:17.351927 22589 net.cpp:455] res5b_res5b_fixed_0_split -> res5b_res5b_fixed_0_split_1
I0828 16:10:17.351951 22589 net.cpp:190] Setting up res5b_res5b_fixed_0_split
I0828 16:10:17.351956 22589 net.cpp:197] Top shape: 1 2048 7 7 (100352)
I0828 16:10:17.351960 22589 net.cpp:197] Top shape: 1 2048 7 7 (100352)
I0828 16:10:17.351963 22589 net.cpp:205] Memory required for data: 207126532
I0828 16:10:17.351967 22589 layer_factory.hpp:123] Creating layer res5c_branch2a
I0828 16:10:17.351976 22589 net.cpp:140] Creating Layer res5c_branch2a
I0828 16:10:17.351981 22589 net.cpp:481] res5c_branch2a <- res5b_res5b_fixed_0_split_0
I0828 16:10:17.351986 22589 net.cpp:455] res5c_branch2a -> res5c_branch2a
I0828 16:10:17.358108 22589 layer_factory.hpp:123] Creating layer res5c_branch2a
I0828 16:10:17.364193 22589 net.cpp:190] Setting up res5c_branch2a
I0828 16:10:17.364217 22589 net.cpp:197] Top shape: 1 512 7 7 (25088)
I0828 16:10:17.364221 22589 net.cpp:205] Memory required for data: 207226884
I0828 16:10:17.364230 22589 layer_factory.hpp:123] Creating layer res5c_branch2a_relu
I0828 16:10:17.364254 22589 net.cpp:140] Creating Layer res5c_branch2a_relu
I0828 16:10:17.364261 22589 net.cpp:481] res5c_branch2a_relu <- res5c_branch2a
I0828 16:10:17.364269 22589 net.cpp:442] res5c_branch2a_relu -> res5c_branch2a (in-place)
I0828 16:10:17.364276 22589 net.cpp:190] Setting up res5c_branch2a_relu
I0828 16:10:17.364281 22589 net.cpp:197] Top shape: 1 512 7 7 (25088)
I0828 16:10:17.364284 22589 net.cpp:205] Memory required for data: 207327236
I0828 16:10:17.364286 22589 layer_factory.hpp:123] Creating layer res5c_branch2a_fixed
I0828 16:10:17.364303 22589 net.cpp:140] Creating Layer res5c_branch2a_fixed
I0828 16:10:17.364306 22589 net.cpp:481] res5c_branch2a_fixed <- res5c_branch2a
I0828 16:10:17.364310 22589 net.cpp:442] res5c_branch2a_fixed -> res5c_branch2a (in-place)
I0828 16:10:17.364351 22589 net.cpp:190] Setting up res5c_branch2a_fixed
I0828 16:10:17.364356 22589 net.cpp:197] Top shape: 1 512 7 7 (25088)
I0828 16:10:17.364358 22589 net.cpp:205] Memory required for data: 207427588
I0828 16:10:17.364362 22589 layer_factory.hpp:123] Creating layer res5c_branch2b
I0828 16:10:17.364369 22589 net.cpp:140] Creating Layer res5c_branch2b
I0828 16:10:17.364372 22589 net.cpp:481] res5c_branch2b <- res5c_branch2a
I0828 16:10:17.364377 22589 net.cpp:455] res5c_branch2b -> res5c_branch2b
I0828 16:10:17.377935 22589 layer_factory.hpp:123] Creating layer res5c_branch2b
I0828 16:10:17.391465 22589 net.cpp:190] Setting up res5c_branch2b
I0828 16:10:17.391505 22589 net.cpp:197] Top shape: 1 512 7 7 (25088)
I0828 16:10:17.391507 22589 net.cpp:205] Memory required for data: 207527940
I0828 16:10:17.391515 22589 layer_factory.hpp:123] Creating layer res5c_branch2b_relu
I0828 16:10:17.391523 22589 net.cpp:140] Creating Layer res5c_branch2b_relu
I0828 16:10:17.391527 22589 net.cpp:481] res5c_branch2b_relu <- res5c_branch2b
I0828 16:10:17.391549 22589 net.cpp:442] res5c_branch2b_relu -> res5c_branch2b (in-place)
I0828 16:10:17.391558 22589 net.cpp:190] Setting up res5c_branch2b_relu
I0828 16:10:17.391563 22589 net.cpp:197] Top shape: 1 512 7 7 (25088)
I0828 16:10:17.391567 22589 net.cpp:205] Memory required for data: 207628292
I0828 16:10:17.391571 22589 layer_factory.hpp:123] Creating layer res5c_branch2b_fixed
I0828 16:10:17.391577 22589 net.cpp:140] Creating Layer res5c_branch2b_fixed
I0828 16:10:17.391579 22589 net.cpp:481] res5c_branch2b_fixed <- res5c_branch2b
I0828 16:10:17.391582 22589 net.cpp:442] res5c_branch2b_fixed -> res5c_branch2b (in-place)
I0828 16:10:17.391611 22589 net.cpp:190] Setting up res5c_branch2b_fixed
I0828 16:10:17.391630 22589 net.cpp:197] Top shape: 1 512 7 7 (25088)
I0828 16:10:17.391633 22589 net.cpp:205] Memory required for data: 207728644
I0828 16:10:17.391636 22589 layer_factory.hpp:123] Creating layer res5c_branch2c
I0828 16:10:17.391657 22589 net.cpp:140] Creating Layer res5c_branch2c
I0828 16:10:17.391662 22589 net.cpp:481] res5c_branch2c <- res5c_branch2b
I0828 16:10:17.391666 22589 net.cpp:455] res5c_branch2c -> res5c_branch2c
I0828 16:10:17.397855 22589 layer_factory.hpp:123] Creating layer res5c_branch2c
I0828 16:10:17.403899 22589 net.cpp:190] Setting up res5c_branch2c
I0828 16:10:17.403935 22589 net.cpp:197] Top shape: 1 2048 7 7 (100352)
I0828 16:10:17.403939 22589 net.cpp:205] Memory required for data: 208130052
I0828 16:10:17.403945 22589 layer_factory.hpp:123] Creating layer res5c_branch2c_fixed
I0828 16:10:17.403954 22589 net.cpp:140] Creating Layer res5c_branch2c_fixed
I0828 16:10:17.403959 22589 net.cpp:481] res5c_branch2c_fixed <- res5c_branch2c
I0828 16:10:17.403980 22589 net.cpp:442] res5c_branch2c_fixed -> res5c_branch2c (in-place)
I0828 16:10:17.404008 22589 net.cpp:190] Setting up res5c_branch2c_fixed
I0828 16:10:17.404013 22589 net.cpp:197] Top shape: 1 2048 7 7 (100352)
I0828 16:10:17.404016 22589 net.cpp:205] Memory required for data: 208531460
I0828 16:10:17.404021 22589 layer_factory.hpp:123] Creating layer res5c
I0828 16:10:17.404026 22589 net.cpp:140] Creating Layer res5c
I0828 16:10:17.404028 22589 net.cpp:481] res5c <- res5b_res5b_fixed_0_split_1
I0828 16:10:17.404031 22589 net.cpp:481] res5c <- res5c_branch2c
I0828 16:10:17.404036 22589 net.cpp:455] res5c -> res5c
I0828 16:10:17.404052 22589 net.cpp:190] Setting up res5c
I0828 16:10:17.404055 22589 net.cpp:197] Top shape: 1 2048 7 7 (100352)
I0828 16:10:17.404057 22589 net.cpp:205] Memory required for data: 208932868
I0828 16:10:17.404060 22589 layer_factory.hpp:123] Creating layer res5c_relu
I0828 16:10:17.404064 22589 net.cpp:140] Creating Layer res5c_relu
I0828 16:10:17.404067 22589 net.cpp:481] res5c_relu <- res5c
I0828 16:10:17.404070 22589 net.cpp:442] res5c_relu -> res5c (in-place)
I0828 16:10:17.404075 22589 net.cpp:190] Setting up res5c_relu
I0828 16:10:17.404079 22589 net.cpp:197] Top shape: 1 2048 7 7 (100352)
I0828 16:10:17.404083 22589 net.cpp:205] Memory required for data: 209334276
I0828 16:10:17.404084 22589 layer_factory.hpp:123] Creating layer res5c_fixed
I0828 16:10:17.404088 22589 net.cpp:140] Creating Layer res5c_fixed
I0828 16:10:17.404090 22589 net.cpp:481] res5c_fixed <- res5c
I0828 16:10:17.404093 22589 net.cpp:442] res5c_fixed -> res5c (in-place)
I0828 16:10:17.404119 22589 net.cpp:190] Setting up res5c_fixed
I0828 16:10:17.404124 22589 net.cpp:197] Top shape: 1 2048 7 7 (100352)
I0828 16:10:17.404126 22589 net.cpp:205] Memory required for data: 209735684
I0828 16:10:17.404130 22589 layer_factory.hpp:123] Creating layer pool5
I0828 16:10:17.404137 22589 net.cpp:140] Creating Layer pool5
I0828 16:10:17.404143 22589 net.cpp:481] pool5 <- res5c
I0828 16:10:17.404148 22589 net.cpp:455] pool5 -> pool5
I0828 16:10:17.404176 22589 net.cpp:190] Setting up pool5
I0828 16:10:17.404194 22589 net.cpp:197] Top shape: 1 2048 1 1 (2048)
I0828 16:10:17.404197 22589 net.cpp:205] Memory required for data: 209743876
I0828 16:10:17.404201 22589 layer_factory.hpp:123] Creating layer pool5_fixed
I0828 16:10:17.404206 22589 net.cpp:140] Creating Layer pool5_fixed
I0828 16:10:17.404209 22589 net.cpp:481] pool5_fixed <- pool5
I0828 16:10:17.404214 22589 net.cpp:442] pool5_fixed -> pool5 (in-place)
I0828 16:10:17.404238 22589 net.cpp:190] Setting up pool5_fixed
I0828 16:10:17.404243 22589 net.cpp:197] Top shape: 1 2048 1 1 (2048)
I0828 16:10:17.404245 22589 net.cpp:205] Memory required for data: 209752068
I0828 16:10:17.404250 22589 layer_factory.hpp:123] Creating layer fc1000
I0828 16:10:17.404256 22589 net.cpp:140] Creating Layer fc1000
I0828 16:10:17.404260 22589 net.cpp:481] fc1000 <- pool5
I0828 16:10:17.404265 22589 net.cpp:455] fc1000 -> fc1000
I0828 16:10:17.415892 22589 layer_factory.hpp:123] Creating layer fc1000
I0828 16:10:17.427431 22589 net.cpp:190] Setting up fc1000
I0828 16:10:17.427470 22589 net.cpp:197] Top shape: 1 1000 (1000)
I0828 16:10:17.427474 22589 net.cpp:205] Memory required for data: 209756068
I0828 16:10:17.427482 22589 layer_factory.hpp:123] Creating layer fc1000_fixed
I0828 16:10:17.427491 22589 net.cpp:140] Creating Layer fc1000_fixed
I0828 16:10:17.427495 22589 net.cpp:481] fc1000_fixed <- fc1000
I0828 16:10:17.427505 22589 net.cpp:442] fc1000_fixed -> fc1000 (in-place)
I0828 16:10:17.427536 22589 net.cpp:190] Setting up fc1000_fixed
I0828 16:10:17.427542 22589 net.cpp:197] Top shape: 1 1000 (1000)
I0828 16:10:17.427544 22589 net.cpp:205] Memory required for data: 209760068
I0828 16:10:17.427549 22589 layer_factory.hpp:123] Creating layer prob
I0828 16:10:17.427556 22589 net.cpp:140] Creating Layer prob
I0828 16:10:17.427561 22589 net.cpp:481] prob <- fc1000
I0828 16:10:17.427567 22589 net.cpp:455] prob -> prob
I0828 16:10:17.427613 22589 net.cpp:190] Setting up prob
I0828 16:10:17.427618 22589 net.cpp:197] Top shape: 1 1000 (1000)
I0828 16:10:17.427621 22589 net.cpp:205] Memory required for data: 209764068
I0828 16:10:17.427625 22589 net.cpp:268] prob does not need backward computation.
I0828 16:10:17.427639 22589 net.cpp:268] fc1000_fixed does not need backward computation.
I0828 16:10:17.427642 22589 net.cpp:268] fc1000 does not need backward computation.
I0828 16:10:17.427646 22589 net.cpp:268] pool5_fixed does not need backward computation.
…
