…
I0828 17:24:33.521708 24978 net.cpp:369] The NetState phase (0) differed from the phase (1) specified by a rule in layer data
I0828 17:24:33.522588 24978 net.cpp:98] Initializing net from parameters: 
state {
  phase: TRAIN
}
layer {
  name: "data"
  type: "ImageData"
  top: "data"
  top: "label"
  include {
    phase: TRAIN
  }
  transform_param {
    mirror: true
    crop_size: 224
    mean_value: 104
    mean_value: 107
    mean_value: 123
  }
  image_data_param {
    source: "/SSD/git-tutorial/GPU-DPU-cross-check/images/image500/caffe_calib.txt"
    batch_size: 20
    shuffle: true
    root_folder: "/SSD/git-tutorial/GPU-DPU-cross-check/images/image500/"
  }
}
layer {
  name: "conv1"
  type: "Convolution"
  bottom: "data"
  top: "conv1"
  convolution_param {
    num_output: 64
    pad: 3
    kernel_size: 7
    stride: 2
    weight_filler {
      type: "xavier"
    }
    bias_filler {
      type: "constant"
      value: 0.2
    }
  }
}
layer {
  name: "bn_conv1"
  type: "BatchNorm"
  bottom: "conv1"
  top: "conv1"
  param {
    lr_mult: 1
    decay_mult: 0
  }
  param {
    lr_mult: 1
    decay_mult: 0
  }
  param {
    lr_mult: 0
    decay_mult: 0
  }
  param {
    lr_mult: 0
    decay_mult: 0
  }
  batch_norm_param {
    scale_filler {
      type: "constant"
      value: 1
    }
    bias_filler {
      type: "constant"
      value: 0
    }
  }
}
layer {
  name: "conv1_relu"
  type: "ReLU"
  bottom: "conv1"
  top: "conv1"
  relu_param {
  }
}
layer {
  name: "pool1"
  type: "Pooling"
  bottom: "conv1"
  top: "pool1"
  pooling_param {
    pool: MAX
    kernel_size: 3
    stride: 2
  }
}
layer {
  name: "res2a_branch1"
  type: "Convolution"
  bottom: "pool1"
  top: "res2a_branch1"
  convolution_param {
    num_output: 256
    bias_term: false
    pad: 0
    kernel_size: 1
    stride: 1
    weight_filler {
      type: "xavier"
    }
    bias_filler {
      type: "constant"
      value: 0.2
    }
  }
}
layer {
  name: "bn2a_branch1"
  type: "BatchNorm"
  bottom: "res2a_branch1"
  top: "res2a_branch1"
  param {
    lr_mult: 1
    decay_mult: 0
  }
  param {
    lr_mult: 1
    decay_mult: 0
  }
  param {
    lr_mult: 0
    decay_mult: 0
  }
  param {
    lr_mult: 0
    decay_mult: 0
  }
  batch_norm_param {
    scale_filler {
      type: "constant"
      value: 1
    }
    bias_filler {
      type: "constant"
      value: 0
    }
  }
}
layer {
  name: "res2a_branch2a"
  type: "Convolution"
  bottom: "pool1"
  top: "res2a_branch2a"
  convolution_param {
    num_output: 64
    bias_term: false
    pad: 0
    kernel_size: 1
    stride: 1
    weight_filler {
      type: "xavier"
    }
    bias_filler {
      type: "constant"
      value: 0.2
    }
  }
}
layer {
  name: "bn2a_branch2a"
  type: "BatchNorm"
  bottom: "res2a_branch2a"
  top: "res2a_branch2a"
  param {
    lr_mult: 1
    decay_mult: 0
  }
  param {
    lr_mult: 1
    decay_mult: 0
  }
  param {
    lr_mult: 0
    decay_mult: 0
  }
  param {
    lr_mult: 0
    decay_mult: 0
  }
  batch_norm_param {
    scale_filler {
      type: "constant"
      value: 1
    }
    bias_filler {
      type: "constant"
      value: 0
    }
  }
}
layer {
  name: "res2a_branch2a_relu"
  type: "ReLU"
  bottom: "res2a_branch2a"
  top: "res2a_branch2a"
  relu_param {
  }
}
layer {
  name: "res2a_branch2b"
  type: "Convolution"
  bottom: "res2a_branch2a"
  top: "res2a_branch2b"
  convolution_param {
    num_output: 64
    bias_term: false
    pad: 1
    kernel_size: 3
    stride: 1
    weight_filler {
      type: "xavier"
    }
    bias_filler {
      type: "constant"
      value: 0.2
    }
  }
}
layer {
  name: "bn2a_branch2b"
  type: "BatchNorm"
  bottom: "res2a_branch2b"
  top: "res2a_branch2b"
  param {
    lr_mult: 1
    decay_mult: 0
  }
  param {
    lr_mult: 1
    decay_mult: 0
  }
  param {
    lr_mult: 0
    decay_mult: 0
  }
  param {
    lr_mult: 0
    decay_mult: 0
  }
  batch_norm_param {
    scale_filler {
      type: "constant"
      value: 1
    }
    bias_filler {
      type: "constant"
      value: 0
    }
  }
}
layer {
  name: "res2a_branch2b_relu"
  type: "ReLU"
  bottom: "res2a_branch2b"
  top: "res2a_branch2b"
  relu_param {
  }
}
layer {
  name: "res2a_branch2c"
  type: "Convolution"
  bottom: "res2a_branch2b"
  top: "res2a_branch2c"
  convolution_param {
    num_output: 256
    bias_term: false
    pad: 0
    kernel_size: 1
    stride: 1
    weight_filler {
      type: "xavier"
    }
    bias_filler {
      type: "constant"
      value: 0.2
    }
  }
}
layer {
  name: "bn2a_branch2c"
  type: "BatchNorm"
  bottom: "res2a_branch2c"
  top: "res2a_branch2c"
  param {
    lr_mult: 1
    decay_mult: 0
  }
  param {
    lr_mult: 1
    decay_mult: 0
  }
  param {
    lr_mult: 0
    decay_mult: 0
  }
  param {
    lr_mult: 0
    decay_mult: 0
  }
  batch_norm_param {
    scale_filler {
      type: "constant"
      value: 1
    }
    bias_filler {
      type: "constant"
      value: 0
    }
  }
}
layer {
  name: "res2a"
  type: "Eltwise"
  bottom: "res2a_branch1"
  bottom: "res2a_branch2c"
  top: "res2a"
  eltwise_param {
  }
}
layer {
  name: "res2a_relu"
  type: "ReLU"
  bottom: "res2a"
  top: "res2a"
  relu_param {
  }
}
layer {
  name: "res2b_branch2a"
  type: "Convolution"
  bottom: "res2a"
  top: "res2b_branch2a"
  convolution_param {
    num_output: 64
    bias_term: false
    pad: 0
    kernel_size: 1
    stride: 1
    weight_filler {
      type: "xavier"
    }
    bias_filler {
      type: "constant"
      value: 0.2
    }
  }
}
layer {
  name: "bn2b_branch2a"
  type: "BatchNorm"
  bottom: "res2b_branch2a"
  top: "res2b_branch2a"
  param {
    lr_mult: 1
    decay_mult: 0
  }
  param {
    lr_mult: 1
    decay_mult: 0
  }
  param {
    lr_mult: 0
    decay_mult: 0
  }
  param {
    lr_mult: 0
    decay_mult: 0
  }
  batch_norm_param {
    scale_filler {
      type: "constant"
      value: 1
    }
    bias_filler {
      type: "constant"
      value: 0
    }
  }
}
layer {
  name: "res2b_branch2a_relu"
  type: "ReLU"
  bottom: "res2b_branch2a"
  top: "res2b_branch2a"
  relu_param {
  }
}
layer {
  name: "res2b_branch2b"
  type: "Convolution"
  bottom: "res2b_branch2a"
  top: "res2b_branch2b"
  convolution_param {
    num_output: 64
    bias_term: false
    pad: 1
    kernel_size: 3
    stride: 1
    weight_filler {
      type: "xavier"
    }
    bias_filler {
      type: "constant"
      value: 0.2
    }
  }
}
layer {
  name: "bn2b_branch2b"
  type: "BatchNorm"
  bottom: "res2b_branch2b"
  top: "res2b_branch2b"
  param {
    lr_mult: 1
    decay_mult: 0
  }
  param {
    lr_mult: 1
    decay_mult: 0
  }
  param {
    lr_mult: 0
    decay_mult: 0
  }
  param {
    lr_mult: 0
    decay_mult: 0
  }
  batch_norm_param {
    scale_filler {
      type: "constant"
      value: 1
    }
    bias_filler {
      type: "constant"
      value: 0
    }
  }
}
layer {
  name: "res2b_branch2b_relu"
  type: "ReLU"
  bottom: "res2b_branch2b"
  top: "res2b_branch2b"
  relu_param {
  }
}
layer {
  name: "res2b_branch2c"
  type: "Convolution"
  bottom: "res2b_branch2b"
  top: "res2b_branch2c"
  convolution_param {
    num_output: 256
    bias_term: false
    pad: 0
    kernel_size: 1
    stride: 1
    weight_filler {
      type: "xavier"
    }
    bias_filler {
      type: "constant"
      value: 0.2
    }
  }
}
layer {
  name: "bn2b_branch2c"
  type: "BatchNorm"
  bottom: "res2b_branch2c"
  top: "res2b_branch2c"
  param {
    lr_mult: 1
    decay_mult: 0
  }
  param {
    lr_mult: 1
    decay_mult: 0
  }
  param {
    lr_mult: 0
    decay_mult: 0
  }
  param {
    lr_mult: 0
    decay_mult: 0
  }
  batch_norm_param {
    scale_filler {
      type: "constant"
      value: 1
    }
    bias_filler {
      type: "constant"
      value: 0
    }
  }
}
layer {
  name: "res2b"
  type: "Eltwise"
  bottom: "res2a"
  bottom: "res2b_branch2c"
  top: "res2b"
  eltwise_param {
  }
}
layer {
  name: "res2b_relu"
  type: "ReLU"
  bottom: "res2b"
  top: "res2b"
  relu_param {
  }
}
layer {
  name: "res2c_branch2a"
  type: "Convolution"
  bottom: "res2b"
  top: "res2c_branch2a"
  convolution_param {
    num_output: 64
    bias_term: false
    pad: 0
    kernel_size: 1
    stride: 1
    weight_filler {
      type: "xavier"
    }
    bias_filler {
      type: "constant"
      value: 0.2
    }
  }
}
layer {
  name: "bn2c_branch2a"
  type: "BatchNorm"
  bottom: "res2c_branch2a"
  top: "res2c_branch2a"
  param {
    lr_mult: 1
    decay_mult: 0
  }
  param {
    lr_mult: 1
    decay_mult: 0
  }
  param {
    lr_mult: 0
    decay_mult: 0
  }
  param {
    lr_mult: 0
    decay_mult: 0
  }
  batch_norm_param {
    scale_filler {
      type: "constant"
      value: 1
    }
    bias_filler {
      type: "constant"
      value: 0
    }
  }
}
layer {
  name: "res2c_branch2a_relu"
  type: "ReLU"
  bottom: "res2c_branch2a"
  top: "res2c_branch2a"
  relu_param {
  }
}
layer {
  name: "res2c_branch2b"
  type: "Convolution"
  bottom: "res2c_branch2a"
  top: "res2c_branch2b"
  convolution_param {
    num_output: 64
    bias_term: false
    pad: 1
    kernel_size: 3
    stride: 1
    weight_filler {
      type: "xavier"
    }
    bias_filler {
      type: "constant"
      value: 0.2
    }
  }
}
layer {
  name: "bn2c_branch2b"
  type: "BatchNorm"
  bottom: "res2c_branch2b"
  top: "res2c_branch2b"
  param {
    lr_mult: 1
    decay_mult: 0
  }
  param {
    lr_mult: 1
    decay_mult: 0
  }
  param {
    lr_mult: 0
    decay_mult: 0
  }
  param {
    lr_mult: 0
    decay_mult: 0
  }
  batch_norm_param {
    scale_filler {
      type: "constant"
      value: 1
    }
    bias_filler {
      type: "constant"
      value: 0
    }
  }
}
layer {
  name: "res2c_branch2b_relu"
  type: "ReLU"
  bottom: "res2c_branch2b"
  top: "res2c_branch2b"
  relu_param {
  }
}
layer {
  name: "res2c_branch2c"
  type: "Convolution"
  bottom: "res2c_branch2b"
  top: "res2c_branch2c"
  convolution_param {
    num_output: 256
    bias_term: false
    pad: 0
    kernel_size: 1
    stride: 1
    weight_filler {
      type: "xavier"
    }
    bias_filler {
      type: "constant"
      value: 0.2
    }
  }
}
layer {
  name: "bn2c_branch2c"
  type: "BatchNorm"
  bottom: "res2c_branch2c"
  top: "res2c_branch2c"
  param {
    lr_mult: 1
    decay_mult: 0
  }
  param {
    lr_mult: 1
    decay_mult: 0
  }
  param {
    lr_mult: 0
    decay_mult: 0
  }
  param {
    lr_mult: 0
    decay_mult: 0
  }
  batch_norm_param {
    scale_filler {
      type: "constant"
      value: 1
    }
    bias_filler {
      type: "constant"
      value: 0
    }
  }
}
layer {
  name: "res2c"
  type: "Eltwise"
  bottom: "res2b"
  bottom: "res2c_branch2c"
  top: "res2c"
  eltwise_param {
  }
}
layer {
  name: "res2c_relu"
  type: "ReLU"
  bottom: "res2c"
  top: "res2c"
  relu_param {
  }
}
layer {
  name: "res3a_branch1"
  type: "Convolution"
  bottom: "res2c"
  top: "res3a_branch1"
  convolution_param {
    num_output: 512
    bias_term: false
    pad: 0
    kernel_size: 1
    stride: 2
    weight_filler {
      type: "xavier"
    }
    bias_filler {
      type: "constant"
      value: 0.2
    }
  }
}
layer {
  name: "bn3a_branch1"
  type: "BatchNorm"
  bottom: "res3a_branch1"
  top: "res3a_branch1"
  param {
    lr_mult: 1
    decay_mult: 0
  }
  param {
    lr_mult: 1
    decay_mult: 0
  }
  param {
    lr_mult: 0
    decay_mult: 0
  }
  param {
    lr_mult: 0
    decay_mult: 0
  }
  batch_norm_param {
    scale_filler {
      type: "constant"
      value: 1
    }
    bias_filler {
      type: "constant"
      value: 0
    }
  }
}
layer {
  name: "res3a_branch2a"
  type: "Convolution"
  bottom: "res2c"
  top: "res3a_branch2a"
  convolution_param {
    num_output: 128
    bias_term: false
    pad: 0
    kernel_size: 1
    stride: 2
    weight_filler {
      type: "xavier"
    }
    bias_filler {
      type: "constant"
      value: 0.2
    }
  }
}
layer {
  name: "bn3a_branch2a"
  type: "BatchNorm"
  bottom: "res3a_branch2a"
  top: "res3a_branch2a"
  param {
    lr_mult: 1
    decay_mult: 0
  }
  param {
    lr_mult: 1
    decay_mult: 0
  }
  param {
    lr_mult: 0
    decay_mult: 0
  }
  param {
    lr_mult: 0
    decay_mult: 0
  }
  batch_norm_param {
    scale_filler {
      type: "constant"
      value: 1
    }
    bias_filler {
      type: "constant"
      value: 0
    }
  }
}
layer {
  name: "res3a_branch2a_relu"
  type: "ReLU"
  bottom: "res3a_branch2a"
  top: "res3a_branch2a"
  relu_param {
  }
}
layer {
  name: "res3a_branch2b"
  type: "Convolution"
  bottom: "res3a_branch2a"
  top: "res3a_branch2b"
  convolution_param {
    num_output: 128
    bias_term: false
    pad: 1
    kernel_size: 3
    stride: 1
    weight_filler {
      type: "xavier"
    }
    bias_filler {
      type: "constant"
      value: 0.2
    }
  }
}
layer {
  name: "bn3a_branch2b"
  type: "BatchNorm"
  bottom: "res3a_branch2b"
  top: "res3a_branch2b"
  param {
    lr_mult: 1
    decay_mult: 0
  }
  param {
    lr_mult: 1
    decay_mult: 0
  }
  param {
    lr_mult: 0
    decay_mult: 0
  }
  param {
    lr_mult: 0
    decay_mult: 0
  }
  batch_norm_param {
    scale_filler {
      type: "constant"
      value: 1
    }
    bias_filler {
      type: "constant"
      value: 0
    }
  }
}
layer {
  name: "res3a_branch2b_relu"
  type: "ReLU"
  bottom: "res3a_branch2b"
  top: "res3a_branch2b"
  relu_param {
  }
}
layer {
  name: "res3a_branch2c"
  type: "Convolution"
  bottom: "res3a_branch2b"
  top: "res3a_branch2c"
  convolution_param {
    num_output: 512
    bias_term: false
    pad: 0
    kernel_size: 1
    stride: 1
    weight_filler {
      type: "xavier"
    }
    bias_filler {
      type: "constant"
      value: 0.2
    }
  }
}
layer {
  name: "bn3a_branch2c"
  type: "BatchNorm"
  bottom: "res3a_branch2c"
  top: "res3a_branch2c"
  param {
    lr_mult: 1
    decay_mult: 0
  }
  param {
    lr_mult: 1
    decay_mult: 0
  }
  param {
    lr_mult: 0
    decay_mult: 0
  }
  param {
    lr_mult: 0
    decay_mult: 0
  }
  batch_norm_param {
    scale_filler {
      type: "constant"
      value: 1
    }
    bias_filler {
      type: "constant"
      value: 0
    }
  }
}
layer {
  name: "res3a"
  type: "Eltwise"
  bottom: "res3a_branch1"
  bottom: "res3a_branch2c"
  top: "res3a"
  eltwise_param {
  }
}
layer {
  name: "res3a_relu"
  type: "ReLU"
  bottom: "res3a"
  top: "res3a"
  relu_param {
  }
}
layer {
  name: "res3b_branch2a"
  type: "Convolution"
  bottom: "res3a"
  top: "res3b_branch2a"
  convolution_param {
    num_output: 128
    bias_term: false
    pad: 0
    kernel_size: 1
    stride: 1
    weight_filler {
      type: "xavier"
    }
    bias_filler {
      type: "constant"
      value: 0.2
    }
  }
}
layer {
  name: "bn3b_branch2a"
  type: "BatchNorm"
  bottom: "res3b_branch2a"
  top: "res3b_branch2a"
  param {
    lr_mult: 1
    decay_mult: 0
  }
  param {
    lr_mult: 1
    decay_mult: 0
  }
  param {
    lr_mult: 0
    decay_mult: 0
  }
  param {
    lr_mult: 0
    decay_mult: 0
  }
  batch_norm_param {
    scale_filler {
      type: "constant"
      value: 1
    }
    bias_filler {
      type: "constant"
      value: 0
    }
  }
}
layer {
  name: "res3b_branch2a_relu"
  type: "ReLU"
  bottom: "res3b_branch2a"
  top: "res3b_branch2a"
  relu_param {
  }
}
layer {
  name: "res3b_branch2b"
  type: "Convolution"
  bottom: "res3b_branch2a"
  top: "res3b_branch2b"
  convolution_param {
    num_output: 128
    bias_term: false
    pad: 1
    kernel_size: 3
    stride: 1
    weight_filler {
      type: "xavier"
    }
    bias_filler {
      type: "constant"
      value: 0.2
    }
  }
}
layer {
  name: "bn3b_branch2b"
  type: "BatchNorm"
  bottom: "res3b_branch2b"
  top: "res3b_branch2b"
  param {
    lr_mult: 1
    decay_mult: 0
  }
  param {
    lr_mult: 1
    decay_mult: 0
  }
  param {
    lr_mult: 0
    decay_mult: 0
  }
  param {
    lr_mult: 0
    decay_mult: 0
  }
  batch_norm_param {
    scale_filler {
      type: "constant"
      value: 1
    }
    bias_filler {
      type: "constant"
      value: 0
    }
  }
}
layer {
  name: "res3b_branch2b_relu"
  type: "ReLU"
  bottom: "res3b_branch2b"
  top: "res3b_branch2b"
  relu_param {
  }
}
layer {
  name: "res3b_branch2c"
  type: "Convolution"
  bottom: "res3b_branch2b"
  top: "res3b_branch2c"
  convolution_param {
    num_output: 512
    bias_term: false
    pad: 0
    kernel_size: 1
    stride: 1
    weight_filler {
      type: "xavier"
    }
    bias_filler {
      type: "constant"
      value: 0.2
    }
  }
}
layer {
  name: "bn3b_branch2c"
  type: "BatchNorm"
  bottom: "res3b_branch2c"
  top: "res3b_branch2c"
  param {
    lr_mult: 1
    decay_mult: 0
  }
  param {
    lr_mult: 1
    decay_mult: 0
  }
  param {
    lr_mult: 0
    decay_mult: 0
  }
  param {
    lr_mult: 0
    decay_mult: 0
  }
  batch_norm_param {
    scale_filler {
      type: "constant"
      value: 1
    }
    bias_filler {
      type: "constant"
      value: 0
    }
  }
}
layer {
  name: "res3b"
  type: "Eltwise"
  bottom: "res3a"
  bottom: "res3b_branch2c"
  top: "res3b"
  eltwise_param {
  }
}
layer {
  name: "res3b_relu"
  type: "ReLU"
  bottom: "res3b"
  top: "res3b"
  relu_param {
  }
}
layer {
  name: "res3c_branch2a"
  type: "Convolution"
  bottom: "res3b"
  top: "res3c_branch2a"
  convolution_param {
    num_output: 128
    bias_term: false
    pad: 0
    kernel_size: 1
    stride: 1
    weight_filler {
      type: "xavier"
    }
    bias_filler {
      type: "constant"
      value: 0.2
    }
  }
}
layer {
  name: "bn3c_branch2a"
  type: "BatchNorm"
  bottom: "res3c_branch2a"
  top: "res3c_branch2a"
  param {
    lr_mult: 1
    decay_mult: 0
  }
  param {
    lr_mult: 1
    decay_mult: 0
  }
  param {
    lr_mult: 0
    decay_mult: 0
  }
  param {
    lr_mult: 0
    decay_mult: 0
  }
  batch_norm_param {
    scale_filler {
      type: "constant"
      value: 1
    }
    bias_filler {
      type: "constant"
      value: 0
    }
  }
}
layer {
  name: "res3c_branch2a_relu"
  type: "ReLU"
  bottom: "res3c_branch2a"
  top: "res3c_branch2a"
  relu_param {
  }
}
layer {
  name: "res3c_branch2b"
  type: "Convolution"
  bottom: "res3c_branch2a"
  top: "res3c_branch2b"
  convolution_param {
    num_output: 128
    bias_term: false
    pad: 1
    kernel_size: 3
    stride: 1
    weight_filler {
      type: "xavier"
    }
    bias_filler {
      type: "constant"
      value: 0.2
    }
  }
}
layer {
  name: "bn3c_branch2b"
  type: "BatchNorm"
  bottom: "res3c_branch2b"
  top: "res3c_branch2b"
  param {
    lr_mult: 1
    decay_mult: 0
  }
  param {
    lr_mult: 1
    decay_mult: 0
  }
  param {
    lr_mult: 0
    decay_mult: 0
  }
  param {
    lr_mult: 0
    decay_mult: 0
  }
  batch_norm_param {
    scale_filler {
      type: "constant"
      value: 1
    }
    bias_filler {
      type: "constant"
      value: 0
    }
  }
}
layer {
  name: "res3c_branch2b_relu"
  type: "ReLU"
  bottom: "res3c_branch2b"
  top: "res3c_branch2b"
  relu_param {
  }
}
layer {
  name: "res3c_branch2c"
  type: "Convolution"
  bottom: "res3c_branch2b"
  top: "res3c_branch2c"
  convolution_param {
    num_output: 512
    bias_term: false
    pad: 0
    kernel_size: 1
    stride: 1
    weight_filler {
      type: "xavier"
    }
    bias_filler {
      type: "constant"
      value: 0.2
    }
  }
}
layer {
  name: "bn3c_branch2c"
  type: "BatchNorm"
  bottom: "res3c_branch2c"
  top: "res3c_branch2c"
  param {
    lr_mult: 1
    decay_mult: 0
  }
  param {
    lr_mult: 1
    decay_mult: 0
  }
  param {
    lr_mult: 0
    decay_mult: 0
  }
  param {
    lr_mult: 0
    decay_mult: 0
  }
  batch_norm_param {
    scale_filler {
      type: "constant"
      value: 1
    }
    bias_filler {
      type: "constant"
      value: 0
    }
  }
}
layer {
  name: "res3c"
  type: "Eltwise"
  bottom: "res3b"
  bottom: "res3c_branch2c"
  top: "res3c"
  eltwise_param {
  }
}
layer {
  name: "res3c_relu"
  type: "ReLU"
  bottom: "res3c"
  top: "res3c"
  relu_param {
  }
}
layer {
  name: "res3d_branch2a"
  type: "Convolution"
  bottom: "res3c"
  top: "res3d_branch2a"
  convolution_param {
    num_output: 128
    bias_term: false
    pad: 0
    kernel_size: 1
    stride: 1
    weight_filler {
      type: "xavier"
    }
    bias_filler {
      type: "constant"
      value: 0.2
    }
  }
}
layer {
  name: "bn3d_branch2a"
  type: "BatchNorm"
  bottom: "res3d_branch2a"
  top: "res3d_branch2a"
  param {
    lr_mult: 1
    decay_mult: 0
  }
  param {
    lr_mult: 1
    decay_mult: 0
  }
  param {
    lr_mult: 0
    decay_mult: 0
  }
  param {
    lr_mult: 0
    decay_mult: 0
  }
  batch_norm_param {
    scale_filler {
      type: "constant"
      value: 1
    }
    bias_filler {
      type: "constant"
      value: 0
    }
  }
}
layer {
  name: "res3d_branch2a_relu"
  type: "ReLU"
  bottom: "res3d_branch2a"
  top: "res3d_branch2a"
  relu_param {
  }
}
layer {
  name: "res3d_branch2b"
  type: "Convolution"
  bottom: "res3d_branch2a"
  top: "res3d_branch2b"
  convolution_param {
    num_output: 128
    bias_term: false
    pad: 1
    kernel_size: 3
    stride: 1
    weight_filler {
      type: "xavier"
    }
    bias_filler {
      type: "constant"
      value: 0.2
    }
  }
}
layer {
  name: "bn3d_branch2b"
  type: "BatchNorm"
  bottom: "res3d_branch2b"
  top: "res3d_branch2b"
  param {
    lr_mult: 1
    decay_mult: 0
  }
  param {
    lr_mult: 1
    decay_mult: 0
  }
  param {
    lr_mult: 0
    decay_mult: 0
  }
  param {
    lr_mult: 0
    decay_mult: 0
  }
  batch_norm_param {
    scale_filler {
      type: "constant"
      value: 1
    }
    bias_filler {
      type: "constant"
      value: 0
    }
  }
}
layer {
  name: "res3d_branch2b_relu"
  type: "ReLU"
  bottom: "res3d_branch2b"
  top: "res3d_branch2b"
  relu_param {
  }
}
layer {
  name: "res3d_branch2c"
  type: "Convolution"
  bottom: "res3d_branch2b"
  top: "res3d_branch2c"
  convolution_param {
    num_output: 512
    bias_term: false
    pad: 0
    kernel_size: 1
    stride: 1
    weight_filler {
      type: "xavier"
    }
    bias_filler {
      type: "constant"
      value: 0.2
    }
  }
}
layer {
  name: "bn3d_branch2c"
  type: "BatchNorm"
  bottom: "res3d_branch2c"
  top: "res3d_branch2c"
  param {
    lr_mult: 1
    decay_mult: 0
  }
  param {
    lr_mult: 1
    decay_mult: 0
  }
  param {
    lr_mult: 0
    decay_mult: 0
  }
  param {
    lr_mult: 0
    decay_mult: 0
  }
  batch_norm_param {
    scale_filler {
      type: "constant"
      value: 1
    }
    bias_filler {
      type: "constant"
      value: 0
    }
  }
}
layer {
  name: "res3d"
  type: "Eltwise"
  bottom: "res3c"
  bottom: "res3d_branch2c"
  top: "res3d"
  eltwise_param {
  }
}
layer {
  name: "res3d_relu"
  type: "ReLU"
  bottom: "res3d"
  top: "res3d"
  relu_param {
  }
}
layer {
  name: "res4a_branch1"
  type: "Convolution"
  bottom: "res3d"
  top: "res4a_branch1"
  convolution_param {
    num_output: 1024
    bias_term: false
    pad: 0
    kernel_size: 1
    stride: 2
    weight_filler {
      type: "xavier"
    }
    bias_filler {
      type: "constant"
      value: 0.2
    }
  }
}
layer {
  name: "bn4a_branch1"
  type: "BatchNorm"
  bottom: "res4a_branch1"
  top: "res4a_branch1"
  param {
    lr_mult: 1
    decay_mult: 0
  }
  param {
    lr_mult: 1
    decay_mult: 0
  }
  param {
    lr_mult: 0
    decay_mult: 0
  }
  param {
    lr_mult: 0
    decay_mult: 0
  }
  batch_norm_param {
    scale_filler {
      type: "constant"
      value: 1
    }
    bias_filler {
      type: "constant"
      value: 0
    }
  }
}
layer {
  name: "res4a_branch2a"
  type: "Convolution"
  bottom: "res3d"
  top: "res4a_branch2a"
  convolution_param {
    num_output: 256
    bias_term: false
    pad: 0
    kernel_size: 1
    stride: 2
    weight_filler {
      type: "xavier"
    }
    bias_filler {
      type: "constant"
      value: 0.2
    }
  }
}
layer {
  name: "bn4a_branch2a"
  type: "BatchNorm"
  bottom: "res4a_branch2a"
  top: "res4a_branch2a"
  param {
    lr_mult: 1
    decay_mult: 0
  }
  param {
    lr_mult: 1
    decay_mult: 0
  }
  param {
    lr_mult: 0
    decay_mult: 0
  }
  param {
    lr_mult: 0
    decay_mult: 0
  }
  batch_norm_param {
    scale_filler {
      type: "constant"
      value: 1
    }
    bias_filler {
      type: "constant"
      value: 0
    }
  }
}
layer {
  name: "res4a_branch2a_relu"
  type: "ReLU"
  bottom: "res4a_branch2a"
  top: "res4a_branch2a"
  relu_param {
  }
}
layer {
  name: "res4a_branch2b"
  type: "Convolution"
  bottom: "res4a_branch2a"
  top: "res4a_branch2b"
  convolution_param {
    num_output: 256
    bias_term: false
    pad: 1
    kernel_size: 3
    stride: 1
    weight_filler {
      type: "xavier"
    }
    bias_filler {
      type: "constant"
      value: 0.2
    }
  }
}
layer {
  name: "bn4a_branch2b"
  type: "BatchNorm"
  bottom: "res4a_branch2b"
  top: "res4a_branch2b"
  param {
    lr_mult: 1
    decay_mult: 0
  }
  param {
    lr_mult: 1
    decay_mult: 0
  }
  param {
    lr_mult: 0
    decay_mult: 0
  }
  param {
    lr_mult: 0
    decay_mult: 0
  }
  batch_norm_param {
    scale_filler {
      type: "constant"
      value: 1
    }
    bias_filler {
      type: "constant"
      value: 0
    }
  }
}
layer {
  name: "res4a_branch2b_relu"
  type: "ReLU"
  bottom: "res4a_branch2b"
  top: "res4a_branch2b"
  relu_param {
  }
}
layer {
  name: "res4a_branch2c"
  type: "Convolution"
  bottom: "res4a_branch2b"
  top: "res4a_branch2c"
  convolution_param {
    num_output: 1024
    bias_term: false
    pad: 0
    kernel_size: 1
    stride: 1
    weight_filler {
      type: "xavier"
    }
    bias_filler {
      type: "constant"
      value: 0.2
    }
  }
}
layer {
  name: "bn4a_branch2c"
  type: "BatchNorm"
  bottom: "res4a_branch2c"
  top: "res4a_branch2c"
  param {
    lr_mult: 1
    decay_mult: 0
  }
  param {
    lr_mult: 1
    decay_mult: 0
  }
  param {
    lr_mult: 0
    decay_mult: 0
  }
  param {
    lr_mult: 0
    decay_mult: 0
  }
  batch_norm_param {
    scale_filler {
      type: "constant"
      value: 1
    }
    bias_filler {
      type: "constant"
      value: 0
    }
  }
}
layer {
  name: "res4a"
  type: "Eltwise"
  bottom: "res4a_branch1"
  bottom: "res4a_branch2c"
  top: "res4a"
  eltwise_param {
  }
}
layer {
  name: "res4a_relu"
  type: "ReLU"
  bottom: "res4a"
  top: "res4a"
  relu_param {
  }
}
layer {
  name: "res4b_branch2a"
  type: "Convolution"
  bottom: "res4a"
  top: "res4b_branch2a"
  convolution_param {
    num_output: 256
    bias_term: false
    pad: 0
    kernel_size: 1
    stride: 1
    weight_filler {
      type: "xavier"
    }
    bias_filler {
      type: "constant"
      value: 0.2
    }
  }
}
layer {
  name: "bn4b_branch2a"
  type: "BatchNorm"
  bottom: "res4b_branch2a"
  top: "res4b_branch2a"
  param {
    lr_mult: 1
    decay_mult: 0
  }
  param {
    lr_mult: 1
    decay_mult: 0
  }
  param {
    lr_mult: 0
    decay_mult: 0
  }
  param {
    lr_mult: 0
    decay_mult: 0
  }
  batch_norm_param {
    scale_filler {
      type: "constant"
      value: 1
    }
    bias_filler {
      type: "constant"
      value: 0
    }
  }
}
layer {
  name: "res4b_branch2a_relu"
  type: "ReLU"
  bottom: "res4b_branch2a"
  top: "res4b_branch2a"
  relu_param {
  }
}
layer {
  name: "res4b_branch2b"
  type: "Convolution"
  bottom: "res4b_branch2a"
  top: "res4b_branch2b"
  convolution_param {
    num_output: 256
    bias_term: false
    pad: 1
    kernel_size: 3
    stride: 1
    weight_filler {
      type: "xavier"
    }
    bias_filler {
      type: "constant"
      value: 0.2
    }
  }
}
layer {
  name: "bn4b_branch2b"
  type: "BatchNorm"
  bottom: "res4b_branch2b"
  top: "res4b_branch2b"
  param {
    lr_mult: 1
    decay_mult: 0
  }
  param {
    lr_mult: 1
    decay_mult: 0
  }
  param {
    lr_mult: 0
    decay_mult: 0
  }
  param {
    lr_mult: 0
    decay_mult: 0
  }
  batch_norm_param {
    scale_filler {
      type: "constant"
      value: 1
    }
    bias_filler {
      type: "constant"
      value: 0
    }
  }
}
layer {
  name: "res4b_branch2b_relu"
  type: "ReLU"
  bottom: "res4b_branch2b"
  top: "res4b_branch2b"
  relu_param {
  }
}
layer {
  name: "res4b_branch2c"
  type: "Convolution"
  bottom: "res4b_branch2b"
  top: "res4b_branch2c"
  convolution_param {
    num_output: 1024
    bias_term: false
    pad: 0
    kernel_size: 1
    stride: 1
    weight_filler {
      type: "xavier"
    }
    bias_filler {
      type: "constant"
      value: 0.2
    }
  }
}
layer {
  name: "bn4b_branch2c"
  type: "BatchNorm"
  bottom: "res4b_branch2c"
  top: "res4b_branch2c"
  param {
    lr_mult: 1
    decay_mult: 0
  }
  param {
    lr_mult: 1
    decay_mult: 0
  }
  param {
    lr_mult: 0
    decay_mult: 0
  }
  param {
    lr_mult: 0
    decay_mult: 0
  }
  batch_norm_param {
    scale_filler {
      type: "constant"
      value: 1
    }
    bias_filler {
      type: "constant"
      value: 0
    }
  }
}
layer {
  name: "res4b"
  type: "Eltwise"
  bottom: "res4a"
  bottom: "res4b_branch2c"
  top: "res4b"
  eltwise_param {
  }
}
layer {
  name: "res4b_relu"
  type: "ReLU"
  bottom: "res4b"
  top: "res4b"
  relu_param {
  }
}
layer {
  name: "res4c_branch2a"
  type: "Convolution"
  bottom: "res4b"
  top: "res4c_branch2a"
  convolution_param {
    num_output: 256
    bias_term: false
    pad: 0
    kernel_size: 1
    stride: 1
    weight_filler {
      type: "xavier"
    }
    bias_filler {
      type: "constant"
      value: 0.2
    }
  }
}
layer {
  name: "bn4c_branch2a"
  type: "BatchNorm"
  bottom: "res4c_branch2a"
  top: "res4c_branch2a"
  param {
    lr_mult: 1
    decay_mult: 0
  }
  param {
    lr_mult: 1
    decay_mult: 0
  }
  param {
    lr_mult: 0
    decay_mult: 0
  }
  param {
    lr_mult: 0
    decay_mult: 0
  }
  batch_norm_param {
    scale_filler {
      type: "constant"
      value: 1
    }
    bias_filler {
      type: "constant"
      value: 0
    }
  }
}
layer {
  name: "res4c_branch2a_relu"
  type: "ReLU"
  bottom: "res4c_branch2a"
  top: "res4c_branch2a"
  relu_param {
  }
}
layer {
  name: "res4c_branch2b"
  type: "Convolution"
  bottom: "res4c_branch2a"
  top: "res4c_branch2b"
  convolution_param {
    num_output: 256
    bias_term: false
    pad: 1
    kernel_size: 3
    stride: 1
    weight_filler {
      type: "xavier"
    }
    
I0828 17:24:33.523012 24978 layer_factory.hpp:123] Creating layer data
I0828 17:24:33.523031 24978 net.cpp:140] Creating Layer data
I0828 17:24:33.523037 24978 net.cpp:455] data -> data
I0828 17:24:33.523046 24978 net.cpp:455] data -> label
I0828 17:24:33.523094 24978 image_data_layer.cpp:87] Opening file /SSD/git-tutorial/GPU-DPU-cross-check/images/image500/caffe_calib.txt
I0828 17:24:33.523190 24978 image_data_layer.cpp:97] Shuffling data
I0828 17:24:33.523200 24978 image_data_layer.cpp:102] A total of 500 images.
I0828 17:24:33.526116 24978 image_data_layer.cpp:130] output data size: 20,3,224,224
I0828 17:24:33.559756 24978 internal_thread.cpp:73] Starting internal thread(s) on GPU 0
I0828 17:24:33.559847 24978 net.cpp:190] Setting up data
I0828 17:24:33.559857 24978 net.cpp:197] Top shape: 20 3 224 224 (3010560)
I0828 17:24:33.559875 24978 net.cpp:197] Top shape: 20 (20)
I0828 17:24:33.559876 24978 net.cpp:205] Memory required for data: 12042320
I0828 17:24:33.559880 24978 layer_factory.hpp:123] Creating layer conv1
I0828 17:24:33.559909 24978 net.cpp:140] Creating Layer conv1
I0828 17:24:33.559913 24978 net.cpp:481] conv1 <- data
I0828 17:24:33.559924 24978 net.cpp:455] conv1 -> conv1
I0828 17:24:33.560256 24978 net.cpp:190] Setting up conv1
I0828 17:24:33.560263 24978 net.cpp:197] Top shape: 20 64 112 112 (16056320)
I0828 17:24:33.560279 24978 net.cpp:205] Memory required for data: 76267600
I0828 17:24:33.560304 24978 layer_factory.hpp:123] Creating layer bn_conv1
I0828 17:24:33.560312 24978 net.cpp:140] Creating Layer bn_conv1
I0828 17:24:33.560314 24978 net.cpp:481] bn_conv1 <- conv1
I0828 17:24:33.560318 24978 net.cpp:442] bn_conv1 -> conv1 (in-place)
I0828 17:24:33.561019 24978 net.cpp:190] Setting up bn_conv1
I0828 17:24:33.561026 24978 net.cpp:197] Top shape: 20 64 112 112 (16056320)
I0828 17:24:33.561043 24978 net.cpp:205] Memory required for data: 140492880
I0828 17:24:33.561053 24978 layer_factory.hpp:123] Creating layer conv1_relu
I0828 17:24:33.561058 24978 net.cpp:140] Creating Layer conv1_relu
I0828 17:24:33.561060 24978 net.cpp:481] conv1_relu <- conv1
I0828 17:24:33.561064 24978 net.cpp:442] conv1_relu -> conv1 (in-place)
I0828 17:24:33.561071 24978 net.cpp:190] Setting up conv1_relu
I0828 17:24:33.561075 24978 net.cpp:197] Top shape: 20 64 112 112 (16056320)
I0828 17:24:33.561079 24978 net.cpp:205] Memory required for data: 204718160
I0828 17:24:33.561080 24978 layer_factory.hpp:123] Creating layer pool1
I0828 17:24:33.561085 24978 net.cpp:140] Creating Layer pool1
I0828 17:24:33.561089 24978 net.cpp:481] pool1 <- conv1
I0828 17:24:33.561091 24978 net.cpp:455] pool1 -> pool1
I0828 17:24:33.561113 24978 net.cpp:190] Setting up pool1
I0828 17:24:33.561117 24978 net.cpp:197] Top shape: 20 64 56 56 (4014080)
I0828 17:24:33.561120 24978 net.cpp:205] Memory required for data: 220774480
I0828 17:24:33.561122 24978 layer_factory.hpp:123] Creating layer pool1_pool1_0_split
I0828 17:24:33.561126 24978 net.cpp:140] Creating Layer pool1_pool1_0_split
I0828 17:24:33.561130 24978 net.cpp:481] pool1_pool1_0_split <- pool1
I0828 17:24:33.561132 24978 net.cpp:455] pool1_pool1_0_split -> pool1_pool1_0_split_0
I0828 17:24:33.561137 24978 net.cpp:455] pool1_pool1_0_split -> pool1_pool1_0_split_1
I0828 17:24:33.561156 24978 net.cpp:190] Setting up pool1_pool1_0_split
I0828 17:24:33.561164 24978 net.cpp:197] Top shape: 20 64 56 56 (4014080)
I0828 17:24:33.561172 24978 net.cpp:197] Top shape: 20 64 56 56 (4014080)
I0828 17:24:33.561175 24978 net.cpp:205] Memory required for data: 252887120
I0828 17:24:33.561179 24978 layer_factory.hpp:123] Creating layer res2a_branch1
I0828 17:24:33.561188 24978 net.cpp:140] Creating Layer res2a_branch1
I0828 17:24:33.561193 24978 net.cpp:481] res2a_branch1 <- pool1_pool1_0_split_0
I0828 17:24:33.561198 24978 net.cpp:455] res2a_branch1 -> res2a_branch1
I0828 17:24:33.561401 24978 net.cpp:190] Setting up res2a_branch1
I0828 17:24:33.561408 24978 net.cpp:197] Top shape: 20 256 56 56 (16056320)
I0828 17:24:33.561410 24978 net.cpp:205] Memory required for data: 317112400
I0828 17:24:33.561414 24978 layer_factory.hpp:123] Creating layer bn2a_branch1
I0828 17:24:33.561431 24978 net.cpp:140] Creating Layer bn2a_branch1
I0828 17:24:33.561434 24978 net.cpp:481] bn2a_branch1 <- res2a_branch1
I0828 17:24:33.561453 24978 net.cpp:442] bn2a_branch1 -> res2a_branch1 (in-place)
I0828 17:24:33.561846 24978 net.cpp:190] Setting up bn2a_branch1
I0828 17:24:33.561852 24978 net.cpp:197] Top shape: 20 256 56 56 (16056320)
I0828 17:24:33.561856 24978 net.cpp:205] Memory required for data: 381337680
I0828 17:24:33.561862 24978 layer_factory.hpp:123] Creating layer res2a_branch2a
I0828 17:24:33.561869 24978 net.cpp:140] Creating Layer res2a_branch2a
I0828 17:24:33.561872 24978 net.cpp:481] res2a_branch2a <- pool1_pool1_0_split_1
I0828 17:24:33.561877 24978 net.cpp:455] res2a_branch2a -> res2a_branch2a
I0828 17:24:33.562037 24978 net.cpp:190] Setting up res2a_branch2a
I0828 17:24:33.562043 24978 net.cpp:197] Top shape: 20 64 56 56 (4014080)
I0828 17:24:33.562047 24978 net.cpp:205] Memory required for data: 397394000
I0828 17:24:33.562064 24978 layer_factory.hpp:123] Creating layer bn2a_branch2a
I0828 17:24:33.562070 24978 net.cpp:140] Creating Layer bn2a_branch2a
I0828 17:24:33.562073 24978 net.cpp:481] bn2a_branch2a <- res2a_branch2a
I0828 17:24:33.562077 24978 net.cpp:442] bn2a_branch2a -> res2a_branch2a (in-place)
I0828 17:24:33.562512 24978 net.cpp:190] Setting up bn2a_branch2a
I0828 17:24:33.562517 24978 net.cpp:197] Top shape: 20 64 56 56 (4014080)
I0828 17:24:33.562533 24978 net.cpp:205] Memory required for data: 413450320
I0828 17:24:33.562556 24978 layer_factory.hpp:123] Creating layer res2a_branch2a_relu
I0828 17:24:33.562561 24978 net.cpp:140] Creating Layer res2a_branch2a_relu
I0828 17:24:33.562564 24978 net.cpp:481] res2a_branch2a_relu <- res2a_branch2a
I0828 17:24:33.562567 24978 net.cpp:442] res2a_branch2a_relu -> res2a_branch2a (in-place)
I0828 17:24:33.562572 24978 net.cpp:190] Setting up res2a_branch2a_relu
I0828 17:24:33.562577 24978 net.cpp:197] Top shape: 20 64 56 56 (4014080)
I0828 17:24:33.562578 24978 net.cpp:205] Memory required for data: 429506640
I0828 17:24:33.562582 24978 layer_factory.hpp:123] Creating layer res2a_branch2b
I0828 17:24:33.562587 24978 net.cpp:140] Creating Layer res2a_branch2b
I0828 17:24:33.562589 24978 net.cpp:481] res2a_branch2b <- res2a_branch2a
I0828 17:24:33.562593 24978 net.cpp:455] res2a_branch2b -> res2a_branch2b
I0828 17:24:33.562863 24978 net.cpp:190] Setting up res2a_branch2b
I0828 17:24:33.562870 24978 net.cpp:197] Top shape: 20 64 56 56 (4014080)
I0828 17:24:33.562892 24978 net.cpp:205] Memory required for data: 445562960
I0828 17:24:33.562897 24978 layer_factory.hpp:123] Creating layer bn2a_branch2b
I0828 17:24:33.562902 24978 net.cpp:140] Creating Layer bn2a_branch2b
I0828 17:24:33.562906 24978 net.cpp:481] bn2a_branch2b <- res2a_branch2b
I0828 17:24:33.562911 24978 net.cpp:442] bn2a_branch2b -> res2a_branch2b (in-place)
I0828 17:24:33.563395 24978 net.cpp:190] Setting up bn2a_branch2b
I0828 17:24:33.563401 24978 net.cpp:197] Top shape: 20 64 56 56 (4014080)
I0828 17:24:33.563403 24978 net.cpp:205] Memory required for data: 461619280
I0828 17:24:33.563410 24978 layer_factory.hpp:123] Creating layer res2a_branch2b_relu
I0828 17:24:33.563414 24978 net.cpp:140] Creating Layer res2a_branch2b_relu
I0828 17:24:33.563417 24978 net.cpp:481] res2a_branch2b_relu <- res2a_branch2b
I0828 17:24:33.563421 24978 net.cpp:442] res2a_branch2b_relu -> res2a_branch2b (in-place)
I0828 17:24:33.563426 24978 net.cpp:190] Setting up res2a_branch2b_relu
I0828 17:24:33.563428 24978 net.cpp:197] Top shape: 20 64 56 56 (4014080)
I0828 17:24:33.563431 24978 net.cpp:205] Memory required for data: 477675600
I0828 17:24:33.563433 24978 layer_factory.hpp:123] Creating layer res2a_branch2c
I0828 17:24:33.563439 24978 net.cpp:140] Creating Layer res2a_branch2c
I0828 17:24:33.563441 24978 net.cpp:481] res2a_branch2c <- res2a_branch2b
I0828 17:24:33.563446 24978 net.cpp:455] res2a_branch2c -> res2a_branch2c
I0828 17:24:33.563658 24978 net.cpp:190] Setting up res2a_branch2c
I0828 17:24:33.563664 24978 net.cpp:197] Top shape: 20 256 56 56 (16056320)
I0828 17:24:33.563680 24978 net.cpp:205] Memory required for data: 541900880
I0828 17:24:33.563684 24978 layer_factory.hpp:123] Creating layer bn2a_branch2c
I0828 17:24:33.563688 24978 net.cpp:140] Creating Layer bn2a_branch2c
I0828 17:24:33.563691 24978 net.cpp:481] bn2a_branch2c <- res2a_branch2c
I0828 17:24:33.563695 24978 net.cpp:442] bn2a_branch2c -> res2a_branch2c (in-place)
I0828 17:24:33.564105 24978 net.cpp:190] Setting up bn2a_branch2c
I0828 17:24:33.564111 24978 net.cpp:197] Top shape: 20 256 56 56 (16056320)
I0828 17:24:33.564127 24978 net.cpp:205] Memory required for data: 606126160
I0828 17:24:33.564133 24978 layer_factory.hpp:123] Creating layer res2a
I0828 17:24:33.564139 24978 net.cpp:140] Creating Layer res2a
I0828 17:24:33.564142 24978 net.cpp:481] res2a <- res2a_branch1
I0828 17:24:33.564146 24978 net.cpp:481] res2a <- res2a_branch2c
I0828 17:24:33.564149 24978 net.cpp:455] res2a -> res2a
I0828 17:24:33.564162 24978 net.cpp:190] Setting up res2a
I0828 17:24:33.564167 24978 net.cpp:197] Top shape: 20 256 56 56 (16056320)
I0828 17:24:33.564170 24978 net.cpp:205] Memory required for data: 670351440
I0828 17:24:33.564172 24978 layer_factory.hpp:123] Creating layer res2a_relu
I0828 17:24:33.564177 24978 net.cpp:140] Creating Layer res2a_relu
I0828 17:24:33.564179 24978 net.cpp:481] res2a_relu <- res2a
I0828 17:24:33.564182 24978 net.cpp:442] res2a_relu -> res2a (in-place)
I0828 17:24:33.564188 24978 net.cpp:190] Setting up res2a_relu
I0828 17:24:33.564190 24978 net.cpp:197] Top shape: 20 256 56 56 (16056320)
I0828 17:24:33.564193 24978 net.cpp:205] Memory required for data: 734576720
I0828 17:24:33.564195 24978 layer_factory.hpp:123] Creating layer res2a_res2a_relu_0_split
I0828 17:24:33.564198 24978 net.cpp:140] Creating Layer res2a_res2a_relu_0_split
I0828 17:24:33.564201 24978 net.cpp:481] res2a_res2a_relu_0_split <- res2a
I0828 17:24:33.564204 24978 net.cpp:455] res2a_res2a_relu_0_split -> res2a_res2a_relu_0_split_0
I0828 17:24:33.564209 24978 net.cpp:455] res2a_res2a_relu_0_split -> res2a_res2a_relu_0_split_1
I0828 17:24:33.564229 24978 net.cpp:190] Setting up res2a_res2a_relu_0_split
I0828 17:24:33.564232 24978 net.cpp:197] Top shape: 20 256 56 56 (16056320)
I0828 17:24:33.564235 24978 net.cpp:197] Top shape: 20 256 56 56 (16056320)
I0828 17:24:33.564251 24978 net.cpp:205] Memory required for data: 863027280
I0828 17:24:33.564254 24978 layer_factory.hpp:123] Creating layer res2b_branch2a
I0828 17:24:33.564272 24978 net.cpp:140] Creating Layer res2b_branch2a
I0828 17:24:33.564275 24978 net.cpp:481] res2b_branch2a <- res2a_res2a_relu_0_split_0
I0828 17:24:33.564280 24978 net.cpp:455] res2b_branch2a -> res2b_branch2a
I0828 17:24:33.565712 24978 net.cpp:190] Setting up res2b_branch2a
I0828 17:24:33.565721 24978 net.cpp:197] Top shape: 20 64 56 56 (4014080)
I0828 17:24:33.565723 24978 net.cpp:205] Memory required for data: 879083600
I0828 17:24:33.565727 24978 layer_factory.hpp:123] Creating layer bn2b_branch2a
I0828 17:24:33.565733 24978 net.cpp:140] Creating Layer bn2b_branch2a
I0828 17:24:33.565737 24978 net.cpp:481] bn2b_branch2a <- res2b_branch2a
I0828 17:24:33.565742 24978 net.cpp:442] bn2b_branch2a -> res2b_branch2a (in-place)
I0828 17:24:33.566162 24978 net.cpp:190] Setting up bn2b_branch2a
I0828 17:24:33.566169 24978 net.cpp:197] Top shape: 20 64 56 56 (4014080)
I0828 17:24:33.566171 24978 net.cpp:205] Memory required for data: 895139920
I0828 17:24:33.566179 24978 layer_factory.hpp:123] Creating layer res2b_branch2a_relu
I0828 17:24:33.566185 24978 net.cpp:140] Creating Layer res2b_branch2a_relu
I0828 17:24:33.566188 24978 net.cpp:481] res2b_branch2a_relu <- res2b_branch2a
I0828 17:24:33.566192 24978 net.cpp:442] res2b_branch2a_relu -> res2b_branch2a (in-place)
I0828 17:24:33.566197 24978 net.cpp:190] Setting up res2b_branch2a_relu
I0828 17:24:33.566200 24978 net.cpp:197] Top shape: 20 64 56 56 (4014080)
I0828 17:24:33.566203 24978 net.cpp:205] Memory required for data: 911196240
I0828 17:24:33.566205 24978 layer_factory.hpp:123] Creating layer res2b_branch2b
I0828 17:24:33.566211 24978 net.cpp:140] Creating Layer res2b_branch2b
I0828 17:24:33.566213 24978 net.cpp:481] res2b_branch2b <- res2b_branch2a
I0828 17:24:33.566217 24978 net.cpp:455] res2b_branch2b -> res2b_branch2b
I0828 17:24:33.566483 24978 net.cpp:190] Setting up res2b_branch2b
I0828 17:24:33.566489 24978 net.cpp:197] Top shape: 20 64 56 56 (4014080)
I0828 17:24:33.566493 24978 net.cpp:205] Memory required for data: 927252560
I0828 17:24:33.566495 24978 layer_factory.hpp:123] Creating layer bn2b_branch2b
I0828 17:24:33.566500 24978 net.cpp:140] Creating Layer bn2b_branch2b
I0828 17:24:33.566504 24978 net.cpp:481] bn2b_branch2b <- res2b_branch2b
I0828 17:24:33.566507 24978 net.cpp:442] bn2b_branch2b -> res2b_branch2b (in-place)
I0828 17:24:33.566920 24978 net.cpp:190] Setting up bn2b_branch2b
I0828 17:24:33.566927 24978 net.cpp:197] Top shape: 20 64 56 56 (4014080)
I0828 17:24:33.566931 24978 net.cpp:205] Memory required for data: 943308880
I0828 17:24:33.566936 24978 layer_factory.hpp:123] Creating layer res2b_branch2b_relu
I0828 17:24:33.566941 24978 net.cpp:140] Creating Layer res2b_branch2b_relu
I0828 17:24:33.566944 24978 net.cpp:481] res2b_branch2b_relu <- res2b_branch2b
I0828 17:24:33.566947 24978 net.cpp:442] res2b_branch2b_relu -> res2b_branch2b (in-place)
I0828 17:24:33.566952 24978 net.cpp:190] Setting up res2b_branch2b_relu
I0828 17:24:33.566956 24978 net.cpp:197] Top shape: 20 64 56 56 (4014080)
I0828 17:24:33.566958 24978 net.cpp:205] Memory required for data: 959365200
I0828 17:24:33.566960 24978 layer_factory.hpp:123] Creating layer res2b_branch2c
I0828 17:24:33.566965 24978 net.cpp:140] Creating Layer res2b_branch2c
I0828 17:24:33.566969 24978 net.cpp:481] res2b_branch2c <- res2b_branch2b
I0828 17:24:33.566973 24978 net.cpp:455] res2b_branch2c -> res2b_branch2c
I0828 17:24:33.567147 24978 net.cpp:190] Setting up res2b_branch2c
I0828 17:24:33.567152 24978 net.cpp:197] Top shape: 20 256 56 56 (16056320)
I0828 17:24:33.567154 24978 net.cpp:205] Memory required for data: 1023590480
I0828 17:24:33.567157 24978 layer_factory.hpp:123] Creating layer bn2b_branch2c
I0828 17:24:33.567162 24978 net.cpp:140] Creating Layer bn2b_branch2c
I0828 17:24:33.567167 24978 net.cpp:481] bn2b_branch2c <- res2b_branch2c
I0828 17:24:33.567169 24978 net.cpp:442] bn2b_branch2c -> res2b_branch2c (in-place)
I0828 17:24:33.567521 24978 net.cpp:190] Setting up bn2b_branch2c
I0828 17:24:33.567528 24978 net.cpp:197] Top shape: 20 256 56 56 (16056320)
I0828 17:24:33.567530 24978 net.cpp:205] Memory required for data: 1087815760
I0828 17:24:33.567536 24978 layer_factory.hpp:123] Creating layer res2b
I0828 17:24:33.567543 24978 net.cpp:140] Creating Layer res2b
I0828 17:24:33.567544 24978 net.cpp:481] res2b <- res2a_res2a_relu_0_split_1
I0828 17:24:33.567548 24978 net.cpp:481] res2b <- res2b_branch2c
I0828 17:24:33.567553 24978 net.cpp:455] res2b -> res2b
I0828 17:24:33.567567 24978 net.cpp:190] Setting up res2b
I0828 17:24:33.567572 24978 net.cpp:197] Top shape: 20 256 56 56 (16056320)
I0828 17:24:33.567575 24978 net.cpp:205] Memory required for data: 1152041040
I0828 17:24:33.567579 24978 layer_factory.hpp:123] Creating layer res2b_relu
I0828 17:24:33.567581 24978 net.cpp:140] Creating Layer res2b_relu
I0828 17:24:33.567584 24978 net.cpp:481] res2b_relu <- res2b
I0828 17:24:33.567589 24978 net.cpp:442] res2b_relu -> res2b (in-place)
I0828 17:24:33.567592 24978 net.cpp:190] Setting up res2b_relu
I0828 17:24:33.567595 24978 net.cpp:197] Top shape: 20 256 56 56 (16056320)
I0828 17:24:33.567598 24978 net.cpp:205] Memory required for data: 1216266320
I0828 17:24:33.567600 24978 layer_factory.hpp:123] Creating layer res2b_res2b_relu_0_split
I0828 17:24:33.567605 24978 net.cpp:140] Creating Layer res2b_res2b_relu_0_split
I0828 17:24:33.567607 24978 net.cpp:481] res2b_res2b_relu_0_split <- res2b
I0828 17:24:33.567610 24978 net.cpp:455] res2b_res2b_relu_0_split -> res2b_res2b_relu_0_split_0
I0828 17:24:33.567615 24978 net.cpp:455] res2b_res2b_relu_0_split -> res2b_res2b_relu_0_split_1
I0828 17:24:33.567634 24978 net.cpp:190] Setting up res2b_res2b_relu_0_split
I0828 17:24:33.567638 24978 net.cpp:197] Top shape: 20 256 56 56 (16056320)
I0828 17:24:33.567641 24978 net.cpp:197] Top shape: 20 256 56 56 (16056320)
I0828 17:24:33.567644 24978 net.cpp:205] Memory required for data: 1344716880
I0828 17:24:33.567647 24978 layer_factory.hpp:123] Creating layer res2c_branch2a
I0828 17:24:33.567652 24978 net.cpp:140] Creating Layer res2c_branch2a
I0828 17:24:33.567654 24978 net.cpp:481] res2c_branch2a <- res2b_res2b_relu_0_split_0
I0828 17:24:33.567659 24978 net.cpp:455] res2c_branch2a -> res2c_branch2a
I0828 17:24:33.567831 24978 net.cpp:190] Setting up res2c_branch2a
I0828 17:24:33.567837 24978 net.cpp:197] Top shape: 20 64 56 56 (4014080)
I0828 17:24:33.567839 24978 net.cpp:205] Memory required for data: 1360773200
I0828 17:24:33.567843 24978 layer_factory.hpp:123] Creating layer bn2c_branch2a
I0828 17:24:33.567848 24978 net.cpp:140] Creating Layer bn2c_branch2a
I0828 17:24:33.567850 24978 net.cpp:481] bn2c_branch2a <- res2c_branch2a
I0828 17:24:33.567854 24978 net.cpp:442] bn2c_branch2a -> res2c_branch2a (in-place)
I0828 17:24:33.568271 24978 net.cpp:190] Setting up bn2c_branch2a
I0828 17:24:33.568277 24978 net.cpp:197] Top shape: 20 64 56 56 (4014080)
I0828 17:24:33.568279 24978 net.cpp:205] Memory required for data: 1376829520
I0828 17:24:33.568285 24978 layer_factory.hpp:123] Creating layer res2c_branch2a_relu
I0828 17:24:33.568290 24978 net.cpp:140] Creating Layer res2c_branch2a_relu
I0828 17:24:33.568295 24978 net.cpp:481] res2c_branch2a_relu <- res2c_branch2a
I0828 17:24:33.568297 24978 net.cpp:442] res2c_branch2a_relu -> res2c_branch2a (in-place)
I0828 17:24:33.568301 24978 net.cpp:190] Setting up res2c_branch2a_relu
I0828 17:24:33.568305 24978 net.cpp:197] Top shape: 20 64 56 56 (4014080)
I0828 17:24:33.568307 24978 net.cpp:205] Memory required for data: 1392885840
I0828 17:24:33.568310 24978 layer_factory.hpp:123] Creating layer res2c_branch2b
I0828 17:24:33.568315 24978 net.cpp:140] Creating Layer res2c_branch2b
I0828 17:24:33.568318 24978 net.cpp:481] res2c_branch2b <- res2c_branch2a
I0828 17:24:33.568322 24978 net.cpp:455] res2c_branch2b -> res2c_branch2b
I0828 17:24:33.568575 24978 net.cpp:190] Setting up res2c_branch2b
I0828 17:24:33.568581 24978 net.cpp:197] Top shape: 20 64 56 56 (4014080)
I0828 17:24:33.568583 24978 net.cpp:205] Memory required for data: 1408942160
I0828 17:24:33.568588 24978 layer_factory.hpp:123] Creating layer bn2c_branch2b
I0828 17:24:33.568591 24978 net.cpp:140] Creating Layer bn2c_branch2b
I0828 17:24:33.568594 24978 net.cpp:481] bn2c_branch2b <- res2c_branch2b
I0828 17:24:33.568598 24978 net.cpp:442] bn2c_branch2b -> res2c_branch2b (in-place)
I0828 17:24:33.569288 24978 net.cpp:190] Setting up bn2c_branch2b
I0828 17:24:33.569298 24978 net.cpp:197] Top shape: 20 64 56 56 (4014080)
I0828 17:24:33.569300 24978 net.cpp:205] Memory required for data: 1424998480
I0828 17:24:33.569308 24978 layer_factory.hpp:123] Creating layer res2c_branch2b_relu
I0828 17:24:33.569314 24978 net.cpp:140] Creating Layer res2c_branch2b_relu
I0828 17:24:33.569316 24978 net.cpp:481] res2c_branch2b_relu <- res2c_branch2b
I0828 17:24:33.569320 24978 net.cpp:442] res2c_branch2b_relu -> res2c_branch2b (in-place)
I0828 17:24:33.569325 24978 net.cpp:190] Setting up res2c_branch2b_relu
I0828 17:24:33.569329 24978 net.cpp:197] Top shape: 20 64 56 56 (4014080)
I0828 17:24:33.569332 24978 net.cpp:205] Memory required for data: 1441054800
I0828 17:24:33.569334 24978 layer_factory.hpp:123] Creating layer res2c_branch2c
I0828 17:24:33.569340 24978 net.cpp:140] Creating Layer res2c_branch2c
I0828 17:24:33.569344 24978 net.cpp:481] res2c_branch2c <- res2c_branch2b
I0828 17:24:33.569347 24978 net.cpp:455] res2c_branch2c -> res2c_branch2c
I0828 17:24:33.569525 24978 net.cpp:190] Setting up res2c_branch2c
I0828 17:24:33.569531 24978 net.cpp:197] Top shape: 20 256 56 56 (16056320)
I0828 17:24:33.569535 24978 net.cpp:205] Memory required for data: 1505280080
I0828 17:24:33.569538 24978 layer_factory.hpp:123] Creating layer bn2c_branch2c
I0828 17:24:33.569543 24978 net.cpp:140] Creating Layer bn2c_branch2c
I0828 17:24:33.569546 24978 net.cpp:481] bn2c_branch2c <- res2c_branch2c
I0828 17:24:33.569550 24978 net.cpp:442] bn2c_branch2c -> res2c_branch2c (in-place)
I0828 17:24:33.569900 24978 net.cpp:190] Setting up bn2c_branch2c
I0828 17:24:33.569907 24978 net.cpp:197] Top shape: 20 256 56 56 (16056320)
I0828 17:24:33.569911 24978 net.cpp:205] Memory required for data: 1569505360
I0828 17:24:33.569919 24978 layer_factory.hpp:123] Creating layer res2c
I0828 17:24:33.569924 24978 net.cpp:140] Creating Layer res2c
I0828 17:24:33.569927 24978 net.cpp:481] res2c <- res2b_res2b_relu_0_split_1
I0828 17:24:33.569931 24978 net.cpp:481] res2c <- res2c_branch2c
I0828 17:24:33.569934 24978 net.cpp:455] res2c -> res2c
I0828 17:24:33.569948 24978 net.cpp:190] Setting up res2c
I0828 17:24:33.569953 24978 net.cpp:197] Top shape: 20 256 56 56 (16056320)
I0828 17:24:33.569955 24978 net.cpp:205] Memory required for data: 1633730640
I0828 17:24:33.569958 24978 layer_factory.hpp:123] Creating layer res2c_relu
I0828 17:24:33.569962 24978 net.cpp:140] Creating Layer res2c_relu
I0828 17:24:33.569964 24978 net.cpp:481] res2c_relu <- res2c
I0828 17:24:33.569968 24978 net.cpp:442] res2c_relu -> res2c (in-place)
I0828 17:24:33.569972 24978 net.cpp:190] Setting up res2c_relu
I0828 17:24:33.569975 24978 net.cpp:197] Top shape: 20 256 56 56 (16056320)
I0828 17:24:33.569978 24978 net.cpp:205] Memory required for data: 1697955920
I0828 17:24:33.569980 24978 layer_factory.hpp:123] Creating layer res2c_res2c_relu_0_split
I0828 17:24:33.569984 24978 net.cpp:140] Creating Layer res2c_res2c_relu_0_split
I0828 17:24:33.569986 24978 net.cpp:481] res2c_res2c_relu_0_split <- res2c
I0828 17:24:33.569990 24978 net.cpp:455] res2c_res2c_relu_0_split -> res2c_res2c_relu_0_split_0
I0828 17:24:33.569994 24978 net.cpp:455] res2c_res2c_relu_0_split -> res2c_res2c_relu_0_split_1
I0828 17:24:33.570013 24978 net.cpp:190] Setting up res2c_res2c_relu_0_split
I0828 17:24:33.570019 24978 net.cpp:197] Top shape: 20 256 56 56 (16056320)
I0828 17:24:33.570021 24978 net.cpp:197] Top shape: 20 256 56 56 (16056320)
I0828 17:24:33.570024 24978 net.cpp:205] Memory required for data: 1826406480
I0828 17:24:33.570026 24978 layer_factory.hpp:123] Creating layer res3a_branch1
I0828 17:24:33.570031 24978 net.cpp:140] Creating Layer res3a_branch1
I0828 17:24:33.570034 24978 net.cpp:481] res3a_branch1 <- res2c_res2c_relu_0_split_0
I0828 17:24:33.570039 24978 net.cpp:455] res3a_branch1 -> res3a_branch1
I0828 17:24:33.570996 24978 net.cpp:190] Setting up res3a_branch1
I0828 17:24:33.571005 24978 net.cpp:197] Top shape: 20 512 28 28 (8028160)
I0828 17:24:33.571007 24978 net.cpp:205] Memory required for data: 1858519120
I0828 17:24:33.571012 24978 layer_factory.hpp:123] Creating layer bn3a_branch1
I0828 17:24:33.571017 24978 net.cpp:140] Creating Layer bn3a_branch1
I0828 17:24:33.571022 24978 net.cpp:481] bn3a_branch1 <- res3a_branch1
I0828 17:24:33.571025 24978 net.cpp:442] bn3a_branch1 -> res3a_branch1 (in-place)
I0828 17:24:33.571377 24978 net.cpp:190] Setting up bn3a_branch1
I0828 17:24:33.571383 24978 net.cpp:197] Top shape: 20 512 28 28 (8028160)
I0828 17:24:33.571385 24978 net.cpp:205] Memory required for data: 1890631760
I0828 17:24:33.571393 24978 layer_factory.hpp:123] Creating layer res3a_branch2a
I0828 17:24:33.571399 24978 net.cpp:140] Creating Layer res3a_branch2a
I0828 17:24:33.571403 24978 net.cpp:481] res3a_branch2a <- res2c_res2c_relu_0_split_1
I0828 17:24:33.571406 24978 net.cpp:455] res3a_branch2a -> res3a_branch2a
I0828 17:24:33.571669 24978 net.cpp:190] Setting up res3a_branch2a
I0828 17:24:33.571676 24978 net.cpp:197] Top shape: 20 128 28 28 (2007040)
I0828 17:24:33.571678 24978 net.cpp:205] Memory required for data: 1898659920
I0828 17:24:33.571681 24978 layer_factory.hpp:123] Creating layer bn3a_branch2a
I0828 17:24:33.571686 24978 net.cpp:140] Creating Layer bn3a_branch2a
I0828 17:24:33.571689 24978 net.cpp:481] bn3a_branch2a <- res3a_branch2a
I0828 17:24:33.571693 24978 net.cpp:442] bn3a_branch2a -> res3a_branch2a (in-place)
I0828 17:24:33.572049 24978 net.cpp:190] Setting up bn3a_branch2a
I0828 17:24:33.572055 24978 net.cpp:197] Top shape: 20 128 28 28 (2007040)
I0828 17:24:33.572058 24978 net.cpp:205] Memory required for data: 1906688080
I0828 17:24:33.572064 24978 layer_factory.hpp:123] Creating layer res3a_branch2a_relu
I0828 17:24:33.572069 24978 net.cpp:140] Creating Layer res3a_branch2a_relu
I0828 17:24:33.572072 24978 net.cpp:481] res3a_branch2a_relu <- res3a_branch2a
I0828 17:24:33.572075 24978 net.cpp:442] res3a_branch2a_relu -> res3a_branch2a (in-place)
I0828 17:24:33.572080 24978 net.cpp:190] Setting up res3a_branch2a_relu
I0828 17:24:33.572083 24978 net.cpp:197] Top shape: 20 128 28 28 (2007040)
I0828 17:24:33.572085 24978 net.cpp:205] Memory required for data: 1914716240
I0828 17:24:33.572088 24978 layer_factory.hpp:123] Creating layer res3a_branch2b
I0828 17:24:33.572093 24978 net.cpp:140] Creating Layer res3a_branch2b
I0828 17:24:33.572098 24978 net.cpp:481] res3a_branch2b <- res3a_branch2a
I0828 17:24:33.572101 24978 net.cpp:455] res3a_branch2b -> res3a_branch2b
I0828 17:24:33.573346 24978 net.cpp:190] Setting up res3a_branch2b
I0828 17:24:33.573355 24978 net.cpp:197] Top shape: 20 128 28 28 (2007040)
I0828 17:24:33.573359 24978 net.cpp:205] Memory required for data: 1922744400
I0828 17:24:33.573362 24978 layer_factory.hpp:123] Creating layer bn3a_branch2b
I0828 17:24:33.573369 24978 net.cpp:140] Creating Layer bn3a_branch2b
I0828 17:24:33.573372 24978 net.cpp:481] bn3a_branch2b <- res3a_branch2b
I0828 17:24:33.573376 24978 net.cpp:442] bn3a_branch2b -> res3a_branch2b (in-place)
I0828 17:24:33.573741 24978 net.cpp:190] Setting up bn3a_branch2b
I0828 17:24:33.573747 24978 net.cpp:197] Top shape: 20 128 28 28 (2007040)
I0828 17:24:33.573750 24978 net.cpp:205] Memory required for data: 1930772560
I0828 17:24:33.573756 24978 layer_factory.hpp:123] Creating layer res3a_branch2b_relu
I0828 17:24:33.573761 24978 net.cpp:140] Creating Layer res3a_branch2b_relu
I0828 17:24:33.573765 24978 net.cpp:481] res3a_branch2b_relu <- res3a_branch2b
I0828 17:24:33.573767 24978 net.cpp:442] res3a_branch2b_relu -> res3a_branch2b (in-place)
I0828 17:24:33.573772 24978 net.cpp:190] Setting up res3a_branch2b_relu
I0828 17:24:33.573776 24978 net.cpp:197] Top shape: 20 128 28 28 (2007040)
I0828 17:24:33.573778 24978 net.cpp:205] Memory required for data: 1938800720
I0828 17:24:33.573781 24978 layer_factory.hpp:123] Creating layer res3a_branch2c
I0828 17:24:33.573786 24978 net.cpp:140] Creating Layer res3a_branch2c
I0828 17:24:33.573789 24978 net.cpp:481] res3a_branch2c <- res3a_branch2b
I0828 17:24:33.573793 24978 net.cpp:455] res3a_branch2c -> res3a_branch2c
I0828 17:24:33.574193 24978 net.cpp:190] Setting up res3a_branch2c
I0828 17:24:33.574198 24978 net.cpp:197] Top shape: 20 512 28 28 (8028160)
I0828 17:24:33.574200 24978 net.cpp:205] Memory required for data: 1970913360
I0828 17:24:33.574204 24978 layer_factory.hpp:123] Creating layer bn3a_branch2c
I0828 17:24:33.574209 24978 net.cpp:140] Creating Layer bn3a_branch2c
I0828 17:24:33.574211 24978 net.cpp:481] bn3a_branch2c <- res3a_branch2c
I0828 17:24:33.574215 24978 net.cpp:442] bn3a_branch2c -> res3a_branch2c (in-place)
I0828 17:24:33.574573 24978 net.cpp:190] Setting up bn3a_branch2c
I0828 17:24:33.574579 24978 net.cpp:197] Top shape: 20 512 28 28 (8028160)
I0828 17:24:33.574581 24978 net.cpp:205] Memory required for data: 2003026000
I0828 17:24:33.574587 24978 layer_factory.hpp:123] Creating layer res3a
I0828 17:24:33.574592 24978 net.cpp:140] Creating Layer res3a
I0828 17:24:33.574596 24978 net.cpp:481] res3a <- res3a_branch1
I0828 17:24:33.574599 24978 net.cpp:481] res3a <- res3a_branch2c
I0828 17:24:33.574604 24978 net.cpp:455] res3a -> res3a
I0828 17:24:33.574616 24978 net.cpp:190] Setting up res3a
I0828 17:24:33.574621 24978 net.cpp:197] Top shape: 20 512 28 28 (8028160)
I0828 17:24:33.574623 24978 net.cpp:205] Memory required for data: 2035138640
I0828 17:24:33.574626 24978 layer_factory.hpp:123] Creating layer res3a_relu
I0828 17:24:33.574630 24978 net.cpp:140] Creating Layer res3a_relu
I0828 17:24:33.574632 24978 net.cpp:481] res3a_relu <- res3a
I0828 17:24:33.574635 24978 net.cpp:442] res3a_relu -> res3a (in-place)
I0828 17:24:33.574640 24978 net.cpp:190] Setting up res3a_relu
I0828 17:24:33.574643 24978 net.cpp:197] Top shape: 20 512 28 28 (8028160)
I0828 17:24:33.574645 24978 net.cpp:205] Memory required for data: 2067251280
I0828 17:24:33.574647 24978 layer_factory.hpp:123] Creating layer res3a_res3a_relu_0_split
I0828 17:24:33.574651 24978 net.cpp:140] Creating Layer res3a_res3a_relu_0_split
I0828 17:24:33.574654 24978 net.cpp:481] res3a_res3a_relu_0_split <- res3a
I0828 17:24:33.574657 24978 net.cpp:455] res3a_res3a_relu_0_split -> res3a_res3a_relu_0_split_0
I0828 17:24:33.574662 24978 net.cpp:455] res3a_res3a_relu_0_split -> res3a_res3a_relu_0_split_1
I0828 17:24:33.574681 24978 net.cpp:190] Setting up res3a_res3a_relu_0_split
I0828 17:24:33.574685 24978 net.cpp:197] Top shape: 20 512 28 28 (8028160)
I0828 17:24:33.574688 24978 net.cpp:197] Top shape: 20 512 28 28 (8028160)
I0828 17:24:33.574690 24978 net.cpp:205] Memory required for data: 2131476560
I0828 17:24:33.574693 24978 layer_factory.hpp:123] Creating layer res3b_branch2a
I0828 17:24:33.574698 24978 net.cpp:140] Creating Layer res3b_branch2a
I0828 17:24:33.574702 24978 net.cpp:481] res3b_branch2a <- res3a_res3a_relu_0_split_0
I0828 17:24:33.574707 24978 net.cpp:455] res3b_branch2a -> res3b_branch2a
I0828 17:24:33.575381 24978 net.cpp:190] Setting up res3b_branch2a
I0828 17:24:33.575390 24978 net.cpp:197] Top shape: 20 128 28 28 (2007040)
I0828 17:24:33.575393 24978 net.cpp:205] Memory required for data: 2139504720
I0828 17:24:33.575397 24978 layer_factory.hpp:123] Creating layer bn3b_branch2a
I0828 17:24:33.575402 24978 net.cpp:140] Creating Layer bn3b_branch2a
I0828 17:24:33.575405 24978 net.cpp:481] bn3b_branch2a <- res3b_branch2a
I0828 17:24:33.575423 24978 net.cpp:442] bn3b_branch2a -> res3b_branch2a (in-place)
I0828 17:24:33.575803 24978 net.cpp:190] Setting up bn3b_branch2a
I0828 17:24:33.575809 24978 net.cpp:197] Top shape: 20 128 28 28 (2007040)
I0828 17:24:33.575812 24978 net.cpp:205] Memory required for data: 2147532880
I0828 17:24:33.575819 24978 layer_factory.hpp:123] Creating layer res3b_branch2a_relu
I0828 17:24:33.575824 24978 net.cpp:140] Creating Layer res3b_branch2a_relu
I0828 17:24:33.575826 24978 net.cpp:481] res3b_branch2a_relu <- res3b_branch2a
I0828 17:24:33.575830 24978 net.cpp:442] res3b_branch2a_relu -> res3b_branch2a (in-place)
I0828 17:24:33.575835 24978 net.cpp:190] Setting up res3b_branch2a_relu
I0828 17:24:33.575839 24978 net.cpp:197] Top shape: 20 128 28 28 (2007040)
I0828 17:24:33.575841 24978 net.cpp:205] Memory required for data: 2155561040
I0828 17:24:33.575843 24978 layer_factory.hpp:123] Creating layer res3b_branch2b
I0828 17:24:33.575848 24978 net.cpp:140] Creating Layer res3b_branch2b
I0828 17:24:33.575851 24978 net.cpp:481] res3b_branch2b <- res3b_branch2a
I0828 17:24:33.575855 24978 net.cpp:455] res3b_branch2b -> res3b_branch2b
I0828 17:24:33.576881 24978 net.cpp:190] Setting up res3b_branch2b
I0828 17:24:33.576891 24978 net.cpp:197] Top shape: 20 128 28 28 (2007040)
I0828 17:24:33.576894 24978 net.cpp:205] Memory required for data: 2163589200
I0828 17:24:33.576897 24978 layer_factory.hpp:123] Creating layer bn3b_branch2b
I0828 17:24:33.576903 24978 net.cpp:140] Creating Layer bn3b_branch2b
I0828 17:24:33.576906 24978 net.cpp:481] bn3b_branch2b <- res3b_branch2b
I0828 17:24:33.576910 24978 net.cpp:442] bn3b_branch2b -> res3b_branch2b (in-place)
I0828 17:24:33.577270 24978 net.cpp:190] Setting up bn3b_branch2b
I0828 17:24:33.577276 24978 net.cpp:197] Top shape: 20 128 28 28 (2007040)
I0828 17:24:33.577278 24978 net.cpp:205] Memory required for data: 2171617360
I0828 17:24:33.577284 24978 layer_factory.hpp:123] Creating layer res3b_branch2b_relu
I0828 17:24:33.577289 24978 net.cpp:140] Creating Layer res3b_branch2b_relu
I0828 17:24:33.577292 24978 net.cpp:481] res3b_branch2b_relu <- res3b_branch2b
I0828 17:24:33.577296 24978 net.cpp:442] res3b_branch2b_relu -> res3b_branch2b (in-place)
I0828 17:24:33.577301 24978 net.cpp:190] Setting up res3b_branch2b_relu
I0828 17:24:33.577303 24978 net.cpp:197] Top shape: 20 128 28 28 (2007040)
I0828 17:24:33.577306 24978 net.cpp:205] Memory required for data: 2179645520
I0828 17:24:33.577308 24978 layer_factory.hpp:123] Creating layer res3b_branch2c
I0828 17:24:33.577314 24978 net.cpp:140] Creating Layer res3b_branch2c
I0828 17:24:33.577317 24978 net.cpp:481] res3b_branch2c <- res3b_branch2b
I0828 17:24:33.577322 24978 net.cpp:455] res3b_branch2c -> res3b_branch2c
I0828 17:24:33.577970 24978 net.cpp:190] Setting up res3b_branch2c
I0828 17:24:33.577978 24978 net.cpp:197] Top shape: 20 512 28 28 (8028160)
I0828 17:24:33.577980 24978 net.cpp:205] Memory required for data: 2211758160
I0828 17:24:33.577986 24978 layer_factory.hpp:123] Creating layer bn3b_branch2c
I0828 17:24:33.577991 24978 net.cpp:140] Creating Layer bn3b_branch2c
I0828 17:24:33.577993 24978 net.cpp:481] bn3b_branch2c <- res3b_branch2c
I0828 17:24:33.577997 24978 net.cpp:442] bn3b_branch2c -> res3b_branch2c (in-place)
I0828 17:24:33.578368 24978 net.cpp:190] Setting up bn3b_branch2c
I0828 17:24:33.578374 24978 net.cpp:197] Top shape: 20 512 28 28 (8028160)
I0828 17:24:33.578377 24978 net.cpp:205] Memory required for data: 2243870800
I0828 17:24:33.578383 24978 layer_factory.hpp:123] Creating layer res3b
I0828 17:24:33.578388 24978 net.cpp:140] Creating Layer res3b
I0828 17:24:33.578393 24978 net.cpp:481] res3b <- res3a_res3a_relu_0_split_1
I0828 17:24:33.578397 24978 net.cpp:481] res3b <- res3b_branch2c
I0828 17:24:33.578400 24978 net.cpp:455] res3b -> res3b
I0828 17:24:33.578414 24978 net.cpp:190] Setting up res3b
I0828 17:24:33.578419 24978 net.cpp:197] Top shape: 20 512 28 28 (8028160)
I0828 17:24:33.578423 24978 net.cpp:205] Memory required for data: 2275983440
I0828 17:24:33.578424 24978 layer_factory.hpp:123] Creating layer res3b_relu
I0828 17:24:33.578428 24978 net.cpp:140] Creating Layer res3b_relu
I0828 17:24:33.578431 24978 net.cpp:481] res3b_relu <- res3b
I0828 17:24:33.578435 24978 net.cpp:442] res3b_relu -> res3b (in-place)
I0828 17:24:33.578439 24978 net.cpp:190] Setting up res3b_relu
I0828 17:24:33.578444 24978 net.cpp:197] Top shape: 20 512 28 28 (8028160)
I0828 17:24:33.578445 24978 net.cpp:205] Memory required for data: 2308096080
I0828 17:24:33.578447 24978 layer_factory.hpp:123] Creating layer res3b_res3b_relu_0_split
I0828 17:24:33.578454 24978 net.cpp:140] Creating Layer res3b_res3b_relu_0_split
I0828 17:24:33.578456 24978 net.cpp:481] res3b_res3b_relu_0_split <- res3b
I0828 17:24:33.578459 24978 net.cpp:455] res3b_res3b_relu_0_split -> res3b_res3b_relu_0_split_0
I0828 17:24:33.578464 24978 net.cpp:455] res3b_res3b_relu_0_split -> res3b_res3b_relu_0_split_1
I0828 17:24:33.578483 24978 net.cpp:190] Setting up res3b_res3b_relu_0_split
I0828 17:24:33.578488 24978 net.cpp:197] Top shape: 20 512 28 28 (8028160)
I0828 17:24:33.578491 24978 net.cpp:197] Top shape: 20 512 28 28 (8028160)
I0828 17:24:33.578495 24978 net.cpp:205] Memory required for data: 2372321360
I0828 17:24:33.578496 24978 layer_factory.hpp:123] Creating layer res3c_branch2a
I0828 17:24:33.578503 24978 net.cpp:140] Creating Layer res3c_branch2a
I0828 17:24:33.578507 24978 net.cpp:481] res3c_branch2a <- res3b_res3b_relu_0_split_0
I0828 17:24:33.578516 24978 net.cpp:455] res3c_branch2a -> res3c_branch2a
I0828 17:24:33.578934 24978 net.cpp:190] Setting up res3c_branch2a
I0828 17:24:33.578954 24978 net.cpp:197] Top shape: 20 128 28 28 (2007040)
I0828 17:24:33.578958 24978 net.cpp:205] Memory required for data: 2380349520
I0828 17:24:33.578963 24978 layer_factory.hpp:123] Creating layer bn3c_branch2a
I0828 17:24:33.578971 24978 net.cpp:140] Creating Layer bn3c_branch2a
I0828 17:24:33.578976 24978 net.cpp:481] bn3c_branch2a <- res3c_branch2a
I0828 17:24:33.578981 24978 net.cpp:442] bn3c_branch2a -> res3c_branch2a (in-place)
I0828 17:24:33.579341 24978 net.cpp:190] Setting up bn3c_branch2a
I0828 17:24:33.579349 24978 net.cpp:197] Top shape: 20 128 28 28 (2007040)
I0828 17:24:33.579352 24978 net.cpp:205] Memory required for data: 2388377680
I0828 17:24:33.579361 24978 layer_factory.hpp:123] Creating layer res3c_branch2a_relu
I0828 17:24:33.579366 24978 net.cpp:140] Creating Layer res3c_branch2a_relu
I0828 17:24:33.579372 24978 net.cpp:481] res3c_branch2a_relu <- res3c_branch2a
I0828 17:24:33.579377 24978 net.cpp:442] res3c_branch2a_relu -> res3c_branch2a (in-place)
I0828 17:24:33.579385 24978 net.cpp:190] Setting up res3c_branch2a_relu
I0828 17:24:33.579391 24978 net.cpp:197] Top shape: 20 128 28 28 (2007040)
I0828 17:24:33.579393 24978 net.cpp:205] Memory required for data: 2396405840
I0828 17:24:33.579398 24978 layer_factory.hpp:123] Creating layer res3c_branch2b
I0828 17:24:33.579406 24978 net.cpp:140] Creating Layer res3c_branch2b
I0828 17:24:33.579411 24978 net.cpp:481] res3c_branch2b <- res3c_branch2a
I0828 17:24:33.579416 24978 net.cpp:455] res3c_branch2b -> res3c_branch2b
I0828 17:24:33.580698 24978 net.cpp:190] Setting up res3c_branch2b
I0828 17:24:33.580708 24978 net.cpp:197] Top shape: 20 128 28 28 (2007040)
I0828 17:24:33.580711 24978 net.cpp:205] Memory required for data: 2404434000
I0828 17:24:33.580718 24978 layer_factory.hpp:123] Creating layer bn3c_branch2b
I0828 17:24:33.580725 24978 net.cpp:140] Creating Layer bn3c_branch2b
I0828 17:24:33.580730 24978 net.cpp:481] bn3c_branch2b <- res3c_branch2b
I0828 17:24:33.580736 24978 net.cpp:442] bn3c_branch2b -> res3c_branch2b (in-place)
I0828 17:24:33.581096 24978 net.cpp:190] Setting up bn3c_branch2b
I0828 17:24:33.581104 24978 net.cpp:197] Top shape: 20 128 28 28 (2007040)
I0828 17:24:33.581109 24978 net.cpp:205] Memory required for data: 2412462160
I0828 17:24:33.581117 24978 layer_factory.hpp:123] Creating layer res3c_branch2b_relu
I0828 17:24:33.581122 24978 net.cpp:140] Creating Layer res3c_branch2b_relu
I0828 17:24:33.581125 24978 net.cpp:481] res3c_branch2b_relu <- res3c_branch2b
I0828 17:24:33.581130 24978 net.cpp:442] res3c_branch2b_relu -> res3c_branch2b (in-place)
I0828 17:24:33.581133 24978 net.cpp:190] Setting up res3c_branch2b_relu
I0828 17:24:33.581137 24978 net.cpp:197] Top shape: 20 128 28 28 (2007040)
I0828 17:24:33.581140 24978 net.cpp:205] Memory required for data: 2420490320
I0828 17:24:33.581142 24978 layer_factory.hpp:123] Creating layer res3c_branch2c
I0828 17:24:33.581147 24978 net.cpp:140] Creating Layer res3c_branch2c
I0828 17:24:33.581151 24978 net.cpp:481] res3c_branch2c <- res3c_branch2b
I0828 17:24:33.581154 24978 net.cpp:455] res3c_branch2c -> res3c_branch2c
I0828 17:24:33.581555 24978 net.cpp:190] Setting up res3c_branch2c
I0828 17:24:33.581562 24978 net.cpp:197] Top shape: 20 512 28 28 (8028160)
I0828 17:24:33.581564 24978 net.cpp:205] Memory required for data: 2452602960
I0828 17:24:33.581568 24978 layer_factory.hpp:123] Creating layer bn3c_branch2c
I0828 17:24:33.581573 24978 net.cpp:140] Creating Layer bn3c_branch2c
I0828 17:24:33.581575 24978 net.cpp:481] bn3c_branch2c <- res3c_branch2c
I0828 17:24:33.581579 24978 net.cpp:442] bn3c_branch2c -> res3c_branch2c (in-place)
I0828 17:24:33.581952 24978 net.cpp:190] Setting up bn3c_branch2c
I0828 17:24:33.581959 24978 net.cpp:197] Top shape: 20 512 28 28 (8028160)
I0828 17:24:33.581961 24978 net.cpp:205] Memory required for data: 2484715600
I0828 17:24:33.581967 24978 layer_factory.hpp:123] Creating layer res3c
I0828 17:24:33.581972 24978 net.cpp:140] Creating Layer res3c
I0828 17:24:33.581976 24978 net.cpp:481] res3c <- res3b_res3b_relu_0_split_1
I0828 17:24:33.581980 24978 net.cpp:481] res3c <- res3c_branch2c
I0828 17:24:33.581984 24978 net.cpp:455] res3c -> res3c
I0828 17:24:33.581998 24978 net.cpp:190] Setting up res3c
I0828 17:24:33.582003 24978 net.cpp:197] Top shape: 20 512 28 28 (8028160)
I0828 17:24:33.582005 24978 net.cpp:205] Memory required for data: 2516828240
I0828 17:24:33.582007 24978 layer_factory.hpp:123] Creating layer res3c_relu
I0828 17:24:33.582011 24978 net.cpp:140] Creating Layer res3c_relu
I0828 17:24:33.582015 24978 net.cpp:481] res3c_relu <- res3c
I0828 17:24:33.582017 24978 net.cpp:442] res3c_relu -> res3c (in-place)
I0828 17:24:33.582021 24978 net.cpp:190] Setting up res3c_relu
I0828 17:24:33.582026 24978 net.cpp:197] Top shape: 20 512 28 28 (8028160)
I0828 17:24:33.582027 24978 net.cpp:205] Memory required for data: 2548940880
I0828 17:24:33.582029 24978 layer_factory.hpp:123] Creating layer res3c_res3c_relu_0_split
I0828 17:24:33.582033 24978 net.cpp:140] Creating Layer res3c_res3c_relu_0_split
I0828 17:24:33.582036 24978 net.cpp:481] res3c_res3c_relu_0_split <- res3c
I0828 17:24:33.582041 24978 net.cpp:455] res3c_res3c_relu_0_split -> res3c_res3c_relu_0_split_0
I0828 17:24:33.582044 24978 net.cpp:455] res3c_res3c_relu_0_split -> res3c_res3c_relu_0_split_1
I0828 17:24:33.582065 24978 net.cpp:190] Setting up res3c_res3c_relu_0_split
I0828 17:24:33.582070 24978 net.cpp:197] Top shape: 20 512 28 28 (8028160)
I0828 17:24:33.582073 24978 net.cpp:197] Top shape: 20 512 28 28 (8028160)
I0828 17:24:33.582077 24978 net.cpp:205] Memory required for data: 2613166160
I0828 17:24:33.582080 24978 layer_factory.hpp:123] Creating layer res3d_branch2a
I0828 17:24:33.582087 24978 net.cpp:140] Creating Layer res3d_branch2a
I0828 17:24:33.582089 24978 net.cpp:481] res3d_branch2a <- res3c_res3c_relu_0_split_0
I0828 17:24:33.582093 24978 net.cpp:455] res3d_branch2a -> res3d_branch2a
I0828 17:24:33.582751 24978 net.cpp:190] Setting up res3d_branch2a
I0828 17:24:33.582762 24978 net.cpp:197] Top shape: 20 128 28 28 (2007040)
I0828 17:24:33.582763 24978 net.cpp:205] Memory required for data: 2621194320
I0828 17:24:33.582767 24978 layer_factory.hpp:123] Creating layer bn3d_branch2a
I0828 17:24:33.582773 24978 net.cpp:140] Creating Layer bn3d_branch2a
I0828 17:24:33.582779 24978 net.cpp:481] bn3d_branch2a <- res3d_branch2a
I0828 17:24:33.582783 24978 net.cpp:442] bn3d_branch2a -> res3d_branch2a (in-place)
I0828 17:24:33.583210 24978 net.cpp:190] Setting up bn3d_branch2a
I0828 17:24:33.583217 24978 net.cpp:197] Top shape: 20 128 28 28 (2007040)
I0828 17:24:33.583220 24978 net.cpp:205] Memory required for data: 2629222480
I0828 17:24:33.583231 24978 layer_factory.hpp:123] Creating layer res3d_branch2a_relu
I0828 17:24:33.583236 24978 net.cpp:140] Creating Layer res3d_branch2a_relu
I0828 17:24:33.583240 24978 net.cpp:481] res3d_branch2a_relu <- res3d_branch2a
I0828 17:24:33.583242 24978 net.cpp:442] res3d_branch2a_relu -> res3d_branch2a (in-place)
I0828 17:24:33.583247 24978 net.cpp:190] Setting up res3d_branch2a_relu
I0828 17:24:33.583250 24978 net.cpp:197] Top shape: 20 128 28 28 (2007040)
I0828 17:24:33.583253 24978 net.cpp:205] Memory required for data: 2637250640
I0828 17:24:33.583256 24978 layer_factory.hpp:123] Creating layer res3d_branch2b
I0828 17:24:33.583261 24978 net.cpp:140] Creating Layer res3d_branch2b
I0828 17:24:33.583263 24978 net.cpp:481] res3d_branch2b <- res3d_branch2a
I0828 17:24:33.583267 24978 net.cpp:455] res3d_branch2b -> res3d_branch2b
I0828 17:24:33.584257 24978 net.cpp:190] Setting up res3d_branch2b
I0828 17:24:33.584266 24978 net.cpp:197] Top shape: 20 128 28 28 (2007040)
I0828 17:24:33.584270 24978 net.cpp:205] Memory required for data: 2645278800
I0828 17:24:33.584273 24978 layer_factory.hpp:123] Creating layer bn3d_branch2b
I0828 17:24:33.584280 24978 net.cpp:140] Creating Layer bn3d_branch2b
I0828 17:24:33.584283 24978 net.cpp:481] bn3d_branch2b <- res3d_branch2b
I0828 17:24:33.584287 24978 net.cpp:442] bn3d_branch2b -> res3d_branch2b (in-place)
I0828 17:24:33.584671 24978 net.cpp:190] Setting up bn3d_branch2b
I0828 17:24:33.584676 24978 net.cpp:197] Top shape: 20 128 28 28 (2007040)
I0828 17:24:33.584679 24978 net.cpp:205] Memory required for data: 2653306960
I0828 17:24:33.584686 24978 layer_factory.hpp:123] Creating layer res3d_branch2b_relu
I0828 17:24:33.584689 24978 net.cpp:140] Creating Layer res3d_branch2b_relu
I0828 17:24:33.584693 24978 net.cpp:481] res3d_branch2b_relu <- res3d_branch2b
I0828 17:24:33.584697 24978 net.cpp:442] res3d_branch2b_relu -> res3d_branch2b (in-place)
I0828 17:24:33.584702 24978 net.cpp:190] Setting up res3d_branch2b_relu
I0828 17:24:33.584704 24978 net.cpp:197] Top shape: 20 128 28 28 (2007040)
I0828 17:24:33.584707 24978 net.cpp:205] Memory required for data: 2661335120
I0828 17:24:33.584709 24978 layer_factory.hpp:123] Creating layer res3d_branch2c
I0828 17:24:33.584714 24978 net.cpp:140] Creating Layer res3d_branch2c
I0828 17:24:33.584718 24978 net.cpp:481] res3d_branch2c <- res3d_branch2b
I0828 17:24:33.584722 24978 net.cpp:455] res3d_branch2c -> res3d_branch2c
I0828 17:24:33.585381 24978 net.cpp:190] Setting up res3d_branch2c
I0828 17:24:33.585389 24978 net.cpp:197] Top shape: 20 512 28 28 (8028160)
I0828 17:24:33.585391 24978 net.cpp:205] Memory required for data: 2693447760
I0828 17:24:33.585395 24978 layer_factory.hpp:123] Creating layer bn3d_branch2c
I0828 17:24:33.585400 24978 net.cpp:140] Creating Layer bn3d_branch2c
I0828 17:24:33.585404 24978 net.cpp:481] bn3d_branch2c <- res3d_branch2c
I0828 17:24:33.585408 24978 net.cpp:442] bn3d_branch2c -> res3d_branch2c (in-place)
I0828 17:24:33.585789 24978 net.cpp:190] Setting up bn3d_branch2c
I0828 17:24:33.585796 24978 net.cpp:197] Top shape: 20 512 28 28 (8028160)
I0828 17:24:33.585799 24978 net.cpp:205] Memory required for data: 2725560400
I0828 17:24:33.585805 24978 layer_factory.hpp:123] Creating layer res3d
I0828 17:24:33.585811 24978 net.cpp:140] Creating Layer res3d
I0828 17:24:33.585814 24978 net.cpp:481] res3d <- res3c_res3c_relu_0_split_1
I0828 17:24:33.585819 24978 net.cpp:481] res3d <- res3d_branch2c
I0828 17:24:33.585822 24978 net.cpp:455] res3d -> res3d
I0828 17:24:33.585837 24978 net.cpp:190] Setting up res3d
I0828 17:24:33.585841 24978 net.cpp:197] Top shape: 20 512 28 28 (8028160)
I0828 17:24:33.585844 24978 net.cpp:205] Memory required for data: 2757673040
I0828 17:24:33.585846 24978 layer_factory.hpp:123] Creating layer res3d_relu
I0828 17:24:33.585850 24978 net.cpp:140] Creating Layer res3d_relu
I0828 17:24:33.585853 24978 net.cpp:481] res3d_relu <- res3d
I0828 17:24:33.585857 24978 net.cpp:442] res3d_relu -> res3d (in-place)
I0828 17:24:33.585861 24978 net.cpp:190] Setting up res3d_relu
I0828 17:24:33.585865 24978 net.cpp:197] Top shape: 20 512 28 28 (8028160)
I0828 17:24:33.585867 24978 net.cpp:205] Memory required for data: 2789785680
I0828 17:24:33.585870 24978 layer_factory.hpp:123] Creating layer res3d_res3d_relu_0_split
I0828 17:24:33.585873 24978 net.cpp:140] Creating Layer res3d_res3d_relu_0_split
I0828 17:24:33.585876 24978 net.cpp:481] res3d_res3d_relu_0_split <- res3d
I0828 17:24:33.585880 24978 net.cpp:455] res3d_res3d_relu_0_split -> res3d_res3d_relu_0_split_0
I0828 17:24:33.585885 24978 net.cpp:455] res3d_res3d_relu_0_split -> res3d_res3d_relu_0_split_1
I0828 17:24:33.585904 24978 net.cpp:190] Setting up res3d_res3d_relu_0_split
I0828 17:24:33.585909 24978 net.cpp:197] Top shape: 20 512 28 28 (8028160)
I0828 17:24:33.585912 24978 net.cpp:197] Top shape: 20 512 28 28 (8028160)
I0828 17:24:33.585914 24978 net.cpp:205] Memory required for data: 2854010960
I0828 17:24:33.585916 24978 layer_factory.hpp:123] Creating layer res4a_branch1
I0828 17:24:33.585923 24978 net.cpp:140] Creating Layer res4a_branch1
I0828 17:24:33.585928 24978 net.cpp:481] res4a_branch1 <- res3d_res3d_relu_0_split_0
I0828 17:24:33.585935 24978 net.cpp:455] res4a_branch1 -> res4a_branch1
I0828 17:24:33.589206 24978 net.cpp:190] Setting up res4a_branch1
I0828 17:24:33.589221 24978 net.cpp:197] Top shape: 20 1024 14 14 (4014080)
I0828 17:24:33.589224 24978 net.cpp:205] Memory required for data: 2870067280
I0828 17:24:33.589231 24978 layer_factory.hpp:123] Creating layer bn4a_branch1
I0828 17:24:33.589239 24978 net.cpp:140] Creating Layer bn4a_branch1
I0828 17:24:33.589244 24978 net.cpp:481] bn4a_branch1 <- res4a_branch1
I0828 17:24:33.589251 24978 net.cpp:442] bn4a_branch1 -> res4a_branch1 (in-place)
I0828 17:24:33.589651 24978 net.cpp:190] Setting up bn4a_branch1
I0828 17:24:33.589658 24978 net.cpp:197] Top shape: 20 1024 14 14 (4014080)
I0828 17:24:33.589663 24978 net.cpp:205] Memory required for data: 2886123600
I0828 17:24:33.589671 24978 layer_factory.hpp:123] Creating layer res4a_branch2a
I0828 17:24:33.589679 24978 net.cpp:140] Creating Layer res4a_branch2a
I0828 17:24:33.589684 24978 net.cpp:481] res4a_branch2a <- res3d_res3d_relu_0_split_1
I0828 17:24:33.589690 24978 net.cpp:455] res4a_branch2a -> res4a_branch2a
I0828 17:24:33.590679 24978 net.cpp:190] Setting up res4a_branch2a
I0828 17:24:33.590688 24978 net.cpp:197] Top shape: 20 256 14 14 (1003520)
I0828 17:24:33.590692 24978 net.cpp:205] Memory required for data: 2890137680
I0828 17:24:33.590698 24978 layer_factory.hpp:123] Creating layer bn4a_branch2a
I0828 17:24:33.590706 24978 net.cpp:140] Creating Layer bn4a_branch2a
I0828 17:24:33.590710 24978 net.cpp:481] bn4a_branch2a <- res4a_branch2a
I0828 17:24:33.590715 24978 net.cpp:442] bn4a_branch2a -> res4a_branch2a (in-place)
I0828 17:24:33.591128 24978 net.cpp:190] Setting up bn4a_branch2a
I0828 17:24:33.591136 24978 net.cpp:197] Top shape: 20 256 14 14 (1003520)
I0828 17:24:33.591140 24978 net.cpp:205] Memory required for data: 2894151760
I0828 17:24:33.591150 24978 layer_factory.hpp:123] Creating layer res4a_branch2a_relu
I0828 17:24:33.591157 24978 net.cpp:140] Creating Layer res4a_branch2a_relu
I0828 17:24:33.591161 24978 net.cpp:481] res4a_branch2a_relu <- res4a_branch2a
I0828 17:24:33.591166 24978 net.cpp:442] res4a_branch2a_relu -> res4a_branch2a (in-place)
I0828 17:24:33.591174 24978 net.cpp:190] Setting up res4a_branch2a_relu
I0828 17:24:33.591179 24978 net.cpp:197] Top shape: 20 256 14 14 (1003520)
I0828 17:24:33.591182 24978 net.cpp:205] Memory required for data: 2898165840
I0828 17:24:33.591187 24978 layer_factory.hpp:123] Creating layer res4a_branch2b
I0828 17:24:33.591194 24978 net.cpp:140] Creating Layer res4a_branch2b
I0828 17:24:33.591197 24978 net.cpp:481] res4a_branch2b <- res4a_branch2a
I0828 17:24:33.591202 24978 net.cpp:455] res4a_branch2b -> res4a_branch2b
I0828 17:24:33.594796 24978 net.cpp:190] Setting up res4a_branch2b
I0828 17:24:33.594810 24978 net.cpp:197] Top shape: 20 256 14 14 (1003520)
I0828 17:24:33.594812 24978 net.cpp:205] Memory required for data: 2902179920
I0828 17:24:33.594817 24978 layer_factory.hpp:123] Creating layer bn4a_branch2b
I0828 17:24:33.594825 24978 net.cpp:140] Creating Layer bn4a_branch2b
I0828 17:24:33.594831 24978 net.cpp:481] bn4a_branch2b <- res4a_branch2b
I0828 17:24:33.594838 24978 net.cpp:442] bn4a_branch2b -> res4a_branch2b (in-place)
I0828 17:24:33.595278 24978 net.cpp:190] Setting up bn4a_branch2b
I0828 17:24:33.595284 24978 net.cpp:197] Top shape: 20 256 14 14 (1003520)
I0828 17:24:33.595288 24978 net.cpp:205] Memory required for data: 2906194000
I0828 17:24:33.595299 24978 layer_factory.hpp:123] Creating layer res4a_branch2b_relu
I0828 17:24:33.595304 24978 net.cpp:140] Creating Layer res4a_branch2b_relu
I0828 17:24:33.595309 24978 net.cpp:481] res4a_branch2b_relu <- res4a_branch2b
I0828 17:24:33.595315 24978 net.cpp:442] res4a_branch2b_relu -> res4a_branch2b (in-place)
I0828 17:24:33.595324 24978 net.cpp:190] Setting up res4a_branch2b_relu
I0828 17:24:33.595329 24978 net.cpp:197] Top shape: 20 256 14 14 (1003520)
I0828 17:24:33.595332 24978 net.cpp:205] Memory required for data: 2910208080
I0828 17:24:33.595335 24978 layer_factory.hpp:123] Creating layer res4a_branch2c
I0828 17:24:33.595345 24978 net.cpp:140] Creating Layer res4a_branch2c
I0828 17:24:33.595350 24978 net.cpp:481] res4a_branch2c <- res4a_branch2b
I0828 17:24:33.595355 24978 net.cpp:455] res4a_branch2c -> res4a_branch2c
I0828 17:24:33.597133 24978 net.cpp:190] Setting up res4a_branch2c
I0828 17:24:33.597144 24978 net.cpp:197] Top shape: 20 1024 14 14 (4014080)
I0828 17:24:33.597147 24978 net.cpp:205] Memory required for data: 2926264400
I0828 17:24:33.597154 24978 layer_factory.hpp:123] Creating layer bn4a_branch2c
I0828 17:24:33.597162 24978 net.cpp:140] Creating Layer bn4a_branch2c
I0828 17:24:33.597167 24978 net.cpp:481] bn4a_branch2c <- res4a_branch2c
I0828 17:24:33.597173 24978 net.cpp:442] bn4a_branch2c -> res4a_branch2c (in-place)
I0828 17:24:33.597585 24978 net.cpp:190] Setting up bn4a_branch2c
I0828 17:24:33.597594 24978 net.cpp:197] Top shape: 20 1024 14 14 (4014080)
I0828 17:24:33.597597 24978 net.cpp:205] Memory required for data: 2942320720
I0828 17:24:33.597606 24978 layer_factory.hpp:123] Creating layer res4a
I0828 17:24:33.597613 24978 net.cpp:140] Creating Layer res4a
I0828 17:24:33.597618 24978 net.cpp:481] res4a <- res4a_branch1
I0828 17:24:33.597623 24978 net.cpp:481] res4a <- res4a_branch2c
I0828 17:24:33.597630 24978 net.cpp:455] res4a -> res4a
I0828 17:24:33.597647 24978 net.cpp:190] Setting up res4a
I0828 17:24:33.597652 24978 net.cpp:197] Top shape: 20 1024 14 14 (4014080)
I0828 17:24:33.597656 24978 net.cpp:205] Memory required for data: 2958377040
I0828 17:24:33.597661 24978 layer_factory.hpp:123] Creating layer res4a_relu
I0828 17:24:33.597666 24978 net.cpp:140] Creating Layer res4a_relu
I0828 17:24:33.597671 24978 net.cpp:481] res4a_relu <- res4a
I0828 17:24:33.597676 24978 net.cpp:442] res4a_relu -> res4a (in-place)
I0828 17:24:33.597683 24978 net.cpp:190] Setting up res4a_relu
I0828 17:24:33.597688 24978 net.cpp:197] Top shape: 20 1024 14 14 (4014080)
I0828 17:24:33.597692 24978 net.cpp:205] Memory required for data: 2974433360
I0828 17:24:33.597695 24978 layer_factory.hpp:123] Creating layer res4a_res4a_relu_0_split
I0828 17:24:33.597702 24978 net.cpp:140] Creating Layer res4a_res4a_relu_0_split
I0828 17:24:33.597707 24978 net.cpp:481] res4a_res4a_relu_0_split <- res4a
I0828 17:24:33.597710 24978 net.cpp:455] res4a_res4a_relu_0_split -> res4a_res4a_relu_0_split_0
I0828 17:24:33.597715 24978 net.cpp:455] res4a_res4a_relu_0_split -> res4a_res4a_relu_0_split_1
I0828 17:24:33.597749 24978 net.cpp:190] Setting up res4a_res4a_relu_0_split
I0828 17:24:33.597754 24978 net.cpp:197] Top shape: 20 1024 14 14 (4014080)
I0828 17:24:33.597756 24978 net.cpp:197] Top shape: 20 1024 14 14 (4014080)
I0828 17:24:33.597759 24978 net.cpp:205] Memory required for data: 3006546000
I0828 17:24:33.597761 24978 layer_factory.hpp:123] Creating layer res4b_branch2a
I0828 17:24:33.597769 24978 net.cpp:140] Creating Layer res4b_branch2a
I0828 17:24:33.597772 24978 net.cpp:481] res4b_branch2a <- res4a_res4a_relu_0_split_0
I0828 17:24:33.597777 24978 net.cpp:455] res4b_branch2a -> res4b_branch2a
I0828 17:24:33.599529 24978 net.cpp:190] Setting up res4b_branch2a
I0828 17:24:33.599539 24978 net.cpp:197] Top shape: 20 256 14 14 (1003520)
I0828 17:24:33.599541 24978 net.cpp:205] Memory required for data: 3010560080
I0828 17:24:33.599546 24978 layer_factory.hpp:123] Creating layer bn4b_branch2a
I0828 17:24:33.599553 24978 net.cpp:140] Creating Layer bn4b_branch2a
I0828 17:24:33.599556 24978 net.cpp:481] bn4b_branch2a <- res4b_branch2a
I0828 17:24:33.599560 24978 net.cpp:442] bn4b_branch2a -> res4b_branch2a (in-place)
I0828 17:24:33.599942 24978 net.cpp:190] Setting up bn4b_branch2a
I0828 17:24:33.599948 24978 net.cpp:197] Top shape: 20 256 14 14 (1003520)
I0828 17:24:33.599951 24978 net.cpp:205] Memory required for data: 3014574160
I0828 17:24:33.599957 24978 layer_factory.hpp:123] Creating layer res4b_branch2a_relu
I0828 17:24:33.599963 24978 net.cpp:140] Creating Layer res4b_branch2a_relu
I0828 17:24:33.599965 24978 net.cpp:481] res4b_branch2a_relu <- res4b_branch2a
I0828 17:24:33.599969 24978 net.cpp:442] res4b_branch2a_relu -> res4b_branch2a (in-place)
I0828 17:24:33.599974 24978 net.cpp:190] Setting up res4b_branch2a_relu
I0828 17:24:33.599979 24978 net.cpp:197] Top shape: 20 256 14 14 (1003520)
I0828 17:24:33.599982 24978 net.cpp:205] Memory required for data: 3018588240
I0828 17:24:33.599983 24978 layer_factory.hpp:123] Creating layer res4b_branch2b
I0828 17:24:33.599989 24978 net.cpp:140] Creating Layer res4b_branch2b
I0828 17:24:33.599992 24978 net.cpp:481] res4b_branch2b <- res4b_branch2a
I0828 17:24:33.599997 24978 net.cpp:455] res4b_branch2b -> res4b_branch2b
I0828 17:24:33.603579 24978 net.cpp:190] Setting up res4b_branch2b
I0828 17:24:33.603593 24978 net.cpp:197] Top shape: 20 256 14 14 (1003520)
I0828 17:24:33.603596 24978 net.cpp:205] Memory required for data: 3022602320
I0828 17:24:33.603602 24978 layer_factory.hpp:123] Creating layer bn4b_branch2b
I0828 17:24:33.603624 24978 net.cpp:140] Creating Layer bn4b_branch2b
I0828 17:24:33.603628 24978 net.cpp:481] bn4b_branch2b <- res4b_branch2b
I0828 17:24:33.603633 24978 net.cpp:442] bn4b_branch2b -> res4b_branch2b (in-place)
I0828 17:24:33.604043 24978 net.cpp:190] Setting up bn4b_branch2b
I0828 17:24:33.604049 24978 net.cpp:197] Top shape: 20 256 14 14 (1003520)
I0828 17:24:33.604053 24978 net.cpp:205] Memory required for data: 3026616400
I0828 17:24:33.604074 24978 layer_factory.hpp:123] Creating layer res4b_branch2b_relu
I0828 17:24:33.604079 24978 net.cpp:140] Creating Layer res4b_branch2b_relu
I0828 17:24:33.604082 24978 net.cpp:481] res4b_branch2b_relu <- res4b_branch2b
I0828 17:24:33.604086 24978 net.cpp:442] res4b_branch2b_relu -> res4b_branch2b (in-place)
I0828 17:24:33.604091 24978 net.cpp:190] Setting up res4b_branch2b_relu
I0828 17:24:33.604094 24978 net.cpp:197] Top shape: 20 256 14 14 (1003520)
I0828 17:24:33.604097 24978 net.cpp:205] Memory required for data: 3030630480
I0828 17:24:33.604099 24978 layer_factory.hpp:123] Creating layer res4b_branch2c
I0828 17:24:33.604106 24978 net.cpp:140] Creating Layer res4b_branch2c
I0828 17:24:33.604110 24978 net.cpp:481] res4b_branch2c <- res4b_branch2b
I0828 17:24:33.604113 24978 net.cpp:455] res4b_branch2c -> res4b_branch2c
I0828 17:24:33.605852 24978 net.cpp:190] Setting up res4b_branch2c
I0828 17:24:33.605865 24978 net.cpp:197] Top shape: 20 1024 14 14 (4014080)
I0828 17:24:33.605866 24978 net.cpp:205] Memory required for data: 3046686800
I0828 17:24:33.605870 24978 layer_factory.hpp:123] Creating layer bn4b_branch2c
I0828 17:24:33.605891 24978 net.cpp:140] Creating Layer bn4b_branch2c
I0828 17:24:33.605895 24978 net.cpp:481] bn4b_branch2c <- res4b_branch2c
I0828 17:24:33.605899 24978 net.cpp:442] bn4b_branch2c -> res4b_branch2c (in-place)
I0828 17:24:33.606315 24978 net.cpp:190] Setting up bn4b_branch2c
I0828 17:24:33.606321 24978 net.cpp:197] Top shape: 20 1024 14 14 (4014080)
I0828 17:24:33.606324 24978 net.cpp:205] Memory required for data: 3062743120
I0828 17:24:33.606345 24978 layer_factory.hpp:123] Creating layer res4b
I0828 17:24:33.606351 24978 net.cpp:140] Creating Layer res4b
I0828 17:24:33.606354 24978 net.cpp:481] res4b <- res4a_res4a_relu_0_split_1
I0828 17:24:33.606359 24978 net.cpp:481] res4b <- res4b_branch2c
I0828 17:24:33.606362 24978 net.cpp:455] res4b -> res4b
I0828 17:24:33.606377 24978 net.cpp:190] Setting up res4b
I0828 17:24:33.606382 24978 net.cpp:197] Top shape: 20 1024 14 14 (4014080)
I0828 17:24:33.606385 24978 net.cpp:205] Memory required for data: 3078799440
I0828 17:24:33.606387 24978 layer_factory.hpp:123] Creating layer res4b_relu
I0828 17:24:33.606391 24978 net.cpp:140] Creating Layer res4b_relu
I0828 17:24:33.606393 24978 net.cpp:481] res4b_relu <- res4b
I0828 17:24:33.606400 24978 net.cpp:442] res4b_relu -> res4b (in-place)
I0828 17:24:33.606405 24978 net.cpp:190] Setting up res4b_relu
I0828 17:24:33.606408 24978 net.cpp:197] Top shape: 20 1024 14 14 (4014080)
I0828 17:24:33.606410 24978 net.cpp:205] Memory required for data: 3094855760
I0828 17:24:33.606413 24978 layer_factory.hpp:123] Creating layer res4b_res4b_relu_0_split
I0828 17:24:33.606416 24978 net.cpp:140] Creating Layer res4b_res4b_relu_0_split
I0828 17:24:33.606420 24978 net.cpp:481] res4b_res4b_relu_0_split <- res4b
I0828 17:24:33.606422 24978 net.cpp:455] res4b_res4b_relu_0_split -> res4b_res4b_relu_0_split_0
I0828 17:24:33.606427 24978 net.cpp:455] res4b_res4b_relu_0_split -> res4b_res4b_relu_0_split_1
I0828 17:24:33.606448 24978 net.cpp:190] Setting up res4b_res4b_relu_0_split
I0828 17:24:33.606454 24978 net.cpp:197] Top shape: 20 1024 14 14 (4014080)
I0828 17:24:33.606457 24978 net.cpp:197] Top shape: 20 1024 14 14 (4014080)
I0828 17:24:33.606459 24978 net.cpp:205] Memory required for data: 3126968400
I0828 17:24:33.606462 24978 layer_factory.hpp:123] Creating layer res4c_branch2a
I0828 17:24:33.606467 24978 net.cpp:140] Creating Layer res4c_branch2a
I0828 17:24:33.606470 24978 net.cpp:481] res4c_branch2a <- res4b_res4b_relu_0_split_0
I0828 17:24:33.606477 24978 net.cpp:455] res4c_branch2a -> res4c_branch2a
I0828 17:24:33.608233 24978 net.cpp:190] Setting up res4c_branch2a
I0828 17:24:33.608243 24978 net.cpp:197] Top shape: 20 256 14 14 (1003520)
I0828 17:24:33.608247 24978 net.cpp:205] Memory required for data: 3130982480
I0828 17:24:33.608253 24978 layer_factory.hpp:123] Creating layer bn4c_branch2a
I0828 17:24:33.608276 24978 net.cpp:140] Creating Layer bn4c_branch2a
I0828 17:24:33.608281 24978 net.cpp:481] bn4c_branch2a <- res4c_branch2a
I0828 17:24:33.608285 24978 net.cpp:442] bn4c_branch2a -> res4c_branch2a (in-place)
I0828 17:24:33.608688 24978 net.cpp:190] Setting up bn4c_branch2a
I0828 17:24:33.608697 24978 net.cpp:197] Top shape: 20 256 14 14 (1003520)
I0828 17:24:33.608701 24978 net.cpp:205] Memory required for data: 3134996560
I0828 17:24:33.608722 24978 layer_factory.hpp:123] Creating layer res4c_branch2a_relu
I0828 17:24:33.608727 24978 net.cpp:140] Creating Layer res4c_branch2a_relu
I0828 17:24:33.608731 24978 net.cpp:481] res4c_branch2a_relu <- res4c_branch2a
I0828 17:24:33.608734 24978 net.cpp:442] res4c_branch2a_relu -> res4c_branch2a (in-place)
I0828 17:24:33.608741 24978 net.cpp:190] Setting up res4c_branch2a_relu
I0828 17:24:33.608744 24978 net.cpp:197] Top shape: 20 256 14 14 (1003520)
I0828 17:24:33.608747 24978 net.cpp:205] Memory required for data: 3139010640
I0828 17:24:33.608749 24978 layer_factory.hpp:123] Creating layer res4c_branch2b
I0828 17:24:33.608755 24978 net.cpp:140] Creating Layer res4c_branch2b
I0828 17:24:33.608759 24978 net.cpp:481] res4c_branch2b <- res4c_branch2a
I0828 17:24:33.608763 24978 net.cpp:455] res4c_branch2b -> res4c_branch2b
I0828 17:24:33.612329 24978 net.cpp:190] Setting up res4c_branch2b
I0828 17:24:33.612345 24978 net.cpp:197] Top shape: 20 256 14 14 (1003520)
I0828 17:24:33.612349 24978 net.cpp:205] Memory required for data: 3143024720
I0828 17:24:33.612354 24978 layer_factory.hpp:123] Creating layer bn4c_branch2b
I0828 17:24:33.612376 24978 net.cpp:140] Creating Layer bn4c_branch2b
I0828 17:24:33.612380 24978 net.cpp:481] bn4c_branch2b <- res4c_branch2b
I0828 17:24:33.612386 24978 net.cpp:442] bn4c_branch2b -> res4c_branch2b (in-place)
I0828 17:24:33.612809 24978 net.cpp:190] Setting up bn4c_branch2b
I0828 17:24:33.612815 24978 net.cpp:197] Top shape: 20 256 14 14 (1003520)
I0828 17:24:33.612818 24978 net.cpp:205] Memory required for data: 3147038800
I0828 17:24:33.612825 24978 layer_factory.hpp:123] Creating layer res4c_branch2b_relu
I0828 17:24:33.612844 24978 net.cpp:140] Creating Layer res4c_branch2b_relu
I0828 17:24:33.612848 24978 net.cpp:481] res4c_branch2b_relu <- res4c_branch2b
I0828 17:24:33.612850 24978 net.cpp:442] res4c_branch2b_relu -> res4c_branch2b (in-place)
I0828 17:24:33.612856 24978 net.cpp:190] Setting up res4c_branch2b_relu
I0828 17:24:33.612860 24978 net.cpp:197] Top shape: 20 256 14 14 (1003520)
I0828 17:24:33.612864 24978 net.cpp:205] Memory required for data: 3151052880
I0828 17:24:33.612865 24978 layer_factory.hpp:123] Creating layer res4c_branch2c
I0828 17:24:33.612871 24978 net.cpp:140] Creating Layer res4c_branch2c
I0828 17:24:33.612874 24978 net.cpp:481] res4c_branch2c <- res4c_branch2b
I0828 17:24:33.612879 24978 net.cpp:455] res4c_branch2c -> res4c_branch2c
I0828 17:24:33.614622 24978 net.cpp:190] Setting up res4c_branch2c
I0828 17:24:33.614632 24978 net.cpp:197] Top shape: 20 1024 14 14 (4014080)
I0828 17:24:33.614635 24978 net.cpp:205] Memory required for data: 3167109200
I0828 17:24:33.614639 24978 layer_factory.hpp:123] Creating layer bn4c_branch2c
I0828 17:24:33.614660 24978 net.cpp:140] Creating Layer bn4c_branch2c
I0828 17:24:33.614663 24978 net.cpp:481] bn4c_branch2c <- res4c_branch2c
I0828 17:24:33.614668 24978 net.cpp:442] bn4c_branch2c -> res4c_branch2c (in-place)
I0828 17:24:33.615097 24978 net.cpp:190] Setting up bn4c_branch2c
I0828 17:24:33.615104 24978 net.cpp:197] Top shape: 20 1024 14 14 (4014080)
I0828 17:24:33.615108 24978 net.cpp:205] Memory required for data: 3183165520
I0828 17:24:33.615128 24978 layer_factory.hpp:123] Creating layer res4c
I0828 17:24:33.615134 24978 net.cpp:140] Creating Layer res4c
I0828 17:24:33.615137 24978 net.cpp:481] res4c <- res4b_res4b_relu_0_split_1
I0828 17:24:33.615141 24978 net.cpp:481] res4c <- res4c_branch2c
I0828 17:24:33.615145 24978 net.cpp:455] res4c -> res4c
I0828 17:24:33.615161 24978 net.cpp:190] Setting up res4c
I0828 17:24:33.615166 24978 net.cpp:197] Top shape: 20 1024 14 14 (4014080)
I0828 17:24:33.615170 24978 net.cpp:205] Memory required for data: 3199221840
I0828 17:24:33.615171 24978 layer_factory.hpp:123] Creating layer res4c_relu
I0828 17:24:33.615175 24978 net.cpp:140] Creating Layer res4c_relu
I0828 17:24:33.615180 24978 net.cpp:481] res4c_relu <- res4c
I0828 17:24:33.615183 24978 net.cpp:442] res4c_relu -> res4c (in-place)
I0828 17:24:33.615188 24978 net.cpp:190] Setting up res4c_relu
I0828 17:24:33.615192 24978 net.cpp:197] Top shape: 20 1024 14 14 (4014080)
I0828 17:24:33.615195 24978 net.cpp:205] Memory required for data: 3215278160
I0828 17:24:33.615196 24978 layer_factory.hpp:123] Creating layer res4c_res4c_relu_0_split
I0828 17:24:33.615200 24978 net.cpp:140] Creating Layer res4c_res4c_relu_0_split
I0828 17:24:33.615202 24978 net.cpp:481] res4c_res4c_relu_0_split <- res4c
I0828 17:24:33.615206 24978 net.cpp:455] res4c_res4c_relu_0_split -> res4c_res4c_relu_0_split_0
I0828 17:24:33.615211 24978 net.cpp:455] res4c_res4c_relu_0_split -> res4c_res4c_relu_0_split_1
I0828 17:24:33.615232 24978 net.cpp:190] Setting up res4c_res4c_relu_0_split
I0828 17:24:33.615237 24978 net.cpp:197] Top shape: 20 1024 14 14 (4014080)
I0828 17:24:33.615240 24978 net.cpp:197] Top shape: 20 1024 14 14 (4014080)
I0828 17:24:33.615243 24978 net.cpp:205] Memory required for data: 3247390800
I0828 17:24:33.615245 24978 layer_factory.hpp:123] Creating layer res4d_branch2a
I0828 17:24:33.615252 24978 net.cpp:140] Creating Layer res4d_branch2a
I0828 17:24:33.615254 24978 net.cpp:481] res4d_branch2a <- res4c_res4c_relu_0_split_0
I0828 17:24:33.615259 24978 net.cpp:455] res4d_branch2a -> res4d_branch2a
I0828 17:24:33.616989 24978 net.cpp:190] Setting up res4d_branch2a
I0828 17:24:33.617000 24978 net.cpp:197] Top shape: 20 256 14 14 (1003520)
I0828 17:24:33.617003 24978 net.cpp:205] Memory required for data: 3251404880
I0828 17:24:33.617008 24978 layer_factory.hpp:123] Creating layer bn4d_branch2a
I0828 17:24:33.617014 24978 net.cpp:140] Creating Layer bn4d_branch2a
I0828 17:24:33.617018 24978 net.cpp:481] bn4d_branch2a <- res4d_branch2a
I0828 17:24:33.617022 24978 net.cpp:442] bn4d_branch2a -> res4d_branch2a (in-place)
I0828 17:24:33.617426 24978 net.cpp:190] Setting up bn4d_branch2a
I0828 17:24:33.617434 24978 net.cpp:197] Top shape: 20 256 14 14 (1003520)
I0828 17:24:33.617436 24978 net.cpp:205] Memory required for data: 3255418960
I0828 17:24:33.617442 24978 layer_factory.hpp:123] Creating layer res4d_branch2a_relu
I0828 17:24:33.617461 24978 net.cpp:140] Creating Layer res4d_branch2a_relu
I0828 17:24:33.617465 24978 net.cpp:481] res4d_branch2a_relu <- res4d_branch2a
I0828 17:24:33.617468 24978 net.cpp:442] res4d_branch2a_relu -> res4d_branch2a (in-place)
I0828 17:24:33.617473 24978 net.cpp:190] Setting up res4d_branch2a_relu
I0828 17:24:33.617478 24978 net.cpp:197] Top shape: 20 256 14 14 (1003520)
I0828 17:24:33.617480 24978 net.cpp:205] Memory required for data: 3259433040
I0828 17:24:33.617482 24978 layer_factory.hpp:123] Creating layer res4d_branch2b
I0828 17:24:33.617488 24978 net.cpp:140] Creating Layer res4d_branch2b
I0828 17:24:33.617492 24978 net.cpp:481] res4d_branch2b <- res4d_branch2a
I0828 17:24:33.617496 24978 net.cpp:455] res4d_branch2b -> res4d_branch2b
I0828 17:24:33.621012 24978 net.cpp:190] Setting up res4d_branch2b
I0828 17:24:33.621040 24978 net.cpp:197] Top shape: 20 256 14 14 (1003520)
I0828 17:24:33.621044 24978 net.cpp:205] Memory required for data: 3263447120
I0828 17:24:33.621049 24978 layer_factory.hpp:123] Creating layer bn4d_branch2b
I0828 17:24:33.621057 24978 net.cpp:140] Creating Layer bn4d_branch2b
I0828 17:24:33.621062 24978 net.cpp:481] bn4d_branch2b <- res4d_branch2b
I0828 17:24:33.621081 24978 net.cpp:442] bn4d_branch2b -> res4d_branch2b (in-place)
I0828 17:24:33.621536 24978 net.cpp:190] Setting up bn4d_branch2b
I0828 17:24:33.621542 24978 net.cpp:197] Top shape: 20 256 14 14 (1003520)
I0828 17:24:33.621559 24978 net.cpp:205] Memory required for data: 3267461200
I0828 17:24:33.621567 24978 layer_factory.hpp:123] Creating layer res4d_branch2b_relu
I0828 17:24:33.621572 24978 net.cpp:140] Creating Layer res4d_branch2b_relu
I0828 17:24:33.621574 24978 net.cpp:481] res4d_branch2b_relu <- res4d_branch2b
I0828 17:24:33.621577 24978 net.cpp:442] res4d_branch2b_relu -> res4d_branch2b (in-place)
I0828 17:24:33.621598 24978 net.cpp:190] Setting up res4d_branch2b_relu
I0828 17:24:33.621601 24978 net.cpp:197] Top shape: 20 256 14 14 (1003520)
I0828 17:24:33.621603 24978 net.cpp:205] Memory required for data: 3271475280
I0828 17:24:33.621606 24978 layer_factory.hpp:123] Creating layer res4d_branch2c
I0828 17:24:33.621615 24978 net.cpp:140] Creating Layer res4d_branch2c
I0828 17:24:33.621619 24978 net.cpp:481] res4d_branch2c <- res4d_branch2b
I0828 17:24:33.621623 24978 net.cpp:455] res4d_branch2c -> res4d_branch2c
I0828 17:24:33.623499 24978 net.cpp:190] Setting up res4d_branch2c
I0828 17:24:33.623525 24978 net.cpp:197] Top shape: 20 1024 14 14 (4014080)
I0828 17:24:33.623528 24978 net.cpp:205] Memory required for data: 3287531600
I0828 17:24:33.623533 24978 layer_factory.hpp:123] Creating layer bn4d_branch2c
I0828 17:24:33.623539 24978 net.cpp:140] Creating Layer bn4d_branch2c
I0828 17:24:33.623558 24978 net.cpp:481] bn4d_branch2c <- res4d_branch2c
I0828 17:24:33.623561 24978 net.cpp:442] bn4d_branch2c -> res4d_branch2c (in-place)
I0828 17:24:33.624007 24978 net.cpp:190] Setting up bn4d_branch2c
I0828 17:24:33.624014 24978 net.cpp:197] Top shape: 20 1024 14 14 (4014080)
I0828 17:24:33.624017 24978 net.cpp:205] Memory required for data: 3303587920
I0828 17:24:33.624023 24978 layer_factory.hpp:123] Creating layer res4d
I0828 17:24:33.624044 24978 net.cpp:140] Creating Layer res4d
I0828 17:24:33.624047 24978 net.cpp:481] res4d <- res4c_res4c_relu_0_split_1
I0828 17:24:33.624052 24978 net.cpp:481] res4d <- res4d_branch2c
I0828 17:24:33.624055 24978 net.cpp:455] res4d -> res4d
I0828 17:24:33.624070 24978 net.cpp:190] Setting up res4d
I0828 17:24:33.624075 24978 net.cpp:197] Top shape: 20 1024 14 14 (4014080)
I0828 17:24:33.624078 24978 net.cpp:205] Memory required for data: 3319644240
I0828 17:24:33.624080 24978 layer_factory.hpp:123] Creating layer res4d_relu
I0828 17:24:33.624085 24978 net.cpp:140] Creating Layer res4d_relu
I0828 17:24:33.624087 24978 net.cpp:481] res4d_relu <- res4d
I0828 17:24:33.624091 24978 net.cpp:442] res4d_relu -> res4d (in-place)
I0828 17:24:33.624096 24978 net.cpp:190] Setting up res4d_relu
I0828 17:24:33.624099 24978 net.cpp:197] Top shape: 20 1024 14 14 (4014080)
I0828 17:24:33.624102 24978 net.cpp:205] Memory required for data: 3335700560
I0828 17:24:33.624104 24978 layer_factory.hpp:123] Creating layer res4d_res4d_relu_0_split
I0828 17:24:33.624109 24978 net.cpp:140] Creating Layer res4d_res4d_relu_0_split
I0828 17:24:33.624111 24978 net.cpp:481] res4d_res4d_relu_0_split <- res4d
I0828 17:24:33.624114 24978 net.cpp:455] res4d_res4d_relu_0_split -> res4d_res4d_relu_0_split_0
I0828 17:24:33.624119 24978 net.cpp:455] res4d_res4d_relu_0_split -> res4d_res4d_relu_0_split_1
I0828 17:24:33.624141 24978 net.cpp:190] Setting up res4d_res4d_relu_0_split
I0828 17:24:33.624146 24978 net.cpp:197] Top shape: 20 1024 14 14 (4014080)
I0828 17:24:33.624150 24978 net.cpp:197] Top shape: 20 1024 14 14 (4014080)
I0828 17:24:33.624152 24978 net.cpp:205] Memory required for data: 3367813200
I0828 17:24:33.624155 24978 layer_factory.hpp:123] Creating layer res4e_branch2a
I0828 17:24:33.624161 24978 net.cpp:140] Creating Layer res4e_branch2a
I0828 17:24:33.624163 24978 net.cpp:481] res4e_branch2a <- res4d_res4d_relu_0_split_0
I0828 17:24:33.624167 24978 net.cpp:455] res4e_branch2a -> res4e_branch2a
I0828 17:24:33.625970 24978 net.cpp:190] Setting up res4e_branch2a
I0828 17:24:33.625980 24978 net.cpp:197] Top shape: 20 256 14 14 (1003520)
I0828 17:24:33.625983 24978 net.cpp:205] Memory required for data: 3371827280
I0828 17:24:33.625988 24978 layer_factory.hpp:123] Creating layer bn4e_branch2a
I0828 17:24:33.625994 24978 net.cpp:140] Creating Layer bn4e_branch2a
I0828 17:24:33.625998 24978 net.cpp:481] bn4e_branch2a <- res4e_branch2a
I0828 17:24:33.626003 24978 net.cpp:442] bn4e_branch2a -> res4e_branch2a (in-place)
I0828 17:24:33.626562 24978 net.cpp:190] Setting up bn4e_branch2a
I0828 17:24:33.626571 24978 net.cpp:197] Top shape: 20 256 14 14 (1003520)
I0828 17:24:33.626588 24978 net.cpp:205] Memory required for data: 3375841360
I0828 17:24:33.626595 24978 layer_factory.hpp:123] Creating layer res4e_branch2a_relu
I0828 17:24:33.626600 24978 net.cpp:140] Creating Layer res4e_branch2a_relu
I0828 17:24:33.626603 24978 net.cpp:481] res4e_branch2a_relu <- res4e_branch2a
I0828 17:24:33.626606 24978 net.cpp:442] res4e_branch2a_relu -> res4e_branch2a (in-place)
I0828 17:24:33.626626 24978 net.cpp:190] Setting up res4e_branch2a_relu
I0828 17:24:33.626631 24978 net.cpp:197] Top shape: 20 256 14 14 (1003520)
I0828 17:24:33.626633 24978 net.cpp:205] Memory required for data: 3379855440
I0828 17:24:33.626636 24978 layer_factory.hpp:123] Creating layer res4e_branch2b
I0828 17:24:33.626641 24978 net.cpp:140] Creating Layer res4e_branch2b
I0828 17:24:33.626646 24978 net.cpp:481] res4e_branch2b <- res4e_branch2a
I0828 17:24:33.626649 24978 net.cpp:455] res4e_branch2b -> res4e_branch2b
I0828 17:24:33.630237 24978 net.cpp:190] Setting up res4e_branch2b
I0828 17:24:33.630265 24978 net.cpp:197] Top shape: 20 256 14 14 (1003520)
I0828 17:24:33.630270 24978 net.cpp:205] Memory required for data: 3383869520
I0828 17:24:33.630275 24978 layer_factory.hpp:123] Creating layer bn4e_branch2b
I0828 17:24:33.630285 24978 net.cpp:140] Creating Layer bn4e_branch2b
I0828 17:24:33.630290 24978 net.cpp:481] bn4e_branch2b <- res4e_branch2b
I0828 17:24:33.630309 24978 net.cpp:442] bn4e_branch2b -> res4e_branch2b (in-place)
I0828 17:24:33.630760 24978 net.cpp:190] Setting up bn4e_branch2b
I0828 17:24:33.630769 24978 net.cpp:197] Top shape: 20 256 14 14 (1003520)
I0828 17:24:33.630785 24978 net.cpp:205] Memory required for data: 3387883600
I0828 17:24:33.630793 24978 layer_factory.hpp:123] Creating layer res4e_branch2b_relu
I0828 17:24:33.630798 24978 net.cpp:140] Creating Layer res4e_branch2b_relu
I0828 17:24:33.630801 24978 net.cpp:481] res4e_branch2b_relu <- res4e_branch2b
I0828 17:24:33.630820 24978 net.cpp:442] res4e_branch2b_relu -> res4e_branch2b (in-place)
I0828 17:24:33.630827 24978 net.cpp:190] Setting up res4e_branch2b_relu
I0828 17:24:33.630831 24978 net.cpp:197] Top shape: 20 256 14 14 (1003520)
I0828 17:24:33.630833 24978 net.cpp:205] Memory required for data: 3391897680
I0828 17:24:33.630836 24978 layer_factory.hpp:123] Creating layer res4e_branch2c
I0828 17:24:33.630842 24978 net.cpp:140] Creating Layer res4e_branch2c
I0828 17:24:33.630844 24978 net.cpp:481] res4e_branch2c <- res4e_branch2b
I0828 17:24:33.630848 24978 net.cpp:455] res4e_branch2c -> res4e_branch2c
I0828 17:24:33.632722 24978 net.cpp:190] Setting up res4e_branch2c
I0828 17:24:33.632748 24978 net.cpp:197] Top shape: 20 1024 14 14 (4014080)
I0828 17:24:33.632751 24978 net.cpp:205] Memory required for data: 3407954000
I0828 17:24:33.632755 24978 layer_factory.hpp:123] Creating layer bn4e_branch2c
I0828 17:24:33.632763 24978 net.cpp:140] Creating Layer bn4e_branch2c
I0828 17:24:33.632768 24978 net.cpp:481] bn4e_branch2c <- res4e_branch2c
I0828 17:24:33.632789 24978 net.cpp:442] bn4e_branch2c -> res4e_branch2c (in-place)
I0828 17:24:33.633316 24978 net.cpp:190] Setting up bn4e_branch2c
I0828 17:24:33.633324 24978 net.cpp:197] Top shape: 20 1024 14 14 (4014080)
I0828 17:24:33.633327 24978 net.cpp:205] Memory required for data: 3424010320
I0828 17:24:33.633333 24978 layer_factory.hpp:123] Creating layer res4e
I0828 17:24:33.633353 24978 net.cpp:140] Creating Layer res4e
I0828 17:24:33.633358 24978 net.cpp:481] res4e <- res4d_res4d_relu_0_split_1
I0828 17:24:33.633361 24978 net.cpp:481] res4e <- res4e_branch2c
I0828 17:24:33.633368 24978 net.cpp:455] res4e -> res4e
I0828 17:24:33.633384 24978 net.cpp:190] Setting up res4e
I0828 17:24:33.633388 24978 net.cpp:197] Top shape: 20 1024 14 14 (4014080)
I0828 17:24:33.633391 24978 net.cpp:205] Memory required for data: 3440066640
I0828 17:24:33.633394 24978 layer_factory.hpp:123] Creating layer res4e_relu
I0828 17:24:33.633399 24978 net.cpp:140] Creating Layer res4e_relu
I0828 17:24:33.633401 24978 net.cpp:481] res4e_relu <- res4e
I0828 17:24:33.633404 24978 net.cpp:442] res4e_relu -> res4e (in-place)
I0828 17:24:33.633410 24978 net.cpp:190] Setting up res4e_relu
I0828 17:24:33.633414 24978 net.cpp:197] Top shape: 20 1024 14 14 (4014080)
I0828 17:24:33.633415 24978 net.cpp:205] Memory required for data: 3456122960
I0828 17:24:33.633419 24978 layer_factory.hpp:123] Creating layer res4e_res4e_relu_0_split
I0828 17:24:33.633422 24978 net.cpp:140] Creating Layer res4e_res4e_relu_0_split
I0828 17:24:33.633424 24978 net.cpp:481] res4e_res4e_relu_0_split <- res4e
I0828 17:24:33.633427 24978 net.cpp:455] res4e_res4e_relu_0_split -> res4e_res4e_relu_0_split_0
I0828 17:24:33.633432 24978 net.cpp:455] res4e_res4e_relu_0_split -> res4e_res4e_relu_0_split_1
I0828 17:24:33.633455 24978 net.cpp:190] Setting up res4e_res4e_relu_0_split
I0828 17:24:33.633460 24978 net.cpp:197] Top shape: 20 1024 14 14 (4014080)
I0828 17:24:33.633462 24978 net.cpp:197] Top shape: 20 1024 14 14 (4014080)
I0828 17:24:33.633466 24978 net.cpp:205] Memory required for data: 3488235600
I0828 17:24:33.633467 24978 layer_factory.hpp:123] Creating layer res4f_branch2a
I0828 17:24:33.633473 24978 net.cpp:140] Creating Layer res4f_branch2a
I0828 17:24:33.633476 24978 net.cpp:481] res4f_branch2a <- res4e_res4e_relu_0_split_0
I0828 17:24:33.633481 24978 net.cpp:455] res4f_branch2a -> res4f_branch2a
I0828 17:24:33.635435 24978 net.cpp:190] Setting up res4f_branch2a
I0828 17:24:33.635462 24978 net.cpp:197] Top shape: 20 256 14 14 (1003520)
I0828 17:24:33.635463 24978 net.cpp:205] Memory required for data: 3492249680
I0828 17:24:33.635469 24978 layer_factory.hpp:123] Creating layer bn4f_branch2a
I0828 17:24:33.635475 24978 net.cpp:140] Creating Layer bn4f_branch2a
I0828 17:24:33.635478 24978 net.cpp:481] bn4f_branch2a <- res4f_branch2a
I0828 17:24:33.635498 24978 net.cpp:442] bn4f_branch2a -> res4f_branch2a (in-place)
I0828 17:24:33.635973 24978 net.cpp:190] Setting up bn4f_branch2a
I0828 17:24:33.635982 24978 net.cpp:197] Top shape: 20 256 14 14 (1003520)
I0828 17:24:33.635984 24978 net.cpp:205] Memory required for data: 3496263760
I0828 17:24:33.635991 24978 layer_factory.hpp:123] Creating layer res4f_branch2a_relu
I0828 17:24:33.635996 24978 net.cpp:140] Creating Layer res4f_branch2a_relu
I0828 17:24:33.636014 24978 net.cpp:481] res4f_branch2a_relu <- res4f_branch2a
I0828 17:24:33.636018 24978 net.cpp:442] res4f_branch2a_relu -> res4f_branch2a (in-place)
I0828 17:24:33.636023 24978 net.cpp:190] Setting up res4f_branch2a_relu
I0828 17:24:33.636027 24978 net.cpp:197] Top shape: 20 256 14 14 (1003520)
I0828 17:24:33.636029 24978 net.cpp:205] Memory required for data: 3500277840
I0828 17:24:33.636031 24978 layer_factory.hpp:123] Creating layer res4f_branch2b
I0828 17:24:33.636039 24978 net.cpp:140] Creating Layer res4f_branch2b
I0828 17:24:33.636041 24978 net.cpp:481] res4f_branch2b <- res4f_branch2a
I0828 17:24:33.636045 24978 net.cpp:455] res4f_branch2b -> res4f_branch2b
I0828 17:24:33.639641 24978 net.cpp:190] Setting up res4f_branch2b
I0828 17:24:33.639669 24978 net.cpp:197] Top shape: 20 256 14 14 (1003520)
I0828 17:24:33.639672 24978 net.cpp:205] Memory required for data: 3504291920
I0828 17:24:33.639678 24978 layer_factory.hpp:123] Creating layer bn4f_branch2b
I0828 17:24:33.639688 24978 net.cpp:140] Creating Layer bn4f_branch2b
I0828 17:24:33.639690 24978 net.cpp:481] bn4f_branch2b <- res4f_branch2b
I0828 17:24:33.639710 24978 net.cpp:442] bn4f_branch2b -> res4f_branch2b (in-place)
I0828 17:24:33.640157 24978 net.cpp:190] Setting up bn4f_branch2b
I0828 17:24:33.640166 24978 net.cpp:197] Top shape: 20 256 14 14 (1003520)
I0828 17:24:33.640183 24978 net.cpp:205] Memory required for data: 3508306000
I0828 17:24:33.640190 24978 layer_factory.hpp:123] Creating layer res4f_branch2b_relu
I0828 17:24:33.640195 24978 net.cpp:140] Creating Layer res4f_branch2b_relu
I0828 17:24:33.640198 24978 net.cpp:481] res4f_branch2b_relu <- res4f_branch2b
I0828 17:24:33.640202 24978 net.cpp:442] res4f_branch2b_relu -> res4f_branch2b (in-place)
I0828 17:24:33.640223 24978 net.cpp:190] Setting up res4f_branch2b_relu
I0828 17:24:33.640226 24978 net.cpp:197] Top shape: 20 256 14 14 (1003520)
I0828 17:24:33.640229 24978 net.cpp:205] Memory required for data: 3512320080
I0828 17:24:33.640231 24978 layer_factory.hpp:123] Creating layer res4f_branch2c
I0828 17:24:33.640239 24978 net.cpp:140] Creating Layer res4f_branch2c
I0828 17:24:33.640241 24978 net.cpp:481] res4f_branch2c <- res4f_branch2b
I0828 17:24:33.640245 24978 net.cpp:455] res4f_branch2c -> res4f_branch2c
I0828 17:24:33.642038 24978 net.cpp:190] Setting up res4f_branch2c
I0828 17:24:33.642048 24978 net.cpp:197] Top shape: 20 1024 14 14 (4014080)
I0828 17:24:33.642066 24978 net.cpp:205] Memory required for data: 3528376400
I0828 17:24:33.642069 24978 layer_factory.hpp:123] Creating layer bn4f_branch2c
I0828 17:24:33.642076 24978 net.cpp:140] Creating Layer bn4f_branch2c
I0828 17:24:33.642079 24978 net.cpp:481] bn4f_branch2c <- res4f_branch2c
I0828 17:24:33.642098 24978 net.cpp:442] bn4f_branch2c -> res4f_branch2c (in-place)
I0828 17:24:33.642561 24978 net.cpp:190] Setting up bn4f_branch2c
I0828 17:24:33.642570 24978 net.cpp:197] Top shape: 20 1024 14 14 (4014080)
I0828 17:24:33.642573 24978 net.cpp:205] Memory required for data: 3544432720
I0828 17:24:33.642601 24978 layer_factory.hpp:123] Creating layer res4f
I0828 17:24:33.642607 24978 net.cpp:140] Creating Layer res4f
I0828 17:24:33.642611 24978 net.cpp:481] res4f <- res4e_res4e_relu_0_split_1
I0828 17:24:33.642614 24978 net.cpp:481] res4f <- res4f_branch2c
I0828 17:24:33.642618 24978 net.cpp:455] res4f -> res4f
I0828 17:24:33.642635 24978 net.cpp:190] Setting up res4f
I0828 17:24:33.642640 24978 net.cpp:197] Top shape: 20 1024 14 14 (4014080)
I0828 17:24:33.642642 24978 net.cpp:205] Memory required for data: 3560489040
I0828 17:24:33.642658 24978 layer_factory.hpp:123] Creating layer res4f_relu
I0828 17:24:33.642663 24978 net.cpp:140] Creating Layer res4f_relu
I0828 17:24:33.642665 24978 net.cpp:481] res4f_relu <- res4f
I0828 17:24:33.642683 24978 net.cpp:442] res4f_relu -> res4f (in-place)
I0828 17:24:33.642688 24978 net.cpp:190] Setting up res4f_relu
I0828 17:24:33.642691 24978 net.cpp:197] Top shape: 20 1024 14 14 (4014080)
I0828 17:24:33.642694 24978 net.cpp:205] Memory required for data: 3576545360
I0828 17:24:33.642696 24978 layer_factory.hpp:123] Creating layer res4f_res4f_relu_0_split
I0828 17:24:33.642700 24978 net.cpp:140] Creating Layer res4f_res4f_relu_0_split
I0828 17:24:33.642704 24978 net.cpp:481] res4f_res4f_relu_0_split <- res4f
I0828 17:24:33.642706 24978 net.cpp:455] res4f_res4f_relu_0_split -> res4f_res4f_relu_0_split_0
I0828 17:24:33.642711 24978 net.cpp:455] res4f_res4f_relu_0_split -> res4f_res4f_relu_0_split_1
I0828 17:24:33.642733 24978 net.cpp:190] Setting up res4f_res4f_relu_0_split
I0828 17:24:33.642737 24978 net.cpp:197] Top shape: 20 1024 14 14 (4014080)
I0828 17:24:33.642740 24978 net.cpp:197] Top shape: 20 1024 14 14 (4014080)
I0828 17:24:33.642743 24978 net.cpp:205] Memory required for data: 3608658000
I0828 17:24:33.642745 24978 layer_factory.hpp:123] Creating layer res5a_branch1
I0828 17:24:33.642751 24978 net.cpp:140] Creating Layer res5a_branch1
I0828 17:24:33.642755 24978 net.cpp:481] res5a_branch1 <- res4f_res4f_relu_0_split_0
I0828 17:24:33.642758 24978 net.cpp:455] res5a_branch1 -> res5a_branch1
I0828 17:24:33.655627 24978 net.cpp:190] Setting up res5a_branch1
I0828 17:24:33.655647 24978 net.cpp:197] Top shape: 20 2048 7 7 (2007040)
I0828 17:24:33.655664 24978 net.cpp:205] Memory required for data: 3616686160
I0828 17:24:33.655671 24978 layer_factory.hpp:123] Creating layer bn5a_branch1
I0828 17:24:33.655681 24978 net.cpp:140] Creating Layer bn5a_branch1
I0828 17:24:33.655685 24978 net.cpp:481] bn5a_branch1 <- res5a_branch1
I0828 17:24:33.655691 24978 net.cpp:442] bn5a_branch1 -> res5a_branch1 (in-place)
I0828 17:24:33.656214 24978 net.cpp:190] Setting up bn5a_branch1
I0828 17:24:33.656224 24978 net.cpp:197] Top shape: 20 2048 7 7 (2007040)
I0828 17:24:33.656240 24978 net.cpp:205] Memory required for data: 3624714320
I0828 17:24:33.656247 24978 layer_factory.hpp:123] Creating layer res5a_branch2a
I0828 17:24:33.656255 24978 net.cpp:140] Creating Layer res5a_branch2a
I0828 17:24:33.656273 24978 net.cpp:481] res5a_branch2a <- res4f_res4f_relu_0_split_1
I0828 17:24:33.656278 24978 net.cpp:455] res5a_branch2a -> res5a_branch2a
I0828 17:24:33.659677 24978 net.cpp:190] Setting up res5a_branch2a
I0828 17:24:33.659705 24978 net.cpp:197] Top shape: 20 512 7 7 (501760)
I0828 17:24:33.659708 24978 net.cpp:205] Memory required for data: 3626721360
I0828 17:24:33.659713 24978 layer_factory.hpp:123] Creating layer bn5a_branch2a
I0828 17:24:33.659720 24978 net.cpp:140] Creating Layer bn5a_branch2a
I0828 17:24:33.659725 24978 net.cpp:481] bn5a_branch2a <- res5a_branch2a
I0828 17:24:33.659744 24978 net.cpp:442] bn5a_branch2a -> res5a_branch2a (in-place)
I0828 17:24:33.661085 24978 net.cpp:190] Setting up bn5a_branch2a
I0828 17:24:33.661093 24978 net.cpp:197] Top shape: 20 512 7 7 (501760)
I0828 17:24:33.661110 24978 net.cpp:205] Memory required for data: 3628728400
I0828 17:24:33.661118 24978 layer_factory.hpp:123] Creating layer res5a_branch2a_relu
I0828 17:24:33.661123 24978 net.cpp:140] Creating Layer res5a_branch2a_relu
I0828 17:24:33.661140 24978 net.cpp:481] res5a_branch2a_relu <- res5a_branch2a
I0828 17:24:33.661144 24978 net.cpp:442] res5a_branch2a_relu -> res5a_branch2a (in-place)
I0828 17:24:33.661150 24978 net.cpp:190] Setting up res5a_branch2a_relu
I0828 17:24:33.661154 24978 net.cpp:197] Top shape: 20 512 7 7 (501760)
I0828 17:24:33.661156 24978 net.cpp:205] Memory required for data: 3630735440
I0828 17:24:33.661159 24978 layer_factory.hpp:123] Creating layer res5a_branch2b
I0828 17:24:33.661165 24978 net.cpp:140] Creating Layer res5a_branch2b
I0828 17:24:33.661170 24978 net.cpp:481] res5a_branch2b <- res5a_branch2a
I0828 17:24:33.661173 24978 net.cpp:455] res5a_branch2b -> res5a_branch2b
I0828 17:24:33.675281 24978 net.cpp:190] Setting up res5a_branch2b
I0828 17:24:33.675318 24978 net.cpp:197] Top shape: 20 512 7 7 (501760)
I0828 17:24:33.675321 24978 net.cpp:205] Memory required for data: 3632742480
I0828 17:24:33.675329 24978 layer_factory.hpp:123] Creating layer bn5a_branch2b
I0828 17:24:33.675341 24978 net.cpp:140] Creating Layer bn5a_branch2b
I0828 17:24:33.675346 24978 net.cpp:481] bn5a_branch2b <- res5a_branch2b
I0828 17:24:33.675369 24978 net.cpp:442] bn5a_branch2b -> res5a_branch2b (in-place)
I0828 17:24:33.675868 24978 net.cpp:190] Setting up bn5a_branch2b
I0828 17:24:33.675876 24978 net.cpp:197] Top shape: 20 512 7 7 (501760)
I0828 17:24:33.675894 24978 net.cpp:205] Memory required for data: 3634749520
I0828 17:24:33.675900 24978 layer_factory.hpp:123] Creating layer res5a_branch2b_relu
I0828 17:24:33.675906 24978 net.cpp:140] Creating Layer res5a_branch2b_relu
I0828 17:24:33.675925 24978 net.cpp:481] res5a_branch2b_relu <- res5a_branch2b
I0828 17:24:33.675928 24978 net.cpp:442] res5a_branch2b_relu -> res5a_branch2b (in-place)
I0828 17:24:33.675935 24978 net.cpp:190] Setting up res5a_branch2b_relu
I0828 17:24:33.675937 24978 net.cpp:197] Top shape: 20 512 7 7 (501760)
I0828 17:24:33.675940 24978 net.cpp:205] Memory required for data: 3636756560
I0828 17:24:33.675942 24978 layer_factory.hpp:123] Creating layer res5a_branch2c
I0828 17:24:33.675949 24978 net.cpp:140] Creating Layer res5a_branch2c
I0828 17:24:33.675953 24978 net.cpp:481] res5a_branch2c <- res5a_branch2b
I0828 17:24:33.675958 24978 net.cpp:455] res5a_branch2c -> res5a_branch2c
I0828 17:24:33.682117 24978 net.cpp:190] Setting up res5a_branch2c
I0828 17:24:33.682153 24978 net.cpp:197] Top shape: 20 2048 7 7 (2007040)
I0828 17:24:33.682157 24978 net.cpp:205] Memory required for data: 3644784720
I0828 17:24:33.682164 24978 layer_factory.hpp:123] Creating layer bn5a_branch2c
I0828 17:24:33.682173 24978 net.cpp:140] Creating Layer bn5a_branch2c
I0828 17:24:33.682178 24978 net.cpp:481] bn5a_branch2c <- res5a_branch2c
I0828 17:24:33.682184 24978 net.cpp:442] bn5a_branch2c -> res5a_branch2c (in-place)
I0828 17:24:33.682701 24978 net.cpp:190] Setting up bn5a_branch2c
I0828 17:24:33.682710 24978 net.cpp:197] Top shape: 20 2048 7 7 (2007040)
I0828 17:24:33.682727 24978 net.cpp:205] Memory required for data: 3652812880
I0828 17:24:33.682734 24978 layer_factory.hpp:123] Creating layer res5a
I0828 17:24:33.682740 24978 net.cpp:140] Creating Layer res5a
I0828 17:24:33.682744 24978 net.cpp:481] res5a <- res5a_branch1
I0828 17:24:33.682761 24978 net.cpp:481] res5a <- res5a_branch2c
I0828 17:24:33.682765 24978 net.cpp:455] res5a -> res5a
I0828 17:24:33.682782 24978 net.cpp:190] Setting up res5a
I0828 17:24:33.682787 24978 net.cpp:197] Top shape: 20 2048 7 7 (2007040)
I0828 17:24:33.682790 24978 net.cpp:205] Memory required for data: 3660841040
I0828 17:24:33.682792 24978 layer_factory.hpp:123] Creating layer res5a_relu
I0828 17:24:33.682797 24978 net.cpp:140] Creating Layer res5a_relu
I0828 17:24:33.682799 24978 net.cpp:481] res5a_relu <- res5a
I0828 17:24:33.682803 24978 net.cpp:442] res5a_relu -> res5a (in-place)
I0828 17:24:33.682808 24978 net.cpp:190] Setting up res5a_relu
I0828 17:24:33.682811 24978 net.cpp:197] Top shape: 20 2048 7 7 (2007040)
I0828 17:24:33.682814 24978 net.cpp:205] Memory required for data: 3668869200
I0828 17:24:33.682816 24978 layer_factory.hpp:123] Creating layer res5a_res5a_relu_0_split
I0828 17:24:33.682821 24978 net.cpp:140] Creating Layer res5a_res5a_relu_0_split
I0828 17:24:33.682823 24978 net.cpp:481] res5a_res5a_relu_0_split <- res5a
I0828 17:24:33.682826 24978 net.cpp:455] res5a_res5a_relu_0_split -> res5a_res5a_relu_0_split_0
I0828 17:24:33.682832 24978 net.cpp:455] res5a_res5a_relu_0_split -> res5a_res5a_relu_0_split_1
I0828 17:24:33.682852 24978 net.cpp:190] Setting up res5a_res5a_relu_0_split
I0828 17:24:33.682857 24978 net.cpp:197] Top shape: 20 2048 7 7 (2007040)
I0828 17:24:33.682860 24978 net.cpp:197] Top shape: 20 2048 7 7 (2007040)
I0828 17:24:33.682863 24978 net.cpp:205] Memory required for data: 3684925520
I0828 17:24:33.682865 24978 layer_factory.hpp:123] Creating layer res5b_branch2a
I0828 17:24:33.682873 24978 net.cpp:140] Creating Layer res5b_branch2a
I0828 17:24:33.682875 24978 net.cpp:481] res5b_branch2a <- res5a_res5a_relu_0_split_0
I0828 17:24:33.682879 24978 net.cpp:455] res5b_branch2a -> res5b_branch2a
I0828 17:24:33.689380 24978 net.cpp:190] Setting up res5b_branch2a
I0828 17:24:33.689414 24978 net.cpp:197] Top shape: 20 512 7 7 (501760)
I0828 17:24:33.689417 24978 net.cpp:205] Memory required for data: 3686932560
I0828 17:24:33.689424 24978 layer_factory.hpp:123] Creating layer bn5b_branch2a
I0828 17:24:33.689435 24978 net.cpp:140] Creating Layer bn5b_branch2a
I0828 17:24:33.689440 24978 net.cpp:481] bn5b_branch2a <- res5b_branch2a
I0828 17:24:33.689460 24978 net.cpp:442] bn5b_branch2a -> res5b_branch2a (in-place)
I0828 17:24:33.689960 24978 net.cpp:190] Setting up bn5b_branch2a
I0828 17:24:33.689970 24978 net.cpp:197] Top shape: 20 512 7 7 (501760)
I0828 17:24:33.689986 24978 net.cpp:205] Memory required for data: 3688939600
I0828 17:24:33.689993 24978 layer_factory.hpp:123] Creating layer res5b_branch2a_relu
I0828 17:24:33.689999 24978 net.cpp:140] Creating Layer res5b_branch2a_relu
I0828 17:24:33.690002 24978 net.cpp:481] res5b_branch2a_relu <- res5b_branch2a
I0828 17:24:33.690006 24978 net.cpp:442] res5b_branch2a_relu -> res5b_branch2a (in-place)
I0828 17:24:33.690026 24978 net.cpp:190] Setting up res5b_branch2a_relu
I0828 17:24:33.690030 24978 net.cpp:197] Top shape: 20 512 7 7 (501760)
I0828 17:24:33.690032 24978 net.cpp:205] Memory required for data: 3690946640
I0828 17:24:33.690035 24978 layer_factory.hpp:123] Creating layer res5b_branch2b
I0828 17:24:33.690042 24978 net.cpp:140] Creating Layer res5b_branch2b
I0828 17:24:33.690045 24978 net.cpp:481] res5b_branch2b <- res5b_branch2a
I0828 17:24:33.690049 24978 net.cpp:455] res5b_branch2b -> res5b_branch2b
I0828 17:24:33.704344 24978 net.cpp:190] Setting up res5b_branch2b
I0828 17:24:33.704383 24978 net.cpp:197] Top shape: 20 512 7 7 (501760)
I0828 17:24:33.704387 24978 net.cpp:205] Memory required for data: 3692953680
I0828 17:24:33.704397 24978 layer_factory.hpp:123] Creating layer bn5b_branch2b
I0828 17:24:33.704409 24978 net.cpp:140] Creating Layer bn5b_branch2b
I0828 17:24:33.704416 24978 net.cpp:481] bn5b_branch2b <- res5b_branch2b
I0828 17:24:33.704421 24978 net.cpp:442] bn5b_branch2b -> res5b_branch2b (in-place)
I0828 17:24:33.704898 24978 net.cpp:190] Setting up bn5b_branch2b
I0828 17:24:33.704906 24978 net.cpp:197] Top shape: 20 512 7 7 (501760)
I0828 17:24:33.704924 24978 net.cpp:205] Memory required for data: 3694960720
I0828 17:24:33.704931 24978 layer_factory.hpp:123] Creating layer res5b_branch2b_relu
I0828 17:24:33.704937 24978 net.cpp:140] Creating Layer res5b_branch2b_relu
I0828 17:24:33.704939 24978 net.cpp:481] res5b_branch2b_relu <- res5b_branch2b
I0828 17:24:33.704958 24978 net.cpp:442] res5b_branch2b_relu -> res5b_branch2b (in-place)
I0828 17:24:33.704964 24978 net.cpp:190] Setting up res5b_branch2b_relu
I0828 17:24:33.704968 24978 net.cpp:197] Top shape: 20 512 7 7 (501760)
I0828 17:24:33.704970 24978 net.cpp:205] Memory required for data: 3696967760
I0828 17:24:33.704973 24978 layer_factory.hpp:123] Creating layer res5b_branch2c
I0828 17:24:33.704980 24978 net.cpp:140] Creating Layer res5b_branch2c
I0828 17:24:33.704983 24978 net.cpp:481] res5b_branch2c <- res5b_branch2b
I0828 17:24:33.704988 24978 net.cpp:455] res5b_branch2c -> res5b_branch2c
I0828 17:24:33.711347 24978 net.cpp:190] Setting up res5b_branch2c
I0828 17:24:33.711380 24978 net.cpp:197] Top shape: 20 2048 7 7 (2007040)
I0828 17:24:33.711382 24978 net.cpp:205] Memory required for data: 3704995920
I0828 17:24:33.711388 24978 layer_factory.hpp:123] Creating layer bn5b_branch2c
I0828 17:24:33.711396 24978 net.cpp:140] Creating Layer bn5b_branch2c
I0828 17:24:33.711401 24978 net.cpp:481] bn5b_branch2c <- res5b_branch2c
I0828 17:24:33.711421 24978 net.cpp:442] bn5b_branch2c -> res5b_branch2c (in-place)
I0828 17:24:33.711890 24978 net.cpp:190] Setting up bn5b_branch2c
I0828 17:24:33.711899 24978 net.cpp:197] Top shape: 20 2048 7 7 (2007040)
I0828 17:24:33.711917 24978 net.cpp:205] Memory required for data: 3713024080
I0828 17:24:33.711925 24978 layer_factory.hpp:123] Creating layer res5b
I0828 17:24:33.711930 24978 net.cpp:140] Creating Layer res5b
I0828 17:24:33.711948 24978 net.cpp:481] res5b <- res5a_res5a_relu_0_split_1
I0828 17:24:33.711952 24978 net.cpp:481] res5b <- res5b_branch2c
I0828 17:24:33.711956 24978 net.cpp:455] res5b -> res5b
I0828 17:24:33.711972 24978 net.cpp:190] Setting up res5b
I0828 17:24:33.711977 24978 net.cpp:197] Top shape: 20 2048 7 7 (2007040)
I0828 17:24:33.711980 24978 net.cpp:205] Memory required for data: 3721052240
I0828 17:24:33.711982 24978 layer_factory.hpp:123] Creating layer res5b_relu
I0828 17:24:33.712000 24978 net.cpp:140] Creating Layer res5b_relu
I0828 17:24:33.712003 24978 net.cpp:481] res5b_relu <- res5b
I0828 17:24:33.712007 24978 net.cpp:442] res5b_relu -> res5b (in-place)
I0828 17:24:33.712026 24978 net.cpp:190] Setting up res5b_relu
I0828 17:24:33.712029 24978 net.cpp:197] Top shape: 20 2048 7 7 (2007040)
I0828 17:24:33.712031 24978 net.cpp:205] Memory required for data: 3729080400
I0828 17:24:33.712034 24978 layer_factory.hpp:123] Creating layer res5b_res5b_relu_0_split
I0828 17:24:33.712038 24978 net.cpp:140] Creating Layer res5b_res5b_relu_0_split
I0828 17:24:33.712040 24978 net.cpp:481] res5b_res5b_relu_0_split <- res5b
I0828 17:24:33.712044 24978 net.cpp:455] res5b_res5b_relu_0_split -> res5b_res5b_relu_0_split_0
I0828 17:24:33.712049 24978 net.cpp:455] res5b_res5b_relu_0_split -> res5b_res5b_relu_0_split_1
I0828 17:24:33.712069 24978 net.cpp:190] Setting up res5b_res5b_relu_0_split
I0828 17:24:33.712074 24978 net.cpp:197] Top shape: 20 2048 7 7 (2007040)
I0828 17:24:33.712077 24978 net.cpp:197] Top shape: 20 2048 7 7 (2007040)
I0828 17:24:33.712080 24978 net.cpp:205] Memory required for data: 3745136720
I0828 17:24:33.712082 24978 layer_factory.hpp:123] Creating layer res5c_branch2a
I0828 17:24:33.712101 24978 net.cpp:140] Creating Layer res5c_branch2a
I0828 17:24:33.712105 24978 net.cpp:481] res5c_branch2a <- res5b_res5b_relu_0_split_0
I0828 17:24:33.712123 24978 net.cpp:455] res5c_branch2a -> res5c_branch2a
I0828 17:24:33.718510 24978 net.cpp:190] Setting up res5c_branch2a
I0828 17:24:33.718545 24978 net.cpp:197] Top shape: 20 512 7 7 (501760)
I0828 17:24:33.718549 24978 net.cpp:205] Memory required for data: 3747143760
I0828 17:24:33.718554 24978 layer_factory.hpp:123] Creating layer bn5c_branch2a
I0828 17:24:33.718564 24978 net.cpp:140] Creating Layer bn5c_branch2a
I0828 17:24:33.718569 24978 net.cpp:481] bn5c_branch2a <- res5c_branch2a
I0828 17:24:33.718590 24978 net.cpp:442] bn5c_branch2a -> res5c_branch2a (in-place)
I0828 17:24:33.719069 24978 net.cpp:190] Setting up bn5c_branch2a
I0828 17:24:33.719079 24978 net.cpp:197] Top shape: 20 512 7 7 (501760)
I0828 17:24:33.719096 24978 net.cpp:205] Memory required for data: 3749150800
I0828 17:24:33.719103 24978 layer_factory.hpp:123] Creating layer res5c_branch2a_relu
I0828 17:24:33.719110 24978 net.cpp:140] Creating Layer res5c_branch2a_relu
I0828 17:24:33.719112 24978 net.cpp:481] res5c_branch2a_relu <- res5c_branch2a
I0828 17:24:33.719115 24978 net.cpp:442] res5c_branch2a_relu -> res5c_branch2a (in-place)
I0828 17:24:33.719136 24978 net.cpp:190] Setting up res5c_branch2a_relu
I0828 17:24:33.719141 24978 net.cpp:197] Top shape: 20 512 7 7 (501760)
I0828 17:24:33.719142 24978 net.cpp:205] Memory required for data: 3751157840
I0828 17:24:33.719144 24978 layer_factory.hpp:123] Creating layer res5c_branch2b
I0828 17:24:33.719151 24978 net.cpp:140] Creating Layer res5c_branch2b
I0828 17:24:33.719156 24978 net.cpp:481] res5c_branch2b <- res5c_branch2a
I0828 17:24:33.719161 24978 net.cpp:455] res5c_branch2b -> res5c_branch2b
I0828 17:24:33.733235 24978 net.cpp:190] Setting up res5c_branch2b
I0828 17:24:33.733278 24978 net.cpp:197] Top shape: 20 512 7 7 (501760)
I0828 17:24:33.733281 24978 net.cpp:205] Memory required for data: 3753164880
I0828 17:24:33.733287 24978 layer_factory.hpp:123] Creating layer bn5c_branch2b
I0828 17:24:33.733299 24978 net.cpp:140] Creating Layer bn5c_branch2b
I0828 17:24:33.733304 24978 net.cpp:481] bn5c_branch2b <- res5c_branch2b
I0828 17:24:33.733311 24978 net.cpp:442] bn5c_branch2b -> res5c_branch2b (in-place)
I0828 17:24:33.733835 24978 net.cpp:190] Setting up bn5c_branch2b
I0828 17:24:33.733844 24978 net.cpp:197] Top shape: 20 512 7 7 (501760)
I0828 17:24:33.733861 24978 net.cpp:205] Memory required for data: 3755171920
I0828 17:24:33.733868 24978 layer_factory.hpp:123] Creating layer res5c_branch2b_relu
I0828 17:24:33.733873 24978 net.cpp:140] Creating Layer res5c_branch2b_relu
I0828 17:24:33.733891 24978 net.cpp:481] res5c_branch2b_relu <- res5c_branch2b
I0828 17:24:33.733896 24978 net.cpp:442] res5c_branch2b_relu -> res5c_branch2b (in-place)
I0828 17:24:33.733902 24978 net.cpp:190] Setting up res5c_branch2b_relu
I0828 17:24:33.733906 24978 net.cpp:197] Top shape: 20 512 7 7 (501760)
I0828 17:24:33.733908 24978 net.cpp:205] Memory required for data: 3757178960
I0828 17:24:33.733911 24978 layer_factory.hpp:123] Creating layer res5c_branch2c
I0828 17:24:33.733917 24978 net.cpp:140] Creating Layer res5c_branch2c
I0828 17:24:33.733920 24978 net.cpp:481] res5c_branch2c <- res5c_branch2b
I0828 17:24:33.733925 24978 net.cpp:455] res5c_branch2c -> res5c_branch2c
I0828 17:24:33.740193 24978 net.cpp:190] Setting up res5c_branch2c
I0828 17:24:33.740228 24978 net.cpp:197] Top shape: 20 2048 7 7 (2007040)
I0828 17:24:33.740231 24978 net.cpp:205] Memory required for data: 3765207120
I0828 17:24:33.740238 24978 layer_factory.hpp:123] Creating layer bn5c_branch2c
I0828 17:24:33.740247 24978 net.cpp:140] Creating Layer bn5c_branch2c
I0828 17:24:33.740252 24978 net.cpp:481] bn5c_branch2c <- res5c_branch2c
I0828 17:24:33.740258 24978 net.cpp:442] bn5c_branch2c -> res5c_branch2c (in-place)
I0828 17:24:33.740748 24978 net.cpp:190] Setting up bn5c_branch2c
I0828 17:24:33.740757 24978 net.cpp:197] Top shape: 20 2048 7 7 (2007040)
I0828 17:24:33.740774 24978 net.cpp:205] Memory required for data: 3773235280
I0828 17:24:33.740782 24978 layer_factory.hpp:123] Creating layer res5c
I0828 17:24:33.740787 24978 net.cpp:140] Creating Layer res5c
I0828 17:24:33.740806 24978 net.cpp:481] res5c <- res5b_res5b_relu_0_split_1
I0828 17:24:33.740809 24978 net.cpp:481] res5c <- res5c_branch2c
I0828 17:24:33.740814 24978 net.cpp:455] res5c -> res5c
I0828 17:24:33.740829 24978 net.cpp:190] Setting up res5c
I0828 17:24:33.740834 24978 net.cpp:197] Top shape: 20 2048 7 7 (2007040)
I0828 17:24:33.740837 24978 net.cpp:205] Memory required for data: 3781263440
I0828 17:24:33.740839 24978 layer_factory.hpp:123] Creating layer res5c_relu
I0828 17:24:33.740844 24978 net.cpp:140] Creating Layer res5c_relu
I0828 17:24:33.740860 24978 net.cpp:481] res5c_relu <- res5c
I0828 17:24:33.740864 24978 net.cpp:442] res5c_relu -> res5c (in-place)
I0828 17:24:33.740882 24978 net.cpp:190] Setting up res5c_relu
I0828 17:24:33.740886 24978 net.cpp:197] Top shape: 20 2048 7 7 (2007040)
I0828 17:24:33.740888 24978 net.cpp:205] Memory required for data: 3789291600
I0828 17:24:33.740891 24978 layer_factory.hpp:123] Creating layer pool5
I0828 17:24:33.740895 24978 net.cpp:140] Creating Layer pool5
I0828 17:24:33.740898 24978 net.cpp:481] pool5 <- res5c
I0828 17:24:33.740902 24978 net.cpp:455] pool5 -> pool5
I0828 17:24:33.740927 24978 net.cpp:190] Setting up pool5
I0828 17:24:33.740932 24978 net.cpp:197] Top shape: 20 2048 1 1 (40960)
I0828 17:24:33.740934 24978 net.cpp:205] Memory required for data: 3789455440
I0828 17:24:33.740937 24978 layer_factory.hpp:123] Creating layer fc1000
I0828 17:24:33.740942 24978 net.cpp:140] Creating Layer fc1000
I0828 17:24:33.740944 24978 net.cpp:481] fc1000 <- pool5
I0828 17:24:33.740947 24978 net.cpp:455] fc1000 -> fc1000
I0828 17:24:33.753091 24978 net.cpp:190] Setting up fc1000
I0828 17:24:33.753129 24978 net.cpp:197] Top shape: 20 1000 (20000)
I0828 17:24:33.753132 24978 net.cpp:205] Memory required for data: 3789535440
I0828 17:24:33.753140 24978 layer_factory.hpp:123] Creating layer prob
I0828 17:24:33.753149 24978 net.cpp:140] Creating Layer prob
I0828 17:24:33.753154 24978 net.cpp:481] prob <- fc1000
I0828 17:24:33.753175 24978 net.cpp:455] prob -> prob
I0828 17:24:33.753249 24978 net.cpp:190] Setting up prob
I0828 17:24:33.753255 24978 net.cpp:197] Top shape: 20 1000 (20000)
I0828 17:24:33.753273 24978 net.cpp:205] Memory required for data: 3789615440
I0828 17:24:33.753275 24978 net.cpp:268] prob does not need backward computation.
I0828 17:24:33.753290 24978 net.cpp:268] fc1000 does not need backward computation.
I0828 17:24:33.753293 24978 net.cpp:268] pool5 does not need backward computation.
I0828 17:24:33.753298 24978 net.cpp:268] res5c_relu does not need backward computation.
…
I0828 17:24:34.098428 24978 net.cpp:369] The NetState phase (0) differed from the phase (1) specified by a rule in layer data
I0828 17:24:34.099349 24978 net.cpp:98] Initializing net from parameters: 
state {
  phase: TRAIN
}
layer {
  name: "data"
  type: "ImageData"
  top: "data"
  top: "label"
  include {
    phase: TRAIN
  }
  transform_param {
    mirror: true
    crop_size: 224
    mean_value: 104
    mean_value: 107
    mean_value: 123
  }
  image_data_param {
    source: "/SSD/git-tutorial/GPU-DPU-cross-check/images/image500/caffe_calib.txt"
    batch_size: 20
    shuffle: true
    root_folder: "/SSD/git-tutorial/GPU-DPU-cross-check/images/image500/"
  }
}
layer {
  name: "data_fixed"
  type: "FixedNeuron"
  bottom: "data"
  top: "data"
  param {
    lr_mult: 0
    decay_mult: 0
  }
  fixed_param {
    fixed_method: OVER_FLOW
    bit_width: 8
    follow_data_layer: true
  }
}
layer {
  name: "conv1"
  type: "ConvolutionFixed"
  bottom: "data"
  top: "conv1"
  param {
    lr_mult: 1
    decay_mult: 1
  }
  param {
    lr_mult: 1
    decay_mult: 0
  }
  convolution_param {
    num_output: 64
    bias_term: true
    pad: 3
    kernel_size: 7
    stride: 2
    weight_filler {
      type: "xavier"
    }
    bias_filler {
      type: "constant"
      value: 0.2
    }
  }
  fixed_param {
    fixed_method: DIFF_S
    bit_width: 8
  }
}
layer {
  name: "conv1_relu"
  type: "ReLU"
  bottom: "conv1"
  top: "conv1"
  relu_param {
  }
}
layer {
  name: "pool1"
  type: "Pooling"
  bottom: "conv1"
  top: "pool1"
  pooling_param {
    pool: MAX
    kernel_size: 3
    stride: 2
  }
}
layer {
  name: "pool1_fixed"
  type: "FixedNeuron"
  bottom: "pool1"
  top: "pool1"
  param {
    lr_mult: 0
    decay_mult: 0
  }
  fixed_param {
    fixed_method: DIFF_S
    bit_width: 8
  }
}
layer {
  name: "res2a_branch1"
  type: "ConvolutionFixed"
  bottom: "pool1"
  top: "res2a_branch1"
  param {
    lr_mult: 1
    decay_mult: 1
  }
  param {
    lr_mult: 1
    decay_mult: 0
  }
  convolution_param {
    num_output: 256
    bias_term: true
    pad: 0
    kernel_size: 1
    stride: 1
    weight_filler {
      type: "xavier"
    }
    bias_filler {
      type: "constant"
      value: 0.2
    }
  }
  fixed_param {
    fixed_method: DIFF_S
    bit_width: 8
  }
}
layer {
  name: "res2a_branch1_fixed"
  type: "FixedNeuron"
  bottom: "res2a_branch1"
  top: "res2a_branch1"
  param {
    lr_mult: 0
    decay_mult: 0
  }
  fixed_param {
    fixed_method: DIFF_S
    bit_width: 8
  }
}
layer {
  name: "res2a_branch2a"
  type: "ConvolutionFixed"
  bottom: "pool1"
  top: "res2a_branch2a"
  param {
    lr_mult: 1
    decay_mult: 1
  }
  param {
    lr_mult: 1
    decay_mult: 0
  }
  convolution_param {
    num_output: 64
    bias_term: true
    pad: 0
    kernel_size: 1
    stride: 1
    weight_filler {
      type: "xavier"
    }
    bias_filler {
      type: "constant"
      value: 0.2
    }
  }
  fixed_param {
    fixed_method: DIFF_S
    bit_width: 8
  }
}
layer {
  name: "res2a_branch2a_relu"
  type: "ReLU"
  bottom: "res2a_branch2a"
  top: "res2a_branch2a"
  relu_param {
  }
}
layer {
  name: "res2a_branch2a_fixed"
  type: "FixedNeuron"
  bottom: "res2a_branch2a"
  top: "res2a_branch2a"
  param {
    lr_mult: 0
    decay_mult: 0
  }
  fixed_param {
    fixed_method: DIFF_S
    bit_width: 8
  }
}
layer {
  name: "res2a_branch2b"
  type: "ConvolutionFixed"
  bottom: "res2a_branch2a"
  top: "res2a_branch2b"
  param {
    lr_mult: 1
    decay_mult: 1
  }
  param {
    lr_mult: 1
    decay_mult: 0
  }
  convolution_param {
    num_output: 64
    bias_term: true
    pad: 1
    kernel_size: 3
    stride: 1
    weight_filler {
      type: "xavier"
    }
    bias_filler {
      type: "constant"
      value: 0.2
    }
  }
  fixed_param {
    fixed_method: DIFF_S
    bit_width: 8
  }
}
layer {
  name: "res2a_branch2b_relu"
  type: "ReLU"
  bottom: "res2a_branch2b"
  top: "res2a_branch2b"
  relu_param {
  }
}
layer {
  name: "res2a_branch2b_fixed"
  type: "FixedNeuron"
  bottom: "res2a_branch2b"
  top: "res2a_branch2b"
  param {
    lr_mult: 0
    decay_mult: 0
  }
  fixed_param {
    fixed_method: DIFF_S
    bit_width: 8
  }
}
layer {
  name: "res2a_branch2c"
  type: "ConvolutionFixed"
  bottom: "res2a_branch2b"
  top: "res2a_branch2c"
  param {
    lr_mult: 1
    decay_mult: 1
  }
  param {
    lr_mult: 1
    decay_mult: 0
  }
  convolution_param {
    num_output: 256
    bias_term: true
    pad: 0
    kernel_size: 1
    stride: 1
    weight_filler {
      type: "xavier"
    }
    bias_filler {
      type: "constant"
      value: 0.2
    }
  }
  fixed_param {
    fixed_method: DIFF_S
    bit_width: 8
  }
}
layer {
  name: "res2a_branch2c_fixed"
  type: "FixedNeuron"
  bottom: "res2a_branch2c"
  top: "res2a_branch2c"
  param {
    lr_mult: 0
    decay_mult: 0
  }
  fixed_param {
    fixed_method: DIFF_S
    bit_width: 8
  }
}
layer {
  name: "res2a"
  type: "Eltwise"
  bottom: "res2a_branch1"
  bottom: "res2a_branch2c"
  top: "res2a"
  eltwise_param {
  }
}
layer {
  name: "res2a_relu"
  type: "ReLU"
  bottom: "res2a"
  top: "res2a"
  relu_param {
  }
}
layer {
  name: "res2a_fixed"
  type: "FixedNeuron"
  bottom: "res2a"
  top: "res2a"
  param {
    lr_mult: 0
    decay_mult: 0
  }
  fixed_param {
    fixed_method: DIFF_S
    bit_width: 8
  }
}
layer {
  name: "res2b_branch2a"
  type: "ConvolutionFixed"
  bottom: "res2a"
  top: "res2b_branch2a"
  param {
    lr_mult: 1
    decay_mult: 1
  }
  param {
    lr_mult: 1
    decay_mult: 0
  }
  convolution_param {
    num_output: 64
    bias_term: true
    pad: 0
    kernel_size: 1
    stride: 1
    weight_filler {
      type: "xavier"
    }
    bias_filler {
      type: "constant"
      value: 0.2
    }
  }
  fixed_param {
    fixed_method: DIFF_S
    bit_width: 8
  }
}
layer {
  name: "res2b_branch2a_relu"
  type: "ReLU"
  bottom: "res2b_branch2a"
  top: "res2b_branch2a"
  relu_param {
  }
}
layer {
  name: "res2b_branch2a_fixed"
  type: "FixedNeuron"
  bottom: "res2b_branch2a"
  top: "res2b_branch2a"
  param {
    lr_mult: 0
    decay_mult: 0
  }
  fixed_param {
    fixed_method: DIFF_S
    bit_width: 8
  }
}
layer {
  name: "res2b_branch2b"
  type: "ConvolutionFixed"
  bottom: "res2b_branch2a"
  top: "res2b_branch2b"
  param {
    lr_mult: 1
    decay_mult: 1
  }
  param {
    lr_mult: 1
    decay_mult: 0
  }
  convolution_param {
    num_output: 64
    bias_term: true
    pad: 1
    kernel_size: 3
    stride: 1
    weight_filler {
      type: "xavier"
    }
    bias_filler {
      type: "constant"
      value: 0.2
    }
  }
  fixed_param {
    fixed_method: DIFF_S
    bit_width: 8
  }
}
layer {
  name: "res2b_branch2b_relu"
  type: "ReLU"
  bottom: "res2b_branch2b"
  top: "res2b_branch2b"
  relu_param {
  }
}
layer {
  name: "res2b_branch2b_fixed"
  type: "FixedNeuron"
  bottom: "res2b_branch2b"
  top: "res2b_branch2b"
  param {
    lr_mult: 0
    decay_mult: 0
  }
  fixed_param {
    fixed_method: DIFF_S
    bit_width: 8
  }
}
layer {
  name: "res2b_branch2c"
  type: "ConvolutionFixed"
  bottom: "res2b_branch2b"
  top: "res2b_branch2c"
  param {
    lr_mult: 1
    decay_mult: 1
  }
  param {
    lr_mult: 1
    decay_mult: 0
  }
  convolution_param {
    num_output: 256
    bias_term: true
    pad: 0
    kernel_size: 1
    stride: 1
    weight_filler {
      type: "xavier"
    }
    bias_filler {
      type: "constant"
      value: 0.2
    }
  }
  fixed_param {
    fixed_method: DIFF_S
    bit_width: 8
  }
}
layer {
  name: "res2b_branch2c_fixed"
  type: "FixedNeuron"
  bottom: "res2b_branch2c"
  top: "res2b_branch2c"
  param {
    lr_mult: 0
    decay_mult: 0
  }
  fixed_param {
    fixed_method: DIFF_S
    bit_width: 8
  }
}
layer {
  name: "res2b"
  type: "Eltwise"
  bottom: "res2a"
  bottom: "res2b_branch2c"
  top: "res2b"
  eltwise_param {
  }
}
layer {
  name: "res2b_relu"
  type: "ReLU"
  bottom: "res2b"
  top: "res2b"
  relu_param {
  }
}
layer {
  name: "res2b_fixed"
  type: "FixedNeuron"
  bottom: "res2b"
  top: "res2b"
  param {
    lr_mult: 0
    decay_mult: 0
  }
  fixed_param {
    fixed_method: DIFF_S
    bit_width: 8
  }
}
layer {
  name: "res2c_branch2a"
  type: "ConvolutionFixed"
  bottom: "res2b"
  top: "res2c_branch2a"
  param {
    lr_mult: 1
    decay_mult: 1
  }
  param {
    lr_mult: 1
    decay_mult: 0
  }
  convolution_param {
    num_output: 64
    bias_term: true
    pad: 0
    kernel_size: 1
    stride: 1
    weight_filler {
      type: "xavier"
    }
    bias_filler {
      type: "constant"
      value: 0.2
    }
  }
  fixed_param {
    fixed_method: DIFF_S
    bit_width: 8
  }
}
layer {
  name: "res2c_branch2a_relu"
  type: "ReLU"
  bottom: "res2c_branch2a"
  top: "res2c_branch2a"
  relu_param {
  }
}
layer {
  name: "res2c_branch2a_fixed"
  type: "FixedNeuron"
  bottom: "res2c_branch2a"
  top: "res2c_branch2a"
  param {
    lr_mult: 0
    decay_mult: 0
  }
  fixed_param {
    fixed_method: DIFF_S
    bit_width: 8
  }
}
layer {
  name: "res2c_branch2b"
  type: "ConvolutionFixed"
  bottom: "res2c_branch2a"
  top: "res2c_branch2b"
  param {
    lr_mult: 1
    decay_mult: 1
  }
  param {
    lr_mult: 1
    decay_mult: 0
  }
  convolution_param {
    num_output: 64
    bias_term: true
    pad: 1
    kernel_size: 3
    stride: 1
    weight_filler {
      type: "xavier"
    }
    bias_filler {
      type: "constant"
      value: 0.2
    }
  }
  fixed_param {
    fixed_method: DIFF_S
    bit_width: 8
  }
}
layer {
  name: "res2c_branch2b_relu"
  type: "ReLU"
  bottom: "res2c_branch2b"
  top: "res2c_branch2b"
  relu_param {
  }
}
layer {
  name: "res2c_branch2b_fixed"
  type: "FixedNeuron"
  bottom: "res2c_branch2b"
  top: "res2c_branch2b"
  param {
    lr_mult: 0
    decay_mult: 0
  }
  fixed_param {
    fixed_method: DIFF_S
    bit_width: 8
  }
}
layer {
  name: "res2c_branch2c"
  type: "ConvolutionFixed"
  bottom: "res2c_branch2b"
  top: "res2c_branch2c"
  param {
    lr_mult: 1
    decay_mult: 1
  }
  param {
    lr_mult: 1
    decay_mult: 0
  }
  convolution_param {
    num_output: 256
    bias_term: true
    pad: 0
    kernel_size: 1
    stride: 1
    weight_filler {
      type: "xavier"
    }
    bias_filler {
      type: "constant"
      value: 0.2
    }
  }
  fixed_param {
    fixed_method: DIFF_S
    bit_width: 8
  }
}
layer {
  name: "res2c_branch2c_fixed"
  type: "FixedNeuron"
  bottom: "res2c_branch2c"
  top: "res2c_branch2c"
  param {
    lr_mult: 0
    decay_mult: 0
  }
  fixed_param {
    fixed_method: DIFF_S
    bit_width: 8
  }
}
layer {
  name: "res2c"
  type: "Eltwise"
  bottom: "res2b"
  bottom: "res2c_branch2c"
  top: "res2c"
  eltwise_param {
  }
}
layer {
  name: "res2c_relu"
  type: "ReLU"
  bottom: "res2c"
  top: "res2c"
  relu_param {
  }
}
layer {
  name: "res2c_fixed"
  type: "FixedNeuron"
  bottom: "res2c"
  top: "res2c"
  param {
    lr_mult: 0
    decay_mult: 0
  }
  fixed_param {
    fixed_method: DIFF_S
    bit_width: 8
  }
}
layer {
  name: "res3a_branch1"
  type: "ConvolutionFixed"
  bottom: "res2c"
  top: "res3a_branch1"
  param {
    lr_mult: 1
    decay_mult: 1
  }
  param {
    lr_mult: 1
    decay_mult: 0
  }
  convolution_param {
    num_output: 512
    bias_term: true
    pad: 0
    kernel_size: 1
    stride: 2
    weight_filler {
      type: "xavier"
    }
    bias_filler {
      type: "constant"
      value: 0.2
    }
  }
  fixed_param {
    fixed_method: DIFF_S
    bit_width: 8
  }
}
layer {
  name: "res3a_branch1_fixed"
  type: "FixedNeuron"
  bottom: "res3a_branch1"
  top: "res3a_branch1"
  param {
    lr_mult: 0
    decay_mult: 0
  }
  fixed_param {
    fixed_method: DIFF_S
    bit_width: 8
  }
}
layer {
  name: "res3a_branch2a"
  type: "ConvolutionFixed"
  bottom: "res2c"
  top: "res3a_branch2a"
  param {
    lr_mult: 1
    decay_mult: 1
  }
  param {
    lr_mult: 1
    decay_mult: 0
  }
  convolution_param {
    num_output: 128
    bias_term: true
    pad: 0
    kernel_size: 1
    stride: 2
    weight_filler {
      type: "xavier"
    }
    bias_filler {
      type: "constant"
      value: 0.2
    }
  }
  fixed_param {
    fixed_method: DIFF_S
    bit_width: 8
  }
}
layer {
  name: "res3a_branch2a_relu"
  type: "ReLU"
  bottom: "res3a_branch2a"
  top: "res3a_branch2a"
  relu_param {
  }
}
layer {
  name: "res3a_branch2a_fixed"
  type: "FixedNeuron"
  bottom: "res3a_branch2a"
  top: "res3a_branch2a"
  param {
    lr_mult: 0
    decay_mult: 0
  }
  fixed_param {
    fixed_method: DIFF_S
    bit_width: 8
  }
}
layer {
  name: "res3a_branch2b"
  type: "ConvolutionFixed"
  bottom: "res3a_branch2a"
  top: "res3a_branch2b"
  param {
    lr_mult: 1
    decay_mult: 1
  }
  param {
    lr_mult: 1
    decay_mult: 0
  }
  convolution_param {
    num_output: 128
    bias_term: true
    pad: 1
    kernel_size: 3
    stride: 1
    weight_filler {
      type: "xavier"
    }
    bias_filler {
      type: "constant"
      value: 0.2
    }
  }
  fixed_param {
    fixed_method: DIFF_S
    bit_width: 8
  }
}
layer {
  name: "res3a_branch2b_relu"
  type: "ReLU"
  bottom: "res3a_branch2b"
  top: "res3a_branch2b"
  relu_param {
  }
}
layer {
  name: "res3a_branch2b_fixed"
  type: "FixedNeuron"
  bottom: "res3a_branch2b"
  top: "res3a_branch2b"
  param {
    lr_mult: 0
    decay_mult: 0
  }
  fixed_param {
    fixed_method: DIFF_S
    bit_width: 8
  }
}
layer {
  name: "res3a_branch2c"
  type: "ConvolutionFixed"
  bottom: "res3a_branch2b"
  top: "res3a_branch2c"
  param {
    lr_mult: 1
    decay_mult: 1
  }
  param {
    lr_mult: 1
    decay_mult: 0
  }
  convolution_param {
    num_output: 512
    bias_term: true
    pad: 0
    kernel_size: 1
    stride: 1
    weight_filler {
      type: "xavier"
    }
    bias_filler {
      type: "constant"
      value: 0.2
    }
  }
  fixed_param {
    fixed_method: DIFF_S
    bit_width: 8
  }
}
layer {
  name: "res3a_branch2c_fixed"
  type: "FixedNeuron"
  bottom: "res3a_branch2c"
  top: "res3a_branch2c"
  param {
    lr_mult: 0
    decay_mult: 0
  }
  fixed_param {
    fixed_method: DIFF_S
    bit_width: 8
  }
}
layer {
  name: "res3a"
  type: "Eltwise"
  bottom: "res3a_branch1"
  bottom: "res3a_branch2c"
  top: "res3a"
  eltwise_param {
  }
}
layer {
  name: "res3a_relu"
  type: "ReLU"
  bottom: "res3a"
  top: "res3a"
  relu_param {
  }
}
layer {
  name: "res3a_fixed"
  type: "FixedNeuron"
  bottom: "res3a"
  top: "res3a"
  param {
    lr_mult: 0
    decay_mult: 0
  }
  fixed_param {
    fixed_method: DIFF_S
    bit_width: 8
  }
}
layer {
  name: "res3b_branch2a"
  type: "ConvolutionFixed"
  bottom: "res3a"
  top: "res3b_branch2a"
  param {
    lr_mult: 1
    decay_mult: 1
  }
  param {
    lr_mult: 1
    decay_mult: 0
  }
  convolution_param {
…
I0828 17:24:34.229518 24978 net.cpp:481] res4c_branch2a_fixed <- res4c_branch2a
I0828 17:24:34.229523 24978 net.cpp:442] res4c_branch2a_fixed -> res4c_branch2a (in-place)
I0828 17:24:34.229562 24978 net.cpp:190] Setting up res4c_branch2a_fixed
I0828 17:24:34.229570 24978 net.cpp:197] Top shape: 20 256 14 14 (1003520)
I0828 17:24:34.229573 24978 net.cpp:205] Memory required for data: 3456122960
I0828 17:24:34.229580 24978 layer_factory.hpp:123] Creating layer res4c_branch2b
I0828 17:24:34.229589 24978 net.cpp:140] Creating Layer res4c_branch2b
I0828 17:24:34.229595 24978 net.cpp:481] res4c_branch2b <- res4c_branch2a
I0828 17:24:34.229601 24978 net.cpp:455] res4c_branch2b -> res4c_branch2b
I0828 17:24:34.233484 24978 layer_factory.hpp:123] Creating layer res4c_branch2b
I0828 17:24:34.237330 24978 net.cpp:190] Setting up res4c_branch2b
I0828 17:24:34.237357 24978 net.cpp:197] Top shape: 20 256 14 14 (1003520)
I0828 17:24:34.237360 24978 net.cpp:205] Memory required for data: 3460137040
I0828 17:24:34.237373 24978 layer_factory.hpp:123] Creating layer res4c_branch2b_relu
I0828 17:24:34.237385 24978 net.cpp:140] Creating Layer res4c_branch2b_relu
I0828 17:24:34.237396 24978 net.cpp:481] res4c_branch2b_relu <- res4c_branch2b
I0828 17:24:34.237407 24978 net.cpp:442] res4c_branch2b_relu -> res4c_branch2b (in-place)
I0828 17:24:34.237418 24978 net.cpp:190] Setting up res4c_branch2b_relu
I0828 17:24:34.237424 24978 net.cpp:197] Top shape: 20 256 14 14 (1003520)
I0828 17:24:34.237428 24978 net.cpp:205] Memory required for data: 3464151120
I0828 17:24:34.237432 24978 layer_factory.hpp:123] Creating layer res4c_branch2b_fixed
I0828 17:24:34.237440 24978 net.cpp:140] Creating Layer res4c_branch2b_fixed
I0828 17:24:34.237445 24978 net.cpp:481] res4c_branch2b_fixed <- res4c_branch2b
I0828 17:24:34.237452 24978 net.cpp:442] res4c_branch2b_fixed -> res4c_branch2b (in-place)
I0828 17:24:34.237485 24978 net.cpp:190] Setting up res4c_branch2b_fixed
I0828 17:24:34.237493 24978 net.cpp:197] Top shape: 20 256 14 14 (1003520)
I0828 17:24:34.237496 24978 net.cpp:205] Memory required for data: 3468165200
I0828 17:24:34.237502 24978 layer_factory.hpp:123] Creating layer res4c_branch2c
I0828 17:24:34.237517 24978 net.cpp:140] Creating Layer res4c_branch2c
I0828 17:24:34.237524 24978 net.cpp:481] res4c_branch2c <- res4c_branch2b
I0828 17:24:34.237530 24978 net.cpp:455] res4c_branch2c -> res4c_branch2c
I0828 17:24:34.240253 24978 layer_factory.hpp:123] Creating layer res4c_branch2c
I0828 17:24:34.242102 24978 net.cpp:190] Setting up res4c_branch2c
I0828 17:24:34.242115 24978 net.cpp:197] Top shape: 20 1024 14 14 (4014080)
I0828 17:24:34.242117 24978 net.cpp:205] Memory required for data: 3484221520
I0828 17:24:34.242125 24978 layer_factory.hpp:123] Creating layer res4c_branch2c_fixed
I0828 17:24:34.242138 24978 net.cpp:140] Creating Layer res4c_branch2c_fixed
I0828 17:24:34.242144 24978 net.cpp:481] res4c_branch2c_fixed <- res4c_branch2c
I0828 17:24:34.242153 24978 net.cpp:442] res4c_branch2c_fixed -> res4c_branch2c (in-place)
I0828 17:24:34.242192 24978 net.cpp:190] Setting up res4c_branch2c_fixed
I0828 17:24:34.242200 24978 net.cpp:197] Top shape: 20 1024 14 14 (4014080)
I0828 17:24:34.242204 24978 net.cpp:205] Memory required for data: 3500277840
I0828 17:24:34.242209 24978 layer_factory.hpp:123] Creating layer res4c
I0828 17:24:34.242218 24978 net.cpp:140] Creating Layer res4c
I0828 17:24:34.242224 24978 net.cpp:481] res4c <- res4b_res4b_fixed_0_split_1
I0828 17:24:34.242229 24978 net.cpp:481] res4c <- res4c_branch2c
I0828 17:24:34.242236 24978 net.cpp:455] res4c -> res4c
I0828 17:24:34.242261 24978 net.cpp:190] Setting up res4c
I0828 17:24:34.242269 24978 net.cpp:197] Top shape: 20 1024 14 14 (4014080)
I0828 17:24:34.242272 24978 net.cpp:205] Memory required for data: 3516334160
I0828 17:24:34.242276 24978 layer_factory.hpp:123] Creating layer res4c_relu
I0828 17:24:34.242282 24978 net.cpp:140] Creating Layer res4c_relu
I0828 17:24:34.242287 24978 net.cpp:481] res4c_relu <- res4c
I0828 17:24:34.242292 24978 net.cpp:442] res4c_relu -> res4c (in-place)
I0828 17:24:34.242303 24978 net.cpp:190] Setting up res4c_relu
I0828 17:24:34.242311 24978 net.cpp:197] Top shape: 20 1024 14 14 (4014080)
I0828 17:24:34.242314 24978 net.cpp:205] Memory required for data: 3532390480
I0828 17:24:34.242318 24978 layer_factory.hpp:123] Creating layer res4c_fixed
I0828 17:24:34.242323 24978 net.cpp:140] Creating Layer res4c_fixed
I0828 17:24:34.242328 24978 net.cpp:481] res4c_fixed <- res4c
I0828 17:24:34.242333 24978 net.cpp:442] res4c_fixed -> res4c (in-place)
I0828 17:24:34.242370 24978 net.cpp:190] Setting up res4c_fixed
I0828 17:24:34.242377 24978 net.cpp:197] Top shape: 20 1024 14 14 (4014080)
I0828 17:24:34.242383 24978 net.cpp:205] Memory required for data: 3548446800
I0828 17:24:34.242388 24978 layer_factory.hpp:123] Creating layer res4c_res4c_fixed_0_split
I0828 17:24:34.242394 24978 net.cpp:140] Creating Layer res4c_res4c_fixed_0_split
I0828 17:24:34.242399 24978 net.cpp:481] res4c_res4c_fixed_0_split <- res4c
I0828 17:24:34.242405 24978 net.cpp:455] res4c_res4c_fixed_0_split -> res4c_res4c_fixed_0_split_0
I0828 17:24:34.242413 24978 net.cpp:455] res4c_res4c_fixed_0_split -> res4c_res4c_fixed_0_split_1
I0828 17:24:34.242446 24978 net.cpp:190] Setting up res4c_res4c_fixed_0_split
I0828 17:24:34.242453 24978 net.cpp:197] Top shape: 20 1024 14 14 (4014080)
I0828 17:24:34.242458 24978 net.cpp:197] Top shape: 20 1024 14 14 (4014080)
I0828 17:24:34.242462 24978 net.cpp:205] Memory required for data: 3580559440
I0828 17:24:34.242465 24978 layer_factory.hpp:123] Creating layer res4d_branch2a
I0828 17:24:34.242473 24978 net.cpp:140] Creating Layer res4d_branch2a
I0828 17:24:34.242480 24978 net.cpp:481] res4d_branch2a <- res4c_res4c_fixed_0_split_0
I0828 17:24:34.242486 24978 net.cpp:455] res4d_branch2a -> res4d_branch2a
I0828 17:24:34.245409 24978 layer_factory.hpp:123] Creating layer res4d_branch2a
I0828 17:24:34.247308 24978 net.cpp:190] Setting up res4d_branch2a
I0828 17:24:34.247320 24978 net.cpp:197] Top shape: 20 256 14 14 (1003520)
I0828 17:24:34.247323 24978 net.cpp:205] Memory required for data: 3584573520
I0828 17:24:34.247329 24978 layer_factory.hpp:123] Creating layer res4d_branch2a_relu
I0828 17:24:34.247339 24978 net.cpp:140] Creating Layer res4d_branch2a_relu
I0828 17:24:34.247346 24978 net.cpp:481] res4d_branch2a_relu <- res4d_branch2a
I0828 17:24:34.247354 24978 net.cpp:442] res4d_branch2a_relu -> res4d_branch2a (in-place)
I0828 17:24:34.247364 24978 net.cpp:190] Setting up res4d_branch2a_relu
I0828 17:24:34.247370 24978 net.cpp:197] Top shape: 20 256 14 14 (1003520)
I0828 17:24:34.247373 24978 net.cpp:205] Memory required for data: 3588587600
I0828 17:24:34.247377 24978 layer_factory.hpp:123] Creating layer res4d_branch2a_fixed
I0828 17:24:34.247382 24978 net.cpp:140] Creating Layer res4d_branch2a_fixed
I0828 17:24:34.247387 24978 net.cpp:481] res4d_branch2a_fixed <- res4d_branch2a
I0828 17:24:34.247393 24978 net.cpp:442] res4d_branch2a_fixed -> res4d_branch2a (in-place)
I0828 17:24:34.247429 24978 net.cpp:190] Setting up res4d_branch2a_fixed
I0828 17:24:34.247437 24978 net.cpp:197] Top shape: 20 256 14 14 (1003520)
I0828 17:24:34.247440 24978 net.cpp:205] Memory required for data: 3592601680
I0828 17:24:34.247445 24978 layer_factory.hpp:123] Creating layer res4d_branch2b
I0828 17:24:34.247454 24978 net.cpp:140] Creating Layer res4d_branch2b
I0828 17:24:34.247459 24978 net.cpp:481] res4d_branch2b <- res4d_branch2a
I0828 17:24:34.247464 24978 net.cpp:455] res4d_branch2b -> res4d_branch2b
I0828 17:24:34.251528 24978 layer_factory.hpp:123] Creating layer res4d_branch2b
I0828 17:24:34.255302 24978 net.cpp:190] Setting up res4d_branch2b
I0828 17:24:34.255332 24978 net.cpp:197] Top shape: 20 256 14 14 (1003520)
I0828 17:24:34.255336 24978 net.cpp:205] Memory required for data: 3596615760
I0828 17:24:34.255342 24978 layer_factory.hpp:123] Creating layer res4d_branch2b_relu
I0828 17:24:34.255348 24978 net.cpp:140] Creating Layer res4d_branch2b_relu
I0828 17:24:34.255353 24978 net.cpp:481] res4d_branch2b_relu <- res4d_branch2b
I0828 17:24:34.255362 24978 net.cpp:442] res4d_branch2b_relu -> res4d_branch2b (in-place)
I0828 17:24:34.255372 24978 net.cpp:190] Setting up res4d_branch2b_relu
I0828 17:24:34.255376 24978 net.cpp:197] Top shape: 20 256 14 14 (1003520)
I0828 17:24:34.255380 24978 net.cpp:205] Memory required for data: 3600629840
I0828 17:24:34.255384 24978 layer_factory.hpp:123] Creating layer res4d_branch2b_fixed
I0828 17:24:34.255390 24978 net.cpp:140] Creating Layer res4d_branch2b_fixed
I0828 17:24:34.255394 24978 net.cpp:481] res4d_branch2b_fixed <- res4d_branch2b
I0828 17:24:34.255399 24978 net.cpp:442] res4d_branch2b_fixed -> res4d_branch2b (in-place)
I0828 17:24:34.255436 24978 net.cpp:190] Setting up res4d_branch2b_fixed
I0828 17:24:34.255445 24978 net.cpp:197] Top shape: 20 256 14 14 (1003520)
I0828 17:24:34.255447 24978 net.cpp:205] Memory required for data: 3604643920
I0828 17:24:34.255452 24978 layer_factory.hpp:123] Creating layer res4d_branch2c
I0828 17:24:34.255462 24978 net.cpp:140] Creating Layer res4d_branch2c
I0828 17:24:34.255468 24978 net.cpp:481] res4d_branch2c <- res4d_branch2b
I0828 17:24:34.255475 24978 net.cpp:455] res4d_branch2c -> res4d_branch2c
I0828 17:24:34.257625 24978 layer_factory.hpp:123] Creating layer res4d_branch2c
I0828 17:24:34.259586 24978 net.cpp:190] Setting up res4d_branch2c
I0828 17:24:34.259611 24978 net.cpp:197] Top shape: 20 1024 14 14 (4014080)
I0828 17:24:34.259614 24978 net.cpp:205] Memory required for data: 3620700240
I0828 17:24:34.259620 24978 layer_factory.hpp:123] Creating layer res4d_branch2c_fixed
I0828 17:24:34.259626 24978 net.cpp:140] Creating Layer res4d_branch2c_fixed
I0828 17:24:34.259632 24978 net.cpp:481] res4d_branch2c_fixed <- res4d_branch2c
I0828 17:24:34.259639 24978 net.cpp:442] res4d_branch2c_fixed -> res4d_branch2c (in-place)
I0828 17:24:34.259675 24978 net.cpp:190] Setting up res4d_branch2c_fixed
I0828 17:24:34.259683 24978 net.cpp:197] Top shape: 20 1024 14 14 (4014080)
I0828 17:24:34.259687 24978 net.cpp:205] Memory required for data: 3636756560
I0828 17:24:34.259692 24978 layer_factory.hpp:123] Creating layer res4d
I0828 17:24:34.259699 24978 net.cpp:140] Creating Layer res4d
I0828 17:24:34.259704 24978 net.cpp:481] res4d <- res4c_res4c_fixed_0_split_1
I0828 17:24:34.259709 24978 net.cpp:481] res4d <- res4d_branch2c
I0828 17:24:34.259716 24978 net.cpp:455] res4d -> res4d
I0828 17:24:34.259738 24978 net.cpp:190] Setting up res4d
I0828 17:24:34.259758 24978 net.cpp:197] Top shape: 20 1024 14 14 (4014080)
I0828 17:24:34.259761 24978 net.cpp:205] Memory required for data: 3652812880
I0828 17:24:34.259778 24978 layer_factory.hpp:123] Creating layer res4d_relu
I0828 17:24:34.259784 24978 net.cpp:140] Creating Layer res4d_relu
I0828 17:24:34.259788 24978 net.cpp:481] res4d_relu <- res4d
I0828 17:24:34.259795 24978 net.cpp:442] res4d_relu -> res4d (in-place)
I0828 17:24:34.259804 24978 net.cpp:190] Setting up res4d_relu
I0828 17:24:34.259810 24978 net.cpp:197] Top shape: 20 1024 14 14 (4014080)
I0828 17:24:34.259814 24978 net.cpp:205] Memory required for data: 3668869200
I0828 17:24:34.259819 24978 layer_factory.hpp:123] Creating layer res4d_fixed
I0828 17:24:34.259824 24978 net.cpp:140] Creating Layer res4d_fixed
I0828 17:24:34.259829 24978 net.cpp:481] res4d_fixed <- res4d
I0828 17:24:34.259832 24978 net.cpp:442] res4d_fixed -> res4d (in-place)
I0828 17:24:34.259866 24978 net.cpp:190] Setting up res4d_fixed
I0828 17:24:34.259873 24978 net.cpp:197] Top shape: 20 1024 14 14 (4014080)
I0828 17:24:34.259877 24978 net.cpp:205] Memory required for data: 3684925520
I0828 17:24:34.259882 24978 layer_factory.hpp:123] Creating layer res4d_res4d_fixed_0_split
I0828 17:24:34.259889 24978 net.cpp:140] Creating Layer res4d_res4d_fixed_0_split
I0828 17:24:34.259894 24978 net.cpp:481] res4d_res4d_fixed_0_split <- res4d
I0828 17:24:34.259899 24978 net.cpp:455] res4d_res4d_fixed_0_split -> res4d_res4d_fixed_0_split_0
I0828 17:24:34.259907 24978 net.cpp:455] res4d_res4d_fixed_0_split -> res4d_res4d_fixed_0_split_1
I0828 17:24:34.259943 24978 net.cpp:190] Setting up res4d_res4d_fixed_0_split
I0828 17:24:34.259950 24978 net.cpp:197] Top shape: 20 1024 14 14 (4014080)
I0828 17:24:34.259956 24978 net.cpp:197] Top shape: 20 1024 14 14 (4014080)
I0828 17:24:34.259961 24978 net.cpp:205] Memory required for data: 3717038160
I0828 17:24:34.259965 24978 layer_factory.hpp:123] Creating layer res4e_branch2a
I0828 17:24:34.259975 24978 net.cpp:140] Creating Layer res4e_branch2a
I0828 17:24:34.259980 24978 net.cpp:481] res4e_branch2a <- res4d_res4d_fixed_0_split_0
I0828 17:24:34.259987 24978 net.cpp:455] res4e_branch2a -> res4e_branch2a
I0828 17:24:34.262044 24978 layer_factory.hpp:123] Creating layer res4e_branch2a
I0828 17:24:34.264153 24978 net.cpp:190] Setting up res4e_branch2a
I0828 17:24:34.264165 24978 net.cpp:197] Top shape: 20 256 14 14 (1003520)
I0828 17:24:34.264168 24978 net.cpp:205] Memory required for data: 3721052240
I0828 17:24:34.264176 24978 layer_factory.hpp:123] Creating layer res4e_branch2a_relu
I0828 17:24:34.264185 24978 net.cpp:140] Creating Layer res4e_branch2a_relu
I0828 17:24:34.264190 24978 net.cpp:481] res4e_branch2a_relu <- res4e_branch2a
I0828 17:24:34.264196 24978 net.cpp:442] res4e_branch2a_relu -> res4e_branch2a (in-place)
I0828 17:24:34.264206 24978 net.cpp:190] Setting up res4e_branch2a_relu
I0828 17:24:34.264212 24978 net.cpp:197] Top shape: 20 256 14 14 (1003520)
I0828 17:24:34.264216 24978 net.cpp:205] Memory required for data: 3725066320
I0828 17:24:34.264219 24978 layer_factory.hpp:123] Creating layer res4e_branch2a_fixed
I0828 17:24:34.264226 24978 net.cpp:140] Creating Layer res4e_branch2a_fixed
I0828 17:24:34.264230 24978 net.cpp:481] res4e_branch2a_fixed <- res4e_branch2a
I0828 17:24:34.264236 24978 net.cpp:442] res4e_branch2a_fixed -> res4e_branch2a (in-place)
I0828 17:24:34.264271 24978 net.cpp:190] Setting up res4e_branch2a_fixed
I0828 17:24:34.264279 24978 net.cpp:197] Top shape: 20 256 14 14 (1003520)
I0828 17:24:34.264283 24978 net.cpp:205] Memory required for data: 3729080400
I0828 17:24:34.264288 24978 layer_factory.hpp:123] Creating layer res4e_branch2b
I0828 17:24:34.264297 24978 net.cpp:140] Creating Layer res4e_branch2b
I0828 17:24:34.264302 24978 net.cpp:481] res4e_branch2b <- res4e_branch2a
I0828 17:24:34.264309 24978 net.cpp:455] res4e_branch2b -> res4e_branch2b
I0828 17:24:34.268255 24978 layer_factory.hpp:123] Creating layer res4e_branch2b
I0828 17:24:34.272080 24978 net.cpp:190] Setting up res4e_branch2b
I0828 17:24:34.272110 24978 net.cpp:197] Top shape: 20 256 14 14 (1003520)
I0828 17:24:34.272114 24978 net.cpp:205] Memory required for data: 3733094480
I0828 17:24:34.272122 24978 layer_factory.hpp:123] Creating layer res4e_branch2b_relu
I0828 17:24:34.272130 24978 net.cpp:140] Creating Layer res4e_branch2b_relu
I0828 17:24:34.272133 24978 net.cpp:481] res4e_branch2b_relu <- res4e_branch2b
I0828 17:24:34.272140 24978 net.cpp:442] res4e_branch2b_relu -> res4e_branch2b (in-place)
I0828 17:24:34.272150 24978 net.cpp:190] Setting up res4e_branch2b_relu
I0828 17:24:34.272155 24978 net.cpp:197] Top shape: 20 256 14 14 (1003520)
I0828 17:24:34.272157 24978 net.cpp:205] Memory required for data: 3737108560
I0828 17:24:34.272161 24978 layer_factory.hpp:123] Creating layer res4e_branch2b_fixed
I0828 17:24:34.272168 24978 net.cpp:140] Creating Layer res4e_branch2b_fixed
I0828 17:24:34.272174 24978 net.cpp:481] res4e_branch2b_fixed <- res4e_branch2b
I0828 17:24:34.272178 24978 net.cpp:442] res4e_branch2b_fixed -> res4e_branch2b (in-place)
I0828 17:24:34.272215 24978 net.cpp:190] Setting up res4e_branch2b_fixed
I0828 17:24:34.272222 24978 net.cpp:197] Top shape: 20 256 14 14 (1003520)
I0828 17:24:34.272226 24978 net.cpp:205] Memory required for data: 3741122640
I0828 17:24:34.272238 24978 layer_factory.hpp:123] Creating layer res4e_branch2c
I0828 17:24:34.272250 24978 net.cpp:140] Creating Layer res4e_branch2c
I0828 17:24:34.272254 24978 net.cpp:481] res4e_branch2c <- res4e_branch2b
I0828 17:24:34.272261 24978 net.cpp:455] res4e_branch2c -> res4e_branch2c
I0828 17:24:34.274377 24978 layer_factory.hpp:123] Creating layer res4e_branch2c
I0828 17:24:34.276307 24978 net.cpp:190] Setting up res4e_branch2c
I0828 17:24:34.276334 24978 net.cpp:197] Top shape: 20 1024 14 14 (4014080)
I0828 17:24:34.276336 24978 net.cpp:205] Memory required for data: 3757178960
I0828 17:24:34.276341 24978 layer_factory.hpp:123] Creating layer res4e_branch2c_fixed
I0828 17:24:34.276347 24978 net.cpp:140] Creating Layer res4e_branch2c_fixed
I0828 17:24:34.276352 24978 net.cpp:481] res4e_branch2c_fixed <- res4e_branch2c
I0828 17:24:34.276358 24978 net.cpp:442] res4e_branch2c_fixed -> res4e_branch2c (in-place)
I0828 17:24:34.276405 24978 net.cpp:190] Setting up res4e_branch2c_fixed
I0828 17:24:34.276414 24978 net.cpp:197] Top shape: 20 1024 14 14 (4014080)
I0828 17:24:34.276432 24978 net.cpp:205] Memory required for data: 3773235280
I0828 17:24:34.276437 24978 layer_factory.hpp:123] Creating layer res4e
I0828 17:24:34.276444 24978 net.cpp:140] Creating Layer res4e
I0828 17:24:34.276449 24978 net.cpp:481] res4e <- res4d_res4d_fixed_0_split_1
I0828 17:24:34.276454 24978 net.cpp:481] res4e <- res4e_branch2c
I0828 17:24:34.276461 24978 net.cpp:455] res4e -> res4e
I0828 17:24:34.276484 24978 net.cpp:190] Setting up res4e
I0828 17:24:34.276492 24978 net.cpp:197] Top shape: 20 1024 14 14 (4014080)
I0828 17:24:34.276495 24978 net.cpp:205] Memory required for data: 3789291600
I0828 17:24:34.276499 24978 layer_factory.hpp:123] Creating layer res4e_relu
I0828 17:24:34.276506 24978 net.cpp:140] Creating Layer res4e_relu
I0828 17:24:34.276511 24978 net.cpp:481] res4e_relu <- res4e
I0828 17:24:34.276516 24978 net.cpp:442] res4e_relu -> res4e (in-place)
I0828 17:24:34.276526 24978 net.cpp:190] Setting up res4e_relu
I0828 17:24:34.276531 24978 net.cpp:197] Top shape: 20 1024 14 14 (4014080)
I0828 17:24:34.276536 24978 net.cpp:205] Memory required for data: 3805347920
I0828 17:24:34.276540 24978 layer_factory.hpp:123] Creating layer res4e_fixed
I0828 17:24:34.276546 24978 net.cpp:140] Creating Layer res4e_fixed
I0828 17:24:34.276548 24978 net.cpp:481] res4e_fixed <- res4e
I0828 17:24:34.276553 24978 net.cpp:442] res4e_fixed -> res4e (in-place)
I0828 17:24:34.276588 24978 net.cpp:190] Setting up res4e_fixed
I0828 17:24:34.276595 24978 net.cpp:197] Top shape: 20 1024 14 14 (4014080)
I0828 17:24:34.276598 24978 net.cpp:205] Memory required for data: 3821404240
I0828 17:24:34.276604 24978 layer_factory.hpp:123] Creating layer res4e_res4e_fixed_0_split
I0828 17:24:34.276612 24978 net.cpp:140] Creating Layer res4e_res4e_fixed_0_split
I0828 17:24:34.276615 24978 net.cpp:481] res4e_res4e_fixed_0_split <- res4e
I0828 17:24:34.276621 24978 net.cpp:455] res4e_res4e_fixed_0_split -> res4e_res4e_fixed_0_split_0
I0828 17:24:34.276629 24978 net.cpp:455] res4e_res4e_fixed_0_split -> res4e_res4e_fixed_0_split_1
I0828 17:24:34.276664 24978 net.cpp:190] Setting up res4e_res4e_fixed_0_split
I0828 17:24:34.276672 24978 net.cpp:197] Top shape: 20 1024 14 14 (4014080)
I0828 17:24:34.276679 24978 net.cpp:197] Top shape: 20 1024 14 14 (4014080)
I0828 17:24:34.276684 24978 net.cpp:205] Memory required for data: 3853516880
I0828 17:24:34.276686 24978 layer_factory.hpp:123] Creating layer res4f_branch2a
I0828 17:24:34.276696 24978 net.cpp:140] Creating Layer res4f_branch2a
I0828 17:24:34.276701 24978 net.cpp:481] res4f_branch2a <- res4e_res4e_fixed_0_split_0
I0828 17:24:34.276708 24978 net.cpp:455] res4f_branch2a -> res4f_branch2a
I0828 17:24:34.279256 24978 layer_factory.hpp:123] Creating layer res4f_branch2a
I0828 17:24:34.281118 24978 net.cpp:190] Setting up res4f_branch2a
I0828 17:24:34.281131 24978 net.cpp:197] Top shape: 20 256 14 14 (1003520)
I0828 17:24:34.281134 24978 net.cpp:205] Memory required for data: 3857530960
I0828 17:24:34.281142 24978 layer_factory.hpp:123] Creating layer res4f_branch2a_relu
I0828 17:24:34.281150 24978 net.cpp:140] Creating Layer res4f_branch2a_relu
I0828 17:24:34.281157 24978 net.cpp:481] res4f_branch2a_relu <- res4f_branch2a
I0828 17:24:34.281165 24978 net.cpp:442] res4f_branch2a_relu -> res4f_branch2a (in-place)
I0828 17:24:34.281174 24978 net.cpp:190] Setting up res4f_branch2a_relu
I0828 17:24:34.281180 24978 net.cpp:197] Top shape: 20 256 14 14 (1003520)
I0828 17:24:34.281184 24978 net.cpp:205] Memory required for data: 3861545040
I0828 17:24:34.281188 24978 layer_factory.hpp:123] Creating layer res4f_branch2a_fixed
I0828 17:24:34.281194 24978 net.cpp:140] Creating Layer res4f_branch2a_fixed
I0828 17:24:34.281199 24978 net.cpp:481] res4f_branch2a_fixed <- res4f_branch2a
I0828 17:24:34.281204 24978 net.cpp:442] res4f_branch2a_fixed -> res4f_branch2a (in-place)
I0828 17:24:34.281240 24978 net.cpp:190] Setting up res4f_branch2a_fixed
I0828 17:24:34.281247 24978 net.cpp:197] Top shape: 20 256 14 14 (1003520)
I0828 17:24:34.281250 24978 net.cpp:205] Memory required for data: 3865559120
I0828 17:24:34.281256 24978 layer_factory.hpp:123] Creating layer res4f_branch2b
I0828 17:24:34.281265 24978 net.cpp:140] Creating Layer res4f_branch2b
I0828 17:24:34.281270 24978 net.cpp:481] res4f_branch2b <- res4f_branch2a
I0828 17:24:34.281276 24978 net.cpp:455] res4f_branch2b -> res4f_branch2b
I0828 17:24:34.285207 24978 layer_factory.hpp:123] Creating layer res4f_branch2b
I0828 17:24:34.289002 24978 net.cpp:190] Setting up res4f_branch2b
I0828 17:24:34.289036 24978 net.cpp:197] Top shape: 20 256 14 14 (1003520)
I0828 17:24:34.289039 24978 net.cpp:205] Memory required for data: 3869573200
I0828 17:24:34.289047 24978 layer_factory.hpp:123] Creating layer res4f_branch2b_relu
I0828 17:24:34.289055 24978 net.cpp:140] Creating Layer res4f_branch2b_relu
I0828 17:24:34.289062 24978 net.cpp:481] res4f_branch2b_relu <- res4f_branch2b
I0828 17:24:34.289068 24978 net.cpp:442] res4f_branch2b_relu -> res4f_branch2b (in-place)
I0828 17:24:34.289079 24978 net.cpp:190] Setting up res4f_branch2b_relu
I0828 17:24:34.289085 24978 net.cpp:197] Top shape: 20 256 14 14 (1003520)
I0828 17:24:34.289088 24978 net.cpp:205] Memory required for data: 3873587280
I0828 17:24:34.289093 24978 layer_factory.hpp:123] Creating layer res4f_branch2b_fixed
I0828 17:24:34.289099 24978 net.cpp:140] Creating Layer res4f_branch2b_fixed
I0828 17:24:34.289104 24978 net.cpp:481] res4f_branch2b_fixed <- res4f_branch2b
I0828 17:24:34.289108 24978 net.cpp:442] res4f_branch2b_fixed -> res4f_branch2b (in-place)
I0828 17:24:34.289162 24978 net.cpp:190] Setting up res4f_branch2b_fixed
I0828 17:24:34.289168 24978 net.cpp:197] Top shape: 20 256 14 14 (1003520)
I0828 17:24:34.289187 24978 net.cpp:205] Memory required for data: 3877601360
I0828 17:24:34.289192 24978 layer_factory.hpp:123] Creating layer res4f_branch2c
I0828 17:24:34.289203 24978 net.cpp:140] Creating Layer res4f_branch2c
I0828 17:24:34.289207 24978 net.cpp:481] res4f_branch2c <- res4f_branch2b
I0828 17:24:34.289214 24978 net.cpp:455] res4f_branch2c -> res4f_branch2c
I0828 17:24:34.291368 24978 layer_factory.hpp:123] Creating layer res4f_branch2c
I0828 17:24:34.293241 24978 net.cpp:190] Setting up res4f_branch2c
I0828 17:24:34.293253 24978 net.cpp:197] Top shape: 20 1024 14 14 (4014080)
I0828 17:24:34.293256 24978 net.cpp:205] Memory required for data: 3893657680
I0828 17:24:34.293277 24978 layer_factory.hpp:123] Creating layer res4f_branch2c_fixed
I0828 17:24:34.293282 24978 net.cpp:140] Creating Layer res4f_branch2c_fixed
I0828 17:24:34.293285 24978 net.cpp:481] res4f_branch2c_fixed <- res4f_branch2c
I0828 17:24:34.293292 24978 net.cpp:442] res4f_branch2c_fixed -> res4f_branch2c (in-place)
I0828 17:24:34.293340 24978 net.cpp:190] Setting up res4f_branch2c_fixed
I0828 17:24:34.293349 24978 net.cpp:197] Top shape: 20 1024 14 14 (4014080)
I0828 17:24:34.293366 24978 net.cpp:205] Memory required for data: 3909714000
I0828 17:24:34.293372 24978 layer_factory.hpp:123] Creating layer res4f
I0828 17:24:34.293380 24978 net.cpp:140] Creating Layer res4f
I0828 17:24:34.293385 24978 net.cpp:481] res4f <- res4e_res4e_fixed_0_split_1
I0828 17:24:34.293391 24978 net.cpp:481] res4f <- res4f_branch2c
I0828 17:24:34.293398 24978 net.cpp:455] res4f -> res4f
I0828 17:24:34.293421 24978 net.cpp:190] Setting up res4f
I0828 17:24:34.293428 24978 net.cpp:197] Top shape: 20 1024 14 14 (4014080)
I0828 17:24:34.293432 24978 net.cpp:205] Memory required for data: 3925770320
I0828 17:24:34.293448 24978 layer_factory.hpp:123] Creating layer res4f_relu
I0828 17:24:34.293467 24978 net.cpp:140] Creating Layer res4f_relu
I0828 17:24:34.293471 24978 net.cpp:481] res4f_relu <- res4f
I0828 17:24:34.293478 24978 net.cpp:442] res4f_relu -> res4f (in-place)
I0828 17:24:34.293485 24978 net.cpp:190] Setting up res4f_relu
I0828 17:24:34.293491 24978 net.cpp:197] Top shape: 20 1024 14 14 (4014080)
I0828 17:24:34.293496 24978 net.cpp:205] Memory required for data: 3941826640
I0828 17:24:34.293500 24978 layer_factory.hpp:123] Creating layer res4f_fixed
I0828 17:24:34.293505 24978 net.cpp:140] Creating Layer res4f_fixed
I0828 17:24:34.293510 24978 net.cpp:481] res4f_fixed <- res4f
I0828 17:24:34.293514 24978 net.cpp:442] res4f_fixed -> res4f (in-place)
I0828 17:24:34.293548 24978 net.cpp:190] Setting up res4f_fixed
I0828 17:24:34.293555 24978 net.cpp:197] Top shape: 20 1024 14 14 (4014080)
I0828 17:24:34.293560 24978 net.cpp:205] Memory required for data: 3957882960
I0828 17:24:34.293565 24978 layer_factory.hpp:123] Creating layer res4f_res4f_fixed_0_split
I0828 17:24:34.293571 24978 net.cpp:140] Creating Layer res4f_res4f_fixed_0_split
I0828 17:24:34.293576 24978 net.cpp:481] res4f_res4f_fixed_0_split <- res4f
I0828 17:24:34.293581 24978 net.cpp:455] res4f_res4f_fixed_0_split -> res4f_res4f_fixed_0_split_0
I0828 17:24:34.293589 24978 net.cpp:455] res4f_res4f_fixed_0_split -> res4f_res4f_fixed_0_split_1
I0828 17:24:34.293622 24978 net.cpp:190] Setting up res4f_res4f_fixed_0_split
I0828 17:24:34.293629 24978 net.cpp:197] Top shape: 20 1024 14 14 (4014080)
I0828 17:24:34.293635 24978 net.cpp:197] Top shape: 20 1024 14 14 (4014080)
I0828 17:24:34.293639 24978 net.cpp:205] Memory required for data: 3989995600
I0828 17:24:34.293643 24978 layer_factory.hpp:123] Creating layer res5a_branch1
I0828 17:24:34.293653 24978 net.cpp:140] Creating Layer res5a_branch1
I0828 17:24:34.293659 24978 net.cpp:481] res5a_branch1 <- res4f_res4f_fixed_0_split_0
I0828 17:24:34.293665 24978 net.cpp:455] res5a_branch1 -> res5a_branch1
I0828 17:24:34.306815 24978 layer_factory.hpp:123] Creating layer res5a_branch1
I0828 17:24:34.319577 24978 net.cpp:190] Setting up res5a_branch1
I0828 17:24:34.319617 24978 net.cpp:197] Top shape: 20 2048 7 7 (2007040)
I0828 17:24:34.319620 24978 net.cpp:205] Memory required for data: 3998023760
I0828 17:24:34.319628 24978 layer_factory.hpp:123] Creating layer res5a_branch1_fixed
I0828 17:24:34.319638 24978 net.cpp:140] Creating Layer res5a_branch1_fixed
I0828 17:24:34.319641 24978 net.cpp:481] res5a_branch1_fixed <- res5a_branch1
I0828 17:24:34.319648 24978 net.cpp:442] res5a_branch1_fixed -> res5a_branch1 (in-place)
I0828 17:24:34.319681 24978 net.cpp:190] Setting up res5a_branch1_fixed
I0828 17:24:34.319689 24978 net.cpp:197] Top shape: 20 2048 7 7 (2007040)
I0828 17:24:34.319692 24978 net.cpp:205] Memory required for data: 4006051920
I0828 17:24:34.319697 24978 layer_factory.hpp:123] Creating layer res5a_branch2a
I0828 17:24:34.319707 24978 net.cpp:140] Creating Layer res5a_branch2a
I0828 17:24:34.319711 24978 net.cpp:481] res5a_branch2a <- res4f_res4f_fixed_0_split_1
I0828 17:24:34.319718 24978 net.cpp:455] res5a_branch2a -> res5a_branch2a
I0828 17:24:34.323371 24978 layer_factory.hpp:123] Creating layer res5a_branch2a
I0828 17:24:34.326786 24978 net.cpp:190] Setting up res5a_branch2a
I0828 17:24:34.326800 24978 net.cpp:197] Top shape: 20 512 7 7 (501760)
I0828 17:24:34.326818 24978 net.cpp:205] Memory required for data: 4008058960
I0828 17:24:34.326826 24978 layer_factory.hpp:123] Creating layer res5a_branch2a_relu
I0828 17:24:34.326835 24978 net.cpp:140] Creating Layer res5a_branch2a_relu
I0828 17:24:34.326840 24978 net.cpp:481] res5a_branch2a_relu <- res5a_branch2a
I0828 17:24:34.326848 24978 net.cpp:442] res5a_branch2a_relu -> res5a_branch2a (in-place)
I0828 17:24:34.326856 24978 net.cpp:190] Setting up res5a_branch2a_relu
I0828 17:24:34.326864 24978 net.cpp:197] Top shape: 20 512 7 7 (501760)
I0828 17:24:34.326867 24978 net.cpp:205] Memory required for data: 4010066000
I0828 17:24:34.326872 24978 layer_factory.hpp:123] Creating layer res5a_branch2a_fixed
I0828 17:24:34.326880 24978 net.cpp:140] Creating Layer res5a_branch2a_fixed
I0828 17:24:34.326894 24978 net.cpp:481] res5a_branch2a_fixed <- res5a_branch2a
I0828 17:24:34.326898 24978 net.cpp:442] res5a_branch2a_fixed -> res5a_branch2a (in-place)
I0828 17:24:34.326934 24978 net.cpp:190] Setting up res5a_branch2a_fixed
I0828 17:24:34.326942 24978 net.cpp:197] Top shape: 20 512 7 7 (501760)
I0828 17:24:34.326946 24978 net.cpp:205] Memory required for data: 4012073040
I0828 17:24:34.326963 24978 layer_factory.hpp:123] Creating layer res5a_branch2b
I0828 17:24:34.326987 24978 net.cpp:140] Creating Layer res5a_branch2b
I0828 17:24:34.326992 24978 net.cpp:481] res5a_branch2b <- res5a_branch2a
I0828 17:24:34.326997 24978 net.cpp:455] res5a_branch2b -> res5a_branch2b
I0828 17:24:34.349552 24978 layer_factory.hpp:123] Creating layer res5a_branch2b
I0828 17:24:34.363740 24978 net.cpp:190] Setting up res5a_branch2b
I0828 17:24:34.363780 24978 net.cpp:197] Top shape: 20 512 7 7 (501760)
I0828 17:24:34.363783 24978 net.cpp:205] Memory required for data: 4014080080
I0828 17:24:34.363790 24978 layer_factory.hpp:123] Creating layer res5a_branch2b_relu
I0828 17:24:34.363801 24978 net.cpp:140] Creating Layer res5a_branch2b_relu
I0828 17:24:34.363804 24978 net.cpp:481] res5a_branch2b_relu <- res5a_branch2b
I0828 17:24:34.363811 24978 net.cpp:442] res5a_branch2b_relu -> res5a_branch2b (in-place)
I0828 17:24:34.363821 24978 net.cpp:190] Setting up res5a_branch2b_relu
I0828 17:24:34.363826 24978 net.cpp:197] Top shape: 20 512 7 7 (501760)
I0828 17:24:34.363828 24978 net.cpp:205] Memory required for data: 4016087120
I0828 17:24:34.363831 24978 layer_factory.hpp:123] Creating layer res5a_branch2b_fixed
I0828 17:24:34.363837 24978 net.cpp:140] Creating Layer res5a_branch2b_fixed
I0828 17:24:34.363843 24978 net.cpp:481] res5a_branch2b_fixed <- res5a_branch2b
I0828 17:24:34.363848 24978 net.cpp:442] res5a_branch2b_fixed -> res5a_branch2b (in-place)
I0828 17:24:34.363925 24978 net.cpp:190] Setting up res5a_branch2b_fixed
I0828 17:24:34.363932 24978 net.cpp:197] Top shape: 20 512 7 7 (501760)
I0828 17:24:34.363936 24978 net.cpp:205] Memory required for data: 4018094160
I0828 17:24:34.363942 24978 layer_factory.hpp:123] Creating layer res5a_branch2c
I0828 17:24:34.363951 24978 net.cpp:140] Creating Layer res5a_branch2c
I0828 17:24:34.363955 24978 net.cpp:481] res5a_branch2c <- res5a_branch2b
I0828 17:24:34.363976 24978 net.cpp:455] res5a_branch2c -> res5a_branch2c
I0828 17:24:34.370519 24978 layer_factory.hpp:123] Creating layer res5a_branch2c
I0828 17:24:34.376854 24978 net.cpp:190] Setting up res5a_branch2c
I0828 17:24:34.376889 24978 net.cpp:197] Top shape: 20 2048 7 7 (2007040)
I0828 17:24:34.376893 24978 net.cpp:205] Memory required for data: 4026122320
I0828 17:24:34.376901 24978 layer_factory.hpp:123] Creating layer res5a_branch2c_fixed
I0828 17:24:34.376909 24978 net.cpp:140] Creating Layer res5a_branch2c_fixed
I0828 17:24:34.376929 24978 net.cpp:481] res5a_branch2c_fixed <- res5a_branch2c
I0828 17:24:34.376935 24978 net.cpp:442] res5a_branch2c_fixed -> res5a_branch2c (in-place)
I0828 17:24:34.376971 24978 net.cpp:190] Setting up res5a_branch2c_fixed
I0828 17:24:34.376991 24978 net.cpp:197] Top shape: 20 2048 7 7 (2007040)
I0828 17:24:34.376996 24978 net.cpp:205] Memory required for data: 4034150480
I0828 17:24:34.377001 24978 layer_factory.hpp:123] Creating layer res5a
I0828 17:24:34.377007 24978 net.cpp:140] Creating Layer res5a
I0828 17:24:34.377010 24978 net.cpp:481] res5a <- res5a_branch1
I0828 17:24:34.377015 24978 net.cpp:481] res5a <- res5a_branch2c
I0828 17:24:34.377020 24978 net.cpp:455] res5a -> res5a
I0828 17:24:34.377058 24978 net.cpp:190] Setting up res5a
I0828 17:24:34.377065 24978 net.cpp:197] Top shape: 20 2048 7 7 (2007040)
I0828 17:24:34.377068 24978 net.cpp:205] Memory required for data: 4042178640
I0828 17:24:34.377072 24978 layer_factory.hpp:123] Creating layer res5a_relu
I0828 17:24:34.377091 24978 net.cpp:140] Creating Layer res5a_relu
I0828 17:24:34.377108 24978 net.cpp:481] res5a_relu <- res5a
I0828 17:24:34.377112 24978 net.cpp:442] res5a_relu -> res5a (in-place)
I0828 17:24:34.377135 24978 net.cpp:190] Setting up res5a_relu
I0828 17:24:34.377140 24978 net.cpp:197] Top shape: 20 2048 7 7 (2007040)
I0828 17:24:34.377143 24978 net.cpp:205] Memory required for data: 4050206800
I0828 17:24:34.377161 24978 layer_factory.hpp:123] Creating layer res5a_fixed
I0828 17:24:34.377166 24978 net.cpp:140] Creating Layer res5a_fixed
I0828 17:24:34.377171 24978 net.cpp:481] res5a_fixed <- res5a
I0828 17:24:34.377176 24978 net.cpp:442] res5a_fixed -> res5a (in-place)
I0828 17:24:34.377220 24978 net.cpp:190] Setting up res5a_fixed
I0828 17:24:34.377226 24978 net.cpp:197] Top shape: 20 2048 7 7 (2007040)
I0828 17:24:34.377230 24978 net.cpp:205] Memory required for data: 4058234960
I0828 17:24:34.377235 24978 layer_factory.hpp:123] Creating layer res5a_res5a_fixed_0_split
I0828 17:24:34.377241 24978 net.cpp:140] Creating Layer res5a_res5a_fixed_0_split
I0828 17:24:34.377245 24978 net.cpp:481] res5a_res5a_fixed_0_split <- res5a
I0828 17:24:34.377250 24978 net.cpp:455] res5a_res5a_fixed_0_split -> res5a_res5a_fixed_0_split_0
I0828 17:24:34.377256 24978 net.cpp:455] res5a_res5a_fixed_0_split -> res5a_res5a_fixed_0_split_1
I0828 17:24:34.377305 24978 net.cpp:190] Setting up res5a_res5a_fixed_0_split
I0828 17:24:34.377323 24978 net.cpp:197] Top shape: 20 2048 7 7 (2007040)
I0828 17:24:34.377341 24978 net.cpp:197] Top shape: 20 2048 7 7 (2007040)
I0828 17:24:34.377344 24978 net.cpp:205] Memory required for data: 4074291280
I0828 17:24:34.377348 24978 layer_factory.hpp:123] Creating layer res5b_branch2a
I0828 17:24:34.377372 24978 net.cpp:140] Creating Layer res5b_branch2a
I0828 17:24:34.377391 24978 net.cpp:481] res5b_branch2a <- res5a_res5a_fixed_0_split_0
I0828 17:24:34.377398 24978 net.cpp:455] res5b_branch2a -> res5b_branch2a
I0828 17:24:34.384665 24978 layer_factory.hpp:123] Creating layer res5b_branch2a
I0828 17:24:34.391016 24978 net.cpp:190] Setting up res5b_branch2a
I0828 17:24:34.391047 24978 net.cpp:197] Top shape: 20 512 7 7 (501760)
I0828 17:24:34.391052 24978 net.cpp:205] Memory required for data: 4076298320
I0828 17:24:34.391059 24978 layer_factory.hpp:123] Creating layer res5b_branch2a_relu
I0828 17:24:34.391067 24978 net.cpp:140] Creating Layer res5b_branch2a_relu
I0828 17:24:34.391088 24978 net.cpp:481] res5b_branch2a_relu <- res5b_branch2a
I0828 17:24:34.391095 24978 net.cpp:442] res5b_branch2a_relu -> res5b_branch2a (in-place)
I0828 17:24:34.391106 24978 net.cpp:190] Setting up res5b_branch2a_relu
I0828 17:24:34.391113 24978 net.cpp:197] Top shape: 20 512 7 7 (501760)
I0828 17:24:34.391115 24978 net.cpp:205] Memory required for data: 4078305360
I0828 17:24:34.391119 24978 layer_factory.hpp:123] Creating layer res5b_branch2a_fixed
I0828 17:24:34.391124 24978 net.cpp:140] Creating Layer res5b_branch2a_fixed
I0828 17:24:34.391130 24978 net.cpp:481] res5b_branch2a_fixed <- res5b_branch2a
I0828 17:24:34.391134 24978 net.cpp:442] res5b_branch2a_fixed -> res5b_branch2a (in-place)
I0828 17:24:34.391170 24978 net.cpp:190] Setting up res5b_branch2a_fixed
I0828 17:24:34.391177 24978 net.cpp:197] Top shape: 20 512 7 7 (501760)
I0828 17:24:34.391181 24978 net.cpp:205] Memory required for data: 4080312400
I0828 17:24:34.391186 24978 layer_factory.hpp:123] Creating layer res5b_branch2b
I0828 17:24:34.391197 24978 net.cpp:140] Creating Layer res5b_branch2b
I0828 17:24:34.391201 24978 net.cpp:481] res5b_branch2b <- res5b_branch2a
I0828 17:24:34.391207 24978 net.cpp:455] res5b_branch2b -> res5b_branch2b
I0828 17:24:34.405485 24978 layer_factory.hpp:123] Creating layer res5b_branch2b
I0828 17:24:34.419667 24978 net.cpp:190] Setting up res5b_branch2b
I0828 17:24:34.419705 24978 net.cpp:197] Top shape: 20 512 7 7 (501760)
I0828 17:24:34.419709 24978 net.cpp:205] Memory required for data: 4082319440
I0828 17:24:34.419718 24978 layer_factory.hpp:123] Creating layer res5b_branch2b_relu
I0828 17:24:34.419728 24978 net.cpp:140] Creating Layer res5b_branch2b_relu
I0828 17:24:34.419747 24978 net.cpp:481] res5b_branch2b_relu <- res5b_branch2b
I0828 17:24:34.419755 24978 net.cpp:442] res5b_branch2b_relu -> res5b_branch2b (in-place)
I0828 17:24:34.419765 24978 net.cpp:190] Setting up res5b_branch2b_relu
I0828 17:24:34.419770 24978 net.cpp:197] Top shape: 20 512 7 7 (501760)
I0828 17:24:34.419775 24978 net.cpp:205] Memory required for data: 4084326480
I0828 17:24:34.419777 24978 layer_factory.hpp:123] Creating layer res5b_branch2b_fixed
I0828 17:24:34.419785 24978 net.cpp:140] Creating Layer res5b_branch2b_fixed
I0828 17:24:34.419788 24978 net.cpp:481] res5b_branch2b_fixed <- res5b_branch2b
I0828 17:24:34.419793 24978 net.cpp:442] res5b_branch2b_fixed -> res5b_branch2b (in-place)
I0828 17:24:34.419842 24978 net.cpp:190] Setting up res5b_branch2b_fixed
I0828 17:24:34.419849 24978 net.cpp:197] Top shape: 20 512 7 7 (501760)
I0828 17:24:34.419853 24978 net.cpp:205] Memory required for data: 4086333520
I0828 17:24:34.419858 24978 layer_factory.hpp:123] Creating layer res5b_branch2c
I0828 17:24:34.419868 24978 net.cpp:140] Creating Layer res5b_branch2c
I0828 17:24:34.419873 24978 net.cpp:481] res5b_branch2c <- res5b_branch2b
I0828 17:24:34.419879 24978 net.cpp:455] res5b_branch2c -> res5b_branch2c
I0828 17:24:34.426517 24978 layer_factory.hpp:123] Creating layer res5b_branch2c
I0828 17:24:34.432857 24978 net.cpp:190] Setting up res5b_branch2c
I0828 17:24:34.432893 24978 net.cpp:197] Top shape: 20 2048 7 7 (2007040)
I0828 17:24:34.432895 24978 net.cpp:205] Memory required for data: 4094361680
I0828 17:24:34.432901 24978 layer_factory.hpp:123] Creating layer res5b_branch2c_fixed
I0828 17:24:34.432912 24978 net.cpp:140] Creating Layer res5b_branch2c_fixed
I0828 17:24:34.432931 24978 net.cpp:481] res5b_branch2c_fixed <- res5b_branch2c
I0828 17:24:34.432938 24978 net.cpp:442] res5b_branch2c_fixed -> res5b_branch2c (in-place)
I0828 17:24:34.432986 24978 net.cpp:190] Setting up res5b_branch2c_fixed
I0828 17:24:34.433007 24978 net.cpp:197] Top shape: 20 2048 7 7 (2007040)
I0828 17:24:34.433010 24978 net.cpp:205] Memory required for data: 4102389840
I0828 17:24:34.433028 24978 layer_factory.hpp:123] Creating layer res5b
I0828 17:24:34.433035 24978 net.cpp:140] Creating Layer res5b
I0828 17:24:34.433039 24978 net.cpp:481] res5b <- res5a_res5a_fixed_0_split_1
I0828 17:24:34.433044 24978 net.cpp:481] res5b <- res5b_branch2c
I0828 17:24:34.433064 24978 net.cpp:455] res5b -> res5b
I0828 17:24:34.433087 24978 net.cpp:190] Setting up res5b
I0828 17:24:34.433107 24978 net.cpp:197] Top shape: 20 2048 7 7 (2007040)
I0828 17:24:34.433111 24978 net.cpp:205] Memory required for data: 4110418000
I0828 17:24:34.433115 24978 layer_factory.hpp:123] Creating layer res5b_relu
I0828 17:24:34.433120 24978 net.cpp:140] Creating Layer res5b_relu
I0828 17:24:34.433125 24978 net.cpp:481] res5b_relu <- res5b
I0828 17:24:34.433130 24978 net.cpp:442] res5b_relu -> res5b (in-place)
I0828 17:24:34.433137 24978 net.cpp:190] Setting up res5b_relu
I0828 17:24:34.433141 24978 net.cpp:197] Top shape: 20 2048 7 7 (2007040)
I0828 17:24:34.433145 24978 net.cpp:205] Memory required for data: 4118446160
I0828 17:24:34.433149 24978 layer_factory.hpp:123] Creating layer res5b_fixed
I0828 17:24:34.433168 24978 net.cpp:140] Creating Layer res5b_fixed
I0828 17:24:34.433172 24978 net.cpp:481] res5b_fixed <- res5b
I0828 17:24:34.433176 24978 net.cpp:442] res5b_fixed -> res5b (in-place)
I0828 17:24:34.433223 24978 net.cpp:190] Setting up res5b_fixed
I0828 17:24:34.433243 24978 net.cpp:197] Top shape: 20 2048 7 7 (2007040)
I0828 17:24:34.433246 24978 net.cpp:205] Memory required for data: 4126474320
I0828 17:24:34.433265 24978 layer_factory.hpp:123] Creating layer res5b_res5b_fixed_0_split
I0828 17:24:34.433271 24978 net.cpp:140] Creating Layer res5b_res5b_fixed_0_split
I0828 17:24:34.433274 24978 net.cpp:481] res5b_res5b_fixed_0_split <- res5b
I0828 17:24:34.433295 24978 net.cpp:455] res5b_res5b_fixed_0_split -> res5b_res5b_fixed_0_split_0
I0828 17:24:34.433301 24978 net.cpp:455] res5b_res5b_fixed_0_split -> res5b_res5b_fixed_0_split_1
I0828 17:24:34.433347 24978 net.cpp:190] Setting up res5b_res5b_fixed_0_split
I0828 17:24:34.433354 24978 net.cpp:197] Top shape: 20 2048 7 7 (2007040)
I0828 17:24:34.433374 24978 net.cpp:197] Top shape: 20 2048 7 7 (2007040)
I0828 17:24:34.433378 24978 net.cpp:205] Memory required for data: 4142530640
I0828 17:24:34.433395 24978 layer_factory.hpp:123] Creating layer res5c_branch2a
I0828 17:24:34.433419 24978 net.cpp:140] Creating Layer res5c_branch2a
I0828 17:24:34.433424 24978 net.cpp:481] res5c_branch2a <- res5b_res5b_fixed_0_split_0
I0828 17:24:34.433430 24978 net.cpp:455] res5c_branch2a -> res5c_branch2a
I0828 17:24:34.440515 24978 layer_factory.hpp:123] Creating layer res5c_branch2a
I0828 17:24:34.447527 24978 net.cpp:190] Setting up res5c_branch2a
I0828 17:24:34.447558 24978 net.cpp:197] Top shape: 20 512 7 7 (501760)
I0828 17:24:34.447561 24978 net.cpp:205] Memory required for data: 4144537680
I0828 17:24:34.447571 24978 layer_factory.hpp:123] Creating layer res5c_branch2a_relu
I0828 17:24:34.447592 24978 net.cpp:140] Creating Layer res5c_branch2a_relu
I0828 17:24:34.447598 24978 net.cpp:481] res5c_branch2a_relu <- res5c_branch2a
I0828 17:24:34.447605 24978 net.cpp:442] res5c_branch2a_relu -> res5c_branch2a (in-place)
I0828 17:24:34.447615 24978 net.cpp:190] Setting up res5c_branch2a_relu
I0828 17:24:34.447621 24978 net.cpp:197] Top shape: 20 512 7 7 (501760)
I0828 17:24:34.447624 24978 net.cpp:205] Memory required for data: 4146544720
I0828 17:24:34.447628 24978 layer_factory.hpp:123] Creating layer res5c_branch2a_fixed
I0828 17:24:34.447634 24978 net.cpp:140] Creating Layer res5c_branch2a_fixed
I0828 17:24:34.447638 24978 net.cpp:481] res5c_branch2a_fixed <- res5c_branch2a
I0828 17:24:34.447656 24978 net.cpp:442] res5c_branch2a_fixed -> res5c_branch2a (in-place)
I0828 17:24:34.447722 24978 net.cpp:190] Setting up res5c_branch2a_fixed
I0828 17:24:34.447731 24978 net.cpp:197] Top shape: 20 512 7 7 (501760)
I0828 17:24:34.447733 24978 net.cpp:205] Memory required for data: 4148551760
I0828 17:24:34.447738 24978 layer_factory.hpp:123] Creating layer res5c_branch2b
I0828 17:24:34.447748 24978 net.cpp:140] Creating Layer res5c_branch2b
I0828 17:24:34.447752 24978 net.cpp:481] res5c_branch2b <- res5c_branch2a
I0828 17:24:34.447773 24978 net.cpp:455] res5c_branch2b -> res5c_branch2b
I0828 17:24:34.462216 24978 layer_factory.hpp:123] Creating layer res5c_branch2b
I0828 17:24:34.476341 24978 net.cpp:190] Setting up res5c_branch2b
I0828 17:24:34.476380 24978 net.cpp:197] Top shape: 20 512 7 7 (501760)
I0828 17:24:34.476383 24978 net.cpp:205] Memory required for data: 4150558800
I0828 17:24:34.476392 24978 layer_factory.hpp:123] Creating layer res5c_branch2b_relu
I0828 17:24:34.476400 24978 net.cpp:140] Creating Layer res5c_branch2b_relu
I0828 17:24:34.476420 24978 net.cpp:481] res5c_branch2b_relu <- res5c_branch2b
I0828 17:24:34.476428 24978 net.cpp:442] res5c_branch2b_relu -> res5c_branch2b (in-place)
I0828 17:24:34.476438 24978 net.cpp:190] Setting up res5c_branch2b_relu
I0828 17:24:34.476444 24978 net.cpp:197] Top shape: 20 512 7 7 (501760)
I0828 17:24:34.476447 24978 net.cpp:205] Memory required for data: 4152565840
I0828 17:24:34.476450 24978 layer_factory.hpp:123] Creating layer res5c_branch2b_fixed
I0828 17:24:34.476456 24978 net.cpp:140] Creating Layer res5c_branch2b_fixed
I0828 17:24:34.476462 24978 net.cpp:481] res5c_branch2b_fixed <- res5c_branch2b
I0828 17:24:34.476467 24978 net.cpp:442] res5c_branch2b_fixed -> res5c_branch2b (in-place)
I0828 17:24:34.476505 24978 net.cpp:190] Setting up res5c_branch2b_fixed
I0828 17:24:34.476512 24978 net.cpp:197] Top shape: 20 512 7 7 (501760)
I0828 17:24:34.476516 24978 net.cpp:205] Memory required for data: 4154572880
I0828 17:24:34.476521 24978 layer_factory.hpp:123] Creating layer res5c_branch2c
I0828 17:24:34.476531 24978 net.cpp:140] Creating Layer res5c_branch2c
I0828 17:24:34.476536 24978 net.cpp:481] res5c_branch2c <- res5c_branch2b
I0828 17:24:34.476541 24978 net.cpp:455] res5c_branch2c -> res5c_branch2c
I0828 17:24:34.483177 24978 layer_factory.hpp:123] Creating layer res5c_branch2c
I0828 17:24:34.489461 24978 net.cpp:190] Setting up res5c_branch2c
I0828 17:24:34.489497 24978 net.cpp:197] Top shape: 20 2048 7 7 (2007040)
I0828 17:24:34.489500 24978 net.cpp:205] Memory required for data: 4162601040
I0828 17:24:34.489507 24978 layer_factory.hpp:123] Creating layer res5c_branch2c_fixed
I0828 17:24:34.489516 24978 net.cpp:140] Creating Layer res5c_branch2c_fixed
I0828 17:24:34.489521 24978 net.cpp:481] res5c_branch2c_fixed <- res5c_branch2c
I0828 17:24:34.489542 24978 net.cpp:442] res5c_branch2c_fixed -> res5c_branch2c (in-place)
I0828 17:24:34.489578 24978 net.cpp:190] Setting up res5c_branch2c_fixed
I0828 17:24:34.489585 24978 net.cpp:197] Top shape: 20 2048 7 7 (2007040)
I0828 17:24:34.489601 24978 net.cpp:205] Memory required for data: 4170629200
I0828 17:24:34.489605 24978 layer_factory.hpp:123] Creating layer res5c
I0828 17:24:34.489626 24978 net.cpp:140] Creating Layer res5c
I0828 17:24:34.489631 24978 net.cpp:481] res5c <- res5b_res5b_fixed_0_split_1
I0828 17:24:34.489635 24978 net.cpp:481] res5c <- res5c_branch2c
I0828 17:24:34.489641 24978 net.cpp:455] res5c -> res5c
I0828 17:24:34.489663 24978 net.cpp:190] Setting up res5c
I0828 17:24:34.489670 24978 net.cpp:197] Top shape: 20 2048 7 7 (2007040)
I0828 17:24:34.489673 24978 net.cpp:205] Memory required for data: 4178657360
I0828 17:24:34.489677 24978 layer_factory.hpp:123] Creating layer res5c_relu
I0828 17:24:34.489684 24978 net.cpp:140] Creating Layer res5c_relu
I0828 17:24:34.489688 24978 net.cpp:481] res5c_relu <- res5c
I0828 17:24:34.489693 24978 net.cpp:442] res5c_relu -> res5c (in-place)
I0828 17:24:34.489701 24978 net.cpp:190] Setting up res5c_relu
I0828 17:24:34.489706 24978 net.cpp:197] Top shape: 20 2048 7 7 (2007040)
I0828 17:24:34.489709 24978 net.cpp:205] Memory required for data: 4186685520
I0828 17:24:34.489727 24978 layer_factory.hpp:123] Creating layer res5c_fixed
I0828 17:24:34.489732 24978 net.cpp:140] Creating Layer res5c_fixed
I0828 17:24:34.489737 24978 net.cpp:481] res5c_fixed <- res5c
I0828 17:24:34.489742 24978 net.cpp:442] res5c_fixed -> res5c (in-place)
I0828 17:24:34.489787 24978 net.cpp:190] Setting up res5c_fixed
I0828 17:24:34.489794 24978 net.cpp:197] Top shape: 20 2048 7 7 (2007040)
I0828 17:24:34.489797 24978 net.cpp:205] Memory required for data: 4194713680
I0828 17:24:34.489802 24978 layer_factory.hpp:123] Creating layer pool5
I0828 17:24:34.489809 24978 net.cpp:140] Creating Layer pool5
I0828 17:24:34.489814 24978 net.cpp:481] pool5 <- res5c
I0828 17:24:34.489820 24978 net.cpp:455] pool5 -> pool5
I0828 17:24:34.489845 24978 net.cpp:190] Setting up pool5
I0828 17:24:34.489850 24978 net.cpp:197] Top shape: 20 2048 1 1 (40960)
I0828 17:24:34.489854 24978 net.cpp:205] Memory required for data: 4194877520
I0828 17:24:34.489857 24978 layer_factory.hpp:123] Creating layer pool5_fixed
I0828 17:24:34.489863 24978 net.cpp:140] Creating Layer pool5_fixed
I0828 17:24:34.489868 24978 net.cpp:481] pool5_fixed <- pool5
I0828 17:24:34.489873 24978 net.cpp:442] pool5_fixed -> pool5 (in-place)
I0828 17:24:34.489905 24978 net.cpp:190] Setting up pool5_fixed
I0828 17:24:34.489912 24978 net.cpp:197] Top shape: 20 2048 1 1 (40960)
I0828 17:24:34.489917 24978 net.cpp:205] Memory required for data: 4195041360
I0828 17:24:34.489923 24978 layer_factory.hpp:123] Creating layer fc1000
I0828 17:24:34.489929 24978 net.cpp:140] Creating Layer fc1000
I0828 17:24:34.489934 24978 net.cpp:481] fc1000 <- pool5
I0828 17:24:34.489939 24978 net.cpp:455] fc1000 -> fc1000
I0828 17:24:34.502538 24978 layer_factory.hpp:123] Creating layer fc1000
I0828 17:24:34.514564 24978 net.cpp:190] Setting up fc1000
I0828 17:24:34.514606 24978 net.cpp:197] Top shape: 20 1000 (20000)
I0828 17:24:34.514609 24978 net.cpp:205] Memory required for data: 4195121360
I0828 17:24:34.514617 24978 layer_factory.hpp:123] Creating layer fc1000_fixed
I0828 17:24:34.514626 24978 net.cpp:140] Creating Layer fc1000_fixed
I0828 17:24:34.514631 24978 net.cpp:481] fc1000_fixed <- fc1000
I0828 17:24:34.514636 24978 net.cpp:442] fc1000_fixed -> fc1000 (in-place)
I0828 17:24:34.514670 24978 net.cpp:190] Setting up fc1000_fixed
I0828 17:24:34.514678 24978 net.cpp:197] Top shape: 20 1000 (20000)
I0828 17:24:34.514683 24978 net.cpp:205] Memory required for data: 4195201360
I0828 17:24:34.514688 24978 layer_factory.hpp:123] Creating layer prob
I0828 17:24:34.514694 24978 net.cpp:140] Creating Layer prob
I0828 17:24:34.514698 24978 net.cpp:481] prob <- fc1000
I0828 17:24:34.514703 24978 net.cpp:455] prob -> prob
I0828 17:24:34.514792 24978 net.cpp:190] Setting up prob
I0828 17:24:34.514799 24978 net.cpp:197] Top shape: 20 1000 (20000)
I0828 17:24:34.514817 24978 net.cpp:205] Memory required for data: 4195281360
I0828 17:24:34.514822 24978 net.cpp:268] prob does not need backward computation.
I0828 17:24:34.514827 24978 net.cpp:268] fc1000_fixed does not need backward computation.
I0828 17:24:34.514830 24978 net.cpp:268] fc1000 does not need backward computation.
I0828 17:24:34.514834 24978 net.cpp:268] pool5_fixed does not need backward computation.
…
