…
I0828 16:03:53.952976 22492 net.cpp:369] The NetState phase (0) differed from the phase (1) specified by a rule in layer data
I0828 16:03:53.953837 22492 net.cpp:98] Initializing net from parameters: 
state {
  phase: TRAIN
}
layer {
  name: "data"
  type: "ImageData"
  top: "data"
  top: "label"
  include {
    phase: TRAIN
  }
  transform_param {
    mirror: true
    crop_size: 224
    mean_value: 104
    mean_value: 107
    mean_value: 123
  }
  image_data_param {
    source: "/SSD/git-tutorial/GPU-DPU-cross-check/images/image500/calib.txt"
    batch_size: 20
    shuffle: true
    root_folder: "/SSD/git-tutorial/GPU-DPU-cross-check/images/image500/"
  }
}
layer {
  name: "conv1"
  type: "Convolution"
  bottom: "data"
  top: "conv1"
  convolution_param {
    num_output: 64
    pad: 3
    kernel_size: 7
    stride: 2
    weight_filler {
      type: "xavier"
    }
    bias_filler {
      type: "constant"
      value: 0.2
    }
  }
}
layer {
  name: "bn_conv1"
  type: "BatchNorm"
  bottom: "conv1"
  top: "conv1"
  param {
    lr_mult: 1
    decay_mult: 0
  }
  param {
    lr_mult: 1
    decay_mult: 0
  }
  param {
    lr_mult: 0
    decay_mult: 0
  }
  param {
    lr_mult: 0
    decay_mult: 0
  }
  batch_norm_param {
    scale_filler {
      type: "constant"
      value: 1
    }
    bias_filler {
      type: "constant"
      value: 0
    }
  }
}
layer {
  name: "conv1_relu"
  type: "ReLU"
  bottom: "conv1"
  top: "conv1"
  relu_param {
  }
}
layer {
  name: "pool1"
  type: "Pooling"
  bottom: "conv1"
  top: "pool1"
  pooling_param {
    pool: MAX
    kernel_size: 3
    stride: 2
  }
}
layer {
  name: "res2a_branch1"
  type: "Convolution"
  bottom: "pool1"
  top: "res2a_branch1"
  convolution_param {
    num_output: 256
    bias_term: false
    pad: 0
    kernel_size: 1
    stride: 1
    weight_filler {
      type: "xavier"
    }
    bias_filler {
      type: "constant"
      value: 0.2
    }
  }
}
layer {
  name: "bn2a_branch1"
  type: "BatchNorm"
  bottom: "res2a_branch1"
  top: "res2a_branch1"
  param {
    lr_mult: 1
    decay_mult: 0
  }
  param {
    lr_mult: 1
    decay_mult: 0
  }
  param {
    lr_mult: 0
    decay_mult: 0
  }
  param {
    lr_mult: 0
    decay_mult: 0
  }
  batch_norm_param {
    scale_filler {
      type: "constant"
      value: 1
    }
    bias_filler {
      type: "constant"
      value: 0
    }
  }
}
layer {
  name: "res2a_branch2a"
  type: "Convolution"
  bottom: "pool1"
  top: "res2a_branch2a"
  convolution_param {
    num_output: 64
    bias_term: false
    pad: 0
    kernel_size: 1
    stride: 1
    weight_filler {
      type: "xavier"
    }
    bias_filler {
      type: "constant"
      value: 0.2
    }
  }
}
layer {
  name: "bn2a_branch2a"
  type: "BatchNorm"
  bottom: "res2a_branch2a"
  top: "res2a_branch2a"
  param {
    lr_mult: 1
    decay_mult: 0
  }
  param {
    lr_mult: 1
    decay_mult: 0
  }
  param {
    lr_mult: 0
    decay_mult: 0
  }
  param {
    lr_mult: 0
    decay_mult: 0
  }
  batch_norm_param {
    scale_filler {
      type: "constant"
      value: 1
    }
    bias_filler {
      type: "constant"
      value: 0
    }
  }
}
layer {
  name: "res2a_branch2a_relu"
  type: "ReLU"
  bottom: "res2a_branch2a"
  top: "res2a_branch2a"
  relu_param {
  }
}
layer {
  name: "res2a_branch2b"
  type: "Convolution"
  bottom: "res2a_branch2a"
  top: "res2a_branch2b"
  convolution_param {
    num_output: 64
    bias_term: false
    pad: 1
    kernel_size: 3
    stride: 1
    weight_filler {
      type: "xavier"
    }
    bias_filler {
      type: "constant"
      value: 0.2
    }
  }
}
layer {
  name: "bn2a_branch2b"
  type: "BatchNorm"
  bottom: "res2a_branch2b"
  top: "res2a_branch2b"
  param {
    lr_mult: 1
    decay_mult: 0
  }
  param {
    lr_mult: 1
    decay_mult: 0
  }
  param {
    lr_mult: 0
    decay_mult: 0
  }
  param {
    lr_mult: 0
    decay_mult: 0
  }
  batch_norm_param {
    scale_filler {
      type: "constant"
      value: 1
    }
    bias_filler {
      type: "constant"
      value: 0
    }
  }
}
layer {
  name: "res2a_branch2b_relu"
  type: "ReLU"
  bottom: "res2a_branch2b"
  top: "res2a_branch2b"
  relu_param {
  }
}
layer {
  name: "res2a_branch2c"
  type: "Convolution"
  bottom: "res2a_branch2b"
  top: "res2a_branch2c"
  convolution_param {
    num_output: 256
    bias_term: false
    pad: 0
    kernel_size: 1
    stride: 1
    weight_filler {
      type: "xavier"
    }
    bias_filler {
      type: "constant"
      value: 0.2
    }
  }
}
layer {
  name: "bn2a_branch2c"
  type: "BatchNorm"
  bottom: "res2a_branch2c"
  top: "res2a_branch2c"
  param {
    lr_mult: 1
    decay_mult: 0
  }
  param {
    lr_mult: 1
    decay_mult: 0
  }
  param {
    lr_mult: 0
    decay_mult: 0
  }
  param {
    lr_mult: 0
    decay_mult: 0
  }
  batch_norm_param {
    scale_filler {
      type: "constant"
      value: 1
    }
    bias_filler {
      type: "constant"
      value: 0
    }
  }
}
layer {
  name: "res2a"
  type: "Eltwise"
  bottom: "res2a_branch1"
  bottom: "res2a_branch2c"
  top: "res2a"
  eltwise_param {
  }
}
layer {
  name: "res2a_relu"
  type: "ReLU"
  bottom: "res2a"
  top: "res2a"
  relu_param {
  }
}
layer {
  name: "res2b_branch2a"
  type: "Convolution"
  bottom: "res2a"
  top: "res2b_branch2a"
  convolution_param {
    num_output: 64
    bias_term: false
    pad: 0
    kernel_size: 1
    stride: 1
    weight_filler {
      type: "xavier"
    }
    bias_filler {
      type: "constant"
      value: 0.2
    }
  }
}
layer {
  name: "bn2b_branch2a"
  type: "BatchNorm"
  bottom: "res2b_branch2a"
  top: "res2b_branch2a"
  param {
    lr_mult: 1
    decay_mult: 0
  }
  param {
    lr_mult: 1
    decay_mult: 0
  }
  param {
    lr_mult: 0
    decay_mult: 0
  }
  param {
    lr_mult: 0
    decay_mult: 0
  }
  batch_norm_param {
    scale_filler {
      type: "constant"
      value: 1
    }
    bias_filler {
      type: "constant"
      value: 0
    }
  }
}
layer {
  name: "res2b_branch2a_relu"
  type: "ReLU"
  bottom: "res2b_branch2a"
  top: "res2b_branch2a"
  relu_param {
  }
}
layer {
  name: "res2b_branch2b"
  type: "Convolution"
  bottom: "res2b_branch2a"
  top: "res2b_branch2b"
  convolution_param {
    num_output: 64
    bias_term: false
    pad: 1
    kernel_size: 3
    stride: 1
    weight_filler {
      type: "xavier"
    }
    bias_filler {
      type: "constant"
      value: 0.2
    }
  }
}
layer {
  name: "bn2b_branch2b"
  type: "BatchNorm"
  bottom: "res2b_branch2b"
  top: "res2b_branch2b"
  param {
    lr_mult: 1
    decay_mult: 0
  }
  param {
    lr_mult: 1
    decay_mult: 0
  }
  param {
    lr_mult: 0
    decay_mult: 0
  }
  param {
    lr_mult: 0
    decay_mult: 0
  }
  batch_norm_param {
    scale_filler {
      type: "constant"
      value: 1
    }
    bias_filler {
      type: "constant"
      value: 0
    }
  }
}
layer {
  name: "res2b_branch2b_relu"
  type: "ReLU"
  bottom: "res2b_branch2b"
  top: "res2b_branch2b"
  relu_param {
  }
}
layer {
  name: "res2b_branch2c"
  type: "Convolution"
  bottom: "res2b_branch2b"
  top: "res2b_branch2c"
  convolution_param {
    num_output: 256
    bias_term: false
    pad: 0
    kernel_size: 1
    stride: 1
    weight_filler {
      type: "xavier"
    }
    bias_filler {
      type: "constant"
      value: 0.2
    }
  }
}
layer {
  name: "bn2b_branch2c"
  type: "BatchNorm"
  bottom: "res2b_branch2c"
  top: "res2b_branch2c"
  param {
    lr_mult: 1
    decay_mult: 0
  }
  param {
    lr_mult: 1
    decay_mult: 0
  }
  param {
    lr_mult: 0
    decay_mult: 0
  }
  param {
    lr_mult: 0
    decay_mult: 0
  }
  batch_norm_param {
    scale_filler {
      type: "constant"
      value: 1
    }
    bias_filler {
      type: "constant"
      value: 0
    }
  }
}
layer {
  name: "res2b"
  type: "Eltwise"
  bottom: "res2a"
  bottom: "res2b_branch2c"
  top: "res2b"
  eltwise_param {
  }
}
layer {
  name: "res2b_relu"
  type: "ReLU"
  bottom: "res2b"
  top: "res2b"
  relu_param {
  }
}
layer {
  name: "res2c_branch2a"
  type: "Convolution"
  bottom: "res2b"
  top: "res2c_branch2a"
  convolution_param {
    num_output: 64
    bias_term: false
    pad: 0
    kernel_size: 1
    stride: 1
    weight_filler {
      type: "xavier"
    }
    bias_filler {
      type: "constant"
      value: 0.2
    }
  }
}
layer {
  name: "bn2c_branch2a"
  type: "BatchNorm"
  bottom: "res2c_branch2a"
  top: "res2c_branch2a"
  param {
    lr_mult: 1
    decay_mult: 0
  }
  param {
    lr_mult: 1
    decay_mult: 0
  }
  param {
    lr_mult: 0
    decay_mult: 0
  }
  param {
    lr_mult: 0
    decay_mult: 0
  }
  batch_norm_param {
    scale_filler {
      type: "constant"
      value: 1
    }
    bias_filler {
      type: "constant"
      value: 0
    }
  }
}
layer {
  name: "res2c_branch2a_relu"
  type: "ReLU"
  bottom: "res2c_branch2a"
  top: "res2c_branch2a"
  relu_param {
  }
}
layer {
  name: "res2c_branch2b"
  type: "Convolution"
  bottom: "res2c_branch2a"
  top: "res2c_branch2b"
  convolution_param {
    num_output: 64
    bias_term: false
    pad: 1
    kernel_size: 3
    stride: 1
    weight_filler {
      type: "xavier"
    }
    bias_filler {
      type: "constant"
      value: 0.2
    }
  }
}
layer {
  name: "bn2c_branch2b"
  type: "BatchNorm"
  bottom: "res2c_branch2b"
  top: "res2c_branch2b"
  param {
    lr_mult: 1
    decay_mult: 0
  }
  param {
    lr_mult: 1
    decay_mult: 0
  }
  param {
    lr_mult: 0
    decay_mult: 0
  }
  param {
    lr_mult: 0
    decay_mult: 0
  }
  batch_norm_param {
    scale_filler {
      type: "constant"
      value: 1
    }
    bias_filler {
      type: "constant"
      value: 0
    }
  }
}
layer {
  name: "res2c_branch2b_relu"
  type: "ReLU"
  bottom: "res2c_branch2b"
  top: "res2c_branch2b"
  relu_param {
  }
}
layer {
  name: "res2c_branch2c"
  type: "Convolution"
  bottom: "res2c_branch2b"
  top: "res2c_branch2c"
  convolution_param {
    num_output: 256
    bias_term: false
    pad: 0
    kernel_size: 1
    stride: 1
    weight_filler {
      type: "xavier"
    }
    bias_filler {
      type: "constant"
      value: 0.2
    }
  }
}
layer {
  name: "bn2c_branch2c"
  type: "BatchNorm"
  bottom: "res2c_branch2c"
  top: "res2c_branch2c"
  param {
    lr_mult: 1
    decay_mult: 0
  }
  param {
    lr_mult: 1
    decay_mult: 0
  }
  param {
    lr_mult: 0
    decay_mult: 0
  }
  param {
    lr_mult: 0
    decay_mult: 0
  }
  batch_norm_param {
    scale_filler {
      type: "constant"
      value: 1
    }
    bias_filler {
      type: "constant"
      value: 0
    }
  }
}
layer {
  name: "res2c"
  type: "Eltwise"
  bottom: "res2b"
  bottom: "res2c_branch2c"
  top: "res2c"
  eltwise_param {
  }
}
layer {
  name: "res2c_relu"
  type: "ReLU"
  bottom: "res2c"
  top: "res2c"
  relu_param {
  }
}
layer {
  name: "res3a_branch1"
  type: "Convolution"
  bottom: "res2c"
  top: "res3a_branch1"
  convolution_param {
    num_output: 512
    bias_term: false
    pad: 0
    kernel_size: 1
    stride: 2
    weight_filler {
      type: "xavier"
    }
    bias_filler {
      type: "constant"
      value: 0.2
    }
  }
}
layer {
  name: "bn3a_branch1"
  type: "BatchNorm"
  bottom: "res3a_branch1"
  top: "res3a_branch1"
  param {
    lr_mult: 1
    decay_mult: 0
  }
  param {
    lr_mult: 1
    decay_mult: 0
  }
  param {
    lr_mult: 0
    decay_mult: 0
  }
  param {
    lr_mult: 0
    decay_mult: 0
  }
  batch_norm_param {
    scale_filler {
      type: "constant"
      value: 1
    }
    bias_filler {
      type: "constant"
      value: 0
    }
  }
}
layer {
  name: "res3a_branch2a"
  type: "Convolution"
  bottom: "res2c"
  top: "res3a_branch2a"
  convolution_param {
    num_output: 128
    bias_term: false
    pad: 0
    kernel_size: 1
    stride: 2
    weight_filler {
      type: "xavier"
    }
    bias_filler {
      type: "constant"
      value: 0.2
    }
  }
}
layer {
  name: "bn3a_branch2a"
  type: "BatchNorm"
  bottom: "res3a_branch2a"
  top: "res3a_branch2a"
  param {
    lr_mult: 1
    decay_mult: 0
  }
  param {
    lr_mult: 1
    decay_mult: 0
  }
  param {
    lr_mult: 0
    decay_mult: 0
  }
  param {
    lr_mult: 0
    decay_mult: 0
  }
  batch_norm_param {
    scale_filler {
      type: "constant"
      value: 1
    }
    bias_filler {
      type: "constant"
      value: 0
    }
  }
}
layer {
  name: "res3a_branch2a_relu"
  type: "ReLU"
  bottom: "res3a_branch2a"
  top: "res3a_branch2a"
  relu_param {
  }
}
layer {
  name: "res3a_branch2b"
  type: "Convolution"
  bottom: "res3a_branch2a"
  top: "res3a_branch2b"
  convolution_param {
    num_output: 128
    bias_term: false
    pad: 1
    kernel_size: 3
    stride: 1
    weight_filler {
      type: "xavier"
    }
    bias_filler {
      type: "constant"
      value: 0.2
    }
  }
}
layer {
  name: "bn3a_branch2b"
  type: "BatchNorm"
  bottom: "res3a_branch2b"
  top: "res3a_branch2b"
  param {
    lr_mult: 1
    decay_mult: 0
  }
  param {
    lr_mult: 1
    decay_mult: 0
  }
  param {
    lr_mult: 0
    decay_mult: 0
  }
  param {
    lr_mult: 0
    decay_mult: 0
  }
  batch_norm_param {
    scale_filler {
      type: "constant"
      value: 1
    }
    bias_filler {
      type: "constant"
      value: 0
    }
  }
}
layer {
  name: "res3a_branch2b_relu"
  type: "ReLU"
  bottom: "res3a_branch2b"
  top: "res3a_branch2b"
  relu_param {
  }
}
layer {
  name: "res3a_branch2c"
  type: "Convolution"
  bottom: "res3a_branch2b"
  top: "res3a_branch2c"
  convolution_param {
    num_output: 512
    bias_term: false
    pad: 0
    kernel_size: 1
    stride: 1
    weight_filler {
      type: "xavier"
    }
    bias_filler {
      type: "constant"
      value: 0.2
    }
  }
}
layer {
  name: "bn3a_branch2c"
  type: "BatchNorm"
  bottom: "res3a_branch2c"
  top: "res3a_branch2c"
  param {
    lr_mult: 1
    decay_mult: 0
  }
  param {
    lr_mult: 1
    decay_mult: 0
  }
  param {
    lr_mult: 0
    decay_mult: 0
  }
  param {
    lr_mult: 0
    decay_mult: 0
  }
  batch_norm_param {
    scale_filler {
      type: "constant"
      value: 1
    }
    bias_filler {
      type: "constant"
      value: 0
    }
  }
}
layer {
  name: "res3a"
  type: "Eltwise"
  bottom: "res3a_branch1"
  bottom: "res3a_branch2c"
  top: "res3a"
  eltwise_param {
  }
}
layer {
  name: "res3a_relu"
  type: "ReLU"
  bottom: "res3a"
  top: "res3a"
  relu_param {
  }
}
layer {
  name: "res3b_branch2a"
  type: "Convolution"
  bottom: "res3a"
  top: "res3b_branch2a"
  convolution_param {
    num_output: 128
    bias_term: false
    pad: 0
    kernel_size: 1
    stride: 1
    weight_filler {
      type: "xavier"
    }
    bias_filler {
      type: "constant"
      value: 0.2
    }
  }
}
layer {
  name: "bn3b_branch2a"
  type: "BatchNorm"
  bottom: "res3b_branch2a"
  top: "res3b_branch2a"
  param {
    lr_mult: 1
    decay_mult: 0
  }
  param {
    lr_mult: 1
    decay_mult: 0
  }
  param {
    lr_mult: 0
    decay_mult: 0
  }
  param {
    lr_mult: 0
    decay_mult: 0
  }
  batch_norm_param {
    scale_filler {
      type: "constant"
      value: 1
    }
    bias_filler {
      type: "constant"
      value: 0
    }
  }
}
layer {
  name: "res3b_branch2a_relu"
  type: "ReLU"
  bottom: "res3b_branch2a"
  top: "res3b_branch2a"
  relu_param {
  }
}
layer {
  name: "res3b_branch2b"
  type: "Convolution"
  bottom: "res3b_branch2a"
  top: "res3b_branch2b"
  convolution_param {
    num_output: 128
    bias_term: false
    pad: 1
    kernel_size: 3
    stride: 1
    weight_filler {
      type: "xavier"
    }
    bias_filler {
      type: "constant"
      value: 0.2
    }
  }
}
layer {
  name: "bn3b_branch2b"
  type: "BatchNorm"
  bottom: "res3b_branch2b"
  top: "res3b_branch2b"
  param {
    lr_mult: 1
    decay_mult: 0
  }
  param {
    lr_mult: 1
    decay_mult: 0
  }
  param {
    lr_mult: 0
    decay_mult: 0
  }
  param {
    lr_mult: 0
    decay_mult: 0
  }
  batch_norm_param {
    scale_filler {
      type: "constant"
      value: 1
    }
    bias_filler {
      type: "constant"
      value: 0
    }
  }
}
layer {
  name: "res3b_branch2b_relu"
  type: "ReLU"
  bottom: "res3b_branch2b"
  top: "res3b_branch2b"
  relu_param {
  }
}
layer {
  name: "res3b_branch2c"
  type: "Convolution"
  bottom: "res3b_branch2b"
  top: "res3b_branch2c"
  convolution_param {
    num_output: 512
    bias_term: false
    pad: 0
    kernel_size: 1
    stride: 1
    weight_filler {
      type: "xavier"
    }
    bias_filler {
      type: "constant"
      value: 0.2
    }
  }
}
layer {
  name: "bn3b_branch2c"
  type: "BatchNorm"
  bottom: "res3b_branch2c"
  top: "res3b_branch2c"
  param {
    lr_mult: 1
    decay_mult: 0
  }
  param {
    lr_mult: 1
    decay_mult: 0
  }
  param {
    lr_mult: 0
    decay_mult: 0
  }
  param {
    lr_mult: 0
    decay_mult: 0
  }
  batch_norm_param {
    scale_filler {
      type: "constant"
      value: 1
    }
    bias_filler {
      type: "constant"
      value: 0
    }
  }
}
layer {
  name: "res3b"
  type: "Eltwise"
  bottom: "res3a"
  bottom: "res3b_branch2c"
  top: "res3b"
  eltwise_param {
  }
}
layer {
  name: "res3b_relu"
  type: "ReLU"
  bottom: "res3b"
  top: "res3b"
  relu_param {
  }
}
layer {
  name: "res3c_branch2a"
  type: "Convolution"
  bottom: "res3b"
  top: "res3c_branch2a"
  convolution_param {
    num_output: 128
    bias_term: false
    pad: 0
    kernel_size: 1
    stride: 1
    weight_filler {
      type: "xavier"
    }
    bias_filler {
      type: "constant"
      value: 0.2
    }
  }
}
layer {
  name: "bn3c_branch2a"
  type: "BatchNorm"
  bottom: "res3c_branch2a"
  top: "res3c_branch2a"
  param {
    lr_mult: 1
    decay_mult: 0
  }
  param {
    lr_mult: 1
    decay_mult: 0
  }
  param {
    lr_mult: 0
    decay_mult: 0
  }
  param {
    lr_mult: 0
    decay_mult: 0
  }
  batch_norm_param {
    scale_filler {
      type: "constant"
      value: 1
    }
    bias_filler {
      type: "constant"
      value: 0
    }
  }
}
layer {
  name: "res3c_branch2a_relu"
  type: "ReLU"
  bottom: "res3c_branch2a"
  top: "res3c_branch2a"
  relu_param {
  }
}
layer {
  name: "res3c_branch2b"
  type: "Convolution"
  bottom: "res3c_branch2a"
  top: "res3c_branch2b"
  convolution_param {
    num_output: 128
    bias_term: false
    pad: 1
    kernel_size: 3
    stride: 1
    weight_filler {
      type: "xavier"
    }
    bias_filler {
      type: "constant"
      value: 0.2
    }
  }
}
layer {
  name: "bn3c_branch2b"
  type: "BatchNorm"
  bottom: "res3c_branch2b"
  top: "res3c_branch2b"
  param {
    lr_mult: 1
    decay_mult: 0
  }
  param {
    lr_mult: 1
    decay_mult: 0
  }
  param {
    lr_mult: 0
    decay_mult: 0
  }
  param {
    lr_mult: 0
    decay_mult: 0
  }
  batch_norm_param {
    scale_filler {
      type: "constant"
      value: 1
    }
    bias_filler {
      type: "constant"
      value: 0
    }
  }
}
layer {
  name: "res3c_branch2b_relu"
  type: "ReLU"
  bottom: "res3c_branch2b"
  top: "res3c_branch2b"
  relu_param {
  }
}
layer {
  name: "res3c_branch2c"
  type: "Convolution"
  bottom: "res3c_branch2b"
  top: "res3c_branch2c"
  convolution_param {
    num_output: 512
    bias_term: false
    pad: 0
    kernel_size: 1
    stride: 1
    weight_filler {
      type: "xavier"
    }
    bias_filler {
      type: "constant"
      value: 0.2
    }
  }
}
layer {
  name: "bn3c_branch2c"
  type: "BatchNorm"
  bottom: "res3c_branch2c"
  top: "res3c_branch2c"
  param {
    lr_mult: 1
    decay_mult: 0
  }
  param {
    lr_mult: 1
    decay_mult: 0
  }
  param {
    lr_mult: 0
    decay_mult: 0
  }
  param {
    lr_mult: 0
    decay_mult: 0
  }
  batch_norm_param {
    scale_filler {
      type: "constant"
      value: 1
    }
    bias_filler {
      type: "constant"
      value: 0
    }
  }
}
layer {
  name: "res3c"
  type: "Eltwise"
  bottom: "res3b"
  bottom: "res3c_branch2c"
  top: "res3c"
  eltwise_param {
  }
}
layer {
  name: "res3c_relu"
  type: "ReLU"
  bottom: "res3c"
  top: "res3c"
  relu_param {
  }
}
layer {
  name: "res3d_branch2a"
  type: "Convolution"
  bottom: "res3c"
  top: "res3d_branch2a"
  convolution_param {
    num_output: 128
    bias_term: false
    pad: 0
    kernel_size: 1
    stride: 1
    weight_filler {
      type: "xavier"
    }
    bias_filler {
      type: "constant"
      value: 0.2
    }
  }
}
layer {
  name: "bn3d_branch2a"
  type: "BatchNorm"
  bottom: "res3d_branch2a"
  top: "res3d_branch2a"
  param {
    lr_mult: 1
    decay_mult: 0
  }
  param {
    lr_mult: 1
    decay_mult: 0
  }
  param {
    lr_mult: 0
    decay_mult: 0
  }
  param {
    lr_mult: 0
    decay_mult: 0
  }
  batch_norm_param {
    scale_filler {
      type: "constant"
      value: 1
    }
    bias_filler {
      type: "constant"
      value: 0
    }
  }
}
layer {
  name: "res3d_branch2a_relu"
  type: "ReLU"
  bottom: "res3d_branch2a"
  top: "res3d_branch2a"
  relu_param {
  }
}
layer {
  name: "res3d_branch2b"
  type: "Convolution"
  bottom: "res3d_branch2a"
  top: "res3d_branch2b"
  convolution_param {
    num_output: 128
    bias_term: false
    pad: 1
    kernel_size: 3
    stride: 1
    weight_filler {
      type: "xavier"
    }
    bias_filler {
      type: "constant"
      value: 0.2
    }
  }
}
layer {
  name: "bn3d_branch2b"
  type: "BatchNorm"
  bottom: "res3d_branch2b"
  top: "res3d_branch2b"
  param {
    lr_mult: 1
    decay_mult: 0
  }
  param {
    lr_mult: 1
    decay_mult: 0
  }
  param {
    lr_mult: 0
    decay_mult: 0
  }
  param {
    lr_mult: 0
    decay_mult: 0
  }
  batch_norm_param {
    scale_filler {
      type: "constant"
      value: 1
    }
    bias_filler {
      type: "constant"
      value: 0
    }
  }
}
layer {
  name: "res3d_branch2b_relu"
  type: "ReLU"
  bottom: "res3d_branch2b"
  top: "res3d_branch2b"
  relu_param {
  }
}
layer {
  name: "res3d_branch2c"
  type: "Convolution"
  bottom: "res3d_branch2b"
  top: "res3d_branch2c"
  convolution_param {
    num_output: 512
    bias_term: false
    pad: 0
    kernel_size: 1
    stride: 1
    weight_filler {
      type: "xavier"
    }
    bias_filler {
      type: "constant"
      value: 0.2
    }
  }
}
layer {
  name: "bn3d_branch2c"
  type: "BatchNorm"
  bottom: "res3d_branch2c"
  top: "res3d_branch2c"
  param {
    lr_mult: 1
    decay_mult: 0
  }
  param {
    lr_mult: 1
    decay_mult: 0
  }
  param {
    lr_mult: 0
    decay_mult: 0
  }
  param {
    lr_mult: 0
    decay_mult: 0
  }
  batch_norm_param {
    scale_filler {
      type: "constant"
      value: 1
    }
    bias_filler {
      type: "constant"
      value: 0
    }
  }
}
layer {
  name: "res3d"
  type: "Eltwise"
  bottom: "res3c"
  bottom: "res3d_branch2c"
  top: "res3d"
  eltwise_param {
  }
}
layer {
  name: "res3d_relu"
  type: "ReLU"
  bottom: "res3d"
  top: "res3d"
  relu_param {
  }
}
layer {
  name: "res4a_branch1"
  type: "Convolution"
  bottom: "res3d"
  top: "res4a_branch1"
  convolution_param {
    num_output: 1024
    bias_term: false
    pad: 0
    kernel_size: 1
    stride: 2
    weight_filler {
      type: "xavier"
    }
    bias_filler {
      type: "constant"
      value: 0.2
    }
  }
}
layer {
  name: "bn4a_branch1"
  type: "BatchNorm"
  bottom: "res4a_branch1"
  top: "res4a_branch1"
  param {
    lr_mult: 1
    decay_mult: 0
  }
  param {
    lr_mult: 1
    decay_mult: 0
  }
  param {
    lr_mult: 0
    decay_mult: 0
  }
  param {
    lr_mult: 0
    decay_mult: 0
  }
  batch_norm_param {
    scale_filler {
      type: "constant"
      value: 1
    }
    bias_filler {
      type: "constant"
      value: 0
    }
  }
}
layer {
  name: "res4a_branch2a"
  type: "Convolution"
  bottom: "res3d"
  top: "res4a_branch2a"
  convolution_param {
    num_output: 256
    bias_term: false
    pad: 0
    kernel_size: 1
    stride: 2
    weight_filler {
      type: "xavier"
    }
    bias_filler {
      type: "constant"
      value: 0.2
    }
  }
}
layer {
  name: "bn4a_branch2a"
  type: "BatchNorm"
  bottom: "res4a_branch2a"
  top: "res4a_branch2a"
  param {
    lr_mult: 1
    decay_mult: 0
  }
  param {
    lr_mult: 1
    decay_mult: 0
  }
  param {
    lr_mult: 0
    decay_mult: 0
  }
  param {
    lr_mult: 0
    decay_mult: 0
  }
  batch_norm_param {
    scale_filler {
      type: "constant"
      value: 1
    }
    bias_filler {
      type: "constant"
      value: 0
    }
  }
}
layer {
  name: "res4a_branch2a_relu"
  type: "ReLU"
  bottom: "res4a_branch2a"
  top: "res4a_branch2a"
  relu_param {
  }
}
layer {
  name: "res4a_branch2b"
  type: "Convolution"
  bottom: "res4a_branch2a"
  top: "res4a_branch2b"
  convolution_param {
    num_output: 256
    bias_term: false
    pad: 1
    kernel_size: 3
    stride: 1
    weight_filler {
      type: "xavier"
    }
    bias_filler {
      type: "constant"
      value: 0.2
    }
  }
}
layer {
  name: "bn4a_branch2b"
  type: "BatchNorm"
  bottom: "res4a_branch2b"
  top: "res4a_branch2b"
  param {
    lr_mult: 1
    decay_mult: 0
  }
  param {
    lr_mult: 1
    decay_mult: 0
  }
  param {
    lr_mult: 0
    decay_mult: 0
  }
  param {
    lr_mult: 0
    decay_mult: 0
  }
  batch_norm_param {
    scale_filler {
      type: "constant"
      value: 1
    }
    bias_filler {
      type: "constant"
      value: 0
    }
  }
}
layer {
  name: "res4a_branch2b_relu"
  type: "ReLU"
  bottom: "res4a_branch2b"
  top: "res4a_branch2b"
  relu_param {
  }
}
layer {
  name: "res4a_branch2c"
  type: "Convolution"
  bottom: "res4a_branch2b"
  top: "res4a_branch2c"
  convolution_param {
    num_output: 1024
    bias_term: false
    pad: 0
    kernel_size: 1
    stride: 1
    weight_filler {
      type: "xavier"
    }
    bias_filler {
      type: "constant"
      value: 0.2
    }
  }
}
layer {
  name: "bn4a_branch2c"
  type: "BatchNorm"
  bottom: "res4a_branch2c"
  top: "res4a_branch2c"
  param {
    lr_mult: 1
    decay_mult: 0
  }
  param {
    lr_mult: 1
    decay_mult: 0
  }
  param {
    lr_mult: 0
    decay_mult: 0
  }
  param {
    lr_mult: 0
    decay_mult: 0
  }
  batch_norm_param {
    scale_filler {
      type: "constant"
      value: 1
    }
    bias_filler {
      type: "constant"
      value: 0
    }
  }
}
layer {
  name: "res4a"
  type: "Eltwise"
  bottom: "res4a_branch1"
  bottom: "res4a_branch2c"
  top: "res4a"
  eltwise_param {
  }
}
layer {
  name: "res4a_relu"
  type: "ReLU"
  bottom: "res4a"
  top: "res4a"
  relu_param {
  }
}
layer {
  name: "res4b_branch2a"
  type: "Convolution"
  bottom: "res4a"
  top: "res4b_branch2a"
  convolution_param {
    num_output: 256
    bias_term: false
    pad: 0
    kernel_size: 1
    stride: 1
    weight_filler {
      type: "xavier"
    }
    bias_filler {
      type: "constant"
      value: 0.2
    }
  }
}
layer {
  name: "bn4b_branch2a"
  type: "BatchNorm"
  bottom: "res4b_branch2a"
  top: "res4b_branch2a"
  param {
    lr_mult: 1
    decay_mult: 0
  }
  param {
    lr_mult: 1
    decay_mult: 0
  }
  param {
    lr_mult: 0
    decay_mult: 0
  }
  param {
    lr_mult: 0
    decay_mult: 0
  }
  batch_norm_param {
    scale_filler {
      type: "constant"
      value: 1
    }
    bias_filler {
      type: "constant"
      value: 0
    }
  }
}
layer {
  name: "res4b_branch2a_relu"
  type: "ReLU"
  bottom: "res4b_branch2a"
  top: "res4b_branch2a"
  relu_param {
  }
}
layer {
  name: "res4b_branch2b"
  type: "Convolution"
  bottom: "res4b_branch2a"
  top: "res4b_branch2b"
  convolution_param {
    num_output: 256
    bias_term: false
    pad: 1
    kernel_size: 3
    stride: 1
    weight_filler {
      type: "xavier"
    }
    bias_filler {
      type: "constant"
      value: 0.2
    }
  }
}
layer {
  name: "bn4b_branch2b"
  type: "BatchNorm"
  bottom: "res4b_branch2b"
  top: "res4b_branch2b"
  param {
    lr_mult: 1
    decay_mult: 0
  }
  param {
    lr_mult: 1
    decay_mult: 0
  }
  param {
    lr_mult: 0
    decay_mult: 0
  }
  param {
    lr_mult: 0
    decay_mult: 0
  }
  batch_norm_param {
    scale_filler {
      type: "constant"
      value: 1
    }
    bias_filler {
      type: "constant"
      value: 0
    }
  }
}
layer {
  name: "res4b_branch2b_relu"
  type: "ReLU"
  bottom: "res4b_branch2b"
  top: "res4b_branch2b"
  relu_param {
  }
}
layer {
  name: "res4b_branch2c"
  type: "Convolution"
  bottom: "res4b_branch2b"
  top: "res4b_branch2c"
  convolution_param {
    num_output: 1024
    bias_term: false
    pad: 0
    kernel_size: 1
    stride: 1
    weight_filler {
      type: "xavier"
    }
    bias_filler {
      type: "constant"
      value: 0.2
    }
  }
}
layer {
  name: "bn4b_branch2c"
  type: "BatchNorm"
  bottom: "res4b_branch2c"
  top: "res4b_branch2c"
  param {
    lr_mult: 1
    decay_mult: 0
  }
  param {
    lr_mult: 1
    decay_mult: 0
  }
  param {
    lr_mult: 0
    decay_mult: 0
  }
  param {
    lr_mult: 0
    decay_mult: 0
  }
  batch_norm_param {
    scale_filler {
      type: "constant"
      value: 1
    }
    bias_filler {
      type: "constant"
      value: 0
    }
  }
}
layer {
  name: "res4b"
  type: "Eltwise"
  bottom: "res4a"
  bottom: "res4b_branch2c"
  top: "res4b"
  eltwise_param {
  }
}
layer {
  name: "res4b_relu"
  type: "ReLU"
  bottom: "res4b"
  top: "res4b"
  relu_param {
  }
}
layer {
  name: "res4c_branch2a"
  type: "Convolution"
  bottom: "res4b"
  top: "res4c_branch2a"
  convolution_param {
    num_output: 256
    bias_term: false
    pad: 0
    kernel_size: 1
    stride: 1
    weight_filler {
      type: "xavier"
    }
    bias_filler {
      type: "constant"
      value: 0.2
    }
  }
}
layer {
  name: "bn4c_branch2a"
  type: "BatchNorm"
  bottom: "res4c_branch2a"
  top: "res4c_branch2a"
  param {
    lr_mult: 1
    decay_mult: 0
  }
  param {
    lr_mult: 1
    decay_mult: 0
  }
  param {
    lr_mult: 0
    decay_mult: 0
  }
  param {
    lr_mult: 0
    decay_mult: 0
  }
  batch_norm_param {
    scale_filler {
      type: "constant"
      value: 1
    }
    bias_filler {
      type: "constant"
      value: 0
    }
  }
}
layer {
  name: "res4c_branch2a_relu"
  type: "ReLU"
  bottom: "res4c_branch2a"
  top: "res4c_branch2a"
  relu_param {
  }
}
layer {
  name: "res4c_branch2b"
  type: "Convolution"
  bottom: "res4c_branch2a"
  top: "res4c_branch2b"
  convolution_param {
    num_output: 256
    bias_term: false
    pad: 1
    kernel_size: 3
    stride: 1
    weight_filler {
      type: "xavier"
    }
    bias_f
I0828 16:03:53.954265 22492 layer_factory.hpp:123] Creating layer data
I0828 16:03:53.954285 22492 net.cpp:140] Creating Layer data
I0828 16:03:53.954291 22492 net.cpp:455] data -> data
I0828 16:03:53.954299 22492 net.cpp:455] data -> label
I0828 16:03:53.954355 22492 image_data_layer.cpp:87] Opening file /SSD/git-tutorial/GPU-DPU-cross-check/images/image500/calib.txt
I0828 16:03:53.954440 22492 image_data_layer.cpp:97] Shuffling data
I0828 16:03:53.954452 22492 image_data_layer.cpp:102] A total of 500 images.
I0828 16:03:53.960319 22492 image_data_layer.cpp:130] output data size: 20,3,224,224
I0828 16:03:53.992679 22492 internal_thread.cpp:73] Starting internal thread(s) on GPU 0
I0828 16:03:53.992769 22492 net.cpp:190] Setting up data
I0828 16:03:53.992789 22492 net.cpp:197] Top shape: 20 3 224 224 (3010560)
I0828 16:03:53.992794 22492 net.cpp:197] Top shape: 20 (20)
I0828 16:03:53.992810 22492 net.cpp:205] Memory required for data: 12042320
I0828 16:03:53.992815 22492 layer_factory.hpp:123] Creating layer conv1
I0828 16:03:53.992827 22492 net.cpp:140] Creating Layer conv1
I0828 16:03:53.992831 22492 net.cpp:481] conv1 <- data
I0828 16:03:53.992841 22492 net.cpp:455] conv1 -> conv1
I0828 16:03:53.993252 22492 net.cpp:190] Setting up conv1
I0828 16:03:53.993260 22492 net.cpp:197] Top shape: 20 64 112 112 (16056320)
I0828 16:03:53.993276 22492 net.cpp:205] Memory required for data: 76267600
I0828 16:03:53.993300 22492 layer_factory.hpp:123] Creating layer bn_conv1
I0828 16:03:53.993307 22492 net.cpp:140] Creating Layer bn_conv1
I0828 16:03:53.993324 22492 net.cpp:481] bn_conv1 <- conv1
I0828 16:03:53.993330 22492 net.cpp:442] bn_conv1 -> conv1 (in-place)
I0828 16:03:53.993980 22492 net.cpp:190] Setting up bn_conv1
I0828 16:03:53.993988 22492 net.cpp:197] Top shape: 20 64 112 112 (16056320)
I0828 16:03:53.994005 22492 net.cpp:205] Memory required for data: 140492880
I0828 16:03:53.994014 22492 layer_factory.hpp:123] Creating layer conv1_relu
I0828 16:03:53.994019 22492 net.cpp:140] Creating Layer conv1_relu
I0828 16:03:53.994038 22492 net.cpp:481] conv1_relu <- conv1
I0828 16:03:53.994042 22492 net.cpp:442] conv1_relu -> conv1 (in-place)
I0828 16:03:53.994050 22492 net.cpp:190] Setting up conv1_relu
I0828 16:03:53.994053 22492 net.cpp:197] Top shape: 20 64 112 112 (16056320)
I0828 16:03:53.994056 22492 net.cpp:205] Memory required for data: 204718160
I0828 16:03:53.994058 22492 layer_factory.hpp:123] Creating layer pool1
I0828 16:03:53.994063 22492 net.cpp:140] Creating Layer pool1
I0828 16:03:53.994066 22492 net.cpp:481] pool1 <- conv1
I0828 16:03:53.994069 22492 net.cpp:455] pool1 -> pool1
I0828 16:03:53.994091 22492 net.cpp:190] Setting up pool1
I0828 16:03:53.994096 22492 net.cpp:197] Top shape: 20 64 56 56 (4014080)
I0828 16:03:53.994098 22492 net.cpp:205] Memory required for data: 220774480
I0828 16:03:53.994113 22492 layer_factory.hpp:123] Creating layer pool1_pool1_0_split
I0828 16:03:53.994117 22492 net.cpp:140] Creating Layer pool1_pool1_0_split
I0828 16:03:53.994120 22492 net.cpp:481] pool1_pool1_0_split <- pool1
I0828 16:03:53.994138 22492 net.cpp:455] pool1_pool1_0_split -> pool1_pool1_0_split_0
I0828 16:03:53.994143 22492 net.cpp:455] pool1_pool1_0_split -> pool1_pool1_0_split_1
I0828 16:03:53.994161 22492 net.cpp:190] Setting up pool1_pool1_0_split
I0828 16:03:53.994165 22492 net.cpp:197] Top shape: 20 64 56 56 (4014080)
I0828 16:03:53.994168 22492 net.cpp:197] Top shape: 20 64 56 56 (4014080)
I0828 16:03:53.994171 22492 net.cpp:205] Memory required for data: 252887120
I0828 16:03:53.994174 22492 layer_factory.hpp:123] Creating layer res2a_branch1
I0828 16:03:53.994192 22492 net.cpp:140] Creating Layer res2a_branch1
I0828 16:03:53.994194 22492 net.cpp:481] res2a_branch1 <- pool1_pool1_0_split_0
I0828 16:03:53.994213 22492 net.cpp:455] res2a_branch1 -> res2a_branch1
I0828 16:03:53.994423 22492 net.cpp:190] Setting up res2a_branch1
I0828 16:03:53.994429 22492 net.cpp:197] Top shape: 20 256 56 56 (16056320)
I0828 16:03:53.994446 22492 net.cpp:205] Memory required for data: 317112400
I0828 16:03:53.994449 22492 layer_factory.hpp:123] Creating layer bn2a_branch1
I0828 16:03:53.994454 22492 net.cpp:140] Creating Layer bn2a_branch1
I0828 16:03:53.994457 22492 net.cpp:481] bn2a_branch1 <- res2a_branch1
I0828 16:03:53.994462 22492 net.cpp:442] bn2a_branch1 -> res2a_branch1 (in-place)
I0828 16:03:53.994832 22492 net.cpp:190] Setting up bn2a_branch1
I0828 16:03:53.994838 22492 net.cpp:197] Top shape: 20 256 56 56 (16056320)
I0828 16:03:53.994841 22492 net.cpp:205] Memory required for data: 381337680
I0828 16:03:53.994848 22492 layer_factory.hpp:123] Creating layer res2a_branch2a
I0828 16:03:53.994855 22492 net.cpp:140] Creating Layer res2a_branch2a
I0828 16:03:53.994858 22492 net.cpp:481] res2a_branch2a <- pool1_pool1_0_split_1
I0828 16:03:53.994863 22492 net.cpp:455] res2a_branch2a -> res2a_branch2a
I0828 16:03:53.995015 22492 net.cpp:190] Setting up res2a_branch2a
I0828 16:03:53.995021 22492 net.cpp:197] Top shape: 20 64 56 56 (4014080)
I0828 16:03:53.995024 22492 net.cpp:205] Memory required for data: 397394000
I0828 16:03:53.995028 22492 layer_factory.hpp:123] Creating layer bn2a_branch2a
I0828 16:03:53.995033 22492 net.cpp:140] Creating Layer bn2a_branch2a
I0828 16:03:53.995036 22492 net.cpp:481] bn2a_branch2a <- res2a_branch2a
I0828 16:03:53.995040 22492 net.cpp:442] bn2a_branch2a -> res2a_branch2a (in-place)
I0828 16:03:53.995503 22492 net.cpp:190] Setting up bn2a_branch2a
I0828 16:03:53.995510 22492 net.cpp:197] Top shape: 20 64 56 56 (4014080)
I0828 16:03:53.995525 22492 net.cpp:205] Memory required for data: 413450320
I0828 16:03:53.995534 22492 layer_factory.hpp:123] Creating layer res2a_branch2a_relu
I0828 16:03:53.995539 22492 net.cpp:140] Creating Layer res2a_branch2a_relu
I0828 16:03:53.995543 22492 net.cpp:481] res2a_branch2a_relu <- res2a_branch2a
I0828 16:03:53.995548 22492 net.cpp:442] res2a_branch2a_relu -> res2a_branch2a (in-place)
I0828 16:03:53.995553 22492 net.cpp:190] Setting up res2a_branch2a_relu
I0828 16:03:53.995556 22492 net.cpp:197] Top shape: 20 64 56 56 (4014080)
I0828 16:03:53.995558 22492 net.cpp:205] Memory required for data: 429506640
I0828 16:03:53.995561 22492 layer_factory.hpp:123] Creating layer res2a_branch2b
I0828 16:03:53.995566 22492 net.cpp:140] Creating Layer res2a_branch2b
I0828 16:03:53.995569 22492 net.cpp:481] res2a_branch2b <- res2a_branch2a
I0828 16:03:53.995573 22492 net.cpp:455] res2a_branch2b -> res2a_branch2b
I0828 16:03:53.995889 22492 net.cpp:190] Setting up res2a_branch2b
I0828 16:03:53.995896 22492 net.cpp:197] Top shape: 20 64 56 56 (4014080)
I0828 16:03:53.995913 22492 net.cpp:205] Memory required for data: 445562960
I0828 16:03:53.995916 22492 layer_factory.hpp:123] Creating layer bn2a_branch2b
I0828 16:03:53.995920 22492 net.cpp:140] Creating Layer bn2a_branch2b
I0828 16:03:53.995923 22492 net.cpp:481] bn2a_branch2b <- res2a_branch2b
I0828 16:03:53.995927 22492 net.cpp:442] bn2a_branch2b -> res2a_branch2b (in-place)
I0828 16:03:53.996407 22492 net.cpp:190] Setting up bn2a_branch2b
I0828 16:03:53.996414 22492 net.cpp:197] Top shape: 20 64 56 56 (4014080)
I0828 16:03:53.996417 22492 net.cpp:205] Memory required for data: 461619280
I0828 16:03:53.996438 22492 layer_factory.hpp:123] Creating layer res2a_branch2b_relu
I0828 16:03:53.996443 22492 net.cpp:140] Creating Layer res2a_branch2b_relu
I0828 16:03:53.996445 22492 net.cpp:481] res2a_branch2b_relu <- res2a_branch2b
I0828 16:03:53.996448 22492 net.cpp:442] res2a_branch2b_relu -> res2a_branch2b (in-place)
I0828 16:03:53.996454 22492 net.cpp:190] Setting up res2a_branch2b_relu
I0828 16:03:53.996457 22492 net.cpp:197] Top shape: 20 64 56 56 (4014080)
I0828 16:03:53.996460 22492 net.cpp:205] Memory required for data: 477675600
I0828 16:03:53.996462 22492 layer_factory.hpp:123] Creating layer res2a_branch2c
I0828 16:03:53.996469 22492 net.cpp:140] Creating Layer res2a_branch2c
I0828 16:03:53.996470 22492 net.cpp:481] res2a_branch2c <- res2a_branch2b
I0828 16:03:53.996474 22492 net.cpp:455] res2a_branch2c -> res2a_branch2c
I0828 16:03:53.996650 22492 net.cpp:190] Setting up res2a_branch2c
I0828 16:03:53.996656 22492 net.cpp:197] Top shape: 20 256 56 56 (16056320)
I0828 16:03:53.996659 22492 net.cpp:205] Memory required for data: 541900880
I0828 16:03:53.996662 22492 layer_factory.hpp:123] Creating layer bn2a_branch2c
I0828 16:03:53.996666 22492 net.cpp:140] Creating Layer bn2a_branch2c
I0828 16:03:53.996670 22492 net.cpp:481] bn2a_branch2c <- res2a_branch2c
I0828 16:03:53.996673 22492 net.cpp:442] bn2a_branch2c -> res2a_branch2c (in-place)
I0828 16:03:53.997046 22492 net.cpp:190] Setting up bn2a_branch2c
I0828 16:03:53.997053 22492 net.cpp:197] Top shape: 20 256 56 56 (16056320)
I0828 16:03:53.997056 22492 net.cpp:205] Memory required for data: 606126160
I0828 16:03:53.997063 22492 layer_factory.hpp:123] Creating layer res2a
I0828 16:03:53.997069 22492 net.cpp:140] Creating Layer res2a
I0828 16:03:53.997073 22492 net.cpp:481] res2a <- res2a_branch1
I0828 16:03:53.997076 22492 net.cpp:481] res2a <- res2a_branch2c
I0828 16:03:53.997081 22492 net.cpp:455] res2a -> res2a
I0828 16:03:53.997094 22492 net.cpp:190] Setting up res2a
I0828 16:03:53.997099 22492 net.cpp:197] Top shape: 20 256 56 56 (16056320)
I0828 16:03:53.997102 22492 net.cpp:205] Memory required for data: 670351440
I0828 16:03:53.997104 22492 layer_factory.hpp:123] Creating layer res2a_relu
I0828 16:03:53.997108 22492 net.cpp:140] Creating Layer res2a_relu
I0828 16:03:53.997112 22492 net.cpp:481] res2a_relu <- res2a
I0828 16:03:53.997114 22492 net.cpp:442] res2a_relu -> res2a (in-place)
I0828 16:03:53.997119 22492 net.cpp:190] Setting up res2a_relu
I0828 16:03:53.997123 22492 net.cpp:197] Top shape: 20 256 56 56 (16056320)
I0828 16:03:53.997125 22492 net.cpp:205] Memory required for data: 734576720
I0828 16:03:53.997128 22492 layer_factory.hpp:123] Creating layer res2a_res2a_relu_0_split
I0828 16:03:53.997131 22492 net.cpp:140] Creating Layer res2a_res2a_relu_0_split
I0828 16:03:53.997134 22492 net.cpp:481] res2a_res2a_relu_0_split <- res2a
I0828 16:03:53.997138 22492 net.cpp:455] res2a_res2a_relu_0_split -> res2a_res2a_relu_0_split_0
I0828 16:03:53.997143 22492 net.cpp:455] res2a_res2a_relu_0_split -> res2a_res2a_relu_0_split_1
I0828 16:03:53.997165 22492 net.cpp:190] Setting up res2a_res2a_relu_0_split
I0828 16:03:53.997169 22492 net.cpp:197] Top shape: 20 256 56 56 (16056320)
I0828 16:03:53.997172 22492 net.cpp:197] Top shape: 20 256 56 56 (16056320)
I0828 16:03:53.997175 22492 net.cpp:205] Memory required for data: 863027280
I0828 16:03:53.997177 22492 layer_factory.hpp:123] Creating layer res2b_branch2a
I0828 16:03:53.997184 22492 net.cpp:140] Creating Layer res2b_branch2a
I0828 16:03:53.997186 22492 net.cpp:481] res2b_branch2a <- res2a_res2a_relu_0_split_0
I0828 16:03:53.997190 22492 net.cpp:455] res2b_branch2a -> res2b_branch2a
I0828 16:03:53.997665 22492 net.cpp:190] Setting up res2b_branch2a
I0828 16:03:53.997678 22492 net.cpp:197] Top shape: 20 64 56 56 (4014080)
I0828 16:03:53.997680 22492 net.cpp:205] Memory required for data: 879083600
I0828 16:03:53.997684 22492 layer_factory.hpp:123] Creating layer bn2b_branch2a
I0828 16:03:53.997689 22492 net.cpp:140] Creating Layer bn2b_branch2a
I0828 16:03:53.997694 22492 net.cpp:481] bn2b_branch2a <- res2b_branch2a
I0828 16:03:53.997697 22492 net.cpp:442] bn2b_branch2a -> res2b_branch2a (in-place)
I0828 16:03:53.998132 22492 net.cpp:190] Setting up bn2b_branch2a
I0828 16:03:53.998140 22492 net.cpp:197] Top shape: 20 64 56 56 (4014080)
I0828 16:03:53.998142 22492 net.cpp:205] Memory required for data: 895139920
I0828 16:03:53.998152 22492 layer_factory.hpp:123] Creating layer res2b_branch2a_relu
I0828 16:03:53.998157 22492 net.cpp:140] Creating Layer res2b_branch2a_relu
I0828 16:03:53.998159 22492 net.cpp:481] res2b_branch2a_relu <- res2b_branch2a
I0828 16:03:53.998163 22492 net.cpp:442] res2b_branch2a_relu -> res2b_branch2a (in-place)
I0828 16:03:53.998168 22492 net.cpp:190] Setting up res2b_branch2a_relu
I0828 16:03:53.998172 22492 net.cpp:197] Top shape: 20 64 56 56 (4014080)
I0828 16:03:53.998175 22492 net.cpp:205] Memory required for data: 911196240
I0828 16:03:53.998178 22492 layer_factory.hpp:123] Creating layer res2b_branch2b
I0828 16:03:53.998183 22492 net.cpp:140] Creating Layer res2b_branch2b
I0828 16:03:53.998186 22492 net.cpp:481] res2b_branch2b <- res2b_branch2a
I0828 16:03:53.998190 22492 net.cpp:455] res2b_branch2b -> res2b_branch2b
I0828 16:03:53.998461 22492 net.cpp:190] Setting up res2b_branch2b
I0828 16:03:53.998467 22492 net.cpp:197] Top shape: 20 64 56 56 (4014080)
I0828 16:03:53.998471 22492 net.cpp:205] Memory required for data: 927252560
I0828 16:03:53.998474 22492 layer_factory.hpp:123] Creating layer bn2b_branch2b
I0828 16:03:53.998479 22492 net.cpp:140] Creating Layer bn2b_branch2b
I0828 16:03:53.998481 22492 net.cpp:481] bn2b_branch2b <- res2b_branch2b
I0828 16:03:53.998486 22492 net.cpp:442] bn2b_branch2b -> res2b_branch2b (in-place)
I0828 16:03:53.998914 22492 net.cpp:190] Setting up bn2b_branch2b
I0828 16:03:53.998921 22492 net.cpp:197] Top shape: 20 64 56 56 (4014080)
I0828 16:03:53.998924 22492 net.cpp:205] Memory required for data: 943308880
I0828 16:03:53.998930 22492 layer_factory.hpp:123] Creating layer res2b_branch2b_relu
I0828 16:03:53.998936 22492 net.cpp:140] Creating Layer res2b_branch2b_relu
I0828 16:03:53.998939 22492 net.cpp:481] res2b_branch2b_relu <- res2b_branch2b
I0828 16:03:53.998942 22492 net.cpp:442] res2b_branch2b_relu -> res2b_branch2b (in-place)
I0828 16:03:53.998947 22492 net.cpp:190] Setting up res2b_branch2b_relu
I0828 16:03:53.998951 22492 net.cpp:197] Top shape: 20 64 56 56 (4014080)
I0828 16:03:53.998955 22492 net.cpp:205] Memory required for data: 959365200
I0828 16:03:53.998956 22492 layer_factory.hpp:123] Creating layer res2b_branch2c
I0828 16:03:53.998962 22492 net.cpp:140] Creating Layer res2b_branch2c
I0828 16:03:53.998965 22492 net.cpp:481] res2b_branch2c <- res2b_branch2b
I0828 16:03:53.998968 22492 net.cpp:455] res2b_branch2c -> res2b_branch2c
I0828 16:03:53.999140 22492 net.cpp:190] Setting up res2b_branch2c
I0828 16:03:53.999147 22492 net.cpp:197] Top shape: 20 256 56 56 (16056320)
I0828 16:03:53.999150 22492 net.cpp:205] Memory required for data: 1023590480
I0828 16:03:53.999153 22492 layer_factory.hpp:123] Creating layer bn2b_branch2c
I0828 16:03:53.999158 22492 net.cpp:140] Creating Layer bn2b_branch2c
I0828 16:03:53.999161 22492 net.cpp:481] bn2b_branch2c <- res2b_branch2c
I0828 16:03:53.999166 22492 net.cpp:442] bn2b_branch2c -> res2b_branch2c (in-place)
I0828 16:03:53.999531 22492 net.cpp:190] Setting up bn2b_branch2c
I0828 16:03:53.999537 22492 net.cpp:197] Top shape: 20 256 56 56 (16056320)
I0828 16:03:53.999541 22492 net.cpp:205] Memory required for data: 1087815760
I0828 16:03:53.999547 22492 layer_factory.hpp:123] Creating layer res2b
I0828 16:03:53.999552 22492 net.cpp:140] Creating Layer res2b
I0828 16:03:53.999555 22492 net.cpp:481] res2b <- res2a_res2a_relu_0_split_1
I0828 16:03:53.999559 22492 net.cpp:481] res2b <- res2b_branch2c
I0828 16:03:53.999562 22492 net.cpp:455] res2b -> res2b
I0828 16:03:53.999578 22492 net.cpp:190] Setting up res2b
I0828 16:03:53.999583 22492 net.cpp:197] Top shape: 20 256 56 56 (16056320)
I0828 16:03:53.999586 22492 net.cpp:205] Memory required for data: 1152041040
I0828 16:03:53.999588 22492 layer_factory.hpp:123] Creating layer res2b_relu
I0828 16:03:53.999593 22492 net.cpp:140] Creating Layer res2b_relu
I0828 16:03:53.999595 22492 net.cpp:481] res2b_relu <- res2b
I0828 16:03:53.999599 22492 net.cpp:442] res2b_relu -> res2b (in-place)
I0828 16:03:53.999603 22492 net.cpp:190] Setting up res2b_relu
I0828 16:03:53.999608 22492 net.cpp:197] Top shape: 20 256 56 56 (16056320)
I0828 16:03:53.999610 22492 net.cpp:205] Memory required for data: 1216266320
I0828 16:03:53.999613 22492 layer_factory.hpp:123] Creating layer res2b_res2b_relu_0_split
I0828 16:03:53.999616 22492 net.cpp:140] Creating Layer res2b_res2b_relu_0_split
I0828 16:03:53.999619 22492 net.cpp:481] res2b_res2b_relu_0_split <- res2b
I0828 16:03:53.999622 22492 net.cpp:455] res2b_res2b_relu_0_split -> res2b_res2b_relu_0_split_0
I0828 16:03:53.999634 22492 net.cpp:455] res2b_res2b_relu_0_split -> res2b_res2b_relu_0_split_1
I0828 16:03:54.000635 22492 net.cpp:190] Setting up res2b_res2b_relu_0_split
I0828 16:03:54.000646 22492 net.cpp:197] Top shape: 20 256 56 56 (16056320)
I0828 16:03:54.000649 22492 net.cpp:197] Top shape: 20 256 56 56 (16056320)
I0828 16:03:54.000654 22492 net.cpp:205] Memory required for data: 1344716880
I0828 16:03:54.000656 22492 layer_factory.hpp:123] Creating layer res2c_branch2a
I0828 16:03:54.000663 22492 net.cpp:140] Creating Layer res2c_branch2a
I0828 16:03:54.000667 22492 net.cpp:481] res2c_branch2a <- res2b_res2b_relu_0_split_0
I0828 16:03:54.000672 22492 net.cpp:455] res2c_branch2a -> res2c_branch2a
I0828 16:03:54.000854 22492 net.cpp:190] Setting up res2c_branch2a
I0828 16:03:54.000859 22492 net.cpp:197] Top shape: 20 64 56 56 (4014080)
I0828 16:03:54.000862 22492 net.cpp:205] Memory required for data: 1360773200
I0828 16:03:54.000866 22492 layer_factory.hpp:123] Creating layer bn2c_branch2a
I0828 16:03:54.000872 22492 net.cpp:140] Creating Layer bn2c_branch2a
I0828 16:03:54.000876 22492 net.cpp:481] bn2c_branch2a <- res2c_branch2a
I0828 16:03:54.000880 22492 net.cpp:442] bn2c_branch2a -> res2c_branch2a (in-place)
I0828 16:03:54.001323 22492 net.cpp:190] Setting up bn2c_branch2a
I0828 16:03:54.001330 22492 net.cpp:197] Top shape: 20 64 56 56 (4014080)
I0828 16:03:54.001333 22492 net.cpp:205] Memory required for data: 1376829520
I0828 16:03:54.001346 22492 layer_factory.hpp:123] Creating layer res2c_branch2a_relu
I0828 16:03:54.001353 22492 net.cpp:140] Creating Layer res2c_branch2a_relu
I0828 16:03:54.001358 22492 net.cpp:481] res2c_branch2a_relu <- res2c_branch2a
I0828 16:03:54.001361 22492 net.cpp:442] res2c_branch2a_relu -> res2c_branch2a (in-place)
I0828 16:03:54.001366 22492 net.cpp:190] Setting up res2c_branch2a_relu
I0828 16:03:54.001370 22492 net.cpp:197] Top shape: 20 64 56 56 (4014080)
I0828 16:03:54.001372 22492 net.cpp:205] Memory required for data: 1392885840
I0828 16:03:54.001375 22492 layer_factory.hpp:123] Creating layer res2c_branch2b
I0828 16:03:54.001380 22492 net.cpp:140] Creating Layer res2c_branch2b
I0828 16:03:54.001384 22492 net.cpp:481] res2c_branch2b <- res2c_branch2a
I0828 16:03:54.001389 22492 net.cpp:455] res2c_branch2b -> res2c_branch2b
I0828 16:03:54.001654 22492 net.cpp:190] Setting up res2c_branch2b
I0828 16:03:54.001662 22492 net.cpp:197] Top shape: 20 64 56 56 (4014080)
I0828 16:03:54.001664 22492 net.cpp:205] Memory required for data: 1408942160
I0828 16:03:54.001667 22492 layer_factory.hpp:123] Creating layer bn2c_branch2b
I0828 16:03:54.001672 22492 net.cpp:140] Creating Layer bn2c_branch2b
I0828 16:03:54.001675 22492 net.cpp:481] bn2c_branch2b <- res2c_branch2b
I0828 16:03:54.001679 22492 net.cpp:442] bn2c_branch2b -> res2c_branch2b (in-place)
I0828 16:03:54.002382 22492 net.cpp:190] Setting up bn2c_branch2b
I0828 16:03:54.002393 22492 net.cpp:197] Top shape: 20 64 56 56 (4014080)
I0828 16:03:54.002395 22492 net.cpp:205] Memory required for data: 1424998480
I0828 16:03:54.002403 22492 layer_factory.hpp:123] Creating layer res2c_branch2b_relu
I0828 16:03:54.002408 22492 net.cpp:140] Creating Layer res2c_branch2b_relu
I0828 16:03:54.002411 22492 net.cpp:481] res2c_branch2b_relu <- res2c_branch2b
I0828 16:03:54.002414 22492 net.cpp:442] res2c_branch2b_relu -> res2c_branch2b (in-place)
I0828 16:03:54.002421 22492 net.cpp:190] Setting up res2c_branch2b_relu
I0828 16:03:54.002425 22492 net.cpp:197] Top shape: 20 64 56 56 (4014080)
I0828 16:03:54.002427 22492 net.cpp:205] Memory required for data: 1441054800
I0828 16:03:54.002430 22492 layer_factory.hpp:123] Creating layer res2c_branch2c
I0828 16:03:54.002436 22492 net.cpp:140] Creating Layer res2c_branch2c
I0828 16:03:54.002439 22492 net.cpp:481] res2c_branch2c <- res2c_branch2b
I0828 16:03:54.002444 22492 net.cpp:455] res2c_branch2c -> res2c_branch2c
I0828 16:03:54.002621 22492 net.cpp:190] Setting up res2c_branch2c
I0828 16:03:54.002627 22492 net.cpp:197] Top shape: 20 256 56 56 (16056320)
I0828 16:03:54.002630 22492 net.cpp:205] Memory required for data: 1505280080
I0828 16:03:54.002635 22492 layer_factory.hpp:123] Creating layer bn2c_branch2c
I0828 16:03:54.002640 22492 net.cpp:140] Creating Layer bn2c_branch2c
I0828 16:03:54.002643 22492 net.cpp:481] bn2c_branch2c <- res2c_branch2c
I0828 16:03:54.002647 22492 net.cpp:442] bn2c_branch2c -> res2c_branch2c (in-place)
I0828 16:03:54.003020 22492 net.cpp:190] Setting up bn2c_branch2c
I0828 16:03:54.003026 22492 net.cpp:197] Top shape: 20 256 56 56 (16056320)
I0828 16:03:54.003031 22492 net.cpp:205] Memory required for data: 1569505360
I0828 16:03:54.003041 22492 layer_factory.hpp:123] Creating layer res2c
I0828 16:03:54.003046 22492 net.cpp:140] Creating Layer res2c
I0828 16:03:54.003049 22492 net.cpp:481] res2c <- res2b_res2b_relu_0_split_1
I0828 16:03:54.003053 22492 net.cpp:481] res2c <- res2c_branch2c
I0828 16:03:54.003057 22492 net.cpp:455] res2c -> res2c
I0828 16:03:54.003072 22492 net.cpp:190] Setting up res2c
I0828 16:03:54.003077 22492 net.cpp:197] Top shape: 20 256 56 56 (16056320)
I0828 16:03:54.003079 22492 net.cpp:205] Memory required for data: 1633730640
I0828 16:03:54.003082 22492 layer_factory.hpp:123] Creating layer res2c_relu
I0828 16:03:54.003085 22492 net.cpp:140] Creating Layer res2c_relu
I0828 16:03:54.003088 22492 net.cpp:481] res2c_relu <- res2c
I0828 16:03:54.003093 22492 net.cpp:442] res2c_relu -> res2c (in-place)
I0828 16:03:54.003096 22492 net.cpp:190] Setting up res2c_relu
I0828 16:03:54.003100 22492 net.cpp:197] Top shape: 20 256 56 56 (16056320)
I0828 16:03:54.003103 22492 net.cpp:205] Memory required for data: 1697955920
I0828 16:03:54.003105 22492 layer_factory.hpp:123] Creating layer res2c_res2c_relu_0_split
I0828 16:03:54.003113 22492 net.cpp:140] Creating Layer res2c_res2c_relu_0_split
I0828 16:03:54.003116 22492 net.cpp:481] res2c_res2c_relu_0_split <- res2c
I0828 16:03:54.003120 22492 net.cpp:455] res2c_res2c_relu_0_split -> res2c_res2c_relu_0_split_0
I0828 16:03:54.003125 22492 net.cpp:455] res2c_res2c_relu_0_split -> res2c_res2c_relu_0_split_1
I0828 16:03:54.003151 22492 net.cpp:190] Setting up res2c_res2c_relu_0_split
I0828 16:03:54.003156 22492 net.cpp:197] Top shape: 20 256 56 56 (16056320)
I0828 16:03:54.003159 22492 net.cpp:197] Top shape: 20 256 56 56 (16056320)
I0828 16:03:54.003162 22492 net.cpp:205] Memory required for data: 1826406480
I0828 16:03:54.003165 22492 layer_factory.hpp:123] Creating layer res3a_branch1
I0828 16:03:54.003170 22492 net.cpp:140] Creating Layer res3a_branch1
I0828 16:03:54.003173 22492 net.cpp:481] res3a_branch1 <- res2c_res2c_relu_0_split_0
I0828 16:03:54.003177 22492 net.cpp:455] res3a_branch1 -> res3a_branch1
I0828 16:03:54.004117 22492 net.cpp:190] Setting up res3a_branch1
I0828 16:03:54.004125 22492 net.cpp:197] Top shape: 20 512 28 28 (8028160)
I0828 16:03:54.004128 22492 net.cpp:205] Memory required for data: 1858519120
I0828 16:03:54.004132 22492 layer_factory.hpp:123] Creating layer bn3a_branch1
I0828 16:03:54.004138 22492 net.cpp:140] Creating Layer bn3a_branch1
I0828 16:03:54.004142 22492 net.cpp:481] bn3a_branch1 <- res3a_branch1
I0828 16:03:54.004146 22492 net.cpp:442] bn3a_branch1 -> res3a_branch1 (in-place)
I0828 16:03:54.004529 22492 net.cpp:190] Setting up bn3a_branch1
I0828 16:03:54.004536 22492 net.cpp:197] Top shape: 20 512 28 28 (8028160)
I0828 16:03:54.004539 22492 net.cpp:205] Memory required for data: 1890631760
I0828 16:03:54.004545 22492 layer_factory.hpp:123] Creating layer res3a_branch2a
I0828 16:03:54.004564 22492 net.cpp:140] Creating Layer res3a_branch2a
I0828 16:03:54.004567 22492 net.cpp:481] res3a_branch2a <- res2c_res2c_relu_0_split_1
I0828 16:03:54.004571 22492 net.cpp:455] res3a_branch2a -> res3a_branch2a
I0828 16:03:54.004828 22492 net.cpp:190] Setting up res3a_branch2a
I0828 16:03:54.004835 22492 net.cpp:197] Top shape: 20 128 28 28 (2007040)
I0828 16:03:54.004837 22492 net.cpp:205] Memory required for data: 1898659920
I0828 16:03:54.004842 22492 layer_factory.hpp:123] Creating layer bn3a_branch2a
I0828 16:03:54.004846 22492 net.cpp:140] Creating Layer bn3a_branch2a
I0828 16:03:54.004849 22492 net.cpp:481] bn3a_branch2a <- res3a_branch2a
I0828 16:03:54.004853 22492 net.cpp:442] bn3a_branch2a -> res3a_branch2a (in-place)
I0828 16:03:54.005236 22492 net.cpp:190] Setting up bn3a_branch2a
I0828 16:03:54.005244 22492 net.cpp:197] Top shape: 20 128 28 28 (2007040)
I0828 16:03:54.005246 22492 net.cpp:205] Memory required for data: 1906688080
I0828 16:03:54.005252 22492 layer_factory.hpp:123] Creating layer res3a_branch2a_relu
I0828 16:03:54.005259 22492 net.cpp:140] Creating Layer res3a_branch2a_relu
I0828 16:03:54.005262 22492 net.cpp:481] res3a_branch2a_relu <- res3a_branch2a
I0828 16:03:54.005266 22492 net.cpp:442] res3a_branch2a_relu -> res3a_branch2a (in-place)
I0828 16:03:54.005271 22492 net.cpp:190] Setting up res3a_branch2a_relu
I0828 16:03:54.005275 22492 net.cpp:197] Top shape: 20 128 28 28 (2007040)
I0828 16:03:54.005277 22492 net.cpp:205] Memory required for data: 1914716240
I0828 16:03:54.005280 22492 layer_factory.hpp:123] Creating layer res3a_branch2b
I0828 16:03:54.005285 22492 net.cpp:140] Creating Layer res3a_branch2b
I0828 16:03:54.005288 22492 net.cpp:481] res3a_branch2b <- res3a_branch2a
I0828 16:03:54.005292 22492 net.cpp:455] res3a_branch2b -> res3a_branch2b
I0828 16:03:54.006557 22492 net.cpp:190] Setting up res3a_branch2b
I0828 16:03:54.006567 22492 net.cpp:197] Top shape: 20 128 28 28 (2007040)
I0828 16:03:54.006569 22492 net.cpp:205] Memory required for data: 1922744400
I0828 16:03:54.006573 22492 layer_factory.hpp:123] Creating layer bn3a_branch2b
I0828 16:03:54.006579 22492 net.cpp:140] Creating Layer bn3a_branch2b
I0828 16:03:54.006583 22492 net.cpp:481] bn3a_branch2b <- res3a_branch2b
I0828 16:03:54.006587 22492 net.cpp:442] bn3a_branch2b -> res3a_branch2b (in-place)
I0828 16:03:54.006968 22492 net.cpp:190] Setting up bn3a_branch2b
I0828 16:03:54.006975 22492 net.cpp:197] Top shape: 20 128 28 28 (2007040)
I0828 16:03:54.006978 22492 net.cpp:205] Memory required for data: 1930772560
I0828 16:03:54.006984 22492 layer_factory.hpp:123] Creating layer res3a_branch2b_relu
I0828 16:03:54.006989 22492 net.cpp:140] Creating Layer res3a_branch2b_relu
I0828 16:03:54.006994 22492 net.cpp:481] res3a_branch2b_relu <- res3a_branch2b
I0828 16:03:54.006997 22492 net.cpp:442] res3a_branch2b_relu -> res3a_branch2b (in-place)
I0828 16:03:54.007002 22492 net.cpp:190] Setting up res3a_branch2b_relu
I0828 16:03:54.007007 22492 net.cpp:197] Top shape: 20 128 28 28 (2007040)
I0828 16:03:54.007014 22492 net.cpp:205] Memory required for data: 1938800720
I0828 16:03:54.007016 22492 layer_factory.hpp:123] Creating layer res3a_branch2c
I0828 16:03:54.007021 22492 net.cpp:140] Creating Layer res3a_branch2c
I0828 16:03:54.007025 22492 net.cpp:481] res3a_branch2c <- res3a_branch2b
I0828 16:03:54.007030 22492 net.cpp:455] res3a_branch2c -> res3a_branch2c
I0828 16:03:54.007433 22492 net.cpp:190] Setting up res3a_branch2c
I0828 16:03:54.007441 22492 net.cpp:197] Top shape: 20 512 28 28 (8028160)
I0828 16:03:54.007442 22492 net.cpp:205] Memory required for data: 1970913360
I0828 16:03:54.007447 22492 layer_factory.hpp:123] Creating layer bn3a_branch2c
I0828 16:03:54.007452 22492 net.cpp:140] Creating Layer bn3a_branch2c
I0828 16:03:54.007454 22492 net.cpp:481] bn3a_branch2c <- res3a_branch2c
I0828 16:03:54.007458 22492 net.cpp:442] bn3a_branch2c -> res3a_branch2c (in-place)
I0828 16:03:54.007843 22492 net.cpp:190] Setting up bn3a_branch2c
I0828 16:03:54.007850 22492 net.cpp:197] Top shape: 20 512 28 28 (8028160)
I0828 16:03:54.007853 22492 net.cpp:205] Memory required for data: 2003026000
I0828 16:03:54.007859 22492 layer_factory.hpp:123] Creating layer res3a
I0828 16:03:54.007875 22492 net.cpp:140] Creating Layer res3a
I0828 16:03:54.007879 22492 net.cpp:481] res3a <- res3a_branch1
I0828 16:03:54.007882 22492 net.cpp:481] res3a <- res3a_branch2c
I0828 16:03:54.007886 22492 net.cpp:455] res3a -> res3a
I0828 16:03:54.007901 22492 net.cpp:190] Setting up res3a
I0828 16:03:54.007906 22492 net.cpp:197] Top shape: 20 512 28 28 (8028160)
I0828 16:03:54.007908 22492 net.cpp:205] Memory required for data: 2035138640
I0828 16:03:54.007911 22492 layer_factory.hpp:123] Creating layer res3a_relu
I0828 16:03:54.007915 22492 net.cpp:140] Creating Layer res3a_relu
I0828 16:03:54.007917 22492 net.cpp:481] res3a_relu <- res3a
I0828 16:03:54.007921 22492 net.cpp:442] res3a_relu -> res3a (in-place)
I0828 16:03:54.007926 22492 net.cpp:190] Setting up res3a_relu
I0828 16:03:54.007930 22492 net.cpp:197] Top shape: 20 512 28 28 (8028160)
I0828 16:03:54.007932 22492 net.cpp:205] Memory required for data: 2067251280
I0828 16:03:54.007935 22492 layer_factory.hpp:123] Creating layer res3a_res3a_relu_0_split
I0828 16:03:54.007938 22492 net.cpp:140] Creating Layer res3a_res3a_relu_0_split
I0828 16:03:54.007941 22492 net.cpp:481] res3a_res3a_relu_0_split <- res3a
I0828 16:03:54.007944 22492 net.cpp:455] res3a_res3a_relu_0_split -> res3a_res3a_relu_0_split_0
I0828 16:03:54.007949 22492 net.cpp:455] res3a_res3a_relu_0_split -> res3a_res3a_relu_0_split_1
I0828 16:03:54.007969 22492 net.cpp:190] Setting up res3a_res3a_relu_0_split
I0828 16:03:54.007973 22492 net.cpp:197] Top shape: 20 512 28 28 (8028160)
I0828 16:03:54.007977 22492 net.cpp:197] Top shape: 20 512 28 28 (8028160)
I0828 16:03:54.007979 22492 net.cpp:205] Memory required for data: 2131476560
I0828 16:03:54.007982 22492 layer_factory.hpp:123] Creating layer res3b_branch2a
I0828 16:03:54.007987 22492 net.cpp:140] Creating Layer res3b_branch2a
I0828 16:03:54.007990 22492 net.cpp:481] res3b_branch2a <- res3a_res3a_relu_0_split_0
I0828 16:03:54.007994 22492 net.cpp:455] res3b_branch2a -> res3b_branch2a
I0828 16:03:54.008667 22492 net.cpp:190] Setting up res3b_branch2a
I0828 16:03:54.008677 22492 net.cpp:197] Top shape: 20 128 28 28 (2007040)
I0828 16:03:54.008679 22492 net.cpp:205] Memory required for data: 2139504720
I0828 16:03:54.008683 22492 layer_factory.hpp:123] Creating layer bn3b_branch2a
I0828 16:03:54.008689 22492 net.cpp:140] Creating Layer bn3b_branch2a
I0828 16:03:54.008693 22492 net.cpp:481] bn3b_branch2a <- res3b_branch2a
I0828 16:03:54.008698 22492 net.cpp:442] bn3b_branch2a -> res3b_branch2a (in-place)
I0828 16:03:54.009104 22492 net.cpp:190] Setting up bn3b_branch2a
I0828 16:03:54.009111 22492 net.cpp:197] Top shape: 20 128 28 28 (2007040)
I0828 16:03:54.009114 22492 net.cpp:205] Memory required for data: 2147532880
I0828 16:03:54.009121 22492 layer_factory.hpp:123] Creating layer res3b_branch2a_relu
I0828 16:03:54.009126 22492 net.cpp:140] Creating Layer res3b_branch2a_relu
I0828 16:03:54.009130 22492 net.cpp:481] res3b_branch2a_relu <- res3b_branch2a
I0828 16:03:54.009140 22492 net.cpp:442] res3b_branch2a_relu -> res3b_branch2a (in-place)
I0828 16:03:54.009145 22492 net.cpp:190] Setting up res3b_branch2a_relu
I0828 16:03:54.009150 22492 net.cpp:197] Top shape: 20 128 28 28 (2007040)
I0828 16:03:54.009151 22492 net.cpp:205] Memory required for data: 2155561040
I0828 16:03:54.009155 22492 layer_factory.hpp:123] Creating layer res3b_branch2b
I0828 16:03:54.009160 22492 net.cpp:140] Creating Layer res3b_branch2b
I0828 16:03:54.009163 22492 net.cpp:481] res3b_branch2b <- res3b_branch2a
I0828 16:03:54.009167 22492 net.cpp:455] res3b_branch2b -> res3b_branch2b
I0828 16:03:54.010196 22492 net.cpp:190] Setting up res3b_branch2b
I0828 16:03:54.010205 22492 net.cpp:197] Top shape: 20 128 28 28 (2007040)
I0828 16:03:54.010208 22492 net.cpp:205] Memory required for data: 2163589200
I0828 16:03:54.010212 22492 layer_factory.hpp:123] Creating layer bn3b_branch2b
I0828 16:03:54.010217 22492 net.cpp:140] Creating Layer bn3b_branch2b
I0828 16:03:54.010222 22492 net.cpp:481] bn3b_branch2b <- res3b_branch2b
I0828 16:03:54.010226 22492 net.cpp:442] bn3b_branch2b -> res3b_branch2b (in-place)
I0828 16:03:54.010612 22492 net.cpp:190] Setting up bn3b_branch2b
I0828 16:03:54.010620 22492 net.cpp:197] Top shape: 20 128 28 28 (2007040)
I0828 16:03:54.010623 22492 net.cpp:205] Memory required for data: 2171617360
I0828 16:03:54.010629 22492 layer_factory.hpp:123] Creating layer res3b_branch2b_relu
I0828 16:03:54.010635 22492 net.cpp:140] Creating Layer res3b_branch2b_relu
I0828 16:03:54.010639 22492 net.cpp:481] res3b_branch2b_relu <- res3b_branch2b
I0828 16:03:54.010643 22492 net.cpp:442] res3b_branch2b_relu -> res3b_branch2b (in-place)
I0828 16:03:54.010651 22492 net.cpp:190] Setting up res3b_branch2b_relu
I0828 16:03:54.010656 22492 net.cpp:197] Top shape: 20 128 28 28 (2007040)
I0828 16:03:54.010658 22492 net.cpp:205] Memory required for data: 2179645520
I0828 16:03:54.010661 22492 layer_factory.hpp:123] Creating layer res3b_branch2c
I0828 16:03:54.010666 22492 net.cpp:140] Creating Layer res3b_branch2c
I0828 16:03:54.010669 22492 net.cpp:481] res3b_branch2c <- res3b_branch2b
I0828 16:03:54.010673 22492 net.cpp:455] res3b_branch2c -> res3b_branch2c
I0828 16:03:54.011339 22492 net.cpp:190] Setting up res3b_branch2c
I0828 16:03:54.011349 22492 net.cpp:197] Top shape: 20 512 28 28 (8028160)
I0828 16:03:54.011351 22492 net.cpp:205] Memory required for data: 2211758160
I0828 16:03:54.011356 22492 layer_factory.hpp:123] Creating layer bn3b_branch2c
I0828 16:03:54.011361 22492 net.cpp:140] Creating Layer bn3b_branch2c
I0828 16:03:54.011366 22492 net.cpp:481] bn3b_branch2c <- res3b_branch2c
I0828 16:03:54.011370 22492 net.cpp:442] bn3b_branch2c -> res3b_branch2c (in-place)
I0828 16:03:54.011765 22492 net.cpp:190] Setting up bn3b_branch2c
I0828 16:03:54.011771 22492 net.cpp:197] Top shape: 20 512 28 28 (8028160)
I0828 16:03:54.011775 22492 net.cpp:205] Memory required for data: 2243870800
I0828 16:03:54.011780 22492 layer_factory.hpp:123] Creating layer res3b
I0828 16:03:54.011787 22492 net.cpp:140] Creating Layer res3b
I0828 16:03:54.011790 22492 net.cpp:481] res3b <- res3a_res3a_relu_0_split_1
I0828 16:03:54.011797 22492 net.cpp:481] res3b <- res3b_branch2c
I0828 16:03:54.011802 22492 net.cpp:455] res3b -> res3b
I0828 16:03:54.011817 22492 net.cpp:190] Setting up res3b
I0828 16:03:54.011828 22492 net.cpp:197] Top shape: 20 512 28 28 (8028160)
I0828 16:03:54.011831 22492 net.cpp:205] Memory required for data: 2275983440
I0828 16:03:54.011834 22492 layer_factory.hpp:123] Creating layer res3b_relu
I0828 16:03:54.011838 22492 net.cpp:140] Creating Layer res3b_relu
I0828 16:03:54.011842 22492 net.cpp:481] res3b_relu <- res3b
I0828 16:03:54.011844 22492 net.cpp:442] res3b_relu -> res3b (in-place)
I0828 16:03:54.011849 22492 net.cpp:190] Setting up res3b_relu
I0828 16:03:54.011853 22492 net.cpp:197] Top shape: 20 512 28 28 (8028160)
I0828 16:03:54.011855 22492 net.cpp:205] Memory required for data: 2308096080
I0828 16:03:54.011858 22492 layer_factory.hpp:123] Creating layer res3b_res3b_relu_0_split
I0828 16:03:54.011864 22492 net.cpp:140] Creating Layer res3b_res3b_relu_0_split
I0828 16:03:54.011867 22492 net.cpp:481] res3b_res3b_relu_0_split <- res3b
I0828 16:03:54.011870 22492 net.cpp:455] res3b_res3b_relu_0_split -> res3b_res3b_relu_0_split_0
I0828 16:03:54.011875 22492 net.cpp:455] res3b_res3b_relu_0_split -> res3b_res3b_relu_0_split_1
I0828 16:03:54.011895 22492 net.cpp:190] Setting up res3b_res3b_relu_0_split
I0828 16:03:54.011899 22492 net.cpp:197] Top shape: 20 512 28 28 (8028160)
I0828 16:03:54.011903 22492 net.cpp:197] Top shape: 20 512 28 28 (8028160)
I0828 16:03:54.011905 22492 net.cpp:205] Memory required for data: 2372321360
I0828 16:03:54.011907 22492 layer_factory.hpp:123] Creating layer res3c_branch2a
I0828 16:03:54.011914 22492 net.cpp:140] Creating Layer res3c_branch2a
I0828 16:03:54.011917 22492 net.cpp:481] res3c_branch2a <- res3b_res3b_relu_0_split_0
I0828 16:03:54.011921 22492 net.cpp:455] res3c_branch2a -> res3c_branch2a
I0828 16:03:54.012315 22492 net.cpp:190] Setting up res3c_branch2a
I0828 16:03:54.012321 22492 net.cpp:197] Top shape: 20 128 28 28 (2007040)
I0828 16:03:54.012324 22492 net.cpp:205] Memory required for data: 2380349520
I0828 16:03:54.012327 22492 layer_factory.hpp:123] Creating layer bn3c_branch2a
I0828 16:03:54.012332 22492 net.cpp:140] Creating Layer bn3c_branch2a
I0828 16:03:54.012336 22492 net.cpp:481] bn3c_branch2a <- res3c_branch2a
I0828 16:03:54.012339 22492 net.cpp:442] bn3c_branch2a -> res3c_branch2a (in-place)
I0828 16:03:54.012725 22492 net.cpp:190] Setting up bn3c_branch2a
I0828 16:03:54.012732 22492 net.cpp:197] Top shape: 20 128 28 28 (2007040)
I0828 16:03:54.012735 22492 net.cpp:205] Memory required for data: 2388377680
I0828 16:03:54.012742 22492 layer_factory.hpp:123] Creating layer res3c_branch2a_relu
I0828 16:03:54.012746 22492 net.cpp:140] Creating Layer res3c_branch2a_relu
I0828 16:03:54.012763 22492 net.cpp:481] res3c_branch2a_relu <- res3c_branch2a
I0828 16:03:54.012766 22492 net.cpp:442] res3c_branch2a_relu -> res3c_branch2a (in-place)
I0828 16:03:54.012785 22492 net.cpp:190] Setting up res3c_branch2a_relu
I0828 16:03:54.012789 22492 net.cpp:197] Top shape: 20 128 28 28 (2007040)
I0828 16:03:54.012792 22492 net.cpp:205] Memory required for data: 2396405840
I0828 16:03:54.012794 22492 layer_factory.hpp:123] Creating layer res3c_branch2b
I0828 16:03:54.012800 22492 net.cpp:140] Creating Layer res3c_branch2b
I0828 16:03:54.012804 22492 net.cpp:481] res3c_branch2b <- res3c_branch2a
I0828 16:03:54.012807 22492 net.cpp:455] res3c_branch2b -> res3c_branch2b
I0828 16:03:54.014067 22492 net.cpp:190] Setting up res3c_branch2b
I0828 16:03:54.014077 22492 net.cpp:197] Top shape: 20 128 28 28 (2007040)
I0828 16:03:54.014081 22492 net.cpp:205] Memory required for data: 2404434000
I0828 16:03:54.014084 22492 layer_factory.hpp:123] Creating layer bn3c_branch2b
I0828 16:03:54.014106 22492 net.cpp:140] Creating Layer bn3c_branch2b
I0828 16:03:54.014109 22492 net.cpp:481] bn3c_branch2b <- res3c_branch2b
I0828 16:03:54.014113 22492 net.cpp:442] bn3c_branch2b -> res3c_branch2b (in-place)
I0828 16:03:54.014505 22492 net.cpp:190] Setting up bn3c_branch2b
I0828 16:03:54.014513 22492 net.cpp:197] Top shape: 20 128 28 28 (2007040)
I0828 16:03:54.014515 22492 net.cpp:205] Memory required for data: 2412462160
I0828 16:03:54.014523 22492 layer_factory.hpp:123] Creating layer res3c_branch2b_relu
I0828 16:03:54.014542 22492 net.cpp:140] Creating Layer res3c_branch2b_relu
I0828 16:03:54.014545 22492 net.cpp:481] res3c_branch2b_relu <- res3c_branch2b
I0828 16:03:54.014549 22492 net.cpp:442] res3c_branch2b_relu -> res3c_branch2b (in-place)
I0828 16:03:54.014554 22492 net.cpp:190] Setting up res3c_branch2b_relu
I0828 16:03:54.014559 22492 net.cpp:197] Top shape: 20 128 28 28 (2007040)
I0828 16:03:54.014561 22492 net.cpp:205] Memory required for data: 2420490320
I0828 16:03:54.014564 22492 layer_factory.hpp:123] Creating layer res3c_branch2c
I0828 16:03:54.014569 22492 net.cpp:140] Creating Layer res3c_branch2c
I0828 16:03:54.014571 22492 net.cpp:481] res3c_branch2c <- res3c_branch2b
I0828 16:03:54.014576 22492 net.cpp:455] res3c_branch2c -> res3c_branch2c
I0828 16:03:54.014989 22492 net.cpp:190] Setting up res3c_branch2c
I0828 16:03:54.014997 22492 net.cpp:197] Top shape: 20 512 28 28 (8028160)
I0828 16:03:54.014999 22492 net.cpp:205] Memory required for data: 2452602960
I0828 16:03:54.015003 22492 layer_factory.hpp:123] Creating layer bn3c_branch2c
I0828 16:03:54.015008 22492 net.cpp:140] Creating Layer bn3c_branch2c
I0828 16:03:54.015012 22492 net.cpp:481] bn3c_branch2c <- res3c_branch2c
I0828 16:03:54.015014 22492 net.cpp:442] bn3c_branch2c -> res3c_branch2c (in-place)
I0828 16:03:54.015408 22492 net.cpp:190] Setting up bn3c_branch2c
I0828 16:03:54.015414 22492 net.cpp:197] Top shape: 20 512 28 28 (8028160)
I0828 16:03:54.015417 22492 net.cpp:205] Memory required for data: 2484715600
I0828 16:03:54.015424 22492 layer_factory.hpp:123] Creating layer res3c
I0828 16:03:54.015436 22492 net.cpp:140] Creating Layer res3c
I0828 16:03:54.015440 22492 net.cpp:481] res3c <- res3b_res3b_relu_0_split_1
I0828 16:03:54.015444 22492 net.cpp:481] res3c <- res3c_branch2c
I0828 16:03:54.015449 22492 net.cpp:455] res3c -> res3c
I0828 16:03:54.015463 22492 net.cpp:190] Setting up res3c
I0828 16:03:54.015468 22492 net.cpp:197] Top shape: 20 512 28 28 (8028160)
I0828 16:03:54.015470 22492 net.cpp:205] Memory required for data: 2516828240
I0828 16:03:54.015473 22492 layer_factory.hpp:123] Creating layer res3c_relu
I0828 16:03:54.015477 22492 net.cpp:140] Creating Layer res3c_relu
I0828 16:03:54.015480 22492 net.cpp:481] res3c_relu <- res3c
I0828 16:03:54.015483 22492 net.cpp:442] res3c_relu -> res3c (in-place)
I0828 16:03:54.015487 22492 net.cpp:190] Setting up res3c_relu
I0828 16:03:54.015491 22492 net.cpp:197] Top shape: 20 512 28 28 (8028160)
I0828 16:03:54.015493 22492 net.cpp:205] Memory required for data: 2548940880
I0828 16:03:54.015496 22492 layer_factory.hpp:123] Creating layer res3c_res3c_relu_0_split
I0828 16:03:54.015499 22492 net.cpp:140] Creating Layer res3c_res3c_relu_0_split
I0828 16:03:54.015502 22492 net.cpp:481] res3c_res3c_relu_0_split <- res3c
I0828 16:03:54.015506 22492 net.cpp:455] res3c_res3c_relu_0_split -> res3c_res3c_relu_0_split_0
I0828 16:03:54.015511 22492 net.cpp:455] res3c_res3c_relu_0_split -> res3c_res3c_relu_0_split_1
I0828 16:03:54.015532 22492 net.cpp:190] Setting up res3c_res3c_relu_0_split
I0828 16:03:54.015537 22492 net.cpp:197] Top shape: 20 512 28 28 (8028160)
I0828 16:03:54.015539 22492 net.cpp:197] Top shape: 20 512 28 28 (8028160)
I0828 16:03:54.015542 22492 net.cpp:205] Memory required for data: 2613166160
I0828 16:03:54.015544 22492 layer_factory.hpp:123] Creating layer res3d_branch2a
I0828 16:03:54.015550 22492 net.cpp:140] Creating Layer res3d_branch2a
I0828 16:03:54.015553 22492 net.cpp:481] res3d_branch2a <- res3c_res3c_relu_0_split_0
I0828 16:03:54.015558 22492 net.cpp:455] res3d_branch2a -> res3d_branch2a
I0828 16:03:54.016228 22492 net.cpp:190] Setting up res3d_branch2a
I0828 16:03:54.016237 22492 net.cpp:197] Top shape: 20 128 28 28 (2007040)
I0828 16:03:54.016240 22492 net.cpp:205] Memory required for data: 2621194320
I0828 16:03:54.016244 22492 layer_factory.hpp:123] Creating layer bn3d_branch2a
I0828 16:03:54.016249 22492 net.cpp:140] Creating Layer bn3d_branch2a
I0828 16:03:54.016253 22492 net.cpp:481] bn3d_branch2a <- res3d_branch2a
I0828 16:03:54.016258 22492 net.cpp:442] bn3d_branch2a -> res3d_branch2a (in-place)
I0828 16:03:54.016661 22492 net.cpp:190] Setting up bn3d_branch2a
I0828 16:03:54.016669 22492 net.cpp:197] Top shape: 20 128 28 28 (2007040)
I0828 16:03:54.016671 22492 net.cpp:205] Memory required for data: 2629222480
I0828 16:03:54.016683 22492 layer_factory.hpp:123] Creating layer res3d_branch2a_relu
I0828 16:03:54.016688 22492 net.cpp:140] Creating Layer res3d_branch2a_relu
I0828 16:03:54.016691 22492 net.cpp:481] res3d_branch2a_relu <- res3d_branch2a
I0828 16:03:54.016695 22492 net.cpp:442] res3d_branch2a_relu -> res3d_branch2a (in-place)
I0828 16:03:54.016700 22492 net.cpp:190] Setting up res3d_branch2a_relu
I0828 16:03:54.016703 22492 net.cpp:197] Top shape: 20 128 28 28 (2007040)
I0828 16:03:54.016705 22492 net.cpp:205] Memory required for data: 2637250640
I0828 16:03:54.016712 22492 layer_factory.hpp:123] Creating layer res3d_branch2b
I0828 16:03:54.016717 22492 net.cpp:140] Creating Layer res3d_branch2b
I0828 16:03:54.016721 22492 net.cpp:481] res3d_branch2b <- res3d_branch2a
I0828 16:03:54.016726 22492 net.cpp:455] res3d_branch2b -> res3d_branch2b
I0828 16:03:54.017750 22492 net.cpp:190] Setting up res3d_branch2b
I0828 16:03:54.017760 22492 net.cpp:197] Top shape: 20 128 28 28 (2007040)
I0828 16:03:54.017762 22492 net.cpp:205] Memory required for data: 2645278800
I0828 16:03:54.017766 22492 layer_factory.hpp:123] Creating layer bn3d_branch2b
I0828 16:03:54.017771 22492 net.cpp:140] Creating Layer bn3d_branch2b
I0828 16:03:54.017776 22492 net.cpp:481] bn3d_branch2b <- res3d_branch2b
I0828 16:03:54.017779 22492 net.cpp:442] bn3d_branch2b -> res3d_branch2b (in-place)
I0828 16:03:54.018177 22492 net.cpp:190] Setting up bn3d_branch2b
I0828 16:03:54.018184 22492 net.cpp:197] Top shape: 20 128 28 28 (2007040)
I0828 16:03:54.018187 22492 net.cpp:205] Memory required for data: 2653306960
I0828 16:03:54.018193 22492 layer_factory.hpp:123] Creating layer res3d_branch2b_relu
I0828 16:03:54.018198 22492 net.cpp:140] Creating Layer res3d_branch2b_relu
I0828 16:03:54.018203 22492 net.cpp:481] res3d_branch2b_relu <- res3d_branch2b
I0828 16:03:54.018205 22492 net.cpp:442] res3d_branch2b_relu -> res3d_branch2b (in-place)
I0828 16:03:54.018210 22492 net.cpp:190] Setting up res3d_branch2b_relu
I0828 16:03:54.018214 22492 net.cpp:197] Top shape: 20 128 28 28 (2007040)
I0828 16:03:54.018221 22492 net.cpp:205] Memory required for data: 2661335120
I0828 16:03:54.018224 22492 layer_factory.hpp:123] Creating layer res3d_branch2c
I0828 16:03:54.018230 22492 net.cpp:140] Creating Layer res3d_branch2c
I0828 16:03:54.018232 22492 net.cpp:481] res3d_branch2c <- res3d_branch2b
I0828 16:03:54.018237 22492 net.cpp:455] res3d_branch2c -> res3d_branch2c
I0828 16:03:54.018929 22492 net.cpp:190] Setting up res3d_branch2c
I0828 16:03:54.018939 22492 net.cpp:197] Top shape: 20 512 28 28 (8028160)
I0828 16:03:54.018941 22492 net.cpp:205] Memory required for data: 2693447760
I0828 16:03:54.018946 22492 layer_factory.hpp:123] Creating layer bn3d_branch2c
I0828 16:03:54.018951 22492 net.cpp:140] Creating Layer bn3d_branch2c
I0828 16:03:54.018955 22492 net.cpp:481] bn3d_branch2c <- res3d_branch2c
I0828 16:03:54.018959 22492 net.cpp:442] bn3d_branch2c -> res3d_branch2c (in-place)
I0828 16:03:54.019354 22492 net.cpp:190] Setting up bn3d_branch2c
I0828 16:03:54.019361 22492 net.cpp:197] Top shape: 20 512 28 28 (8028160)
I0828 16:03:54.019368 22492 net.cpp:205] Memory required for data: 2725560400
I0828 16:03:54.019376 22492 layer_factory.hpp:123] Creating layer res3d
I0828 16:03:54.019381 22492 net.cpp:140] Creating Layer res3d
I0828 16:03:54.019385 22492 net.cpp:481] res3d <- res3c_res3c_relu_0_split_1
I0828 16:03:54.019389 22492 net.cpp:481] res3d <- res3d_branch2c
I0828 16:03:54.019392 22492 net.cpp:455] res3d -> res3d
I0828 16:03:54.019408 22492 net.cpp:190] Setting up res3d
I0828 16:03:54.019412 22492 net.cpp:197] Top shape: 20 512 28 28 (8028160)
I0828 16:03:54.019415 22492 net.cpp:205] Memory required for data: 2757673040
I0828 16:03:54.019418 22492 layer_factory.hpp:123] Creating layer res3d_relu
I0828 16:03:54.019423 22492 net.cpp:140] Creating Layer res3d_relu
I0828 16:03:54.019424 22492 net.cpp:481] res3d_relu <- res3d
I0828 16:03:54.019428 22492 net.cpp:442] res3d_relu -> res3d (in-place)
I0828 16:03:54.019433 22492 net.cpp:190] Setting up res3d_relu
I0828 16:03:54.019436 22492 net.cpp:197] Top shape: 20 512 28 28 (8028160)
I0828 16:03:54.019438 22492 net.cpp:205] Memory required for data: 2789785680
I0828 16:03:54.019441 22492 layer_factory.hpp:123] Creating layer res3d_res3d_relu_0_split
I0828 16:03:54.019444 22492 net.cpp:140] Creating Layer res3d_res3d_relu_0_split
I0828 16:03:54.019448 22492 net.cpp:481] res3d_res3d_relu_0_split <- res3d
I0828 16:03:54.019450 22492 net.cpp:455] res3d_res3d_relu_0_split -> res3d_res3d_relu_0_split_0
I0828 16:03:54.019455 22492 net.cpp:455] res3d_res3d_relu_0_split -> res3d_res3d_relu_0_split_1
I0828 16:03:54.019476 22492 net.cpp:190] Setting up res3d_res3d_relu_0_split
I0828 16:03:54.019480 22492 net.cpp:197] Top shape: 20 512 28 28 (8028160)
I0828 16:03:54.019484 22492 net.cpp:197] Top shape: 20 512 28 28 (8028160)
I0828 16:03:54.019486 22492 net.cpp:205] Memory required for data: 2854010960
I0828 16:03:54.019488 22492 layer_factory.hpp:123] Creating layer res4a_branch1
I0828 16:03:54.019495 22492 net.cpp:140] Creating Layer res4a_branch1
I0828 16:03:54.019497 22492 net.cpp:481] res4a_branch1 <- res3d_res3d_relu_0_split_0
I0828 16:03:54.019501 22492 net.cpp:455] res4a_branch1 -> res4a_branch1
I0828 16:03:54.022784 22492 net.cpp:190] Setting up res4a_branch1
I0828 16:03:54.022799 22492 net.cpp:197] Top shape: 20 1024 14 14 (4014080)
I0828 16:03:54.022801 22492 net.cpp:205] Memory required for data: 2870067280
I0828 16:03:54.022807 22492 layer_factory.hpp:123] Creating layer bn4a_branch1
I0828 16:03:54.022814 22492 net.cpp:140] Creating Layer bn4a_branch1
I0828 16:03:54.022819 22492 net.cpp:481] bn4a_branch1 <- res4a_branch1
I0828 16:03:54.022822 22492 net.cpp:442] bn4a_branch1 -> res4a_branch1 (in-place)
I0828 16:03:54.023257 22492 net.cpp:190] Setting up bn4a_branch1
I0828 16:03:54.023265 22492 net.cpp:197] Top shape: 20 1024 14 14 (4014080)
I0828 16:03:54.023269 22492 net.cpp:205] Memory required for data: 2886123600
I0828 16:03:54.023277 22492 layer_factory.hpp:123] Creating layer res4a_branch2a
I0828 16:03:54.023283 22492 net.cpp:140] Creating Layer res4a_branch2a
I0828 16:03:54.023288 22492 net.cpp:481] res4a_branch2a <- res3d_res3d_relu_0_split_1
I0828 16:03:54.023293 22492 net.cpp:455] res4a_branch2a -> res4a_branch2a
I0828 16:03:54.024283 22492 net.cpp:190] Setting up res4a_branch2a
I0828 16:03:54.024293 22492 net.cpp:197] Top shape: 20 256 14 14 (1003520)
I0828 16:03:54.024296 22492 net.cpp:205] Memory required for data: 2890137680
I0828 16:03:54.024300 22492 layer_factory.hpp:123] Creating layer bn4a_branch2a
I0828 16:03:54.024307 22492 net.cpp:140] Creating Layer bn4a_branch2a
I0828 16:03:54.024310 22492 net.cpp:481] bn4a_branch2a <- res4a_branch2a
I0828 16:03:54.024314 22492 net.cpp:442] bn4a_branch2a -> res4a_branch2a (in-place)
I0828 16:03:54.024775 22492 net.cpp:190] Setting up bn4a_branch2a
I0828 16:03:54.024781 22492 net.cpp:197] Top shape: 20 256 14 14 (1003520)
I0828 16:03:54.024798 22492 net.cpp:205] Memory required for data: 2894151760
I0828 16:03:54.024806 22492 layer_factory.hpp:123] Creating layer res4a_branch2a_relu
I0828 16:03:54.024811 22492 net.cpp:140] Creating Layer res4a_branch2a_relu
I0828 16:03:54.024814 22492 net.cpp:481] res4a_branch2a_relu <- res4a_branch2a
I0828 16:03:54.024818 22492 net.cpp:442] res4a_branch2a_relu -> res4a_branch2a (in-place)
I0828 16:03:54.024823 22492 net.cpp:190] Setting up res4a_branch2a_relu
I0828 16:03:54.024828 22492 net.cpp:197] Top shape: 20 256 14 14 (1003520)
I0828 16:03:54.024832 22492 net.cpp:205] Memory required for data: 2898165840
I0828 16:03:54.024833 22492 layer_factory.hpp:123] Creating layer res4a_branch2b
I0828 16:03:54.024839 22492 net.cpp:140] Creating Layer res4a_branch2b
I0828 16:03:54.024842 22492 net.cpp:481] res4a_branch2b <- res4a_branch2a
I0828 16:03:54.024847 22492 net.cpp:455] res4a_branch2b -> res4a_branch2b
I0828 16:03:54.028472 22492 net.cpp:190] Setting up res4a_branch2b
I0828 16:03:54.028499 22492 net.cpp:197] Top shape: 20 256 14 14 (1003520)
I0828 16:03:54.028503 22492 net.cpp:205] Memory required for data: 2902179920
I0828 16:03:54.028508 22492 layer_factory.hpp:123] Creating layer bn4a_branch2b
I0828 16:03:54.028517 22492 net.cpp:140] Creating Layer bn4a_branch2b
I0828 16:03:54.028520 22492 net.cpp:481] bn4a_branch2b <- res4a_branch2b
I0828 16:03:54.028527 22492 net.cpp:442] bn4a_branch2b -> res4a_branch2b (in-place)
I0828 16:03:54.028964 22492 net.cpp:190] Setting up bn4a_branch2b
I0828 16:03:54.028970 22492 net.cpp:197] Top shape: 20 256 14 14 (1003520)
I0828 16:03:54.028987 22492 net.cpp:205] Memory required for data: 2906194000
I0828 16:03:54.028993 22492 layer_factory.hpp:123] Creating layer res4a_branch2b_relu
I0828 16:03:54.029019 22492 net.cpp:140] Creating Layer res4a_branch2b_relu
I0828 16:03:54.029023 22492 net.cpp:481] res4a_branch2b_relu <- res4a_branch2b
I0828 16:03:54.029028 22492 net.cpp:442] res4a_branch2b_relu -> res4a_branch2b (in-place)
I0828 16:03:54.029038 22492 net.cpp:190] Setting up res4a_branch2b_relu
I0828 16:03:54.029044 22492 net.cpp:197] Top shape: 20 256 14 14 (1003520)
I0828 16:03:54.029047 22492 net.cpp:205] Memory required for data: 2910208080
I0828 16:03:54.029049 22492 layer_factory.hpp:123] Creating layer res4a_branch2c
I0828 16:03:54.029058 22492 net.cpp:140] Creating Layer res4a_branch2c
I0828 16:03:54.029062 22492 net.cpp:481] res4a_branch2c <- res4a_branch2b
I0828 16:03:54.029075 22492 net.cpp:455] res4a_branch2c -> res4a_branch2c
I0828 16:03:54.030931 22492 net.cpp:190] Setting up res4a_branch2c
I0828 16:03:54.030941 22492 net.cpp:197] Top shape: 20 1024 14 14 (4014080)
I0828 16:03:54.030959 22492 net.cpp:205] Memory required for data: 2926264400
I0828 16:03:54.030963 22492 layer_factory.hpp:123] Creating layer bn4a_branch2c
I0828 16:03:54.030970 22492 net.cpp:140] Creating Layer bn4a_branch2c
I0828 16:03:54.030989 22492 net.cpp:481] bn4a_branch2c <- res4a_branch2c
I0828 16:03:54.030995 22492 net.cpp:442] bn4a_branch2c -> res4a_branch2c (in-place)
I0828 16:03:54.031463 22492 net.cpp:190] Setting up bn4a_branch2c
I0828 16:03:54.031471 22492 net.cpp:197] Top shape: 20 1024 14 14 (4014080)
I0828 16:03:54.031488 22492 net.cpp:205] Memory required for data: 2942320720
I0828 16:03:54.031496 22492 layer_factory.hpp:123] Creating layer res4a
I0828 16:03:54.031502 22492 net.cpp:140] Creating Layer res4a
I0828 16:03:54.031522 22492 net.cpp:481] res4a <- res4a_branch1
I0828 16:03:54.031527 22492 net.cpp:481] res4a <- res4a_branch2c
I0828 16:03:54.031534 22492 net.cpp:455] res4a -> res4a
I0828 16:03:54.031558 22492 net.cpp:190] Setting up res4a
I0828 16:03:54.031563 22492 net.cpp:197] Top shape: 20 1024 14 14 (4014080)
I0828 16:03:54.031565 22492 net.cpp:205] Memory required for data: 2958377040
I0828 16:03:54.031569 22492 layer_factory.hpp:123] Creating layer res4a_relu
I0828 16:03:54.031572 22492 net.cpp:140] Creating Layer res4a_relu
I0828 16:03:54.031575 22492 net.cpp:481] res4a_relu <- res4a
I0828 16:03:54.031579 22492 net.cpp:442] res4a_relu -> res4a (in-place)
I0828 16:03:54.031584 22492 net.cpp:190] Setting up res4a_relu
I0828 16:03:54.031587 22492 net.cpp:197] Top shape: 20 1024 14 14 (4014080)
I0828 16:03:54.031589 22492 net.cpp:205] Memory required for data: 2974433360
I0828 16:03:54.031592 22492 layer_factory.hpp:123] Creating layer res4a_res4a_relu_0_split
I0828 16:03:54.031596 22492 net.cpp:140] Creating Layer res4a_res4a_relu_0_split
I0828 16:03:54.031599 22492 net.cpp:481] res4a_res4a_relu_0_split <- res4a
I0828 16:03:54.031605 22492 net.cpp:455] res4a_res4a_relu_0_split -> res4a_res4a_relu_0_split_0
I0828 16:03:54.031610 22492 net.cpp:455] res4a_res4a_relu_0_split -> res4a_res4a_relu_0_split_1
I0828 16:03:54.031649 22492 net.cpp:190] Setting up res4a_res4a_relu_0_split
I0828 16:03:54.031654 22492 net.cpp:197] Top shape: 20 1024 14 14 (4014080)
I0828 16:03:54.031658 22492 net.cpp:197] Top shape: 20 1024 14 14 (4014080)
I0828 16:03:54.031661 22492 net.cpp:205] Memory required for data: 3006546000
I0828 16:03:54.031662 22492 layer_factory.hpp:123] Creating layer res4b_branch2a
I0828 16:03:54.031669 22492 net.cpp:140] Creating Layer res4b_branch2a
I0828 16:03:54.031672 22492 net.cpp:481] res4b_branch2a <- res4a_res4a_relu_0_split_0
I0828 16:03:54.031678 22492 net.cpp:455] res4b_branch2a -> res4b_branch2a
I0828 16:03:54.033462 22492 net.cpp:190] Setting up res4b_branch2a
I0828 16:03:54.033471 22492 net.cpp:197] Top shape: 20 256 14 14 (1003520)
I0828 16:03:54.033475 22492 net.cpp:205] Memory required for data: 3010560080
I0828 16:03:54.033496 22492 layer_factory.hpp:123] Creating layer bn4b_branch2a
I0828 16:03:54.033505 22492 net.cpp:140] Creating Layer bn4b_branch2a
I0828 16:03:54.033509 22492 net.cpp:481] bn4b_branch2a <- res4b_branch2a
I0828 16:03:54.033512 22492 net.cpp:442] bn4b_branch2a -> res4b_branch2a (in-place)
I0828 16:03:54.033952 22492 net.cpp:190] Setting up bn4b_branch2a
I0828 16:03:54.033959 22492 net.cpp:197] Top shape: 20 256 14 14 (1003520)
I0828 16:03:54.033977 22492 net.cpp:205] Memory required for data: 3014574160
I0828 16:03:54.033983 22492 layer_factory.hpp:123] Creating layer res4b_branch2a_relu
I0828 16:03:54.034003 22492 net.cpp:140] Creating Layer res4b_branch2a_relu
I0828 16:03:54.034005 22492 net.cpp:481] res4b_branch2a_relu <- res4b_branch2a
I0828 16:03:54.034008 22492 net.cpp:442] res4b_branch2a_relu -> res4b_branch2a (in-place)
I0828 16:03:54.034014 22492 net.cpp:190] Setting up res4b_branch2a_relu
I0828 16:03:54.034020 22492 net.cpp:197] Top shape: 20 256 14 14 (1003520)
I0828 16:03:54.034023 22492 net.cpp:205] Memory required for data: 3018588240
I0828 16:03:54.034024 22492 layer_factory.hpp:123] Creating layer res4b_branch2b
I0828 16:03:54.034030 22492 net.cpp:140] Creating Layer res4b_branch2b
I0828 16:03:54.034034 22492 net.cpp:481] res4b_branch2b <- res4b_branch2a
I0828 16:03:54.034039 22492 net.cpp:455] res4b_branch2b -> res4b_branch2b
I0828 16:03:54.037678 22492 net.cpp:190] Setting up res4b_branch2b
I0828 16:03:54.037706 22492 net.cpp:197] Top shape: 20 256 14 14 (1003520)
I0828 16:03:54.037709 22492 net.cpp:205] Memory required for data: 3022602320
I0828 16:03:54.037714 22492 layer_factory.hpp:123] Creating layer bn4b_branch2b
I0828 16:03:54.037722 22492 net.cpp:140] Creating Layer bn4b_branch2b
I0828 16:03:54.037727 22492 net.cpp:481] bn4b_branch2b <- res4b_branch2b
I0828 16:03:54.037732 22492 net.cpp:442] bn4b_branch2b -> res4b_branch2b (in-place)
I0828 16:03:54.038175 22492 net.cpp:190] Setting up bn4b_branch2b
I0828 16:03:54.038182 22492 net.cpp:197] Top shape: 20 256 14 14 (1003520)
I0828 16:03:54.038199 22492 net.cpp:205] Memory required for data: 3026616400
I0828 16:03:54.038226 22492 layer_factory.hpp:123] Creating layer res4b_branch2b_relu
I0828 16:03:54.038233 22492 net.cpp:140] Creating Layer res4b_branch2b_relu
I0828 16:03:54.038235 22492 net.cpp:481] res4b_branch2b_relu <- res4b_branch2b
I0828 16:03:54.038239 22492 net.cpp:442] res4b_branch2b_relu -> res4b_branch2b (in-place)
I0828 16:03:54.038244 22492 net.cpp:190] Setting up res4b_branch2b_relu
I0828 16:03:54.038249 22492 net.cpp:197] Top shape: 20 256 14 14 (1003520)
I0828 16:03:54.038251 22492 net.cpp:205] Memory required for data: 3030630480
I0828 16:03:54.038254 22492 layer_factory.hpp:123] Creating layer res4b_branch2c
I0828 16:03:54.038260 22492 net.cpp:140] Creating Layer res4b_branch2c
I0828 16:03:54.038264 22492 net.cpp:481] res4b_branch2c <- res4b_branch2b
I0828 16:03:54.038269 22492 net.cpp:455] res4b_branch2c -> res4b_branch2c
I0828 16:03:54.040086 22492 net.cpp:190] Setting up res4b_branch2c
I0828 16:03:54.040110 22492 net.cpp:197] Top shape: 20 1024 14 14 (4014080)
I0828 16:03:54.040113 22492 net.cpp:205] Memory required for data: 3046686800
I0828 16:03:54.040118 22492 layer_factory.hpp:123] Creating layer bn4b_branch2c
I0828 16:03:54.040136 22492 net.cpp:140] Creating Layer bn4b_branch2c
I0828 16:03:54.040140 22492 net.cpp:481] bn4b_branch2c <- res4b_branch2c
I0828 16:03:54.040146 22492 net.cpp:442] bn4b_branch2c -> res4b_branch2c (in-place)
I0828 16:03:54.040609 22492 net.cpp:190] Setting up bn4b_branch2c
I0828 16:03:54.040617 22492 net.cpp:197] Top shape: 20 1024 14 14 (4014080)
I0828 16:03:54.040635 22492 net.cpp:205] Memory required for data: 3062743120
I0828 16:03:54.040642 22492 layer_factory.hpp:123] Creating layer res4b
I0828 16:03:54.040663 22492 net.cpp:140] Creating Layer res4b
I0828 16:03:54.040668 22492 net.cpp:481] res4b <- res4a_res4a_relu_0_split_1
I0828 16:03:54.040673 22492 net.cpp:481] res4b <- res4b_branch2c
I0828 16:03:54.040680 22492 net.cpp:455] res4b -> res4b
I0828 16:03:54.040706 22492 net.cpp:190] Setting up res4b
I0828 16:03:54.040711 22492 net.cpp:197] Top shape: 20 1024 14 14 (4014080)
I0828 16:03:54.040714 22492 net.cpp:205] Memory required for data: 3078799440
I0828 16:03:54.040717 22492 layer_factory.hpp:123] Creating layer res4b_relu
I0828 16:03:54.040721 22492 net.cpp:140] Creating Layer res4b_relu
I0828 16:03:54.040724 22492 net.cpp:481] res4b_relu <- res4b
I0828 16:03:54.040729 22492 net.cpp:442] res4b_relu -> res4b (in-place)
I0828 16:03:54.040733 22492 net.cpp:190] Setting up res4b_relu
I0828 16:03:54.040736 22492 net.cpp:197] Top shape: 20 1024 14 14 (4014080)
I0828 16:03:54.040738 22492 net.cpp:205] Memory required for data: 3094855760
I0828 16:03:54.040741 22492 layer_factory.hpp:123] Creating layer res4b_res4b_relu_0_split
I0828 16:03:54.040745 22492 net.cpp:140] Creating Layer res4b_res4b_relu_0_split
I0828 16:03:54.040750 22492 net.cpp:481] res4b_res4b_relu_0_split <- res4b
I0828 16:03:54.040755 22492 net.cpp:455] res4b_res4b_relu_0_split -> res4b_res4b_relu_0_split_0
I0828 16:03:54.040762 22492 net.cpp:455] res4b_res4b_relu_0_split -> res4b_res4b_relu_0_split_1
I0828 16:03:54.040788 22492 net.cpp:190] Setting up res4b_res4b_relu_0_split
I0828 16:03:54.040793 22492 net.cpp:197] Top shape: 20 1024 14 14 (4014080)
I0828 16:03:54.040797 22492 net.cpp:197] Top shape: 20 1024 14 14 (4014080)
I0828 16:03:54.040799 22492 net.cpp:205] Memory required for data: 3126968400
I0828 16:03:54.040802 22492 layer_factory.hpp:123] Creating layer res4c_branch2a
I0828 16:03:54.040807 22492 net.cpp:140] Creating Layer res4c_branch2a
I0828 16:03:54.040810 22492 net.cpp:481] res4c_branch2a <- res4b_res4b_relu_0_split_0
I0828 16:03:54.040814 22492 net.cpp:455] res4c_branch2a -> res4c_branch2a
I0828 16:03:54.042583 22492 net.cpp:190] Setting up res4c_branch2a
I0828 16:03:54.042593 22492 net.cpp:197] Top shape: 20 256 14 14 (1003520)
I0828 16:03:54.042596 22492 net.cpp:205] Memory required for data: 3130982480
I0828 16:03:54.042603 22492 layer_factory.hpp:123] Creating layer bn4c_branch2a
I0828 16:03:54.042625 22492 net.cpp:140] Creating Layer bn4c_branch2a
I0828 16:03:54.042629 22492 net.cpp:481] bn4c_branch2a <- res4c_branch2a
I0828 16:03:54.042634 22492 net.cpp:442] bn4c_branch2a -> res4c_branch2a (in-place)
I0828 16:03:54.043061 22492 net.cpp:190] Setting up bn4c_branch2a
I0828 16:03:54.043072 22492 net.cpp:197] Top shape: 20 256 14 14 (1003520)
I0828 16:03:54.043094 22492 net.cpp:205] Memory required for data: 3134996560
I0828 16:03:54.043102 22492 layer_factory.hpp:123] Creating layer res4c_branch2a_relu
I0828 16:03:54.043108 22492 net.cpp:140] Creating Layer res4c_branch2a_relu
I0828 16:03:54.043113 22492 net.cpp:481] res4c_branch2a_relu <- res4c_branch2a
I0828 16:03:54.043117 22492 net.cpp:442] res4c_branch2a_relu -> res4c_branch2a (in-place)
I0828 16:03:54.043123 22492 net.cpp:190] Setting up res4c_branch2a_relu
I0828 16:03:54.043126 22492 net.cpp:197] Top shape: 20 256 14 14 (1003520)
I0828 16:03:54.043129 22492 net.cpp:205] Memory required for data: 3139010640
I0828 16:03:54.043131 22492 layer_factory.hpp:123] Creating layer res4c_branch2b
I0828 16:03:54.043138 22492 net.cpp:140] Creating Layer res4c_branch2b
I0828 16:03:54.043140 22492 net.cpp:481] res4c_branch2b <- res4c_branch2a
I0828 16:03:54.043144 22492 net.cpp:455] res4c_branch2b -> res4c_branch2b
I0828 16:03:54.046766 22492 net.cpp:190] Setting up res4c_branch2b
I0828 16:03:54.046783 22492 net.cpp:197] Top shape: 20 256 14 14 (1003520)
I0828 16:03:54.046787 22492 net.cpp:205] Memory required for data: 3143024720
I0828 16:03:54.046805 22492 layer_factory.hpp:123] Creating layer bn4c_branch2b
I0828 16:03:54.046815 22492 net.cpp:140] Creating Layer bn4c_branch2b
I0828 16:03:54.046821 22492 net.cpp:481] bn4c_branch2b <- res4c_branch2b
I0828 16:03:54.046830 22492 net.cpp:442] bn4c_branch2b -> res4c_branch2b (in-place)
I0828 16:03:54.047283 22492 net.cpp:190] Setting up bn4c_branch2b
I0828 16:03:54.047291 22492 net.cpp:197] Top shape: 20 256 14 14 (1003520)
I0828 16:03:54.047296 22492 net.cpp:205] Memory required for data: 3147038800
I0828 16:03:54.047319 22492 layer_factory.hpp:123] Creating layer res4c_branch2b_relu
I0828 16:03:54.047327 22492 net.cpp:140] Creating Layer res4c_branch2b_relu
I0828 16:03:54.047330 22492 net.cpp:481] res4c_branch2b_relu <- res4c_branch2b
I0828 16:03:54.047334 22492 net.cpp:442] res4c_branch2b_relu -> res4c_branch2b (in-place)
I0828 16:03:54.047343 22492 net.cpp:190] Setting up res4c_branch2b_relu
I0828 16:03:54.047346 22492 net.cpp:197] Top shape: 20 256 14 14 (1003520)
I0828 16:03:54.047348 22492 net.cpp:205] Memory required for data: 3151052880
I0828 16:03:54.047351 22492 layer_factory.hpp:123] Creating layer res4c_branch2c
I0828 16:03:54.047358 22492 net.cpp:140] Creating Layer res4c_branch2c
I0828 16:03:54.047361 22492 net.cpp:481] res4c_branch2c <- res4c_branch2b
I0828 16:03:54.047365 22492 net.cpp:455] res4c_branch2c -> res4c_branch2c
I0828 16:03:54.049178 22492 net.cpp:190] Setting up res4c_branch2c
I0828 16:03:54.049190 22492 net.cpp:197] Top shape: 20 1024 14 14 (4014080)
I0828 16:03:54.049191 22492 net.cpp:205] Memory required for data: 3167109200
I0828 16:03:54.049196 22492 layer_factory.hpp:123] Creating layer bn4c_branch2c
I0828 16:03:54.049202 22492 net.cpp:140] Creating Layer bn4c_branch2c
I0828 16:03:54.049207 22492 net.cpp:481] bn4c_branch2c <- res4c_branch2c
I0828 16:03:54.049211 22492 net.cpp:442] bn4c_branch2c -> res4c_branch2c (in-place)
I0828 16:03:54.049634 22492 net.cpp:190] Setting up bn4c_branch2c
I0828 16:03:54.049645 22492 net.cpp:197] Top shape: 20 1024 14 14 (4014080)
I0828 16:03:54.049649 22492 net.cpp:205] Memory required for data: 3183165520
I0828 16:03:54.049655 22492 layer_factory.hpp:123] Creating layer res4c
I0828 16:03:54.049661 22492 net.cpp:140] Creating Layer res4c
I0828 16:03:54.049664 22492 net.cpp:481] res4c <- res4b_res4b_relu_0_split_1
I0828 16:03:54.049669 22492 net.cpp:481] res4c <- res4c_branch2c
I0828 16:03:54.049672 22492 net.cpp:455] res4c -> res4c
I0828 16:03:54.049687 22492 net.cpp:190] Setting up res4c
I0828 16:03:54.049692 22492 net.cpp:197] Top shape: 20 1024 14 14 (4014080)
I0828 16:03:54.049695 22492 net.cpp:205] Memory required for data: 3199221840
I0828 16:03:54.049697 22492 layer_factory.hpp:123] Creating layer res4c_relu
I0828 16:03:54.049715 22492 net.cpp:140] Creating Layer res4c_relu
I0828 16:03:54.049717 22492 net.cpp:481] res4c_relu <- res4c
I0828 16:03:54.049721 22492 net.cpp:442] res4c_relu -> res4c (in-place)
I0828 16:03:54.049741 22492 net.cpp:190] Setting up res4c_relu
I0828 16:03:54.049743 22492 net.cpp:197] Top shape: 20 1024 14 14 (4014080)
I0828 16:03:54.049746 22492 net.cpp:205] Memory required for data: 3215278160
I0828 16:03:54.049748 22492 layer_factory.hpp:123] Creating layer res4c_res4c_relu_0_split
I0828 16:03:54.049753 22492 net.cpp:140] Creating Layer res4c_res4c_relu_0_split
I0828 16:03:54.049757 22492 net.cpp:481] res4c_res4c_relu_0_split <- res4c
I0828 16:03:54.049763 22492 net.cpp:455] res4c_res4c_relu_0_split -> res4c_res4c_relu_0_split_0
I0828 16:03:54.049770 22492 net.cpp:455] res4c_res4c_relu_0_split -> res4c_res4c_relu_0_split_1
I0828 16:03:54.049798 22492 net.cpp:190] Setting up res4c_res4c_relu_0_split
I0828 16:03:54.049815 22492 net.cpp:197] Top shape: 20 1024 14 14 (4014080)
I0828 16:03:54.049818 22492 net.cpp:197] Top shape: 20 1024 14 14 (4014080)
I0828 16:03:54.049821 22492 net.cpp:205] Memory required for data: 3247390800
I0828 16:03:54.049823 22492 layer_factory.hpp:123] Creating layer res4d_branch2a
I0828 16:03:54.049844 22492 net.cpp:140] Creating Layer res4d_branch2a
I0828 16:03:54.049847 22492 net.cpp:481] res4d_branch2a <- res4c_res4c_relu_0_split_0
I0828 16:03:54.049854 22492 net.cpp:455] res4d_branch2a -> res4d_branch2a
I0828 16:03:54.051658 22492 net.cpp:190] Setting up res4d_branch2a
I0828 16:03:54.051669 22492 net.cpp:197] Top shape: 20 256 14 14 (1003520)
I0828 16:03:54.051673 22492 net.cpp:205] Memory required for data: 3251404880
I0828 16:03:54.051679 22492 layer_factory.hpp:123] Creating layer bn4d_branch2a
I0828 16:03:54.051687 22492 net.cpp:140] Creating Layer bn4d_branch2a
I0828 16:03:54.051692 22492 net.cpp:481] bn4d_branch2a <- res4d_branch2a
I0828 16:03:54.051697 22492 net.cpp:442] bn4d_branch2a -> res4d_branch2a (in-place)
I0828 16:03:54.052188 22492 net.cpp:190] Setting up bn4d_branch2a
I0828 16:03:54.052196 22492 net.cpp:197] Top shape: 20 256 14 14 (1003520)
I0828 16:03:54.052213 22492 net.cpp:205] Memory required for data: 3255418960
I0828 16:03:54.052219 22492 layer_factory.hpp:123] Creating layer res4d_branch2a_relu
I0828 16:03:54.052240 22492 net.cpp:140] Creating Layer res4d_branch2a_relu
I0828 16:03:54.052243 22492 net.cpp:481] res4d_branch2a_relu <- res4d_branch2a
I0828 16:03:54.052248 22492 net.cpp:442] res4d_branch2a_relu -> res4d_branch2a (in-place)
I0828 16:03:54.052258 22492 net.cpp:190] Setting up res4d_branch2a_relu
I0828 16:03:54.052263 22492 net.cpp:197] Top shape: 20 256 14 14 (1003520)
I0828 16:03:54.052265 22492 net.cpp:205] Memory required for data: 3259433040
I0828 16:03:54.052268 22492 layer_factory.hpp:123] Creating layer res4d_branch2b
I0828 16:03:54.052275 22492 net.cpp:140] Creating Layer res4d_branch2b
I0828 16:03:54.052280 22492 net.cpp:481] res4d_branch2b <- res4d_branch2a
I0828 16:03:54.052285 22492 net.cpp:455] res4d_branch2b -> res4d_branch2b
I0828 16:03:54.055986 22492 net.cpp:190] Setting up res4d_branch2b
I0828 16:03:54.056002 22492 net.cpp:197] Top shape: 20 256 14 14 (1003520)
I0828 16:03:54.056005 22492 net.cpp:205] Memory required for data: 3263447120
I0828 16:03:54.056025 22492 layer_factory.hpp:123] Creating layer bn4d_branch2b
I0828 16:03:54.056033 22492 net.cpp:140] Creating Layer bn4d_branch2b
I0828 16:03:54.056041 22492 net.cpp:481] bn4d_branch2b <- res4d_branch2b
I0828 16:03:54.056046 22492 net.cpp:442] bn4d_branch2b -> res4d_branch2b (in-place)
I0828 16:03:54.056529 22492 net.cpp:190] Setting up bn4d_branch2b
I0828 16:03:54.056536 22492 net.cpp:197] Top shape: 20 256 14 14 (1003520)
I0828 16:03:54.056555 22492 net.cpp:205] Memory required for data: 3267461200
I0828 16:03:54.056561 22492 layer_factory.hpp:123] Creating layer res4d_branch2b_relu
I0828 16:03:54.056583 22492 net.cpp:140] Creating Layer res4d_branch2b_relu
I0828 16:03:54.056589 22492 net.cpp:481] res4d_branch2b_relu <- res4d_branch2b
I0828 16:03:54.056594 22492 net.cpp:442] res4d_branch2b_relu -> res4d_branch2b (in-place)
I0828 16:03:54.056603 22492 net.cpp:190] Setting up res4d_branch2b_relu
I0828 16:03:54.056607 22492 net.cpp:197] Top shape: 20 256 14 14 (1003520)
I0828 16:03:54.056610 22492 net.cpp:205] Memory required for data: 3271475280
I0828 16:03:54.056614 22492 layer_factory.hpp:123] Creating layer res4d_branch2c
I0828 16:03:54.056627 22492 net.cpp:140] Creating Layer res4d_branch2c
I0828 16:03:54.056632 22492 net.cpp:481] res4d_branch2c <- res4d_branch2b
I0828 16:03:54.056635 22492 net.cpp:455] res4d_branch2c -> res4d_branch2c
I0828 16:03:54.058459 22492 net.cpp:190] Setting up res4d_branch2c
I0828 16:03:54.058470 22492 net.cpp:197] Top shape: 20 1024 14 14 (4014080)
I0828 16:03:54.058487 22492 net.cpp:205] Memory required for data: 3287531600
I0828 16:03:54.058491 22492 layer_factory.hpp:123] Creating layer bn4d_branch2c
I0828 16:03:54.058498 22492 net.cpp:140] Creating Layer bn4d_branch2c
I0828 16:03:54.058504 22492 net.cpp:481] bn4d_branch2c <- res4d_branch2c
I0828 16:03:54.058524 22492 net.cpp:442] bn4d_branch2c -> res4d_branch2c (in-place)
I0828 16:03:54.059010 22492 net.cpp:190] Setting up bn4d_branch2c
I0828 16:03:54.059018 22492 net.cpp:197] Top shape: 20 1024 14 14 (4014080)
I0828 16:03:54.059036 22492 net.cpp:205] Memory required for data: 3303587920
I0828 16:03:54.059043 22492 layer_factory.hpp:123] Creating layer res4d
I0828 16:03:54.059065 22492 net.cpp:140] Creating Layer res4d
I0828 16:03:54.059070 22492 net.cpp:481] res4d <- res4c_res4c_relu_0_split_1
I0828 16:03:54.059077 22492 net.cpp:481] res4d <- res4d_branch2c
I0828 16:03:54.059082 22492 net.cpp:455] res4d -> res4d
I0828 16:03:54.059100 22492 net.cpp:190] Setting up res4d
I0828 16:03:54.059106 22492 net.cpp:197] Top shape: 20 1024 14 14 (4014080)
I0828 16:03:54.059109 22492 net.cpp:205] Memory required for data: 3319644240
I0828 16:03:54.059124 22492 layer_factory.hpp:123] Creating layer res4d_relu
I0828 16:03:54.059129 22492 net.cpp:140] Creating Layer res4d_relu
I0828 16:03:54.059146 22492 net.cpp:481] res4d_relu <- res4d
I0828 16:03:54.059150 22492 net.cpp:442] res4d_relu -> res4d (in-place)
I0828 16:03:54.059155 22492 net.cpp:190] Setting up res4d_relu
I0828 16:03:54.059160 22492 net.cpp:197] Top shape: 20 1024 14 14 (4014080)
I0828 16:03:54.059164 22492 net.cpp:205] Memory required for data: 3335700560
I0828 16:03:54.059165 22492 layer_factory.hpp:123] Creating layer res4d_res4d_relu_0_split
I0828 16:03:54.059170 22492 net.cpp:140] Creating Layer res4d_res4d_relu_0_split
I0828 16:03:54.059173 22492 net.cpp:481] res4d_res4d_relu_0_split <- res4d
I0828 16:03:54.059180 22492 net.cpp:455] res4d_res4d_relu_0_split -> res4d_res4d_relu_0_split_0
I0828 16:03:54.059186 22492 net.cpp:455] res4d_res4d_relu_0_split -> res4d_res4d_relu_0_split_1
I0828 16:03:54.059212 22492 net.cpp:190] Setting up res4d_res4d_relu_0_split
I0828 16:03:54.059217 22492 net.cpp:197] Top shape: 20 1024 14 14 (4014080)
I0828 16:03:54.059221 22492 net.cpp:197] Top shape: 20 1024 14 14 (4014080)
I0828 16:03:54.059223 22492 net.cpp:205] Memory required for data: 3367813200
I0828 16:03:54.059226 22492 layer_factory.hpp:123] Creating layer res4e_branch2a
I0828 16:03:54.059231 22492 net.cpp:140] Creating Layer res4e_branch2a
I0828 16:03:54.059234 22492 net.cpp:481] res4e_branch2a <- res4d_res4d_relu_0_split_0
I0828 16:03:54.059238 22492 net.cpp:455] res4e_branch2a -> res4e_branch2a
I0828 16:03:54.061012 22492 net.cpp:190] Setting up res4e_branch2a
I0828 16:03:54.061022 22492 net.cpp:197] Top shape: 20 256 14 14 (1003520)
I0828 16:03:54.061025 22492 net.cpp:205] Memory required for data: 3371827280
I0828 16:03:54.061045 22492 layer_factory.hpp:123] Creating layer bn4e_branch2a
I0828 16:03:54.061053 22492 net.cpp:140] Creating Layer bn4e_branch2a
I0828 16:03:54.061058 22492 net.cpp:481] bn4e_branch2a <- res4e_branch2a
I0828 16:03:54.061064 22492 net.cpp:442] bn4e_branch2a -> res4e_branch2a (in-place)
I0828 16:03:54.061520 22492 net.cpp:190] Setting up bn4e_branch2a
I0828 16:03:54.061527 22492 net.cpp:197] Top shape: 20 256 14 14 (1003520)
I0828 16:03:54.061544 22492 net.cpp:205] Memory required for data: 3375841360
I0828 16:03:54.061550 22492 layer_factory.hpp:123] Creating layer res4e_branch2a_relu
I0828 16:03:54.061573 22492 net.cpp:140] Creating Layer res4e_branch2a_relu
I0828 16:03:54.061578 22492 net.cpp:481] res4e_branch2a_relu <- res4e_branch2a
I0828 16:03:54.061584 22492 net.cpp:442] res4e_branch2a_relu -> res4e_branch2a (in-place)
I0828 16:03:54.061591 22492 net.cpp:190] Setting up res4e_branch2a_relu
I0828 16:03:54.061597 22492 net.cpp:197] Top shape: 20 256 14 14 (1003520)
I0828 16:03:54.061602 22492 net.cpp:205] Memory required for data: 3379855440
I0828 16:03:54.061605 22492 layer_factory.hpp:123] Creating layer res4e_branch2b
I0828 16:03:54.061614 22492 net.cpp:140] Creating Layer res4e_branch2b
I0828 16:03:54.061617 22492 net.cpp:481] res4e_branch2b <- res4e_branch2a
I0828 16:03:54.061623 22492 net.cpp:455] res4e_branch2b -> res4e_branch2b
I0828 16:03:54.065229 22492 net.cpp:190] Setting up res4e_branch2b
I0828 16:03:54.065245 22492 net.cpp:197] Top shape: 20 256 14 14 (1003520)
I0828 16:03:54.065249 22492 net.cpp:205] Memory required for data: 3383869520
I0828 16:03:54.065274 22492 layer_factory.hpp:123] Creating layer bn4e_branch2b
I0828 16:03:54.065285 22492 net.cpp:140] Creating Layer bn4e_branch2b
I0828 16:03:54.065290 22492 net.cpp:481] bn4e_branch2b <- res4e_branch2b
I0828 16:03:54.065295 22492 net.cpp:442] bn4e_branch2b -> res4e_branch2b (in-place)
I0828 16:03:54.065724 22492 net.cpp:190] Setting up bn4e_branch2b
I0828 16:03:54.065732 22492 net.cpp:197] Top shape: 20 256 14 14 (1003520)
I0828 16:03:54.065734 22492 net.cpp:205] Memory required for data: 3387883600
I0828 16:03:54.065764 22492 layer_factory.hpp:123] Creating layer res4e_branch2b_relu
I0828 16:03:54.065770 22492 net.cpp:140] Creating Layer res4e_branch2b_relu
I0828 16:03:54.065774 22492 net.cpp:481] res4e_branch2b_relu <- res4e_branch2b
I0828 16:03:54.065778 22492 net.cpp:442] res4e_branch2b_relu -> res4e_branch2b (in-place)
I0828 16:03:54.065784 22492 net.cpp:190] Setting up res4e_branch2b_relu
I0828 16:03:54.065788 22492 net.cpp:197] Top shape: 20 256 14 14 (1003520)
I0828 16:03:54.065790 22492 net.cpp:205] Memory required for data: 3391897680
I0828 16:03:54.065793 22492 layer_factory.hpp:123] Creating layer res4e_branch2c
I0828 16:03:54.065799 22492 net.cpp:140] Creating Layer res4e_branch2c
I0828 16:03:54.065802 22492 net.cpp:481] res4e_branch2c <- res4e_branch2b
I0828 16:03:54.065806 22492 net.cpp:455] res4e_branch2c -> res4e_branch2c
I0828 16:03:54.067601 22492 net.cpp:190] Setting up res4e_branch2c
I0828 16:03:54.067612 22492 net.cpp:197] Top shape: 20 1024 14 14 (4014080)
I0828 16:03:54.067615 22492 net.cpp:205] Memory required for data: 3407954000
I0828 16:03:54.067620 22492 layer_factory.hpp:123] Creating layer bn4e_branch2c
I0828 16:03:54.067626 22492 net.cpp:140] Creating Layer bn4e_branch2c
I0828 16:03:54.067631 22492 net.cpp:481] bn4e_branch2c <- res4e_branch2c
I0828 16:03:54.067636 22492 net.cpp:442] bn4e_branch2c -> res4e_branch2c (in-place)
I0828 16:03:54.068135 22492 net.cpp:190] Setting up bn4e_branch2c
I0828 16:03:54.068142 22492 net.cpp:197] Top shape: 20 1024 14 14 (4014080)
I0828 16:03:54.068161 22492 net.cpp:205] Memory required for data: 3424010320
I0828 16:03:54.068166 22492 layer_factory.hpp:123] Creating layer res4e
I0828 16:03:54.068186 22492 net.cpp:140] Creating Layer res4e
I0828 16:03:54.068189 22492 net.cpp:481] res4e <- res4d_res4d_relu_0_split_1
I0828 16:03:54.068194 22492 net.cpp:481] res4e <- res4e_branch2c
I0828 16:03:54.068202 22492 net.cpp:455] res4e -> res4e
I0828 16:03:54.068224 22492 net.cpp:190] Setting up res4e
I0828 16:03:54.068229 22492 net.cpp:197] Top shape: 20 1024 14 14 (4014080)
I0828 16:03:54.068245 22492 net.cpp:205] Memory required for data: 3440066640
I0828 16:03:54.068248 22492 layer_factory.hpp:123] Creating layer res4e_relu
I0828 16:03:54.068253 22492 net.cpp:140] Creating Layer res4e_relu
I0828 16:03:54.068270 22492 net.cpp:481] res4e_relu <- res4e
I0828 16:03:54.068274 22492 net.cpp:442] res4e_relu -> res4e (in-place)
I0828 16:03:54.068280 22492 net.cpp:190] Setting up res4e_relu
I0828 16:03:54.068285 22492 net.cpp:197] Top shape: 20 1024 14 14 (4014080)
I0828 16:03:54.068291 22492 net.cpp:205] Memory required for data: 3456122960
I0828 16:03:54.068295 22492 layer_factory.hpp:123] Creating layer res4e_res4e_relu_0_split
I0828 16:03:54.068300 22492 net.cpp:140] Creating Layer res4e_res4e_relu_0_split
I0828 16:03:54.068305 22492 net.cpp:481] res4e_res4e_relu_0_split <- res4e
I0828 16:03:54.068310 22492 net.cpp:455] res4e_res4e_relu_0_split -> res4e_res4e_relu_0_split_0
I0828 16:03:54.068317 22492 net.cpp:455] res4e_res4e_relu_0_split -> res4e_res4e_relu_0_split_1
I0828 16:03:54.068343 22492 net.cpp:190] Setting up res4e_res4e_relu_0_split
I0828 16:03:54.068348 22492 net.cpp:197] Top shape: 20 1024 14 14 (4014080)
I0828 16:03:54.068352 22492 net.cpp:197] Top shape: 20 1024 14 14 (4014080)
I0828 16:03:54.068356 22492 net.cpp:205] Memory required for data: 3488235600
I0828 16:03:54.068359 22492 layer_factory.hpp:123] Creating layer res4f_branch2a
I0828 16:03:54.068365 22492 net.cpp:140] Creating Layer res4f_branch2a
I0828 16:03:54.068368 22492 net.cpp:481] res4f_branch2a <- res4e_res4e_relu_0_split_0
I0828 16:03:54.068372 22492 net.cpp:455] res4f_branch2a -> res4f_branch2a
I0828 16:03:54.070143 22492 net.cpp:190] Setting up res4f_branch2a
I0828 16:03:54.070153 22492 net.cpp:197] Top shape: 20 256 14 14 (1003520)
I0828 16:03:54.070156 22492 net.cpp:205] Memory required for data: 3492249680
I0828 16:03:54.070163 22492 layer_factory.hpp:123] Creating layer bn4f_branch2a
I0828 16:03:54.070185 22492 net.cpp:140] Creating Layer bn4f_branch2a
I0828 16:03:54.070189 22492 net.cpp:481] bn4f_branch2a <- res4f_branch2a
I0828 16:03:54.070194 22492 net.cpp:442] bn4f_branch2a -> res4f_branch2a (in-place)
I0828 16:03:54.070610 22492 net.cpp:190] Setting up bn4f_branch2a
I0828 16:03:54.070617 22492 net.cpp:197] Top shape: 20 256 14 14 (1003520)
I0828 16:03:54.070621 22492 net.cpp:205] Memory required for data: 3496263760
I0828 16:03:54.070626 22492 layer_factory.hpp:123] Creating layer res4f_branch2a_relu
I0828 16:03:54.070631 22492 net.cpp:140] Creating Layer res4f_branch2a_relu
I0828 16:03:54.070636 22492 net.cpp:481] res4f_branch2a_relu <- res4f_branch2a
I0828 16:03:54.070639 22492 net.cpp:442] res4f_branch2a_relu -> res4f_branch2a (in-place)
I0828 16:03:54.070644 22492 net.cpp:190] Setting up res4f_branch2a_relu
I0828 16:03:54.070648 22492 net.cpp:197] Top shape: 20 256 14 14 (1003520)
I0828 16:03:54.070652 22492 net.cpp:205] Memory required for data: 3500277840
I0828 16:03:54.070654 22492 layer_factory.hpp:123] Creating layer res4f_branch2b
I0828 16:03:54.070660 22492 net.cpp:140] Creating Layer res4f_branch2b
I0828 16:03:54.070663 22492 net.cpp:481] res4f_branch2b <- res4f_branch2a
I0828 16:03:54.070668 22492 net.cpp:455] res4f_branch2b -> res4f_branch2b
I0828 16:03:54.074391 22492 net.cpp:190] Setting up res4f_branch2b
I0828 16:03:54.074407 22492 net.cpp:197] Top shape: 20 256 14 14 (1003520)
I0828 16:03:54.074410 22492 net.cpp:205] Memory required for data: 3504291920
I0828 16:03:54.074419 22492 layer_factory.hpp:123] Creating layer bn4f_branch2b
I0828 16:03:54.074429 22492 net.cpp:140] Creating Layer bn4f_branch2b
I0828 16:03:54.074434 22492 net.cpp:481] bn4f_branch2b <- res4f_branch2b
I0828 16:03:54.074440 22492 net.cpp:442] bn4f_branch2b -> res4f_branch2b (in-place)
I0828 16:03:54.075032 22492 net.cpp:190] Setting up bn4f_branch2b
I0828 16:03:54.075059 22492 net.cpp:197] Top shape: 20 256 14 14 (1003520)
I0828 16:03:54.075063 22492 net.cpp:205] Memory required for data: 3508306000
I0828 16:03:54.075088 22492 layer_factory.hpp:123] Creating layer res4f_branch2b_relu
I0828 16:03:54.075096 22492 net.cpp:140] Creating Layer res4f_branch2b_relu
I0828 16:03:54.075103 22492 net.cpp:481] res4f_branch2b_relu <- res4f_branch2b
I0828 16:03:54.075109 22492 net.cpp:442] res4f_branch2b_relu -> res4f_branch2b (in-place)
I0828 16:03:54.075119 22492 net.cpp:190] Setting up res4f_branch2b_relu
I0828 16:03:54.075124 22492 net.cpp:197] Top shape: 20 256 14 14 (1003520)
I0828 16:03:54.075127 22492 net.cpp:205] Memory required for data: 3512320080
I0828 16:03:54.075130 22492 layer_factory.hpp:123] Creating layer res4f_branch2c
I0828 16:03:54.075139 22492 net.cpp:140] Creating Layer res4f_branch2c
I0828 16:03:54.075145 22492 net.cpp:481] res4f_branch2c <- res4f_branch2b
I0828 16:03:54.075150 22492 net.cpp:455] res4f_branch2c -> res4f_branch2c
I0828 16:03:54.078589 22492 net.cpp:190] Setting up res4f_branch2c
I0828 16:03:54.078630 22492 net.cpp:197] Top shape: 20 1024 14 14 (4014080)
I0828 16:03:54.078635 22492 net.cpp:205] Memory required for data: 3528376400
I0828 16:03:54.078644 22492 layer_factory.hpp:123] Creating layer bn4f_branch2c
I0828 16:03:54.078675 22492 net.cpp:140] Creating Layer bn4f_branch2c
I0828 16:03:54.078682 22492 net.cpp:481] bn4f_branch2c <- res4f_branch2c
I0828 16:03:54.078691 22492 net.cpp:442] bn4f_branch2c -> res4f_branch2c (in-place)
I0828 16:03:54.079372 22492 net.cpp:190] Setting up bn4f_branch2c
I0828 16:03:54.079401 22492 net.cpp:197] Top shape: 20 1024 14 14 (4014080)
I0828 16:03:54.079404 22492 net.cpp:205] Memory required for data: 3544432720
I0828 16:03:54.079424 22492 layer_factory.hpp:123] Creating layer res4f
I0828 16:03:54.079437 22492 net.cpp:140] Creating Layer res4f
I0828 16:03:54.079444 22492 net.cpp:481] res4f <- res4e_res4e_relu_0_split_1
I0828 16:03:54.079452 22492 net.cpp:481] res4f <- res4f_branch2c
I0828 16:03:54.079458 22492 net.cpp:455] res4f -> res4f
I0828 16:03:54.079488 22492 net.cpp:190] Setting up res4f
I0828 16:03:54.079496 22492 net.cpp:197] Top shape: 20 1024 14 14 (4014080)
I0828 16:03:54.079499 22492 net.cpp:205] Memory required for data: 3560489040
I0828 16:03:54.079504 22492 layer_factory.hpp:123] Creating layer res4f_relu
I0828 16:03:54.079514 22492 net.cpp:140] Creating Layer res4f_relu
I0828 16:03:54.079519 22492 net.cpp:481] res4f_relu <- res4f
I0828 16:03:54.079525 22492 net.cpp:442] res4f_relu -> res4f (in-place)
I0828 16:03:54.079536 22492 net.cpp:190] Setting up res4f_relu
I0828 16:03:54.079541 22492 net.cpp:197] Top shape: 20 1024 14 14 (4014080)
I0828 16:03:54.079545 22492 net.cpp:205] Memory required for data: 3576545360
I0828 16:03:54.079550 22492 layer_factory.hpp:123] Creating layer res4f_res4f_relu_0_split
I0828 16:03:54.079557 22492 net.cpp:140] Creating Layer res4f_res4f_relu_0_split
I0828 16:03:54.079561 22492 net.cpp:481] res4f_res4f_relu_0_split <- res4f
I0828 16:03:54.079566 22492 net.cpp:455] res4f_res4f_relu_0_split -> res4f_res4f_relu_0_split_0
I0828 16:03:54.079574 22492 net.cpp:455] res4f_res4f_relu_0_split -> res4f_res4f_relu_0_split_1
I0828 16:03:54.079612 22492 net.cpp:190] Setting up res4f_res4f_relu_0_split
I0828 16:03:54.079617 22492 net.cpp:197] Top shape: 20 1024 14 14 (4014080)
I0828 16:03:54.079622 22492 net.cpp:197] Top shape: 20 1024 14 14 (4014080)
I0828 16:03:54.079625 22492 net.cpp:205] Memory required for data: 3608658000
I0828 16:03:54.079630 22492 layer_factory.hpp:123] Creating layer res5a_branch1
I0828 16:03:54.079644 22492 net.cpp:140] Creating Layer res5a_branch1
I0828 16:03:54.079648 22492 net.cpp:481] res5a_branch1 <- res4f_res4f_relu_0_split_0
I0828 16:03:54.079656 22492 net.cpp:455] res5a_branch1 -> res5a_branch1
I0828 16:03:54.096457 22492 net.cpp:190] Setting up res5a_branch1
I0828 16:03:54.096485 22492 net.cpp:197] Top shape: 20 2048 7 7 (2007040)
I0828 16:03:54.096488 22492 net.cpp:205] Memory required for data: 3616686160
I0828 16:03:54.096495 22492 layer_factory.hpp:123] Creating layer bn5a_branch1
I0828 16:03:54.096511 22492 net.cpp:140] Creating Layer bn5a_branch1
I0828 16:03:54.096518 22492 net.cpp:481] bn5a_branch1 <- res5a_branch1
I0828 16:03:54.096524 22492 net.cpp:442] bn5a_branch1 -> res5a_branch1 (in-place)
I0828 16:03:54.096978 22492 net.cpp:190] Setting up bn5a_branch1
I0828 16:03:54.096985 22492 net.cpp:197] Top shape: 20 2048 7 7 (2007040)
I0828 16:03:54.096988 22492 net.cpp:205] Memory required for data: 3624714320
I0828 16:03:54.096994 22492 layer_factory.hpp:123] Creating layer res5a_branch2a
I0828 16:03:54.097002 22492 net.cpp:140] Creating Layer res5a_branch2a
I0828 16:03:54.097007 22492 net.cpp:481] res5a_branch2a <- res4f_res4f_relu_0_split_1
I0828 16:03:54.097012 22492 net.cpp:455] res5a_branch2a -> res5a_branch2a
I0828 16:03:54.100373 22492 net.cpp:190] Setting up res5a_branch2a
I0828 16:03:54.100386 22492 net.cpp:197] Top shape: 20 512 7 7 (501760)
I0828 16:03:54.100389 22492 net.cpp:205] Memory required for data: 3626721360
I0828 16:03:54.100394 22492 layer_factory.hpp:123] Creating layer bn5a_branch2a
I0828 16:03:54.100400 22492 net.cpp:140] Creating Layer bn5a_branch2a
I0828 16:03:54.100404 22492 net.cpp:481] bn5a_branch2a <- res5a_branch2a
I0828 16:03:54.100409 22492 net.cpp:442] bn5a_branch2a -> res5a_branch2a (in-place)
I0828 16:03:54.100888 22492 net.cpp:190] Setting up bn5a_branch2a
I0828 16:03:54.100894 22492 net.cpp:197] Top shape: 20 512 7 7 (501760)
I0828 16:03:54.100898 22492 net.cpp:205] Memory required for data: 3628728400
I0828 16:03:54.100904 22492 layer_factory.hpp:123] Creating layer res5a_branch2a_relu
I0828 16:03:54.100909 22492 net.cpp:140] Creating Layer res5a_branch2a_relu
I0828 16:03:54.100913 22492 net.cpp:481] res5a_branch2a_relu <- res5a_branch2a
I0828 16:03:54.100916 22492 net.cpp:442] res5a_branch2a_relu -> res5a_branch2a (in-place)
I0828 16:03:54.100931 22492 net.cpp:190] Setting up res5a_branch2a_relu
I0828 16:03:54.100935 22492 net.cpp:197] Top shape: 20 512 7 7 (501760)
I0828 16:03:54.100937 22492 net.cpp:205] Memory required for data: 3630735440
I0828 16:03:54.100939 22492 layer_factory.hpp:123] Creating layer res5a_branch2b
I0828 16:03:54.100946 22492 net.cpp:140] Creating Layer res5a_branch2b
I0828 16:03:54.100950 22492 net.cpp:481] res5a_branch2b <- res5a_branch2a
I0828 16:03:54.100963 22492 net.cpp:455] res5a_branch2b -> res5a_branch2b
I0828 16:03:54.114960 22492 net.cpp:190] Setting up res5a_branch2b
I0828 16:03:54.114996 22492 net.cpp:197] Top shape: 20 512 7 7 (501760)
I0828 16:03:54.115000 22492 net.cpp:205] Memory required for data: 3632742480
I0828 16:03:54.115005 22492 layer_factory.hpp:123] Creating layer bn5a_branch2b
I0828 16:03:54.115015 22492 net.cpp:140] Creating Layer bn5a_branch2b
I0828 16:03:54.115021 22492 net.cpp:481] bn5a_branch2b <- res5a_branch2b
I0828 16:03:54.115028 22492 net.cpp:442] bn5a_branch2b -> res5a_branch2b (in-place)
I0828 16:03:54.115538 22492 net.cpp:190] Setting up bn5a_branch2b
I0828 16:03:54.115546 22492 net.cpp:197] Top shape: 20 512 7 7 (501760)
I0828 16:03:54.115564 22492 net.cpp:205] Memory required for data: 3634749520
I0828 16:03:54.115571 22492 layer_factory.hpp:123] Creating layer res5a_branch2b_relu
I0828 16:03:54.115577 22492 net.cpp:140] Creating Layer res5a_branch2b_relu
I0828 16:03:54.115581 22492 net.cpp:481] res5a_branch2b_relu <- res5a_branch2b
I0828 16:03:54.115584 22492 net.cpp:442] res5a_branch2b_relu -> res5a_branch2b (in-place)
I0828 16:03:54.115592 22492 net.cpp:190] Setting up res5a_branch2b_relu
I0828 16:03:54.115594 22492 net.cpp:197] Top shape: 20 512 7 7 (501760)
I0828 16:03:54.115597 22492 net.cpp:205] Memory required for data: 3636756560
I0828 16:03:54.115599 22492 layer_factory.hpp:123] Creating layer res5a_branch2c
I0828 16:03:54.115607 22492 net.cpp:140] Creating Layer res5a_branch2c
I0828 16:03:54.115610 22492 net.cpp:481] res5a_branch2c <- res5a_branch2b
I0828 16:03:54.115615 22492 net.cpp:455] res5a_branch2c -> res5a_branch2c
I0828 16:03:54.121876 22492 net.cpp:190] Setting up res5a_branch2c
I0828 16:03:54.121896 22492 net.cpp:197] Top shape: 20 2048 7 7 (2007040)
I0828 16:03:54.121899 22492 net.cpp:205] Memory required for data: 3644784720
I0828 16:03:54.121906 22492 layer_factory.hpp:123] Creating layer bn5a_branch2c
I0828 16:03:54.121918 22492 net.cpp:140] Creating Layer bn5a_branch2c
I0828 16:03:54.121923 22492 net.cpp:481] bn5a_branch2c <- res5a_branch2c
I0828 16:03:54.121929 22492 net.cpp:442] bn5a_branch2c -> res5a_branch2c (in-place)
I0828 16:03:54.122423 22492 net.cpp:190] Setting up bn5a_branch2c
I0828 16:03:54.122431 22492 net.cpp:197] Top shape: 20 2048 7 7 (2007040)
I0828 16:03:54.122448 22492 net.cpp:205] Memory required for data: 3652812880
I0828 16:03:54.122455 22492 layer_factory.hpp:123] Creating layer res5a
I0828 16:03:54.122462 22492 net.cpp:140] Creating Layer res5a
I0828 16:03:54.122465 22492 net.cpp:481] res5a <- res5a_branch1
I0828 16:03:54.122468 22492 net.cpp:481] res5a <- res5a_branch2c
I0828 16:03:54.122473 22492 net.cpp:455] res5a -> res5a
I0828 16:03:54.122503 22492 net.cpp:190] Setting up res5a
I0828 16:03:54.122507 22492 net.cpp:197] Top shape: 20 2048 7 7 (2007040)
I0828 16:03:54.122509 22492 net.cpp:205] Memory required for data: 3660841040
I0828 16:03:54.122512 22492 layer_factory.hpp:123] Creating layer res5a_relu
I0828 16:03:54.122516 22492 net.cpp:140] Creating Layer res5a_relu
I0828 16:03:54.122519 22492 net.cpp:481] res5a_relu <- res5a
I0828 16:03:54.122524 22492 net.cpp:442] res5a_relu -> res5a (in-place)
I0828 16:03:54.122529 22492 net.cpp:190] Setting up res5a_relu
I0828 16:03:54.122531 22492 net.cpp:197] Top shape: 20 2048 7 7 (2007040)
I0828 16:03:54.122534 22492 net.cpp:205] Memory required for data: 3668869200
I0828 16:03:54.122536 22492 layer_factory.hpp:123] Creating layer res5a_res5a_relu_0_split
I0828 16:03:54.122540 22492 net.cpp:140] Creating Layer res5a_res5a_relu_0_split
I0828 16:03:54.122542 22492 net.cpp:481] res5a_res5a_relu_0_split <- res5a
I0828 16:03:54.122546 22492 net.cpp:455] res5a_res5a_relu_0_split -> res5a_res5a_relu_0_split_0
I0828 16:03:54.122550 22492 net.cpp:455] res5a_res5a_relu_0_split -> res5a_res5a_relu_0_split_1
I0828 16:03:54.122571 22492 net.cpp:190] Setting up res5a_res5a_relu_0_split
I0828 16:03:54.122576 22492 net.cpp:197] Top shape: 20 2048 7 7 (2007040)
I0828 16:03:54.122579 22492 net.cpp:197] Top shape: 20 2048 7 7 (2007040)
I0828 16:03:54.122581 22492 net.cpp:205] Memory required for data: 3684925520
I0828 16:03:54.122583 22492 layer_factory.hpp:123] Creating layer res5b_branch2a
I0828 16:03:54.122591 22492 net.cpp:140] Creating Layer res5b_branch2a
I0828 16:03:54.122593 22492 net.cpp:481] res5b_branch2a <- res5a_res5a_relu_0_split_0
I0828 16:03:54.122598 22492 net.cpp:455] res5b_branch2a -> res5b_branch2a
I0828 16:03:54.128969 22492 net.cpp:190] Setting up res5b_branch2a
I0828 16:03:54.129004 22492 net.cpp:197] Top shape: 20 512 7 7 (501760)
I0828 16:03:54.129007 22492 net.cpp:205] Memory required for data: 3686932560
I0828 16:03:54.129014 22492 layer_factory.hpp:123] Creating layer bn5b_branch2a
I0828 16:03:54.129041 22492 net.cpp:140] Creating Layer bn5b_branch2a
I0828 16:03:54.129048 22492 net.cpp:481] bn5b_branch2a <- res5b_branch2a
I0828 16:03:54.129055 22492 net.cpp:442] bn5b_branch2a -> res5b_branch2a (in-place)
I0828 16:03:54.129545 22492 net.cpp:190] Setting up bn5b_branch2a
I0828 16:03:54.129552 22492 net.cpp:197] Top shape: 20 512 7 7 (501760)
I0828 16:03:54.129555 22492 net.cpp:205] Memory required for data: 3688939600
I0828 16:03:54.129575 22492 layer_factory.hpp:123] Creating layer res5b_branch2a_relu
I0828 16:03:54.129595 22492 net.cpp:140] Creating Layer res5b_branch2a_relu
I0828 16:03:54.129597 22492 net.cpp:481] res5b_branch2a_relu <- res5b_branch2a
I0828 16:03:54.129601 22492 net.cpp:442] res5b_branch2a_relu -> res5b_branch2a (in-place)
I0828 16:03:54.129608 22492 net.cpp:190] Setting up res5b_branch2a_relu
I0828 16:03:54.129614 22492 net.cpp:197] Top shape: 20 512 7 7 (501760)
I0828 16:03:54.129619 22492 net.cpp:205] Memory required for data: 3690946640
I0828 16:03:54.129622 22492 layer_factory.hpp:123] Creating layer res5b_branch2b
I0828 16:03:54.129631 22492 net.cpp:140] Creating Layer res5b_branch2b
I0828 16:03:54.129637 22492 net.cpp:481] res5b_branch2b <- res5b_branch2a
I0828 16:03:54.129640 22492 net.cpp:455] res5b_branch2b -> res5b_branch2b
I0828 16:03:54.143551 22492 net.cpp:190] Setting up res5b_branch2b
I0828 16:03:54.143586 22492 net.cpp:197] Top shape: 20 512 7 7 (501760)
I0828 16:03:54.143589 22492 net.cpp:205] Memory required for data: 3692953680
I0828 16:03:54.143597 22492 layer_factory.hpp:123] Creating layer bn5b_branch2b
I0828 16:03:54.143610 22492 net.cpp:140] Creating Layer bn5b_branch2b
I0828 16:03:54.143616 22492 net.cpp:481] bn5b_branch2b <- res5b_branch2b
I0828 16:03:54.143626 22492 net.cpp:442] bn5b_branch2b -> res5b_branch2b (in-place)
I0828 16:03:54.144076 22492 net.cpp:190] Setting up bn5b_branch2b
I0828 16:03:54.144085 22492 net.cpp:197] Top shape: 20 512 7 7 (501760)
I0828 16:03:54.144102 22492 net.cpp:205] Memory required for data: 3694960720
I0828 16:03:54.144110 22492 layer_factory.hpp:123] Creating layer res5b_branch2b_relu
I0828 16:03:54.144117 22492 net.cpp:140] Creating Layer res5b_branch2b_relu
I0828 16:03:54.144124 22492 net.cpp:481] res5b_branch2b_relu <- res5b_branch2b
I0828 16:03:54.144130 22492 net.cpp:442] res5b_branch2b_relu -> res5b_branch2b (in-place)
I0828 16:03:54.144140 22492 net.cpp:190] Setting up res5b_branch2b_relu
I0828 16:03:54.144145 22492 net.cpp:197] Top shape: 20 512 7 7 (501760)
I0828 16:03:54.144147 22492 net.cpp:205] Memory required for data: 3696967760
I0828 16:03:54.144150 22492 layer_factory.hpp:123] Creating layer res5b_branch2c
I0828 16:03:54.144160 22492 net.cpp:140] Creating Layer res5b_branch2c
I0828 16:03:54.144163 22492 net.cpp:481] res5b_branch2c <- res5b_branch2b
I0828 16:03:54.144168 22492 net.cpp:455] res5b_branch2c -> res5b_branch2c
I0828 16:03:54.150301 22492 net.cpp:190] Setting up res5b_branch2c
I0828 16:03:54.150336 22492 net.cpp:197] Top shape: 20 2048 7 7 (2007040)
I0828 16:03:54.150341 22492 net.cpp:205] Memory required for data: 3704995920
I0828 16:03:54.150347 22492 layer_factory.hpp:123] Creating layer bn5b_branch2c
I0828 16:03:54.150360 22492 net.cpp:140] Creating Layer bn5b_branch2c
I0828 16:03:54.150368 22492 net.cpp:481] bn5b_branch2c <- res5b_branch2c
I0828 16:03:54.150377 22492 net.cpp:442] bn5b_branch2c -> res5b_branch2c (in-place)
I0828 16:03:54.150857 22492 net.cpp:190] Setting up bn5b_branch2c
I0828 16:03:54.150864 22492 net.cpp:197] Top shape: 20 2048 7 7 (2007040)
I0828 16:03:54.150867 22492 net.cpp:205] Memory required for data: 3713024080
I0828 16:03:54.150897 22492 layer_factory.hpp:123] Creating layer res5b
I0828 16:03:54.150920 22492 net.cpp:140] Creating Layer res5b
I0828 16:03:54.150939 22492 net.cpp:481] res5b <- res5a_res5a_relu_0_split_1
I0828 16:03:54.150945 22492 net.cpp:481] res5b <- res5b_branch2c
I0828 16:03:54.150956 22492 net.cpp:455] res5b -> res5b
I0828 16:03:54.150980 22492 net.cpp:190] Setting up res5b
I0828 16:03:54.150986 22492 net.cpp:197] Top shape: 20 2048 7 7 (2007040)
I0828 16:03:54.150988 22492 net.cpp:205] Memory required for data: 3721052240
I0828 16:03:54.150991 22492 layer_factory.hpp:123] Creating layer res5b_relu
I0828 16:03:54.150995 22492 net.cpp:140] Creating Layer res5b_relu
I0828 16:03:54.150998 22492 net.cpp:481] res5b_relu <- res5b
I0828 16:03:54.151002 22492 net.cpp:442] res5b_relu -> res5b (in-place)
I0828 16:03:54.151008 22492 net.cpp:190] Setting up res5b_relu
I0828 16:03:54.151011 22492 net.cpp:197] Top shape: 20 2048 7 7 (2007040)
I0828 16:03:54.151013 22492 net.cpp:205] Memory required for data: 3729080400
I0828 16:03:54.151016 22492 layer_factory.hpp:123] Creating layer res5b_res5b_relu_0_split
I0828 16:03:54.151021 22492 net.cpp:140] Creating Layer res5b_res5b_relu_0_split
I0828 16:03:54.151031 22492 net.cpp:481] res5b_res5b_relu_0_split <- res5b
I0828 16:03:54.151034 22492 net.cpp:455] res5b_res5b_relu_0_split -> res5b_res5b_relu_0_split_0
I0828 16:03:54.151041 22492 net.cpp:455] res5b_res5b_relu_0_split -> res5b_res5b_relu_0_split_1
I0828 16:03:54.151067 22492 net.cpp:190] Setting up res5b_res5b_relu_0_split
I0828 16:03:54.151072 22492 net.cpp:197] Top shape: 20 2048 7 7 (2007040)
I0828 16:03:54.151074 22492 net.cpp:197] Top shape: 20 2048 7 7 (2007040)
I0828 16:03:54.151077 22492 net.cpp:205] Memory required for data: 3745136720
I0828 16:03:54.151079 22492 layer_factory.hpp:123] Creating layer res5c_branch2a
I0828 16:03:54.151087 22492 net.cpp:140] Creating Layer res5c_branch2a
I0828 16:03:54.151089 22492 net.cpp:481] res5c_branch2a <- res5b_res5b_relu_0_split_0
I0828 16:03:54.151093 22492 net.cpp:455] res5c_branch2a -> res5c_branch2a
I0828 16:03:54.157402 22492 net.cpp:190] Setting up res5c_branch2a
I0828 16:03:54.157436 22492 net.cpp:197] Top shape: 20 512 7 7 (501760)
I0828 16:03:54.157439 22492 net.cpp:205] Memory required for data: 3747143760
I0828 16:03:54.157446 22492 layer_factory.hpp:123] Creating layer bn5c_branch2a
I0828 16:03:54.157454 22492 net.cpp:140] Creating Layer bn5c_branch2a
I0828 16:03:54.157474 22492 net.cpp:481] bn5c_branch2a <- res5c_branch2a
I0828 16:03:54.157480 22492 net.cpp:442] bn5c_branch2a -> res5c_branch2a (in-place)
I0828 16:03:54.158052 22492 net.cpp:190] Setting up bn5c_branch2a
I0828 16:03:54.158061 22492 net.cpp:197] Top shape: 20 512 7 7 (501760)
I0828 16:03:54.158079 22492 net.cpp:205] Memory required for data: 3749150800
I0828 16:03:54.158087 22492 layer_factory.hpp:123] Creating layer res5c_branch2a_relu
I0828 16:03:54.158107 22492 net.cpp:140] Creating Layer res5c_branch2a_relu
I0828 16:03:54.158109 22492 net.cpp:481] res5c_branch2a_relu <- res5c_branch2a
I0828 16:03:54.158114 22492 net.cpp:442] res5c_branch2a_relu -> res5c_branch2a (in-place)
I0828 16:03:54.158125 22492 net.cpp:190] Setting up res5c_branch2a_relu
I0828 16:03:54.158133 22492 net.cpp:197] Top shape: 20 512 7 7 (501760)
I0828 16:03:54.158156 22492 net.cpp:205] Memory required for data: 3751157840
I0828 16:03:54.158160 22492 layer_factory.hpp:123] Creating layer res5c_branch2b
I0828 16:03:54.158169 22492 net.cpp:140] Creating Layer res5c_branch2b
I0828 16:03:54.158174 22492 net.cpp:481] res5c_branch2b <- res5c_branch2a
I0828 16:03:54.158180 22492 net.cpp:455] res5c_branch2b -> res5c_branch2b
I0828 16:03:54.172425 22492 net.cpp:190] Setting up res5c_branch2b
I0828 16:03:54.172456 22492 net.cpp:197] Top shape: 20 512 7 7 (501760)
I0828 16:03:54.172459 22492 net.cpp:205] Memory required for data: 3753164880
I0828 16:03:54.172466 22492 layer_factory.hpp:123] Creating layer bn5c_branch2b
I0828 16:03:54.172479 22492 net.cpp:140] Creating Layer bn5c_branch2b
I0828 16:03:54.172484 22492 net.cpp:481] bn5c_branch2b <- res5c_branch2b
I0828 16:03:54.172493 22492 net.cpp:442] bn5c_branch2b -> res5c_branch2b (in-place)
I0828 16:03:54.173139 22492 net.cpp:190] Setting up bn5c_branch2b
I0828 16:03:54.173148 22492 net.cpp:197] Top shape: 20 512 7 7 (501760)
I0828 16:03:54.173166 22492 net.cpp:205] Memory required for data: 3755171920
I0828 16:03:54.173172 22492 layer_factory.hpp:123] Creating layer res5c_branch2b_relu
I0828 16:03:54.173179 22492 net.cpp:140] Creating Layer res5c_branch2b_relu
I0828 16:03:54.173183 22492 net.cpp:481] res5c_branch2b_relu <- res5c_branch2b
I0828 16:03:54.173189 22492 net.cpp:442] res5c_branch2b_relu -> res5c_branch2b (in-place)
I0828 16:03:54.173197 22492 net.cpp:190] Setting up res5c_branch2b_relu
I0828 16:03:54.173204 22492 net.cpp:197] Top shape: 20 512 7 7 (501760)
I0828 16:03:54.173208 22492 net.cpp:205] Memory required for data: 3757178960
I0828 16:03:54.173211 22492 layer_factory.hpp:123] Creating layer res5c_branch2c
I0828 16:03:54.173221 22492 net.cpp:140] Creating Layer res5c_branch2c
I0828 16:03:54.173226 22492 net.cpp:481] res5c_branch2c <- res5c_branch2b
I0828 16:03:54.173233 22492 net.cpp:455] res5c_branch2c -> res5c_branch2c
I0828 16:03:54.179687 22492 net.cpp:190] Setting up res5c_branch2c
I0828 16:03:54.179706 22492 net.cpp:197] Top shape: 20 2048 7 7 (2007040)
I0828 16:03:54.179710 22492 net.cpp:205] Memory required for data: 3765207120
I0828 16:03:54.179718 22492 layer_factory.hpp:123] Creating layer bn5c_branch2c
I0828 16:03:54.179728 22492 net.cpp:140] Creating Layer bn5c_branch2c
I0828 16:03:54.179733 22492 net.cpp:481] bn5c_branch2c <- res5c_branch2c
I0828 16:03:54.179740 22492 net.cpp:442] bn5c_branch2c -> res5c_branch2c (in-place)
I0828 16:03:54.180354 22492 net.cpp:190] Setting up bn5c_branch2c
I0828 16:03:54.180363 22492 net.cpp:197] Top shape: 20 2048 7 7 (2007040)
I0828 16:03:54.180380 22492 net.cpp:205] Memory required for data: 3773235280
I0828 16:03:54.180399 22492 layer_factory.hpp:123] Creating layer res5c
I0828 16:03:54.180409 22492 net.cpp:140] Creating Layer res5c
I0828 16:03:54.180414 22492 net.cpp:481] res5c <- res5b_res5b_relu_0_split_1
I0828 16:03:54.180419 22492 net.cpp:481] res5c <- res5c_branch2c
I0828 16:03:54.180428 22492 net.cpp:455] res5c -> res5c
I0828 16:03:54.180451 22492 net.cpp:190] Setting up res5c
I0828 16:03:54.180459 22492 net.cpp:197] Top shape: 20 2048 7 7 (2007040)
I0828 16:03:54.180464 22492 net.cpp:205] Memory required for data: 3781263440
I0828 16:03:54.180469 22492 layer_factory.hpp:123] Creating layer res5c_relu
I0828 16:03:54.180474 22492 net.cpp:140] Creating Layer res5c_relu
I0828 16:03:54.180480 22492 net.cpp:481] res5c_relu <- res5c
I0828 16:03:54.180485 22492 net.cpp:442] res5c_relu -> res5c (in-place)
I0828 16:03:54.180493 22492 net.cpp:190] Setting up res5c_relu
I0828 16:03:54.180498 22492 net.cpp:197] Top shape: 20 2048 7 7 (2007040)
I0828 16:03:54.180502 22492 net.cpp:205] Memory required for data: 3789291600
I0828 16:03:54.180505 22492 layer_factory.hpp:123] Creating layer pool5
I0828 16:03:54.180512 22492 net.cpp:140] Creating Layer pool5
I0828 16:03:54.180516 22492 net.cpp:481] pool5 <- res5c
I0828 16:03:54.180522 22492 net.cpp:455] pool5 -> pool5
I0828 16:03:54.180557 22492 net.cpp:190] Setting up pool5
I0828 16:03:54.180567 22492 net.cpp:197] Top shape: 20 2048 1 1 (40960)
I0828 16:03:54.180570 22492 net.cpp:205] Memory required for data: 3789455440
I0828 16:03:54.180573 22492 layer_factory.hpp:123] Creating layer fc1000
I0828 16:03:54.180580 22492 net.cpp:140] Creating Layer fc1000
I0828 16:03:54.180600 22492 net.cpp:481] fc1000 <- pool5
I0828 16:03:54.180606 22492 net.cpp:455] fc1000 -> fc1000
I0828 16:03:54.192961 22492 net.cpp:190] Setting up fc1000
I0828 16:03:54.192987 22492 net.cpp:197] Top shape: 20 1000 (20000)
I0828 16:03:54.192991 22492 net.cpp:205] Memory required for data: 3789535440
I0828 16:03:54.192999 22492 layer_factory.hpp:123] Creating layer prob
I0828 16:03:54.193012 22492 net.cpp:140] Creating Layer prob
I0828 16:03:54.193034 22492 net.cpp:481] prob <- fc1000
I0828 16:03:54.193044 22492 net.cpp:455] prob -> prob
I0828 16:03:54.193158 22492 net.cpp:190] Setting up prob
I0828 16:03:54.193166 22492 net.cpp:197] Top shape: 20 1000 (20000)
I0828 16:03:54.193184 22492 net.cpp:205] Memory required for data: 3789615440
I0828 16:03:54.193189 22492 net.cpp:268] prob does not need backward computation.
I0828 16:03:54.193205 22492 net.cpp:268] fc1000 does not need backward computation.
I0828 16:03:54.193209 22492 net.cpp:268] pool5 does not need backward computation.
I0828 16:03:54.193226 22492 net.cpp:268] res5c_relu does not need backward computation.
…
I0828 16:03:54.537245 22492 net.cpp:369] The NetState phase (0) differed from the phase (1) specified by a rule in layer data
I0828 16:03:54.538074 22492 net.cpp:98] Initializing net from parameters: 
state {
  phase: TRAIN
}
layer {
  name: "data"
  type: "ImageData"
  top: "data"
  top: "label"
  include {
    phase: TRAIN
  }
  transform_param {
    mirror: true
    crop_size: 224
    mean_value: 104
    mean_value: 107
    mean_value: 123
  }
  image_data_param {
    source: "/SSD/git-tutorial/GPU-DPU-cross-check/images/image500/calib.txt"
    batch_size: 20
    shuffle: true
    root_folder: "/SSD/git-tutorial/GPU-DPU-cross-check/images/image500/"
  }
}
layer {
  name: "data_fixed"
  type: "FixedNeuron"
  bottom: "data"
  top: "data"
  param {
    lr_mult: 0
    decay_mult: 0
  }
  fixed_param {
    fixed_method: OVER_FLOW
    bit_width: 8
    follow_data_layer: true
  }
}
layer {
  name: "conv1"
  type: "ConvolutionFixed"
  bottom: "data"
  top: "conv1"
  param {
    lr_mult: 1
    decay_mult: 1
  }
  param {
    lr_mult: 1
    decay_mult: 0
  }
  convolution_param {
    num_output: 64
    bias_term: true
    pad: 3
    kernel_size: 7
    stride: 2
    weight_filler {
      type: "xavier"
    }
    bias_filler {
      type: "constant"
      value: 0.2
    }
  }
  fixed_param {
    fixed_method: DIFF_S
    bit_width: 8
  }
}
layer {
  name: "conv1_relu"
  type: "ReLU"
  bottom: "conv1"
  top: "conv1"
  relu_param {
  }
}
layer {
  name: "pool1"
  type: "Pooling"
  bottom: "conv1"
  top: "pool1"
  pooling_param {
    pool: MAX
    kernel_size: 3
    stride: 2
  }
}
layer {
  name: "pool1_fixed"
  type: "FixedNeuron"
  bottom: "pool1"
  top: "pool1"
  param {
    lr_mult: 0
    decay_mult: 0
  }
  fixed_param {
    fixed_method: DIFF_S
    bit_width: 8
  }
}
layer {
  name: "res2a_branch1"
  type: "ConvolutionFixed"
  bottom: "pool1"
  top: "res2a_branch1"
  param {
    lr_mult: 1
    decay_mult: 1
  }
  param {
    lr_mult: 1
    decay_mult: 0
  }
  convolution_param {
    num_output: 256
    bias_term: true
    pad: 0
    kernel_size: 1
    stride: 1
    weight_filler {
      type: "xavier"
    }
    bias_filler {
      type: "constant"
      value: 0.2
    }
  }
  fixed_param {
    fixed_method: DIFF_S
    bit_width: 8
  }
}
layer {
  name: "res2a_branch1_fixed"
  type: "FixedNeuron"
  bottom: "res2a_branch1"
  top: "res2a_branch1"
  param {
    lr_mult: 0
    decay_mult: 0
  }
  fixed_param {
    fixed_method: DIFF_S
    bit_width: 8
  }
}
layer {
  name: "res2a_branch2a"
  type: "ConvolutionFixed"
  bottom: "pool1"
  top: "res2a_branch2a"
  param {
    lr_mult: 1
    decay_mult: 1
  }
  param {
    lr_mult: 1
    decay_mult: 0
  }
  convolution_param {
    num_output: 64
    bias_term: true
    pad: 0
    kernel_size: 1
    stride: 1
    weight_filler {
      type: "xavier"
    }
    bias_filler {
      type: "constant"
      value: 0.2
    }
  }
  fixed_param {
    fixed_method: DIFF_S
    bit_width: 8
  }
}
layer {
  name: "res2a_branch2a_relu"
  type: "ReLU"
  bottom: "res2a_branch2a"
  top: "res2a_branch2a"
  relu_param {
  }
}
layer {
  name: "res2a_branch2a_fixed"
  type: "FixedNeuron"
  bottom: "res2a_branch2a"
  top: "res2a_branch2a"
  param {
    lr_mult: 0
    decay_mult: 0
  }
  fixed_param {
    fixed_method: DIFF_S
    bit_width: 8
  }
}
layer {
  name: "res2a_branch2b"
  type: "ConvolutionFixed"
  bottom: "res2a_branch2a"
  top: "res2a_branch2b"
  param {
    lr_mult: 1
    decay_mult: 1
  }
  param {
    lr_mult: 1
    decay_mult: 0
  }
  convolution_param {
    num_output: 64
    bias_term: true
    pad: 1
    kernel_size: 3
    stride: 1
    weight_filler {
      type: "xavier"
    }
    bias_filler {
      type: "constant"
      value: 0.2
    }
  }
  fixed_param {
    fixed_method: DIFF_S
    bit_width: 8
  }
}
layer {
  name: "res2a_branch2b_relu"
  type: "ReLU"
  bottom: "res2a_branch2b"
  top: "res2a_branch2b"
  relu_param {
  }
}
layer {
  name: "res2a_branch2b_fixed"
  type: "FixedNeuron"
  bottom: "res2a_branch2b"
  top: "res2a_branch2b"
  param {
    lr_mult: 0
    decay_mult: 0
  }
  fixed_param {
    fixed_method: DIFF_S
    bit_width: 8
  }
}
layer {
  name: "res2a_branch2c"
  type: "ConvolutionFixed"
  bottom: "res2a_branch2b"
  top: "res2a_branch2c"
  param {
    lr_mult: 1
    decay_mult: 1
  }
  param {
    lr_mult: 1
    decay_mult: 0
  }
  convolution_param {
    num_output: 256
    bias_term: true
    pad: 0
    kernel_size: 1
    stride: 1
    weight_filler {
      type: "xavier"
    }
    bias_filler {
      type: "constant"
      value: 0.2
    }
  }
  fixed_param {
    fixed_method: DIFF_S
    bit_width: 8
  }
}
layer {
  name: "res2a_branch2c_fixed"
  type: "FixedNeuron"
  bottom: "res2a_branch2c"
  top: "res2a_branch2c"
  param {
    lr_mult: 0
    decay_mult: 0
  }
  fixed_param {
    fixed_method: DIFF_S
    bit_width: 8
  }
}
layer {
  name: "res2a"
  type: "Eltwise"
  bottom: "res2a_branch1"
  bottom: "res2a_branch2c"
  top: "res2a"
  eltwise_param {
  }
}
layer {
  name: "res2a_relu"
  type: "ReLU"
  bottom: "res2a"
  top: "res2a"
  relu_param {
  }
}
layer {
  name: "res2a_fixed"
  type: "FixedNeuron"
  bottom: "res2a"
  top: "res2a"
  param {
    lr_mult: 0
    decay_mult: 0
  }
  fixed_param {
    fixed_method: DIFF_S
    bit_width: 8
  }
}
layer {
  name: "res2b_branch2a"
  type: "ConvolutionFixed"
  bottom: "res2a"
  top: "res2b_branch2a"
  param {
    lr_mult: 1
    decay_mult: 1
  }
  param {
    lr_mult: 1
    decay_mult: 0
  }
  convolution_param {
    num_output: 64
    bias_term: true
    pad: 0
    kernel_size: 1
    stride: 1
    weight_filler {
      type: "xavier"
    }
    bias_filler {
      type: "constant"
      value: 0.2
    }
  }
  fixed_param {
    fixed_method: DIFF_S
    bit_width: 8
  }
}
layer {
  name: "res2b_branch2a_relu"
  type: "ReLU"
  bottom: "res2b_branch2a"
  top: "res2b_branch2a"
  relu_param {
  }
}
layer {
  name: "res2b_branch2a_fixed"
  type: "FixedNeuron"
  bottom: "res2b_branch2a"
  top: "res2b_branch2a"
  param {
    lr_mult: 0
    decay_mult: 0
  }
  fixed_param {
    fixed_method: DIFF_S
    bit_width: 8
  }
}
layer {
  name: "res2b_branch2b"
  type: "ConvolutionFixed"
  bottom: "res2b_branch2a"
  top: "res2b_branch2b"
  param {
    lr_mult: 1
    decay_mult: 1
  }
  param {
    lr_mult: 1
    decay_mult: 0
  }
  convolution_param {
    num_output: 64
    bias_term: true
    pad: 1
    kernel_size: 3
    stride: 1
    weight_filler {
      type: "xavier"
    }
    bias_filler {
      type: "constant"
      value: 0.2
    }
  }
  fixed_param {
    fixed_method: DIFF_S
    bit_width: 8
  }
}
layer {
  name: "res2b_branch2b_relu"
  type: "ReLU"
  bottom: "res2b_branch2b"
  top: "res2b_branch2b"
  relu_param {
  }
}
layer {
  name: "res2b_branch2b_fixed"
  type: "FixedNeuron"
  bottom: "res2b_branch2b"
  top: "res2b_branch2b"
  param {
    lr_mult: 0
    decay_mult: 0
  }
  fixed_param {
    fixed_method: DIFF_S
    bit_width: 8
  }
}
layer {
  name: "res2b_branch2c"
  type: "ConvolutionFixed"
  bottom: "res2b_branch2b"
  top: "res2b_branch2c"
  param {
    lr_mult: 1
    decay_mult: 1
  }
  param {
    lr_mult: 1
    decay_mult: 0
  }
  convolution_param {
    num_output: 256
    bias_term: true
    pad: 0
    kernel_size: 1
    stride: 1
    weight_filler {
      type: "xavier"
    }
    bias_filler {
      type: "constant"
      value: 0.2
    }
  }
  fixed_param {
    fixed_method: DIFF_S
    bit_width: 8
  }
}
layer {
  name: "res2b_branch2c_fixed"
  type: "FixedNeuron"
  bottom: "res2b_branch2c"
  top: "res2b_branch2c"
  param {
    lr_mult: 0
    decay_mult: 0
  }
  fixed_param {
    fixed_method: DIFF_S
    bit_width: 8
  }
}
layer {
  name: "res2b"
  type: "Eltwise"
  bottom: "res2a"
  bottom: "res2b_branch2c"
  top: "res2b"
  eltwise_param {
  }
}
layer {
  name: "res2b_relu"
  type: "ReLU"
  bottom: "res2b"
  top: "res2b"
  relu_param {
  }
}
layer {
  name: "res2b_fixed"
  type: "FixedNeuron"
  bottom: "res2b"
  top: "res2b"
  param {
    lr_mult: 0
    decay_mult: 0
  }
  fixed_param {
    fixed_method: DIFF_S
    bit_width: 8
  }
}
layer {
  name: "res2c_branch2a"
  type: "ConvolutionFixed"
  bottom: "res2b"
  top: "res2c_branch2a"
  param {
    lr_mult: 1
    decay_mult: 1
  }
  param {
    lr_mult: 1
    decay_mult: 0
  }
  convolution_param {
    num_output: 64
    bias_term: true
    pad: 0
    kernel_size: 1
    stride: 1
    weight_filler {
      type: "xavier"
    }
    bias_filler {
      type: "constant"
      value: 0.2
    }
  }
  fixed_param {
    fixed_method: DIFF_S
    bit_width: 8
  }
}
layer {
  name: "res2c_branch2a_relu"
  type: "ReLU"
  bottom: "res2c_branch2a"
  top: "res2c_branch2a"
  relu_param {
  }
}
layer {
  name: "res2c_branch2a_fixed"
  type: "FixedNeuron"
  bottom: "res2c_branch2a"
  top: "res2c_branch2a"
  param {
    lr_mult: 0
    decay_mult: 0
  }
  fixed_param {
    fixed_method: DIFF_S
    bit_width: 8
  }
}
layer {
  name: "res2c_branch2b"
  type: "ConvolutionFixed"
  bottom: "res2c_branch2a"
  top: "res2c_branch2b"
  param {
    lr_mult: 1
    decay_mult: 1
  }
  param {
    lr_mult: 1
    decay_mult: 0
  }
  convolution_param {
    num_output: 64
    bias_term: true
    pad: 1
    kernel_size: 3
    stride: 1
    weight_filler {
      type: "xavier"
    }
    bias_filler {
      type: "constant"
      value: 0.2
    }
  }
  fixed_param {
    fixed_method: DIFF_S
    bit_width: 8
  }
}
layer {
  name: "res2c_branch2b_relu"
  type: "ReLU"
  bottom: "res2c_branch2b"
  top: "res2c_branch2b"
  relu_param {
  }
}
layer {
  name: "res2c_branch2b_fixed"
  type: "FixedNeuron"
  bottom: "res2c_branch2b"
  top: "res2c_branch2b"
  param {
    lr_mult: 0
    decay_mult: 0
  }
  fixed_param {
    fixed_method: DIFF_S
    bit_width: 8
  }
}
layer {
  name: "res2c_branch2c"
  type: "ConvolutionFixed"
  bottom: "res2c_branch2b"
  top: "res2c_branch2c"
  param {
    lr_mult: 1
    decay_mult: 1
  }
  param {
    lr_mult: 1
    decay_mult: 0
  }
  convolution_param {
    num_output: 256
    bias_term: true
    pad: 0
    kernel_size: 1
    stride: 1
    weight_filler {
      type: "xavier"
    }
    bias_filler {
      type: "constant"
      value: 0.2
    }
  }
  fixed_param {
    fixed_method: DIFF_S
    bit_width: 8
  }
}
layer {
  name: "res2c_branch2c_fixed"
  type: "FixedNeuron"
  bottom: "res2c_branch2c"
  top: "res2c_branch2c"
  param {
    lr_mult: 0
    decay_mult: 0
  }
  fixed_param {
    fixed_method: DIFF_S
    bit_width: 8
  }
}
layer {
  name: "res2c"
  type: "Eltwise"
  bottom: "res2b"
  bottom: "res2c_branch2c"
  top: "res2c"
  eltwise_param {
  }
}
layer {
  name: "res2c_relu"
  type: "ReLU"
  bottom: "res2c"
  top: "res2c"
  relu_param {
  }
}
layer {
  name: "res2c_fixed"
  type: "FixedNeuron"
  bottom: "res2c"
  top: "res2c"
  param {
    lr_mult: 0
    decay_mult: 0
  }
  fixed_param {
    fixed_method: DIFF_S
    bit_width: 8
  }
}
layer {
  name: "res3a_branch1"
  type: "ConvolutionFixed"
  bottom: "res2c"
  top: "res3a_branch1"
  param {
    lr_mult: 1
    decay_mult: 1
  }
  param {
    lr_mult: 1
    decay_mult: 0
  }
  convolution_param {
    num_output: 512
    bias_term: true
    pad: 0
    kernel_size: 1
    stride: 2
    weight_filler {
      type: "xavier"
    }
    bias_filler {
      type: "constant"
      value: 0.2
    }
  }
  fixed_param {
    fixed_method: DIFF_S
    bit_width: 8
  }
}
layer {
  name: "res3a_branch1_fixed"
  type: "FixedNeuron"
  bottom: "res3a_branch1"
  top: "res3a_branch1"
  param {
    lr_mult: 0
    decay_mult: 0
  }
  fixed_param {
    fixed_method: DIFF_S
    bit_width: 8
  }
}
layer {
  name: "res3a_branch2a"
  type: "ConvolutionFixed"
  bottom: "res2c"
  top: "res3a_branch2a"
  param {
    lr_mult: 1
    decay_mult: 1
  }
  param {
    lr_mult: 1
    decay_mult: 0
  }
  convolution_param {
    num_output: 128
    bias_term: true
    pad: 0
    kernel_size: 1
    stride: 2
    weight_filler {
      type: "xavier"
    }
    bias_filler {
      type: "constant"
      value: 0.2
    }
  }
  fixed_param {
    fixed_method: DIFF_S
    bit_width: 8
  }
}
layer {
  name: "res3a_branch2a_relu"
  type: "ReLU"
  bottom: "res3a_branch2a"
  top: "res3a_branch2a"
  relu_param {
  }
}
layer {
  name: "res3a_branch2a_fixed"
  type: "FixedNeuron"
  bottom: "res3a_branch2a"
  top: "res3a_branch2a"
  param {
    lr_mult: 0
    decay_mult: 0
  }
  fixed_param {
    fixed_method: DIFF_S
    bit_width: 8
  }
}
layer {
  name: "res3a_branch2b"
  type: "ConvolutionFixed"
  bottom: "res3a_branch2a"
  top: "res3a_branch2b"
  param {
    lr_mult: 1
    decay_mult: 1
  }
  param {
    lr_mult: 1
    decay_mult: 0
  }
  convolution_param {
    num_output: 128
    bias_term: true
    pad: 1
    kernel_size: 3
    stride: 1
    weight_filler {
      type: "xavier"
    }
    bias_filler {
      type: "constant"
      value: 0.2
    }
  }
  fixed_param {
    fixed_method: DIFF_S
    bit_width: 8
  }
}
layer {
  name: "res3a_branch2b_relu"
  type: "ReLU"
  bottom: "res3a_branch2b"
  top: "res3a_branch2b"
  relu_param {
  }
}
layer {
  name: "res3a_branch2b_fixed"
  type: "FixedNeuron"
  bottom: "res3a_branch2b"
  top: "res3a_branch2b"
  param {
    lr_mult: 0
    decay_mult: 0
  }
  fixed_param {
    fixed_method: DIFF_S
    bit_width: 8
  }
}
layer {
  name: "res3a_branch2c"
  type: "ConvolutionFixed"
  bottom: "res3a_branch2b"
  top: "res3a_branch2c"
  param {
    lr_mult: 1
    decay_mult: 1
  }
  param {
    lr_mult: 1
    decay_mult: 0
  }
  convolution_param {
    num_output: 512
    bias_term: true
    pad: 0
    kernel_size: 1
    stride: 1
    weight_filler {
      type: "xavier"
    }
    bias_filler {
      type: "constant"
      value: 0.2
    }
  }
  fixed_param {
    fixed_method: DIFF_S
    bit_width: 8
  }
}
layer {
  name: "res3a_branch2c_fixed"
  type: "FixedNeuron"
  bottom: "res3a_branch2c"
  top: "res3a_branch2c"
  param {
    lr_mult: 0
    decay_mult: 0
  }
  fixed_param {
    fixed_method: DIFF_S
    bit_width: 8
  }
}
layer {
  name: "res3a"
  type: "Eltwise"
  bottom: "res3a_branch1"
  bottom: "res3a_branch2c"
  top: "res3a"
  eltwise_param {
  }
}
layer {
  name: "res3a_relu"
  type: "ReLU"
  bottom: "res3a"
  top: "res3a"
  relu_param {
  }
}
layer {
  name: "res3a_fixed"
  type: "FixedNeuron"
  bottom: "res3a"
  top: "res3a"
  param {
    lr_mult: 0
    decay_mult: 0
  }
  fixed_param {
    fixed_method: DIFF_S
    bit_width: 8
  }
}
layer {
  name: "res3b_branch2a"
  type: "ConvolutionFixed"
  bottom: "res3a"
  top: "res3b_branch2a"
  param {
    lr_mult: 1
    decay_mult: 1
  }
  param {
    lr_mult: 1
    decay_mult: 0
  }
  convolution_param {
…
I0828 16:03:54.666473 22492 net.cpp:481] res4c_branch2a_fixed <- res4c_branch2a
I0828 16:03:54.666478 22492 net.cpp:442] res4c_branch2a_fixed -> res4c_branch2a (in-place)
I0828 16:03:54.666507 22492 net.cpp:190] Setting up res4c_branch2a_fixed
I0828 16:03:54.666512 22492 net.cpp:197] Top shape: 20 256 14 14 (1003520)
I0828 16:03:54.666515 22492 net.cpp:205] Memory required for data: 3456122960
I0828 16:03:54.666520 22492 layer_factory.hpp:123] Creating layer res4c_branch2b
I0828 16:03:54.666529 22492 net.cpp:140] Creating Layer res4c_branch2b
I0828 16:03:54.666533 22492 net.cpp:481] res4c_branch2b <- res4c_branch2a
I0828 16:03:54.666539 22492 net.cpp:455] res4c_branch2b -> res4c_branch2b
I0828 16:03:54.670189 22492 layer_factory.hpp:123] Creating layer res4c_branch2b
I0828 16:03:54.673908 22492 net.cpp:190] Setting up res4c_branch2b
I0828 16:03:54.673926 22492 net.cpp:197] Top shape: 20 256 14 14 (1003520)
I0828 16:03:54.673930 22492 net.cpp:205] Memory required for data: 3460137040
I0828 16:03:54.673936 22492 layer_factory.hpp:123] Creating layer res4c_branch2b_relu
I0828 16:03:54.673959 22492 net.cpp:140] Creating Layer res4c_branch2b_relu
I0828 16:03:54.673964 22492 net.cpp:481] res4c_branch2b_relu <- res4c_branch2b
I0828 16:03:54.673969 22492 net.cpp:442] res4c_branch2b_relu -> res4c_branch2b (in-place)
I0828 16:03:54.673975 22492 net.cpp:190] Setting up res4c_branch2b_relu
I0828 16:03:54.673979 22492 net.cpp:197] Top shape: 20 256 14 14 (1003520)
I0828 16:03:54.673981 22492 net.cpp:205] Memory required for data: 3464151120
I0828 16:03:54.673985 22492 layer_factory.hpp:123] Creating layer res4c_branch2b_fixed
I0828 16:03:54.673990 22492 net.cpp:140] Creating Layer res4c_branch2b_fixed
I0828 16:03:54.673992 22492 net.cpp:481] res4c_branch2b_fixed <- res4c_branch2b
I0828 16:03:54.673995 22492 net.cpp:442] res4c_branch2b_fixed -> res4c_branch2b (in-place)
I0828 16:03:54.674021 22492 net.cpp:190] Setting up res4c_branch2b_fixed
I0828 16:03:54.674026 22492 net.cpp:197] Top shape: 20 256 14 14 (1003520)
I0828 16:03:54.674028 22492 net.cpp:205] Memory required for data: 3468165200
I0828 16:03:54.674031 22492 layer_factory.hpp:123] Creating layer res4c_branch2c
I0828 16:03:54.674038 22492 net.cpp:140] Creating Layer res4c_branch2c
I0828 16:03:54.674041 22492 net.cpp:481] res4c_branch2c <- res4c_branch2b
I0828 16:03:54.674046 22492 net.cpp:455] res4c_branch2c -> res4c_branch2c
I0828 16:03:54.675848 22492 layer_factory.hpp:123] Creating layer res4c_branch2c
I0828 16:03:54.677698 22492 net.cpp:190] Setting up res4c_branch2c
I0828 16:03:54.677711 22492 net.cpp:197] Top shape: 20 1024 14 14 (4014080)
I0828 16:03:54.677714 22492 net.cpp:205] Memory required for data: 3484221520
I0828 16:03:54.677721 22492 layer_factory.hpp:123] Creating layer res4c_branch2c_fixed
I0828 16:03:54.677745 22492 net.cpp:140] Creating Layer res4c_branch2c_fixed
I0828 16:03:54.677750 22492 net.cpp:481] res4c_branch2c_fixed <- res4c_branch2c
I0828 16:03:54.677755 22492 net.cpp:442] res4c_branch2c_fixed -> res4c_branch2c (in-place)
I0828 16:03:54.677783 22492 net.cpp:190] Setting up res4c_branch2c_fixed
I0828 16:03:54.677788 22492 net.cpp:197] Top shape: 20 1024 14 14 (4014080)
I0828 16:03:54.677791 22492 net.cpp:205] Memory required for data: 3500277840
I0828 16:03:54.677794 22492 layer_factory.hpp:123] Creating layer res4c
I0828 16:03:54.677799 22492 net.cpp:140] Creating Layer res4c
I0828 16:03:54.677803 22492 net.cpp:481] res4c <- res4b_res4b_fixed_0_split_1
I0828 16:03:54.677806 22492 net.cpp:481] res4c <- res4c_branch2c
I0828 16:03:54.677811 22492 net.cpp:455] res4c -> res4c
I0828 16:03:54.677829 22492 net.cpp:190] Setting up res4c
I0828 16:03:54.677834 22492 net.cpp:197] Top shape: 20 1024 14 14 (4014080)
I0828 16:03:54.677836 22492 net.cpp:205] Memory required for data: 3516334160
I0828 16:03:54.677839 22492 layer_factory.hpp:123] Creating layer res4c_relu
I0828 16:03:54.677844 22492 net.cpp:140] Creating Layer res4c_relu
I0828 16:03:54.677846 22492 net.cpp:481] res4c_relu <- res4c
I0828 16:03:54.677850 22492 net.cpp:442] res4c_relu -> res4c (in-place)
I0828 16:03:54.677855 22492 net.cpp:190] Setting up res4c_relu
I0828 16:03:54.677858 22492 net.cpp:197] Top shape: 20 1024 14 14 (4014080)
I0828 16:03:54.677860 22492 net.cpp:205] Memory required for data: 3532390480
I0828 16:03:54.677862 22492 layer_factory.hpp:123] Creating layer res4c_fixed
I0828 16:03:54.677866 22492 net.cpp:140] Creating Layer res4c_fixed
I0828 16:03:54.677868 22492 net.cpp:481] res4c_fixed <- res4c
I0828 16:03:54.677871 22492 net.cpp:442] res4c_fixed -> res4c (in-place)
I0828 16:03:54.677894 22492 net.cpp:190] Setting up res4c_fixed
I0828 16:03:54.677899 22492 net.cpp:197] Top shape: 20 1024 14 14 (4014080)
I0828 16:03:54.677901 22492 net.cpp:205] Memory required for data: 3548446800
I0828 16:03:54.677906 22492 layer_factory.hpp:123] Creating layer res4c_res4c_fixed_0_split
I0828 16:03:54.677909 22492 net.cpp:140] Creating Layer res4c_res4c_fixed_0_split
I0828 16:03:54.677912 22492 net.cpp:481] res4c_res4c_fixed_0_split <- res4c
I0828 16:03:54.677915 22492 net.cpp:455] res4c_res4c_fixed_0_split -> res4c_res4c_fixed_0_split_0
I0828 16:03:54.677922 22492 net.cpp:455] res4c_res4c_fixed_0_split -> res4c_res4c_fixed_0_split_1
I0828 16:03:54.677942 22492 net.cpp:190] Setting up res4c_res4c_fixed_0_split
I0828 16:03:54.677947 22492 net.cpp:197] Top shape: 20 1024 14 14 (4014080)
I0828 16:03:54.677950 22492 net.cpp:197] Top shape: 20 1024 14 14 (4014080)
I0828 16:03:54.677953 22492 net.cpp:205] Memory required for data: 3580559440
I0828 16:03:54.677955 22492 layer_factory.hpp:123] Creating layer res4d_branch2a
I0828 16:03:54.677963 22492 net.cpp:140] Creating Layer res4d_branch2a
I0828 16:03:54.677964 22492 net.cpp:481] res4d_branch2a <- res4c_res4c_fixed_0_split_0
I0828 16:03:54.677969 22492 net.cpp:455] res4d_branch2a -> res4d_branch2a
I0828 16:03:54.679708 22492 layer_factory.hpp:123] Creating layer res4d_branch2a
I0828 16:03:54.681601 22492 net.cpp:190] Setting up res4d_branch2a
I0828 16:03:54.681612 22492 net.cpp:197] Top shape: 20 256 14 14 (1003520)
I0828 16:03:54.681614 22492 net.cpp:205] Memory required for data: 3584573520
I0828 16:03:54.681635 22492 layer_factory.hpp:123] Creating layer res4d_branch2a_relu
I0828 16:03:54.681641 22492 net.cpp:140] Creating Layer res4d_branch2a_relu
I0828 16:03:54.681646 22492 net.cpp:481] res4d_branch2a_relu <- res4d_branch2a
I0828 16:03:54.681651 22492 net.cpp:442] res4d_branch2a_relu -> res4d_branch2a (in-place)
I0828 16:03:54.681658 22492 net.cpp:190] Setting up res4d_branch2a_relu
I0828 16:03:54.681661 22492 net.cpp:197] Top shape: 20 256 14 14 (1003520)
I0828 16:03:54.681664 22492 net.cpp:205] Memory required for data: 3588587600
I0828 16:03:54.681668 22492 layer_factory.hpp:123] Creating layer res4d_branch2a_fixed
I0828 16:03:54.681671 22492 net.cpp:140] Creating Layer res4d_branch2a_fixed
I0828 16:03:54.681674 22492 net.cpp:481] res4d_branch2a_fixed <- res4d_branch2a
I0828 16:03:54.681676 22492 net.cpp:442] res4d_branch2a_fixed -> res4d_branch2a (in-place)
I0828 16:03:54.681702 22492 net.cpp:190] Setting up res4d_branch2a_fixed
I0828 16:03:54.681707 22492 net.cpp:197] Top shape: 20 256 14 14 (1003520)
I0828 16:03:54.681710 22492 net.cpp:205] Memory required for data: 3592601680
I0828 16:03:54.681713 22492 layer_factory.hpp:123] Creating layer res4d_branch2b
I0828 16:03:54.681720 22492 net.cpp:140] Creating Layer res4d_branch2b
I0828 16:03:54.681722 22492 net.cpp:481] res4d_branch2b <- res4d_branch2a
I0828 16:03:54.681726 22492 net.cpp:455] res4d_branch2b -> res4d_branch2b
I0828 16:03:54.686044 22492 layer_factory.hpp:123] Creating layer res4d_branch2b
I0828 16:03:54.689810 22492 net.cpp:190] Setting up res4d_branch2b
I0828 16:03:54.689826 22492 net.cpp:197] Top shape: 20 256 14 14 (1003520)
I0828 16:03:54.689828 22492 net.cpp:205] Memory required for data: 3596615760
I0828 16:03:54.689836 22492 layer_factory.hpp:123] Creating layer res4d_branch2b_relu
I0828 16:03:54.689844 22492 net.cpp:140] Creating Layer res4d_branch2b_relu
I0828 16:03:54.689848 22492 net.cpp:481] res4d_branch2b_relu <- res4d_branch2b
I0828 16:03:54.689853 22492 net.cpp:442] res4d_branch2b_relu -> res4d_branch2b (in-place)
I0828 16:03:54.689859 22492 net.cpp:190] Setting up res4d_branch2b_relu
I0828 16:03:54.689863 22492 net.cpp:197] Top shape: 20 256 14 14 (1003520)
I0828 16:03:54.689865 22492 net.cpp:205] Memory required for data: 3600629840
I0828 16:03:54.689868 22492 layer_factory.hpp:123] Creating layer res4d_branch2b_fixed
I0828 16:03:54.689872 22492 net.cpp:140] Creating Layer res4d_branch2b_fixed
I0828 16:03:54.689875 22492 net.cpp:481] res4d_branch2b_fixed <- res4d_branch2b
I0828 16:03:54.689878 22492 net.cpp:442] res4d_branch2b_fixed -> res4d_branch2b (in-place)
I0828 16:03:54.689906 22492 net.cpp:190] Setting up res4d_branch2b_fixed
I0828 16:03:54.689911 22492 net.cpp:197] Top shape: 20 256 14 14 (1003520)
I0828 16:03:54.689914 22492 net.cpp:205] Memory required for data: 3604643920
I0828 16:03:54.689918 22492 layer_factory.hpp:123] Creating layer res4d_branch2c
I0828 16:03:54.689924 22492 net.cpp:140] Creating Layer res4d_branch2c
I0828 16:03:54.689927 22492 net.cpp:481] res4d_branch2c <- res4d_branch2b
I0828 16:03:54.689932 22492 net.cpp:455] res4d_branch2c -> res4d_branch2c
I0828 16:03:54.692744 22492 layer_factory.hpp:123] Creating layer res4d_branch2c
I0828 16:03:54.694624 22492 net.cpp:190] Setting up res4d_branch2c
I0828 16:03:54.694635 22492 net.cpp:197] Top shape: 20 1024 14 14 (4014080)
I0828 16:03:54.694638 22492 net.cpp:205] Memory required for data: 3620700240
I0828 16:03:54.694656 22492 layer_factory.hpp:123] Creating layer res4d_branch2c_fixed
I0828 16:03:54.694663 22492 net.cpp:140] Creating Layer res4d_branch2c_fixed
I0828 16:03:54.694666 22492 net.cpp:481] res4d_branch2c_fixed <- res4d_branch2c
I0828 16:03:54.694671 22492 net.cpp:442] res4d_branch2c_fixed -> res4d_branch2c (in-place)
I0828 16:03:54.694696 22492 net.cpp:190] Setting up res4d_branch2c_fixed
I0828 16:03:54.694701 22492 net.cpp:197] Top shape: 20 1024 14 14 (4014080)
I0828 16:03:54.694703 22492 net.cpp:205] Memory required for data: 3636756560
I0828 16:03:54.694707 22492 layer_factory.hpp:123] Creating layer res4d
I0828 16:03:54.694712 22492 net.cpp:140] Creating Layer res4d
I0828 16:03:54.694715 22492 net.cpp:481] res4d <- res4c_res4c_fixed_0_split_1
I0828 16:03:54.694718 22492 net.cpp:481] res4d <- res4d_branch2c
I0828 16:03:54.694723 22492 net.cpp:455] res4d -> res4d
I0828 16:03:54.694738 22492 net.cpp:190] Setting up res4d
I0828 16:03:54.694743 22492 net.cpp:197] Top shape: 20 1024 14 14 (4014080)
I0828 16:03:54.694746 22492 net.cpp:205] Memory required for data: 3652812880
I0828 16:03:54.694748 22492 layer_factory.hpp:123] Creating layer res4d_relu
I0828 16:03:54.694752 22492 net.cpp:140] Creating Layer res4d_relu
I0828 16:03:54.694756 22492 net.cpp:481] res4d_relu <- res4d
I0828 16:03:54.694758 22492 net.cpp:442] res4d_relu -> res4d (in-place)
I0828 16:03:54.694766 22492 net.cpp:190] Setting up res4d_relu
I0828 16:03:54.694770 22492 net.cpp:197] Top shape: 20 1024 14 14 (4014080)
I0828 16:03:54.694773 22492 net.cpp:205] Memory required for data: 3668869200
I0828 16:03:54.694775 22492 layer_factory.hpp:123] Creating layer res4d_fixed
I0828 16:03:54.694779 22492 net.cpp:140] Creating Layer res4d_fixed
I0828 16:03:54.694782 22492 net.cpp:481] res4d_fixed <- res4d
I0828 16:03:54.694784 22492 net.cpp:442] res4d_fixed -> res4d (in-place)
I0828 16:03:54.694808 22492 net.cpp:190] Setting up res4d_fixed
I0828 16:03:54.694813 22492 net.cpp:197] Top shape: 20 1024 14 14 (4014080)
I0828 16:03:54.694814 22492 net.cpp:205] Memory required for data: 3684925520
I0828 16:03:54.694818 22492 layer_factory.hpp:123] Creating layer res4d_res4d_fixed_0_split
I0828 16:03:54.694823 22492 net.cpp:140] Creating Layer res4d_res4d_fixed_0_split
I0828 16:03:54.694825 22492 net.cpp:481] res4d_res4d_fixed_0_split <- res4d
I0828 16:03:54.694829 22492 net.cpp:455] res4d_res4d_fixed_0_split -> res4d_res4d_fixed_0_split_0
I0828 16:03:54.694834 22492 net.cpp:455] res4d_res4d_fixed_0_split -> res4d_res4d_fixed_0_split_1
I0828 16:03:54.694855 22492 net.cpp:190] Setting up res4d_res4d_fixed_0_split
I0828 16:03:54.694860 22492 net.cpp:197] Top shape: 20 1024 14 14 (4014080)
I0828 16:03:54.694864 22492 net.cpp:197] Top shape: 20 1024 14 14 (4014080)
I0828 16:03:54.694865 22492 net.cpp:205] Memory required for data: 3717038160
I0828 16:03:54.694869 22492 layer_factory.hpp:123] Creating layer res4e_branch2a
I0828 16:03:54.694875 22492 net.cpp:140] Creating Layer res4e_branch2a
I0828 16:03:54.694880 22492 net.cpp:481] res4e_branch2a <- res4d_res4d_fixed_0_split_0
I0828 16:03:54.694891 22492 net.cpp:455] res4e_branch2a -> res4e_branch2a
I0828 16:03:54.696666 22492 layer_factory.hpp:123] Creating layer res4e_branch2a
I0828 16:03:54.698504 22492 net.cpp:190] Setting up res4e_branch2a
I0828 16:03:54.698516 22492 net.cpp:197] Top shape: 20 256 14 14 (1003520)
I0828 16:03:54.698519 22492 net.cpp:205] Memory required for data: 3721052240
I0828 16:03:54.698524 22492 layer_factory.hpp:123] Creating layer res4e_branch2a_relu
I0828 16:03:54.698546 22492 net.cpp:140] Creating Layer res4e_branch2a_relu
I0828 16:03:54.698550 22492 net.cpp:481] res4e_branch2a_relu <- res4e_branch2a
I0828 16:03:54.698554 22492 net.cpp:442] res4e_branch2a_relu -> res4e_branch2a (in-place)
I0828 16:03:54.698561 22492 net.cpp:190] Setting up res4e_branch2a_relu
I0828 16:03:54.698566 22492 net.cpp:197] Top shape: 20 256 14 14 (1003520)
I0828 16:03:54.698570 22492 net.cpp:205] Memory required for data: 3725066320
I0828 16:03:54.698571 22492 layer_factory.hpp:123] Creating layer res4e_branch2a_fixed
I0828 16:03:54.698575 22492 net.cpp:140] Creating Layer res4e_branch2a_fixed
I0828 16:03:54.698578 22492 net.cpp:481] res4e_branch2a_fixed <- res4e_branch2a
I0828 16:03:54.698581 22492 net.cpp:442] res4e_branch2a_fixed -> res4e_branch2a (in-place)
I0828 16:03:54.698606 22492 net.cpp:190] Setting up res4e_branch2a_fixed
I0828 16:03:54.698611 22492 net.cpp:197] Top shape: 20 256 14 14 (1003520)
I0828 16:03:54.698613 22492 net.cpp:205] Memory required for data: 3729080400
I0828 16:03:54.698616 22492 layer_factory.hpp:123] Creating layer res4e_branch2b
I0828 16:03:54.698623 22492 net.cpp:140] Creating Layer res4e_branch2b
I0828 16:03:54.698626 22492 net.cpp:481] res4e_branch2b <- res4e_branch2a
I0828 16:03:54.698631 22492 net.cpp:455] res4e_branch2b -> res4e_branch2b
I0828 16:03:54.702247 22492 layer_factory.hpp:123] Creating layer res4e_branch2b
I0828 16:03:54.705974 22492 net.cpp:190] Setting up res4e_branch2b
I0828 16:03:54.705991 22492 net.cpp:197] Top shape: 20 256 14 14 (1003520)
I0828 16:03:54.705993 22492 net.cpp:205] Memory required for data: 3733094480
I0828 16:03:54.706001 22492 layer_factory.hpp:123] Creating layer res4e_branch2b_relu
I0828 16:03:54.706012 22492 net.cpp:140] Creating Layer res4e_branch2b_relu
I0828 16:03:54.706030 22492 net.cpp:481] res4e_branch2b_relu <- res4e_branch2b
I0828 16:03:54.706037 22492 net.cpp:442] res4e_branch2b_relu -> res4e_branch2b (in-place)
I0828 16:03:54.706046 22492 net.cpp:190] Setting up res4e_branch2b_relu
I0828 16:03:54.706050 22492 net.cpp:197] Top shape: 20 256 14 14 (1003520)
I0828 16:03:54.706053 22492 net.cpp:205] Memory required for data: 3737108560
I0828 16:03:54.706056 22492 layer_factory.hpp:123] Creating layer res4e_branch2b_fixed
I0828 16:03:54.706061 22492 net.cpp:140] Creating Layer res4e_branch2b_fixed
I0828 16:03:54.706063 22492 net.cpp:481] res4e_branch2b_fixed <- res4e_branch2b
I0828 16:03:54.706066 22492 net.cpp:442] res4e_branch2b_fixed -> res4e_branch2b (in-place)
I0828 16:03:54.706099 22492 net.cpp:190] Setting up res4e_branch2b_fixed
I0828 16:03:54.706102 22492 net.cpp:197] Top shape: 20 256 14 14 (1003520)
I0828 16:03:54.706105 22492 net.cpp:205] Memory required for data: 3741122640
I0828 16:03:54.706115 22492 layer_factory.hpp:123] Creating layer res4e_branch2c
I0828 16:03:54.706123 22492 net.cpp:140] Creating Layer res4e_branch2c
I0828 16:03:54.706126 22492 net.cpp:481] res4e_branch2c <- res4e_branch2b
I0828 16:03:54.706131 22492 net.cpp:455] res4e_branch2c -> res4e_branch2c
I0828 16:03:54.707989 22492 layer_factory.hpp:123] Creating layer res4e_branch2c
I0828 16:03:54.709862 22492 net.cpp:190] Setting up res4e_branch2c
I0828 16:03:54.709873 22492 net.cpp:197] Top shape: 20 1024 14 14 (4014080)
I0828 16:03:54.709875 22492 net.cpp:205] Memory required for data: 3757178960
I0828 16:03:54.709882 22492 layer_factory.hpp:123] Creating layer res4e_branch2c_fixed
I0828 16:03:54.709887 22492 net.cpp:140] Creating Layer res4e_branch2c_fixed
I0828 16:03:54.709905 22492 net.cpp:481] res4e_branch2c_fixed <- res4e_branch2c
I0828 16:03:54.709909 22492 net.cpp:442] res4e_branch2c_fixed -> res4e_branch2c (in-place)
I0828 16:03:54.709935 22492 net.cpp:190] Setting up res4e_branch2c_fixed
I0828 16:03:54.709940 22492 net.cpp:197] Top shape: 20 1024 14 14 (4014080)
I0828 16:03:54.709944 22492 net.cpp:205] Memory required for data: 3773235280
I0828 16:03:54.709946 22492 layer_factory.hpp:123] Creating layer res4e
I0828 16:03:54.709951 22492 net.cpp:140] Creating Layer res4e
I0828 16:03:54.709954 22492 net.cpp:481] res4e <- res4d_res4d_fixed_0_split_1
I0828 16:03:54.709959 22492 net.cpp:481] res4e <- res4e_branch2c
I0828 16:03:54.709962 22492 net.cpp:455] res4e -> res4e
I0828 16:03:54.709977 22492 net.cpp:190] Setting up res4e
I0828 16:03:54.709982 22492 net.cpp:197] Top shape: 20 1024 14 14 (4014080)
I0828 16:03:54.709985 22492 net.cpp:205] Memory required for data: 3789291600
I0828 16:03:54.709987 22492 layer_factory.hpp:123] Creating layer res4e_relu
I0828 16:03:54.709991 22492 net.cpp:140] Creating Layer res4e_relu
I0828 16:03:54.709995 22492 net.cpp:481] res4e_relu <- res4e
I0828 16:03:54.709998 22492 net.cpp:442] res4e_relu -> res4e (in-place)
I0828 16:03:54.710003 22492 net.cpp:190] Setting up res4e_relu
I0828 16:03:54.710006 22492 net.cpp:197] Top shape: 20 1024 14 14 (4014080)
I0828 16:03:54.710009 22492 net.cpp:205] Memory required for data: 3805347920
I0828 16:03:54.710011 22492 layer_factory.hpp:123] Creating layer res4e_fixed
I0828 16:03:54.710014 22492 net.cpp:140] Creating Layer res4e_fixed
I0828 16:03:54.710017 22492 net.cpp:481] res4e_fixed <- res4e
I0828 16:03:54.710021 22492 net.cpp:442] res4e_fixed -> res4e (in-place)
I0828 16:03:54.710043 22492 net.cpp:190] Setting up res4e_fixed
I0828 16:03:54.710048 22492 net.cpp:197] Top shape: 20 1024 14 14 (4014080)
I0828 16:03:54.710050 22492 net.cpp:205] Memory required for data: 3821404240
I0828 16:03:54.710054 22492 layer_factory.hpp:123] Creating layer res4e_res4e_fixed_0_split
I0828 16:03:54.710057 22492 net.cpp:140] Creating Layer res4e_res4e_fixed_0_split
I0828 16:03:54.710060 22492 net.cpp:481] res4e_res4e_fixed_0_split <- res4e
I0828 16:03:54.710063 22492 net.cpp:455] res4e_res4e_fixed_0_split -> res4e_res4e_fixed_0_split_0
I0828 16:03:54.710068 22492 net.cpp:455] res4e_res4e_fixed_0_split -> res4e_res4e_fixed_0_split_1
I0828 16:03:54.710091 22492 net.cpp:190] Setting up res4e_res4e_fixed_0_split
I0828 16:03:54.710095 22492 net.cpp:197] Top shape: 20 1024 14 14 (4014080)
I0828 16:03:54.710098 22492 net.cpp:197] Top shape: 20 1024 14 14 (4014080)
I0828 16:03:54.710101 22492 net.cpp:205] Memory required for data: 3853516880
I0828 16:03:54.710104 22492 layer_factory.hpp:123] Creating layer res4f_branch2a
I0828 16:03:54.710110 22492 net.cpp:140] Creating Layer res4f_branch2a
I0828 16:03:54.710114 22492 net.cpp:481] res4f_branch2a <- res4e_res4e_fixed_0_split_0
I0828 16:03:54.710119 22492 net.cpp:455] res4f_branch2a -> res4f_branch2a
I0828 16:03:54.711901 22492 layer_factory.hpp:123] Creating layer res4f_branch2a
I0828 16:03:54.713732 22492 net.cpp:190] Setting up res4f_branch2a
I0828 16:03:54.713742 22492 net.cpp:197] Top shape: 20 256 14 14 (1003520)
I0828 16:03:54.713745 22492 net.cpp:205] Memory required for data: 3857530960
I0828 16:03:54.713752 22492 layer_factory.hpp:123] Creating layer res4f_branch2a_relu
I0828 16:03:54.713771 22492 net.cpp:140] Creating Layer res4f_branch2a_relu
I0828 16:03:54.713776 22492 net.cpp:481] res4f_branch2a_relu <- res4f_branch2a
I0828 16:03:54.713781 22492 net.cpp:442] res4f_branch2a_relu -> res4f_branch2a (in-place)
I0828 16:03:54.713786 22492 net.cpp:190] Setting up res4f_branch2a_relu
I0828 16:03:54.713790 22492 net.cpp:197] Top shape: 20 256 14 14 (1003520)
I0828 16:03:54.713793 22492 net.cpp:205] Memory required for data: 3861545040
I0828 16:03:54.713795 22492 layer_factory.hpp:123] Creating layer res4f_branch2a_fixed
I0828 16:03:54.713799 22492 net.cpp:140] Creating Layer res4f_branch2a_fixed
I0828 16:03:54.713802 22492 net.cpp:481] res4f_branch2a_fixed <- res4f_branch2a
I0828 16:03:54.713805 22492 net.cpp:442] res4f_branch2a_fixed -> res4f_branch2a (in-place)
I0828 16:03:54.713830 22492 net.cpp:190] Setting up res4f_branch2a_fixed
I0828 16:03:54.713835 22492 net.cpp:197] Top shape: 20 256 14 14 (1003520)
I0828 16:03:54.713837 22492 net.cpp:205] Memory required for data: 3865559120
I0828 16:03:54.713841 22492 layer_factory.hpp:123] Creating layer res4f_branch2b
I0828 16:03:54.713847 22492 net.cpp:140] Creating Layer res4f_branch2b
I0828 16:03:54.713850 22492 net.cpp:481] res4f_branch2b <- res4f_branch2a
I0828 16:03:54.713855 22492 net.cpp:455] res4f_branch2b -> res4f_branch2b
I0828 16:03:54.717480 22492 layer_factory.hpp:123] Creating layer res4f_branch2b
I0828 16:03:54.721314 22492 net.cpp:190] Setting up res4f_branch2b
I0828 16:03:54.721330 22492 net.cpp:197] Top shape: 20 256 14 14 (1003520)
I0828 16:03:54.721333 22492 net.cpp:205] Memory required for data: 3869573200
I0828 16:03:54.721339 22492 layer_factory.hpp:123] Creating layer res4f_branch2b_relu
I0828 16:03:54.721348 22492 net.cpp:140] Creating Layer res4f_branch2b_relu
I0828 16:03:54.721351 22492 net.cpp:481] res4f_branch2b_relu <- res4f_branch2b
I0828 16:03:54.721371 22492 net.cpp:442] res4f_branch2b_relu -> res4f_branch2b (in-place)
I0828 16:03:54.721379 22492 net.cpp:190] Setting up res4f_branch2b_relu
I0828 16:03:54.721382 22492 net.cpp:197] Top shape: 20 256 14 14 (1003520)
I0828 16:03:54.721385 22492 net.cpp:205] Memory required for data: 3873587280
I0828 16:03:54.721387 22492 layer_factory.hpp:123] Creating layer res4f_branch2b_fixed
I0828 16:03:54.721395 22492 net.cpp:140] Creating Layer res4f_branch2b_fixed
I0828 16:03:54.721400 22492 net.cpp:481] res4f_branch2b_fixed <- res4f_branch2b
I0828 16:03:54.721405 22492 net.cpp:442] res4f_branch2b_fixed -> res4f_branch2b (in-place)
I0828 16:03:54.721434 22492 net.cpp:190] Setting up res4f_branch2b_fixed
I0828 16:03:54.721439 22492 net.cpp:197] Top shape: 20 256 14 14 (1003520)
I0828 16:03:54.721442 22492 net.cpp:205] Memory required for data: 3877601360
I0828 16:03:54.721446 22492 layer_factory.hpp:123] Creating layer res4f_branch2c
I0828 16:03:54.721453 22492 net.cpp:140] Creating Layer res4f_branch2c
I0828 16:03:54.721455 22492 net.cpp:481] res4f_branch2c <- res4f_branch2b
I0828 16:03:54.721460 22492 net.cpp:455] res4f_branch2c -> res4f_branch2c
I0828 16:03:54.723307 22492 layer_factory.hpp:123] Creating layer res4f_branch2c
I0828 16:03:54.725175 22492 net.cpp:190] Setting up res4f_branch2c
I0828 16:03:54.725186 22492 net.cpp:197] Top shape: 20 1024 14 14 (4014080)
I0828 16:03:54.725189 22492 net.cpp:205] Memory required for data: 3893657680
I0828 16:03:54.725194 22492 layer_factory.hpp:123] Creating layer res4f_branch2c_fixed
I0828 16:03:54.725214 22492 net.cpp:140] Creating Layer res4f_branch2c_fixed
I0828 16:03:54.725219 22492 net.cpp:481] res4f_branch2c_fixed <- res4f_branch2c
I0828 16:03:54.725224 22492 net.cpp:442] res4f_branch2c_fixed -> res4f_branch2c (in-place)
I0828 16:03:54.725248 22492 net.cpp:190] Setting up res4f_branch2c_fixed
I0828 16:03:54.725253 22492 net.cpp:197] Top shape: 20 1024 14 14 (4014080)
I0828 16:03:54.725255 22492 net.cpp:205] Memory required for data: 3909714000
I0828 16:03:54.725260 22492 layer_factory.hpp:123] Creating layer res4f
I0828 16:03:54.725265 22492 net.cpp:140] Creating Layer res4f
I0828 16:03:54.725267 22492 net.cpp:481] res4f <- res4e_res4e_fixed_0_split_1
I0828 16:03:54.725271 22492 net.cpp:481] res4f <- res4f_branch2c
I0828 16:03:54.725275 22492 net.cpp:455] res4f -> res4f
I0828 16:03:54.725291 22492 net.cpp:190] Setting up res4f
I0828 16:03:54.725296 22492 net.cpp:197] Top shape: 20 1024 14 14 (4014080)
I0828 16:03:54.725297 22492 net.cpp:205] Memory required for data: 3925770320
I0828 16:03:54.725301 22492 layer_factory.hpp:123] Creating layer res4f_relu
I0828 16:03:54.725304 22492 net.cpp:140] Creating Layer res4f_relu
I0828 16:03:54.725307 22492 net.cpp:481] res4f_relu <- res4f
I0828 16:03:54.725311 22492 net.cpp:442] res4f_relu -> res4f (in-place)
I0828 16:03:54.725317 22492 net.cpp:190] Setting up res4f_relu
I0828 16:03:54.725319 22492 net.cpp:197] Top shape: 20 1024 14 14 (4014080)
I0828 16:03:54.725322 22492 net.cpp:205] Memory required for data: 3941826640
I0828 16:03:54.725324 22492 layer_factory.hpp:123] Creating layer res4f_fixed
I0828 16:03:54.725327 22492 net.cpp:140] Creating Layer res4f_fixed
I0828 16:03:54.725330 22492 net.cpp:481] res4f_fixed <- res4f
I0828 16:03:54.725333 22492 net.cpp:442] res4f_fixed -> res4f (in-place)
I0828 16:03:54.725355 22492 net.cpp:190] Setting up res4f_fixed
I0828 16:03:54.725360 22492 net.cpp:197] Top shape: 20 1024 14 14 (4014080)
I0828 16:03:54.725363 22492 net.cpp:205] Memory required for data: 3957882960
I0828 16:03:54.725365 22492 layer_factory.hpp:123] Creating layer res4f_res4f_fixed_0_split
I0828 16:03:54.725369 22492 net.cpp:140] Creating Layer res4f_res4f_fixed_0_split
I0828 16:03:54.725373 22492 net.cpp:481] res4f_res4f_fixed_0_split <- res4f
I0828 16:03:54.725376 22492 net.cpp:455] res4f_res4f_fixed_0_split -> res4f_res4f_fixed_0_split_0
I0828 16:03:54.725381 22492 net.cpp:455] res4f_res4f_fixed_0_split -> res4f_res4f_fixed_0_split_1
I0828 16:03:54.725404 22492 net.cpp:190] Setting up res4f_res4f_fixed_0_split
I0828 16:03:54.725407 22492 net.cpp:197] Top shape: 20 1024 14 14 (4014080)
I0828 16:03:54.725410 22492 net.cpp:197] Top shape: 20 1024 14 14 (4014080)
I0828 16:03:54.725414 22492 net.cpp:205] Memory required for data: 3989995600
I0828 16:03:54.725415 22492 layer_factory.hpp:123] Creating layer res5a_branch1
I0828 16:03:54.725422 22492 net.cpp:140] Creating Layer res5a_branch1
I0828 16:03:54.725426 22492 net.cpp:481] res5a_branch1 <- res4f_res4f_fixed_0_split_0
I0828 16:03:54.725430 22492 net.cpp:455] res5a_branch1 -> res5a_branch1
I0828 16:03:54.738150 22492 layer_factory.hpp:123] Creating layer res5a_branch1
I0828 16:03:54.751097 22492 net.cpp:190] Setting up res5a_branch1
I0828 16:03:54.751119 22492 net.cpp:197] Top shape: 20 2048 7 7 (2007040)
I0828 16:03:54.751122 22492 net.cpp:205] Memory required for data: 3998023760
I0828 16:03:54.751130 22492 layer_factory.hpp:123] Creating layer res5a_branch1_fixed
I0828 16:03:54.751153 22492 net.cpp:140] Creating Layer res5a_branch1_fixed
I0828 16:03:54.751159 22492 net.cpp:481] res5a_branch1_fixed <- res5a_branch1
I0828 16:03:54.751168 22492 net.cpp:442] res5a_branch1_fixed -> res5a_branch1 (in-place)
I0828 16:03:54.751197 22492 net.cpp:190] Setting up res5a_branch1_fixed
I0828 16:03:54.751204 22492 net.cpp:197] Top shape: 20 2048 7 7 (2007040)
I0828 16:03:54.751209 22492 net.cpp:205] Memory required for data: 4006051920
I0828 16:03:54.751214 22492 layer_factory.hpp:123] Creating layer res5a_branch2a
I0828 16:03:54.751226 22492 net.cpp:140] Creating Layer res5a_branch2a
I0828 16:03:54.751231 22492 net.cpp:481] res5a_branch2a <- res4f_res4f_fixed_0_split_1
I0828 16:03:54.751238 22492 net.cpp:455] res5a_branch2a -> res5a_branch2a
I0828 16:03:54.754562 22492 layer_factory.hpp:123] Creating layer res5a_branch2a
I0828 16:03:54.757910 22492 net.cpp:190] Setting up res5a_branch2a
I0828 16:03:54.757928 22492 net.cpp:197] Top shape: 20 512 7 7 (501760)
I0828 16:03:54.757931 22492 net.cpp:205] Memory required for data: 4008058960
I0828 16:03:54.757937 22492 layer_factory.hpp:123] Creating layer res5a_branch2a_relu
I0828 16:03:54.757958 22492 net.cpp:140] Creating Layer res5a_branch2a_relu
I0828 16:03:54.757963 22492 net.cpp:481] res5a_branch2a_relu <- res5a_branch2a
I0828 16:03:54.757970 22492 net.cpp:442] res5a_branch2a_relu -> res5a_branch2a (in-place)
I0828 16:03:54.757977 22492 net.cpp:190] Setting up res5a_branch2a_relu
I0828 16:03:54.757982 22492 net.cpp:197] Top shape: 20 512 7 7 (501760)
I0828 16:03:54.757984 22492 net.cpp:205] Memory required for data: 4010066000
I0828 16:03:54.757987 22492 layer_factory.hpp:123] Creating layer res5a_branch2a_fixed
I0828 16:03:54.757992 22492 net.cpp:140] Creating Layer res5a_branch2a_fixed
I0828 16:03:54.757994 22492 net.cpp:481] res5a_branch2a_fixed <- res5a_branch2a
I0828 16:03:54.757998 22492 net.cpp:442] res5a_branch2a_fixed -> res5a_branch2a (in-place)
I0828 16:03:54.758026 22492 net.cpp:190] Setting up res5a_branch2a_fixed
I0828 16:03:54.758031 22492 net.cpp:197] Top shape: 20 512 7 7 (501760)
I0828 16:03:54.758033 22492 net.cpp:205] Memory required for data: 4012073040
I0828 16:03:54.758038 22492 layer_factory.hpp:123] Creating layer res5a_branch2b
I0828 16:03:54.758044 22492 net.cpp:140] Creating Layer res5a_branch2b
I0828 16:03:54.758047 22492 net.cpp:481] res5a_branch2b <- res5a_branch2a
I0828 16:03:54.758051 22492 net.cpp:455] res5a_branch2b -> res5a_branch2b
I0828 16:03:54.772435 22492 layer_factory.hpp:123] Creating layer res5a_branch2b
I0828 16:03:54.786954 22492 net.cpp:190] Setting up res5a_branch2b
I0828 16:03:54.786975 22492 net.cpp:197] Top shape: 20 512 7 7 (501760)
I0828 16:03:54.786978 22492 net.cpp:205] Memory required for data: 4014080080
I0828 16:03:54.786984 22492 layer_factory.hpp:123] Creating layer res5a_branch2b_relu
I0828 16:03:54.787006 22492 net.cpp:140] Creating Layer res5a_branch2b_relu
I0828 16:03:54.787012 22492 net.cpp:481] res5a_branch2b_relu <- res5a_branch2b
I0828 16:03:54.787019 22492 net.cpp:442] res5a_branch2b_relu -> res5a_branch2b (in-place)
I0828 16:03:54.787039 22492 net.cpp:190] Setting up res5a_branch2b_relu
I0828 16:03:54.787043 22492 net.cpp:197] Top shape: 20 512 7 7 (501760)
I0828 16:03:54.787045 22492 net.cpp:205] Memory required for data: 4016087120
I0828 16:03:54.787048 22492 layer_factory.hpp:123] Creating layer res5a_branch2b_fixed
I0828 16:03:54.787053 22492 net.cpp:140] Creating Layer res5a_branch2b_fixed
I0828 16:03:54.787055 22492 net.cpp:481] res5a_branch2b_fixed <- res5a_branch2b
I0828 16:03:54.787058 22492 net.cpp:442] res5a_branch2b_fixed -> res5a_branch2b (in-place)
I0828 16:03:54.787101 22492 net.cpp:190] Setting up res5a_branch2b_fixed
I0828 16:03:54.787106 22492 net.cpp:197] Top shape: 20 512 7 7 (501760)
I0828 16:03:54.787108 22492 net.cpp:205] Memory required for data: 4018094160
I0828 16:03:54.787111 22492 layer_factory.hpp:123] Creating layer res5a_branch2c
I0828 16:03:54.787120 22492 net.cpp:140] Creating Layer res5a_branch2c
I0828 16:03:54.787123 22492 net.cpp:481] res5a_branch2c <- res5a_branch2b
I0828 16:03:54.787127 22492 net.cpp:455] res5a_branch2c -> res5a_branch2c
I0828 16:03:54.793335 22492 layer_factory.hpp:123] Creating layer res5a_branch2c
I0828 16:03:54.799648 22492 net.cpp:190] Setting up res5a_branch2c
I0828 16:03:54.799667 22492 net.cpp:197] Top shape: 20 2048 7 7 (2007040)
I0828 16:03:54.799670 22492 net.cpp:205] Memory required for data: 4026122320
I0828 16:03:54.799677 22492 layer_factory.hpp:123] Creating layer res5a_branch2c_fixed
I0828 16:03:54.799700 22492 net.cpp:140] Creating Layer res5a_branch2c_fixed
I0828 16:03:54.799705 22492 net.cpp:481] res5a_branch2c_fixed <- res5a_branch2c
I0828 16:03:54.799710 22492 net.cpp:442] res5a_branch2c_fixed -> res5a_branch2c (in-place)
I0828 16:03:54.799769 22492 net.cpp:190] Setting up res5a_branch2c_fixed
I0828 16:03:54.799775 22492 net.cpp:197] Top shape: 20 2048 7 7 (2007040)
I0828 16:03:54.799778 22492 net.cpp:205] Memory required for data: 4034150480
I0828 16:03:54.799782 22492 layer_factory.hpp:123] Creating layer res5a
I0828 16:03:54.799787 22492 net.cpp:140] Creating Layer res5a
I0828 16:03:54.799789 22492 net.cpp:481] res5a <- res5a_branch1
I0828 16:03:54.799793 22492 net.cpp:481] res5a <- res5a_branch2c
I0828 16:03:54.799796 22492 net.cpp:455] res5a -> res5a
I0828 16:03:54.799813 22492 net.cpp:190] Setting up res5a
I0828 16:03:54.799818 22492 net.cpp:197] Top shape: 20 2048 7 7 (2007040)
I0828 16:03:54.799820 22492 net.cpp:205] Memory required for data: 4042178640
I0828 16:03:54.799823 22492 layer_factory.hpp:123] Creating layer res5a_relu
I0828 16:03:54.799827 22492 net.cpp:140] Creating Layer res5a_relu
I0828 16:03:54.799829 22492 net.cpp:481] res5a_relu <- res5a
I0828 16:03:54.799834 22492 net.cpp:442] res5a_relu -> res5a (in-place)
I0828 16:03:54.799839 22492 net.cpp:190] Setting up res5a_relu
I0828 16:03:54.799841 22492 net.cpp:197] Top shape: 20 2048 7 7 (2007040)
I0828 16:03:54.799844 22492 net.cpp:205] Memory required for data: 4050206800
I0828 16:03:54.799846 22492 layer_factory.hpp:123] Creating layer res5a_fixed
I0828 16:03:54.799849 22492 net.cpp:140] Creating Layer res5a_fixed
I0828 16:03:54.799852 22492 net.cpp:481] res5a_fixed <- res5a
I0828 16:03:54.799855 22492 net.cpp:442] res5a_fixed -> res5a (in-place)
I0828 16:03:54.799880 22492 net.cpp:190] Setting up res5a_fixed
I0828 16:03:54.799885 22492 net.cpp:197] Top shape: 20 2048 7 7 (2007040)
I0828 16:03:54.799886 22492 net.cpp:205] Memory required for data: 4058234960
I0828 16:03:54.799890 22492 layer_factory.hpp:123] Creating layer res5a_res5a_fixed_0_split
I0828 16:03:54.799893 22492 net.cpp:140] Creating Layer res5a_res5a_fixed_0_split
I0828 16:03:54.799896 22492 net.cpp:481] res5a_res5a_fixed_0_split <- res5a
I0828 16:03:54.799899 22492 net.cpp:455] res5a_res5a_fixed_0_split -> res5a_res5a_fixed_0_split_0
I0828 16:03:54.799904 22492 net.cpp:455] res5a_res5a_fixed_0_split -> res5a_res5a_fixed_0_split_1
I0828 16:03:54.799927 22492 net.cpp:190] Setting up res5a_res5a_fixed_0_split
I0828 16:03:54.799932 22492 net.cpp:197] Top shape: 20 2048 7 7 (2007040)
I0828 16:03:54.799934 22492 net.cpp:197] Top shape: 20 2048 7 7 (2007040)
I0828 16:03:54.799937 22492 net.cpp:205] Memory required for data: 4074291280
I0828 16:03:54.799939 22492 layer_factory.hpp:123] Creating layer res5b_branch2a
I0828 16:03:54.799947 22492 net.cpp:140] Creating Layer res5b_branch2a
I0828 16:03:54.799950 22492 net.cpp:481] res5b_branch2a <- res5a_res5a_fixed_0_split_0
I0828 16:03:54.799954 22492 net.cpp:455] res5b_branch2a -> res5b_branch2a
I0828 16:03:54.806113 22492 layer_factory.hpp:123] Creating layer res5b_branch2a
I0828 16:03:54.812340 22492 net.cpp:190] Setting up res5b_branch2a
I0828 16:03:54.812362 22492 net.cpp:197] Top shape: 20 512 7 7 (501760)
I0828 16:03:54.812364 22492 net.cpp:205] Memory required for data: 4076298320
I0828 16:03:54.812371 22492 layer_factory.hpp:123] Creating layer res5b_branch2a_relu
I0828 16:03:54.812393 22492 net.cpp:140] Creating Layer res5b_branch2a_relu
I0828 16:03:54.812400 22492 net.cpp:481] res5b_branch2a_relu <- res5b_branch2a
I0828 16:03:54.812407 22492 net.cpp:442] res5b_branch2a_relu -> res5b_branch2a (in-place)
I0828 16:03:54.812433 22492 net.cpp:190] Setting up res5b_branch2a_relu
I0828 16:03:54.812435 22492 net.cpp:197] Top shape: 20 512 7 7 (501760)
I0828 16:03:54.812438 22492 net.cpp:205] Memory required for data: 4078305360
I0828 16:03:54.812440 22492 layer_factory.hpp:123] Creating layer res5b_branch2a_fixed
I0828 16:03:54.812445 22492 net.cpp:140] Creating Layer res5b_branch2a_fixed
I0828 16:03:54.812448 22492 net.cpp:481] res5b_branch2a_fixed <- res5b_branch2a
I0828 16:03:54.812451 22492 net.cpp:442] res5b_branch2a_fixed -> res5b_branch2a (in-place)
I0828 16:03:54.812481 22492 net.cpp:190] Setting up res5b_branch2a_fixed
I0828 16:03:54.812486 22492 net.cpp:197] Top shape: 20 512 7 7 (501760)
I0828 16:03:54.812489 22492 net.cpp:205] Memory required for data: 4080312400
I0828 16:03:54.812492 22492 layer_factory.hpp:123] Creating layer res5b_branch2b
I0828 16:03:54.812500 22492 net.cpp:140] Creating Layer res5b_branch2b
I0828 16:03:54.812503 22492 net.cpp:481] res5b_branch2b <- res5b_branch2a
I0828 16:03:54.812508 22492 net.cpp:455] res5b_branch2b -> res5b_branch2b
I0828 16:03:54.826632 22492 layer_factory.hpp:123] Creating layer res5b_branch2b
I0828 16:03:54.840642 22492 net.cpp:190] Setting up res5b_branch2b
I0828 16:03:54.840670 22492 net.cpp:197] Top shape: 20 512 7 7 (501760)
I0828 16:03:54.840673 22492 net.cpp:205] Memory required for data: 4082319440
I0828 16:03:54.840680 22492 layer_factory.hpp:123] Creating layer res5b_branch2b_relu
I0828 16:03:54.840704 22492 net.cpp:140] Creating Layer res5b_branch2b_relu
I0828 16:03:54.840710 22492 net.cpp:481] res5b_branch2b_relu <- res5b_branch2b
I0828 16:03:54.840718 22492 net.cpp:442] res5b_branch2b_relu -> res5b_branch2b (in-place)
I0828 16:03:54.840739 22492 net.cpp:190] Setting up res5b_branch2b_relu
I0828 16:03:54.840742 22492 net.cpp:197] Top shape: 20 512 7 7 (501760)
I0828 16:03:54.840745 22492 net.cpp:205] Memory required for data: 4084326480
I0828 16:03:54.840747 22492 layer_factory.hpp:123] Creating layer res5b_branch2b_fixed
I0828 16:03:54.840754 22492 net.cpp:140] Creating Layer res5b_branch2b_fixed
I0828 16:03:54.840756 22492 net.cpp:481] res5b_branch2b_fixed <- res5b_branch2b
I0828 16:03:54.840759 22492 net.cpp:442] res5b_branch2b_fixed -> res5b_branch2b (in-place)
I0828 16:03:54.840801 22492 net.cpp:190] Setting up res5b_branch2b_fixed
I0828 16:03:54.840806 22492 net.cpp:197] Top shape: 20 512 7 7 (501760)
I0828 16:03:54.840808 22492 net.cpp:205] Memory required for data: 4086333520
I0828 16:03:54.840811 22492 layer_factory.hpp:123] Creating layer res5b_branch2c
I0828 16:03:54.840819 22492 net.cpp:140] Creating Layer res5b_branch2c
I0828 16:03:54.840822 22492 net.cpp:481] res5b_branch2c <- res5b_branch2b
I0828 16:03:54.840827 22492 net.cpp:455] res5b_branch2c -> res5b_branch2c
I0828 16:03:54.847069 22492 layer_factory.hpp:123] Creating layer res5b_branch2c
I0828 16:03:54.853291 22492 net.cpp:190] Setting up res5b_branch2c
I0828 16:03:54.853313 22492 net.cpp:197] Top shape: 20 2048 7 7 (2007040)
I0828 16:03:54.853315 22492 net.cpp:205] Memory required for data: 4094361680
I0828 16:03:54.853322 22492 layer_factory.hpp:123] Creating layer res5b_branch2c_fixed
I0828 16:03:54.853344 22492 net.cpp:140] Creating Layer res5b_branch2c_fixed
I0828 16:03:54.853349 22492 net.cpp:481] res5b_branch2c_fixed <- res5b_branch2c
I0828 16:03:54.853355 22492 net.cpp:442] res5b_branch2c_fixed -> res5b_branch2c (in-place)
I0828 16:03:54.853401 22492 net.cpp:190] Setting up res5b_branch2c_fixed
I0828 16:03:54.853406 22492 net.cpp:197] Top shape: 20 2048 7 7 (2007040)
I0828 16:03:54.853410 22492 net.cpp:205] Memory required for data: 4102389840
I0828 16:03:54.853412 22492 layer_factory.hpp:123] Creating layer res5b
I0828 16:03:54.853420 22492 net.cpp:140] Creating Layer res5b
I0828 16:03:54.853423 22492 net.cpp:481] res5b <- res5a_res5a_fixed_0_split_1
I0828 16:03:54.853426 22492 net.cpp:481] res5b <- res5b_branch2c
I0828 16:03:54.853431 22492 net.cpp:455] res5b -> res5b
I0828 16:03:54.853447 22492 net.cpp:190] Setting up res5b
I0828 16:03:54.853451 22492 net.cpp:197] Top shape: 20 2048 7 7 (2007040)
I0828 16:03:54.853454 22492 net.cpp:205] Memory required for data: 4110418000
I0828 16:03:54.853456 22492 layer_factory.hpp:123] Creating layer res5b_relu
I0828 16:03:54.853461 22492 net.cpp:140] Creating Layer res5b_relu
I0828 16:03:54.853464 22492 net.cpp:481] res5b_relu <- res5b
I0828 16:03:54.853468 22492 net.cpp:442] res5b_relu -> res5b (in-place)
I0828 16:03:54.853473 22492 net.cpp:190] Setting up res5b_relu
I0828 16:03:54.853477 22492 net.cpp:197] Top shape: 20 2048 7 7 (2007040)
I0828 16:03:54.853479 22492 net.cpp:205] Memory required for data: 4118446160
I0828 16:03:54.853482 22492 layer_factory.hpp:123] Creating layer res5b_fixed
I0828 16:03:54.853485 22492 net.cpp:140] Creating Layer res5b_fixed
I0828 16:03:54.853488 22492 net.cpp:481] res5b_fixed <- res5b
I0828 16:03:54.853492 22492 net.cpp:442] res5b_fixed -> res5b (in-place)
I0828 16:03:54.853515 22492 net.cpp:190] Setting up res5b_fixed
I0828 16:03:54.853533 22492 net.cpp:197] Top shape: 20 2048 7 7 (2007040)
I0828 16:03:54.853535 22492 net.cpp:205] Memory required for data: 4126474320
I0828 16:03:54.853538 22492 layer_factory.hpp:123] Creating layer res5b_res5b_fixed_0_split
I0828 16:03:54.853557 22492 net.cpp:140] Creating Layer res5b_res5b_fixed_0_split
I0828 16:03:54.853559 22492 net.cpp:481] res5b_res5b_fixed_0_split <- res5b
I0828 16:03:54.853564 22492 net.cpp:455] res5b_res5b_fixed_0_split -> res5b_res5b_fixed_0_split_0
I0828 16:03:54.853569 22492 net.cpp:455] res5b_res5b_fixed_0_split -> res5b_res5b_fixed_0_split_1
I0828 16:03:54.853605 22492 net.cpp:190] Setting up res5b_res5b_fixed_0_split
I0828 16:03:54.853610 22492 net.cpp:197] Top shape: 20 2048 7 7 (2007040)
I0828 16:03:54.853612 22492 net.cpp:197] Top shape: 20 2048 7 7 (2007040)
I0828 16:03:54.853615 22492 net.cpp:205] Memory required for data: 4142530640
I0828 16:03:54.853617 22492 layer_factory.hpp:123] Creating layer res5c_branch2a
I0828 16:03:54.853624 22492 net.cpp:140] Creating Layer res5c_branch2a
I0828 16:03:54.853628 22492 net.cpp:481] res5c_branch2a <- res5b_res5b_fixed_0_split_0
I0828 16:03:54.853632 22492 net.cpp:455] res5c_branch2a -> res5c_branch2a
I0828 16:03:54.859849 22492 layer_factory.hpp:123] Creating layer res5c_branch2a
I0828 16:03:54.866058 22492 net.cpp:190] Setting up res5c_branch2a
I0828 16:03:54.866080 22492 net.cpp:197] Top shape: 20 512 7 7 (501760)
I0828 16:03:54.866082 22492 net.cpp:205] Memory required for data: 4144537680
I0828 16:03:54.866091 22492 layer_factory.hpp:123] Creating layer res5c_branch2a_relu
I0828 16:03:54.866113 22492 net.cpp:140] Creating Layer res5c_branch2a_relu
I0828 16:03:54.866119 22492 net.cpp:481] res5c_branch2a_relu <- res5c_branch2a
I0828 16:03:54.866127 22492 net.cpp:442] res5c_branch2a_relu -> res5c_branch2a (in-place)
I0828 16:03:54.866148 22492 net.cpp:190] Setting up res5c_branch2a_relu
I0828 16:03:54.866153 22492 net.cpp:197] Top shape: 20 512 7 7 (501760)
I0828 16:03:54.866154 22492 net.cpp:205] Memory required for data: 4146544720
I0828 16:03:54.866158 22492 layer_factory.hpp:123] Creating layer res5c_branch2a_fixed
I0828 16:03:54.866163 22492 net.cpp:140] Creating Layer res5c_branch2a_fixed
I0828 16:03:54.866164 22492 net.cpp:481] res5c_branch2a_fixed <- res5c_branch2a
I0828 16:03:54.866168 22492 net.cpp:442] res5c_branch2a_fixed -> res5c_branch2a (in-place)
I0828 16:03:54.866200 22492 net.cpp:190] Setting up res5c_branch2a_fixed
I0828 16:03:54.866205 22492 net.cpp:197] Top shape: 20 512 7 7 (501760)
I0828 16:03:54.866220 22492 net.cpp:205] Memory required for data: 4148551760
I0828 16:03:54.866225 22492 layer_factory.hpp:123] Creating layer res5c_branch2b
I0828 16:03:54.866246 22492 net.cpp:140] Creating Layer res5c_branch2b
I0828 16:03:54.866250 22492 net.cpp:481] res5c_branch2b <- res5c_branch2a
I0828 16:03:54.866255 22492 net.cpp:455] res5c_branch2b -> res5c_branch2b
I0828 16:03:54.880591 22492 layer_factory.hpp:123] Creating layer res5c_branch2b
I0828 16:03:54.894702 22492 net.cpp:190] Setting up res5c_branch2b
I0828 16:03:54.894726 22492 net.cpp:197] Top shape: 20 512 7 7 (501760)
I0828 16:03:54.894729 22492 net.cpp:205] Memory required for data: 4150558800
I0828 16:03:54.894737 22492 layer_factory.hpp:123] Creating layer res5c_branch2b_relu
I0828 16:03:54.894743 22492 net.cpp:140] Creating Layer res5c_branch2b_relu
I0828 16:03:54.894764 22492 net.cpp:481] res5c_branch2b_relu <- res5c_branch2b
I0828 16:03:54.894770 22492 net.cpp:442] res5c_branch2b_relu -> res5c_branch2b (in-place)
I0828 16:03:54.894778 22492 net.cpp:190] Setting up res5c_branch2b_relu
I0828 16:03:54.894796 22492 net.cpp:197] Top shape: 20 512 7 7 (501760)
I0828 16:03:54.894799 22492 net.cpp:205] Memory required for data: 4152565840
I0828 16:03:54.894801 22492 layer_factory.hpp:123] Creating layer res5c_branch2b_fixed
I0828 16:03:54.894806 22492 net.cpp:140] Creating Layer res5c_branch2b_fixed
I0828 16:03:54.894809 22492 net.cpp:481] res5c_branch2b_fixed <- res5c_branch2b
I0828 16:03:54.894814 22492 net.cpp:442] res5c_branch2b_fixed -> res5c_branch2b (in-place)
I0828 16:03:54.894856 22492 net.cpp:190] Setting up res5c_branch2b_fixed
I0828 16:03:54.894861 22492 net.cpp:197] Top shape: 20 512 7 7 (501760)
I0828 16:03:54.894865 22492 net.cpp:205] Memory required for data: 4154572880
I0828 16:03:54.894867 22492 layer_factory.hpp:123] Creating layer res5c_branch2c
I0828 16:03:54.894876 22492 net.cpp:140] Creating Layer res5c_branch2c
I0828 16:03:54.894879 22492 net.cpp:481] res5c_branch2c <- res5c_branch2b
I0828 16:03:54.894908 22492 net.cpp:455] res5c_branch2c -> res5c_branch2c
I0828 16:03:54.901103 22492 layer_factory.hpp:123] Creating layer res5c_branch2c
I0828 16:03:54.907367 22492 net.cpp:190] Setting up res5c_branch2c
I0828 16:03:54.907385 22492 net.cpp:197] Top shape: 20 2048 7 7 (2007040)
I0828 16:03:54.907388 22492 net.cpp:205] Memory required for data: 4162601040
I0828 16:03:54.907394 22492 layer_factory.hpp:123] Creating layer res5c_branch2c_fixed
I0828 16:03:54.907416 22492 net.cpp:140] Creating Layer res5c_branch2c_fixed
I0828 16:03:54.907423 22492 net.cpp:481] res5c_branch2c_fixed <- res5c_branch2c
I0828 16:03:54.907428 22492 net.cpp:442] res5c_branch2c_fixed -> res5c_branch2c (in-place)
I0828 16:03:54.907455 22492 net.cpp:190] Setting up res5c_branch2c_fixed
I0828 16:03:54.907461 22492 net.cpp:197] Top shape: 20 2048 7 7 (2007040)
I0828 16:03:54.907464 22492 net.cpp:205] Memory required for data: 4170629200
I0828 16:03:54.907467 22492 layer_factory.hpp:123] Creating layer res5c
I0828 16:03:54.907471 22492 net.cpp:140] Creating Layer res5c
I0828 16:03:54.907475 22492 net.cpp:481] res5c <- res5b_res5b_fixed_0_split_1
I0828 16:03:54.907479 22492 net.cpp:481] res5c <- res5c_branch2c
I0828 16:03:54.907482 22492 net.cpp:455] res5c -> res5c
I0828 16:03:54.907498 22492 net.cpp:190] Setting up res5c
I0828 16:03:54.907503 22492 net.cpp:197] Top shape: 20 2048 7 7 (2007040)
I0828 16:03:54.907506 22492 net.cpp:205] Memory required for data: 4178657360
I0828 16:03:54.907508 22492 layer_factory.hpp:123] Creating layer res5c_relu
I0828 16:03:54.907513 22492 net.cpp:140] Creating Layer res5c_relu
I0828 16:03:54.907516 22492 net.cpp:481] res5c_relu <- res5c
I0828 16:03:54.907521 22492 net.cpp:442] res5c_relu -> res5c (in-place)
I0828 16:03:54.907526 22492 net.cpp:190] Setting up res5c_relu
I0828 16:03:54.907528 22492 net.cpp:197] Top shape: 20 2048 7 7 (2007040)
I0828 16:03:54.907531 22492 net.cpp:205] Memory required for data: 4186685520
I0828 16:03:54.907533 22492 layer_factory.hpp:123] Creating layer res5c_fixed
I0828 16:03:54.907536 22492 net.cpp:140] Creating Layer res5c_fixed
I0828 16:03:54.907539 22492 net.cpp:481] res5c_fixed <- res5c
I0828 16:03:54.907542 22492 net.cpp:442] res5c_fixed -> res5c (in-place)
I0828 16:03:54.907567 22492 net.cpp:190] Setting up res5c_fixed
I0828 16:03:54.907570 22492 net.cpp:197] Top shape: 20 2048 7 7 (2007040)
I0828 16:03:54.907573 22492 net.cpp:205] Memory required for data: 4194713680
I0828 16:03:54.907575 22492 layer_factory.hpp:123] Creating layer pool5
I0828 16:03:54.907580 22492 net.cpp:140] Creating Layer pool5
I0828 16:03:54.907583 22492 net.cpp:481] pool5 <- res5c
I0828 16:03:54.907588 22492 net.cpp:455] pool5 -> pool5
I0828 16:03:54.907603 22492 net.cpp:190] Setting up pool5
I0828 16:03:54.907608 22492 net.cpp:197] Top shape: 20 2048 1 1 (40960)
I0828 16:03:54.907610 22492 net.cpp:205] Memory required for data: 4194877520
I0828 16:03:54.907613 22492 layer_factory.hpp:123] Creating layer pool5_fixed
I0828 16:03:54.907616 22492 net.cpp:140] Creating Layer pool5_fixed
I0828 16:03:54.907619 22492 net.cpp:481] pool5_fixed <- pool5
I0828 16:03:54.907622 22492 net.cpp:442] pool5_fixed -> pool5 (in-place)
I0828 16:03:54.907644 22492 net.cpp:190] Setting up pool5_fixed
I0828 16:03:54.907649 22492 net.cpp:197] Top shape: 20 2048 1 1 (40960)
I0828 16:03:54.907650 22492 net.cpp:205] Memory required for data: 4195041360
I0828 16:03:54.907654 22492 layer_factory.hpp:123] Creating layer fc1000
I0828 16:03:54.907658 22492 net.cpp:140] Creating Layer fc1000
I0828 16:03:54.907661 22492 net.cpp:481] fc1000 <- pool5
I0828 16:03:54.907665 22492 net.cpp:455] fc1000 -> fc1000
I0828 16:03:54.919625 22492 layer_factory.hpp:123] Creating layer fc1000
I0828 16:03:54.931710 22492 net.cpp:190] Setting up fc1000
I0828 16:03:54.931730 22492 net.cpp:197] Top shape: 20 1000 (20000)
I0828 16:03:54.931733 22492 net.cpp:205] Memory required for data: 4195121360
I0828 16:03:54.931740 22492 layer_factory.hpp:123] Creating layer fc1000_fixed
I0828 16:03:54.931763 22492 net.cpp:140] Creating Layer fc1000_fixed
I0828 16:03:54.931771 22492 net.cpp:481] fc1000_fixed <- fc1000
I0828 16:03:54.931777 22492 net.cpp:442] fc1000_fixed -> fc1000 (in-place)
I0828 16:03:54.931807 22492 net.cpp:190] Setting up fc1000_fixed
I0828 16:03:54.931813 22492 net.cpp:197] Top shape: 20 1000 (20000)
I0828 16:03:54.931814 22492 net.cpp:205] Memory required for data: 4195201360
I0828 16:03:54.931818 22492 layer_factory.hpp:123] Creating layer prob
I0828 16:03:54.931823 22492 net.cpp:140] Creating Layer prob
I0828 16:03:54.931826 22492 net.cpp:481] prob <- fc1000
I0828 16:03:54.931830 22492 net.cpp:455] prob -> prob
I0828 16:03:54.931877 22492 net.cpp:190] Setting up prob
I0828 16:03:54.931882 22492 net.cpp:197] Top shape: 20 1000 (20000)
I0828 16:03:54.931885 22492 net.cpp:205] Memory required for data: 4195281360
I0828 16:03:54.931887 22492 net.cpp:268] prob does not need backward computation.
I0828 16:03:54.931890 22492 net.cpp:268] fc1000_fixed does not need backward computation.
I0828 16:03:54.931893 22492 net.cpp:268] fc1000 does not need backward computation.
I0828 16:03:54.931895 22492 net.cpp:268] pool5_fixed does not need backward computation.
…
